saves/Dobot-v4/none/seed_0/model/actor.pth (torch, 606565 bytes, 6 tensors)

l1.weight f4 [512, 36]
-0.2917084 0.015495177 -0.046462446 -0.66919416 -0.09515299 -0.62715846 -0.43188423 0.2180463
-0.18108329 -0.5347426 0.037569776 0.09206135 -0.028508164 0.21783799 0.007816918 0.7101901
0.28934205 0.4088174 0.2291263 0.8635794 0.28058055 -0.42839882 -0.47884637 0.16008778
0.43011272 0.19313277 -0.369774 0.6363371 0.11886159 -0.059170976 0.44404382 1.0644228
-0.24616234 -0.1614495 -0.81508285 -0.66952235 -0.7274569 0.40526637 0.056846216 0.6445669
-0.8466764 -0.3756515 -0.4288216 0.178288 -0.13218766 0.18357493 0.72473943 0.62107474
-0.24093425 0.20586139 -0.0415093 0.6305845 0.27301413 0.027528606 0.29095215 0.09517073
0.31970456 0.2825735 -0.94254965 0.019980159 -0.4103198 0.15999937 -0.9626044 0.141271
0.10393497 -0.7241187 -0.09111149 0.031457733 -0.25084266 0.09022995 -1.3840088 -0.6468984
0.0027252205 0.15195781 0.2906447 0.5388249 -0.42272714 -0.37703612 0.10594246 -0.002232089
-0.23901595 0.62628394 0.08076781 0.0814415 0.18092069 -0.32331502 0.20116255 -0.15955217
0.3089351 -0.044886447 0.7123688 -0.02551786 0.4980907 0.305558 -1.2667172 -0.12195817
-0.03389098 -0.14032723 0.051810566 -0.43250096 0.7613344 -0.44531998 0.16133139 0.24008657
0.3845479 -0.004683922 -1.32985 -0.82660097 -0.29281384 -0.041785248 -0.23905832 0.08766478
-0.5017076 0.18730995 -0.28384882 -0.15446043 -0.11627998 -0.10678566 0.26873764 -0.10279632
-0.0904165 0.18551509 -0.042971697 0.34577298 0.05228549 -0.026346466 -0.012325595 0.11106285
-0.010363432 0.0137827 0.080309965 0.1543014 -0.23733078 0.08965274 0.045234535 0.38022837
0.0793564 0.1381979 0.1311783 0.25314668 0.18250231 0.34053728 0.20311418 0.603537
-1.0129431 0.12659092 0.21952616 -0.14233984 -0.5143482 -0.8180989 -0.5446912 0.21762551
-0.05818702 -0.18980657 0.7216362 0.26178065 0.7675705 -0.22916345 -0.057418134 -0.30706853
0.0035487618 0.08334172 -0.6408411 0.17166609 0.13466671 0.3022469 -0.3590518 0.019747298
0.3513685 -0.5322417 -0.5147467 -0.1080248 -0.2757179 -0.3216059 -0.3408454 0.034734882
-0.3422782 0.33814445 -0.72412133 -0.90876025 -0.054184895 -0.075604826 -0.101497106 0.051077515
-0.29640397 0.27430296 0.13448666 -0.05594701 -0.30514464 0.15758717 0.033436093 -0.2458877
-0.06426973 0.7576015 -0.34366667 0.048069783 -0.15551177 0.20141585 1.2200637 0.5624159
0.1690706 -0.12161269 -1.1082002 0.047103863 -0.05074623 1.2227031 -0.79349256 0.25971854
0.031798065 0.29134735 1.0522112 0.813454 0.4580118 -0.17423812 -1.1468261 0.3316946
-1.5870134 0.09652149 0.035554696 0.037493642 -0.29502973 0.36179027 0.1362818 0.8338938
-0.0050300313 0.2668817 1.2923443 -0.03317173 -0.7507186 -0.08423181 -0.08100921 0.57704514
-0.39676824 -0.032418653 0.3344578 -0.8073422 -0.22139506 0.1325021 0.27432555 -0.111681625
-0.5295663 -0.32891342 0.16032273 0.1244914 -0.7220713 -0.29191726 0.35146374 -1.1944182
-0.43679294 0.035244033 -0.096466444 -0.09446027 0.13970065 0.19657421 -0.16539606 -0.5436829
00000000: ce5a 95be 7cdf 7d3c 684f 3ebd 4f50 2bbf
00000010: 92df c2bd 758d 20bf ee1f ddbe 8747 5f3e
00000020: e66d 39be e4e4 08bf c4e2 193d a98a bc3d
00000030: f489 e9bc ec10 5f3e 8812 003c 05cf 353f
00000040: a424 943e 8450 d13e 16a0 6a3e 8a13 5d3f
00000050: 41a8 8f3e 1757 dbbe 5a2b f5be 0dee 233e
00000060: bc37 dc3e 99c4 453e 0553 bdbe fde6 223f
00000070: b56d f33d 445d 72bd b659 e33e 023f 883f
00000080: fb11 7cbe 0553 25be 45a9 50bf d165 2bbf
00000090: 9e3a 3abf 137f cf3e 94d7 683d 5602 253f
000000a0: c9bf 58bf 6555 c0be 818e dbbe 2191 363e
000000b0: 345c 07be 11fb 3b3e 8688 393f c1fe 1e3f
000000c0: 78b7 76be 54cd 523e a805 2abd fc6d 213f
000000d0: 82c8 8b3e ac83 e13c aef7 943e dfe8 c23d
000000e0: 51b0 a33e 79ad 903e ef4a 71bf 6ead a33c
000000f0: 7015 d2be e0d6 233e 3e6d 76bf 58a9 103e
00000100: dcdb d43d d85f 39bf a998 babd d3d9 003d
00000110: 736e 80be 7bca b83d 3327 b1bf 229b 25bf
00000120: 9d99 323b d49a 1b3e 62cf 943e 6ef0 093f
00000130: b16f d8be e10a c1be 5cf8 d83d 3d48 12bb
00000140: 99c0 74be 2554 203f 9869 a53d cdca a63d
00000150: 4643 393e 8c89 a5be 8efd 4d3e a561 23be
00000160: be2c 9e3e dada 37bd cd5d 363f d50a d1bc
00000170: bf05 ff3e 1972 9c3e ca23 a2bf 34c5 f9bd
00000180: 45d1 0abd f1b1 0fbe 5137 543d c470 ddbe
00000190: d0e6 423f fb00 e4be 0e34 253e 41d9 753e
000001a0: 76e3 c43e 967b 99bb 8638 aabf 1f9c 53bf
000001b0: b2eb 95be 0227 2bbd b4cb 74be 9889 b33d
000001c0: e96f 00bf 2ece 3f3e a254 91be e02a 1ebe
000001d0: 3324 eebd 71b2 dabd fb97 893e e186 d2bd
000001e0: 492c b9bd abf7 3d3e 1703 30bd 2809 b13e
000001f0: 4f29 563d 8bd4 d7bc 4bf1 49bc eb74 e33d
00000200: 62cb 29bc d5d0 613c 8d79 a43d 3001 1e3e
00000210: d706 73be db9b b73d d947 393d 4bad c23e
00000220: 9c85 a23d c083 0d3e 9b53 063e 719c 813e
00000230: e3e1 3a3e e75a ae3e 2afd 4f3e 6781 1a3f
00000240: 1fa8 81bf 0da1 013e 77cb 603e 89c1 11be
00000250: 53ac 03bf ee6e 51bf e270 0bbf 39d9 5e3e
00000260: 8355 6ebd a75c 42be 26bd 383f 1d08 863e
00000270: 807f 443f d3a9 6abe 472f 6bbd 1638 9dbe
00000280: 5892 683b 10af aa3d 2a0e 24bf 3cc9 2f3e
00000290: 12e6 093e 1bc0 9a3e a3d5 b7be 16c5 a13c
000002a0: 92e6 b33e fe40 08bf 71c6 03bf 1b3c ddbd
000002b0: e62a 8dbe 87a9 a4be 4a83 aebe 2a46 0e3d
000002c0: 173f afbe 4521 ad3e 0460 39bf 83a4 68bf
000002d0: fbf0 5dbd b4d6 9abd b7dd cfbd a836 513d
000002e0: 43c2 97be 7071 8c3e dfb6 093e b128 65bd
000002f0: eb3b 9cbe 885e 213e 49f4 083d fcc9 7bbe
00000300: d99f 83bd 2cf2 413f 14f5 afbe d2e4 443d
00000310: 7a3e 1fbe f53f 4e3e 0c2b 9c3f 7dfa 0f3f
00000320: d820 2d3e 1310 f9bd 81d9 8dbf fbef 403d
00000330: 47db 4fbd 8981 9c3f 5422 4bbf d4f9 843e
00000340: b03e 023d 7b2b 953e dbae 863f 853e 503f
00000350: 8680 ea3e 7a6b 32be 33cb 92bf e0d3 a93e
00000360: 4123 cbbf 0fad c53d cda1 113d ef92 193d
00000370: 230e 97be 933c b93e 758d 0b3e 107a 553f
00000380: f6d2 a4bb b8a4 883e 8a6b a53f 14df 07bd
00000390: 182f 40bf ba81 acbd 28e8 a5bd 3bb9 133f
000003a0: 3525 cbbe 6cc9 04bd 0e3e ab3e faad 4ebf
000003b0: 63b5 62be a1ae 073e 6674 8c3e 56b9 e4bd
000003c0: a891 07bf 5767 a8be a42b 243e 59f5 fe3d
000003d0: aad9 38bf 2e76 95be 0ef3 b33e b2e2 98bf
000003e0: 53a3 dfbe 0c5c 103d 3390 c5bd 6374 c1bd
000003f0: b00d 0f3e c04a 493e 965d 29be cd2e 0bbf

l1.bias f4 [512]
-0.11894727 -0.30537245 -0.22792965 -0.19779053 -0.18039268 -0.08905852 0.16857982 -0.009018673
-0.20929454 -0.25138965 0.02344857 -0.06616371 0.047030013 -0.17290752 -0.28265697 -0.22557208
-0.33609256 -0.09090819 -0.09416818 -0.25617927 -0.15985909 0.17463604 -0.17496122 -0.24195944
-0.038656622 -0.4348796 -0.29343292 -0.29598892 -0.21444178 -0.33796412 -0.2402866 -0.04817793
-0.18830077 -0.18081428 0.06797785 -0.0123680355 -0.29483533 -0.10857904 -0.2304881 -0.31887355
-0.20119394 -0.1635288 0.025447512 -0.14576712 -0.059468158 -0.02499884 -0.12007202 -0.16329935
-0.27757663 -0.24532948 0.024761036 -0.14645024 0.24888165 -0.13426293 -0.38780847 -0.056193646
-0.06232035 -0.022327883 -0.15848869 0.02272714 -0.1363277 -0.11579605 0.06307441 -0.09838114
0.04783823 -0.27433297 -0.11171563 -0.050598584 0.035439402 -0.013085147 -0.14403349 -0.062617816
-0.1362772 0.038020935 -0.3057433 -0.14266239 -0.07295684 -0.29954207 -0.28771052 0.09262845
-0.25554708 -0.036712065 -0.0064550634 -0.11349653 -0.10480739 -0.26729986 -0.10562604 -0.058622465
-0.18027261 -0.13777092 -0.1938082 0.063359484 -0.22454773 -0.22349922 0.037274607 -0.09409548
0.1574231 -0.1760483 -0.14477679 -0.24717495 -0.13219072 -0.14373797 -0.20116787 -0.07146558
0.09718724 -0.061769184 -0.32470167 -0.13643524 -0.32003233 -0.31983724 -0.07058895 -0.17571497
-0.07726404 0.25855646 -0.004576286 -0.1434924 -0.233907 -0.06008945 -0.26610053 -0.32132465
-0.17193894 -0.033999562 -0.075937204 -0.015553693 -0.25778508 -0.0638397 0.06726336 -0.31165504
-0.13837773 -0.270147 -0.054191336 0.1783745 -0.031913124 -0.020546045 -0.08721195 -0.12054018
-0.0056597 0.042455196 -0.11705744 -0.07427847 0.08601412 -0.20220289 -0.2746869 -0.22801962
-0.20137179 0.10862001 -0.1459904 -0.29330972 -0.092628084 -0.19869624 0.06528109 0.028748482
-0.27178234 0.10044349 -0.16910352 -0.15084563 -0.044596687 -0.02724074 -0.112198606 -0.26743728
0.049502134 -0.049133297 0.027024165 -0.048998255 -0.061025042 -0.20162879 -0.039890394 -0.14819306
-0.05511002 -0.16070695 0.019528458 0.04332694 -0.32516515 -0.06872833 -0.11550285 -0.2842645
0.0025465712 -0.16561009 -0.15341051 0.018645665 -0.11396569 0.017258018 -0.17299895 -0.13601972
-0.4060883 -0.18492669 -0.03018747 -0.3522207 -0.051399957 -0.2813047 0.04346482 -0.22971208
-0.39571998 -0.06320811 -0.10712598 -0.1848277 -0.28031793 -0.16504613 -0.13286051 -0.14002743
0.056701925 -0.36709937 -0.09217378 -0.028034689 -0.24510896 -0.2291248 -0.10238083 -0.013542369
-0.21161544 -0.0770943 -0.36145324 -0.33508864 0.11781186 -0.064466715 -0.17324111 -0.13644044
-0.1796918 -0.11856145 -0.15158382 -0.056296147 -0.19860679 -0.28008848 -0.3855765 -0.20209643
0.06941826 -0.11021587 -0.054682758 -0.36557224 -0.28498057 -0.3919265 -0.25290507 -0.049679346
-0.30558917 -0.24017951 -0.0555213 -0.39310282 -0.15955126 -0.08759523 -0.23185118 0.06245005
-0.06426051 -0.3318864 -0.18843302 -0.06795756 -0.29996786 -0.18089357 -0.033803646 0.13773975
0.057464007 -0.20041697 -0.11395909 -0.1509996 -0.036433876 -0.32052422 -0.12880333 -0.53249127
00000000: a09a f3bd c759 9cbe 6466 69be 9a89 4abe
00000010: dcb8 38be 5064 b6bd 30a0 2c3e 0ec3 13bc
00000020: 4f51 56be 25b6 80be 3717 c03c d780 87bd
00000030: 8ba2 403d ab0e 31be 6ab8 90be 5efc 66be
00000040: 5314 acbe 132e babd 3fdb c0bd ee29 83be
00000050: 1ab2 23be cad3 323e 0929 33be 37c4 77be
00000060: 6856 1ebd 8aa8 debe d73c 96be dc8b 97be
00000070: a096 5bbe a209 adbe b10d 76be 3956 45bd
00000080: ebd1 40be 6127 39be f937 8b3d 4da3 4abc
00000090: a8f4 96be b05e debd 1305 6cbe 6543 a3be
000000a0: c905 4ebe 1874 27be 4d77 d03c fa43 15be
000000b0: e294 73bd 5eca ccbc 52e8 f5bd f237 27be
000000c0: 861e 8ebe a737 7bbe a8d7 ca3c 0df7 15be
000000d0: d5da 7e3e 397c 09be d58e c6be 4f2b 66bd
000000e0: a043 7fbd f7e8 b6bc dc4a 22be 442e ba3c
000000f0: 7d99 0bbe 7b26 edbd 282d 813d 0d7c c9bd
00000100: 05f2 433d 5f75 8cbe 2acb e4bd 7640 4fbd
00000110: e828 113d 1663 56bc 847d 13be c53d 80bd
00000120: 408c 0bbe d7bb 1b3d 638a 9cbe 1716 12be
00000130: 656a 95bd 945d 99be cb4e 93be fcb3 bd3d
00000140: 11d7 82be 645f 16bd ff84 d3bb de70 e8bd
00000150: 42a5 d6bd 87db 88be 7752 d8bd 1c1e 70bd
00000160: 6299 38be d213 0dbe a875 46be 9ec2 813d
00000170: d7ef 65be fbdc 64be 42ad 183d 22b5 c0bd
00000180: 8533 213e 0146 34be 5e40 14be 6e1b 7dbe
00000190: 015d 07be 0c30 13be f3fe 4dbe 8c5c 92bd
000001a0: 1b0a c73d af01 7dbd 4c3f a6be aeb5 0bbe
000001b0: 47db a3be b5c1 a3be f090 90bd a0ee 33be
000001c0: 9c3c 9ebd 8361 843e abf4 95bb acef 12be
000001d0: 5185 6fbe 5b20 76bd 543e 88be aa84 a4be
000001e0: c310 30be 2043 0bbd f784 9bbd ebd4 7ebc
000001f0: 68fc 83be 63be 82bd 5fc1 893d 4091 9fbe
00000200: e4b2 0dbe b550 8abe bcf7 5dbd cea7 363e
00000210: 56b7 02bd 2e50 a8bc 2e9c b2bd c5dd f6bd
00000220: 0175 b9bb 80e5 2d3d d0bb efbd 4f1f 98bd
00000230: 2c28 b03d 460e 4fbe c3a3 8cbe fa7d 69be
00000240: 6834 4ebe 2b74 de3d 827e 15be b12c 96be
00000250: cbb3 bdbd 0777 4bbe 18b2 853d f081 eb3c
00000260: 0e27 8bbe 51b5 cd3d 7929 2dbe 4777 1abe
00000270: 04ab 36bd f927 dfbc 62c8 e5bd 8aed 88be
00000280: c0c2 4a3d ff3f 49bd c861 dd3c 65b2 48bd
00000290: 65f5 79bd c777 4ebe 1c64 23bd ecbf 17be
000002a0: 0bbb 61bd 5d90 24be 25fa 9f3c 9777 313d
000002b0: 0c7c a6be 70c1 8cbd c28c ecbd 1e8b 91be
000002c0: 60e4 263b b195 29be a517 1dbe cbbe 983c
000002d0: d866 e9bd b060 8d3c a326 31be c148 0bbe
000002e0: ceea cfbe 6c5d 3dbe b74b f7bc 4656 b4be
000002f0: c388 52bd 2b07 90be 2b08 323d a539 6bbe
00000300: cf9b cabe 4173 81bd de64 dbbd 7943 3dbe
00000310: d585 8fbe da01 29be 960c 08be 5a63 0fbe
00000320: 4740 683d 73f4 bbbe 9bc5 bcbd 01a9 e5bc
00000330: d8fd 7abe b19f 6abe 0aad d1bd d0e0 5dbc
00000340: b8b1 58be 9ee3 9dbd 6610 b9be bd90 abbe
00000350: 5847 f13d 2007 84bd 1e66 31be 0bb7 0bbe
00000360: 2101 38be 58d0 f2bd ca38 1bbe ca96 66bd
00000370: 945f 4bbe c267 8fbe 486a c5be 5ef2 4ebe
00000380: 292b 8e3d dcb8 e1bd 07fb 5fbd 492c bbbe
00000390: f9e8 91be 97aa c8be c67c 81be 927c 4bbd
000003a0: 2f76 9cbe 9ef1 75be 4d6a 63bd c644 c9be
000003b0: 6861 23be 2165 b3bd 656a 6dbe a0cb 7f3d
000003c0: 049b 83bd 04ed a9be 96f4 40be 552d 8bbd
000003d0: 6395 99be 2a3c 39be b175 0abd a60b 0d3e
000003e0: 615f 6b3d 1b3a 4dbe 6263 e9bd a49f 1abe
000003f0: b03b 15bd c01b a4be 05e5 03be 5951 08bf

l2.weight f4 [256, 512]
-0.6193475 -1.0834047 0.00863915 -0.26254874 -0.7518373 -0.32144198 -0.35471046 -0.1358351
-0.6585684 0.12017065 -0.053723056 0.67211056 0.23046857 -0.5063038 0.51813436 -0.5707054
0.6602628 0.3872371 -0.039885327 -0.9658719 0.31951296 -0.06881262 0.012844832 -0.5808515
-0.20601226 -0.33313596 -0.08300199 0.07386765 0.37524807 -0.6860774 -0.096678965 0.3702299
0.17319992 -0.11826836 -0.2741736 0.77925134 -0.038094822 0.057015087 -0.011918409 -0.35436982
-0.14230728 0.6973953 0.007096338 0.17410187 -0.28795284 0.12606412 -0.12308212 0.5014128
-0.6914545 -0.111046374 -0.45606226 -0.825748 -0.50731266 -0.2555536 0.48604837 0.27188116
0.90305126 -0.094987154 0.45157033 -0.12730564 -0.020503743 0.30924514 -0.6868316 0.7559626
-0.69012105 0.40008572 -0.77071154 0.041888896 0.6650132 -0.010474559 0.042815693 -0.10537653
-0.6565554 -0.26940924 -0.46925092 0.14261955 -0.27438205 0.26286668 0.03248221 -0.84277755
0.22073929 0.022222677 0.10205908 0.009684714 0.5413449 0.3622682 1.4115803 1.6160152
0.48219496 1.0853597 0.3525334 0.37525046 1.2071375 0.7098898 0.24840526 0.18891107
0.13810118 0.3753394 -0.7499025 0.45599988 -1.7146865 0.0073161027 0.55781347 0.5596493
0.8221788 -0.10904914 0.6675665 -0.9909671 0.56790274 0.07271645 -0.38001418 -1.0263195
-0.11794901 0.307227 0.72186565 0.3883074 1.2084692 0.037588976 0.7028567 -0.9561706
-0.43327332 0.029852686 0.16063306 0.17708525 0.26937756 0.37794465 0.44019884 -0.5985974
0.59268683 -0.7879691 -0.035407554 -0.43385866 0.50940526 -0.6332283 -0.31156805 -1.8722631
0.04044822 0.5874125 0.73388946 -0.65992373 0.32346928 -0.09973552 -0.60368097 0.28270406
-0.03561672 -0.20301746 0.00076724123 -1.4710364 0.17214935 -0.20939536 0.31405342 0.4307931
-0.07246818 1.5531088 1.246621 -0.2184261 0.007696341 0.18498598 -0.27951846 -0.18951367
0.793617 -0.49928984 -0.104283884 0.7728851 0.7228358 -0.24079965 0.13730414 0.4414763
-0.91486746 -0.15127015 0.05487529 -0.7497027 -0.80747974 -0.01651215 0.09379569 -0.3017237
0.33522764 0.015431832 -0.28741693 0.5800576 0.025160162 0.41271788 -0.15443975 0.2415636
0.40823093 0.43454117 0.51749945 -0.21647245 -0.6936999 -0.270266 0.040370543 -0.8211716
-0.4286891 -0.32794762 -0.2830705 -0.8215228 0.05145506 -0.040284958 0.040437568 1.3455225
-0.5962932 -0.83472306 -0.0025892388 0.71687406 -0.63888526 0.17862388 -0.03617783 -0.3009923
-0.6432856 0.1010265 -0.6833148 -1.0519803 0.22965927 0.11789949 -0.90320724 0.15294603
-0.0004909706 -0.49074486 -0.5605385 -0.42681468 -0.86391723 0.34618762 -1.4385328 -1.5014511
0.2932425 0.8497902 0.033493627 -0.38865814 -0.047260437 0.19888572 0.46847707 -0.53340673
-0.21592414 0.062272698 0.10497247 0.08583345 0.27549142 -0.6997859 -0.4085488 -0.5605572
-0.032055616 0.5523787 0.1108512 -0.026787585 0.65486026 0.36705768 -0.7522378 0.6128835
0.27369064 0.050258614 0.0038060318 0.009787273 -0.30525827 0.07875835 0.11124089 -0.18671593
00000000: 8f8d 1ebf 01ad 8abf 398b 0d3c ca6c 86be
00000010: 6978 40bf 0b94 a4be 9c9c b5be 5b18 0bbe
00000020: f097 28bf 081c f63d b50c 5cbd 700f 2c3f
00000030: f4ff 6b3e 209d 01bf 74a4 043f c019 12bf
00000040: fc06 293f f143 c63e cc5e 23bd 6143 77bf
00000050: 3497 a33e a2ed 8cbd 2173 523c afb2 14bf
00000060: e1f4 52be cc90 aabe f3fc a9bd ec47 973d
00000070: 8420 c03e c5a2 2fbf 9fff c5bd c68e bd3e
00000080: 525b 313e af36 f2bd 7b60 8cbe 047d 473f
00000090: 5109 1cbd a788 693d 6e45 43bc f66f b5be
000000a0: 00b9 11be 8088 323f 6688 e83b c347 323e
000000b0: 8e6e 93be f416 013e 7b12 fcbd 975c 003f
000000c0: 2a03 31bf 486c e3bd fe80 e9be 3964 53bf
000000d0: 3edf 01bf ecd7 82be 55db f83e 0234 8b3e
000000e0: 5e2e 673f a088 c2bd 3a34 e73e 695c 02be
000000f0: 77f7 a7bc 6155 9e3e 32d4 2fbf c486 413f
00000100: c6ab 30bf 09d8 cc3e 5a4d 45bf b193 2b3d
00000110: 4e3e 2a3f 7c9d 2bbc 825f 2f3d a6cf d7bd
00000120: 0414 28bf 02f0 89be a841 f0be dc0a 123e
00000130: ce7b 8cbe 7696 863e 110c 053d 45c0 57bf
00000140: 7b09 623e 550c b63c 5a04 d13d a2ac 1e3c
00000150: 9495 0a3f 387b b93e aaae b43f 96d9 ce3f
00000160: 42e2 f63e 11ed 8a3f 427f b43e d420 c03e
00000170: 7b83 9a3f 57bb 353f f35d 7e3e e771 413e
00000180: 656a 0d3e 7c2c c03e 9cf9 3fbf d178 e93e
00000190: d97a dbbf ebbb ef3b ddcc 0e3f 2d45 0f3f
000001a0: 4f7a 523f 2855 dfbd a3e5 2a3f 05b0 7dbf
000001b0: 1362 113f 5dec 943d 3891 c2be 705e 83bf
000001c0: 408f f1bd db4c 9d3e 30cc 383f 3ad0 c63e
000001d0: 1eaf 9a3f e6f6 193d 6bee 333f 99c7 74bf
000001e0: 00d6 ddbe 9f8d f43c fe7c 243e d655 353e
000001f0: dbeb 893e f681 c13e be61 e13e ae3d 19bf
00000200: 53ba 173f 58b8 49bf 8307 11bd b922 debe
00000210: 6268 023f 401b 22bf d985 9fbe 51a6 efbf
00000220: 08ad 253d aa60 163f 2ee0 3b3f c3f0 28bf
00000230: c49d a53e 2342 ccbd d68a 1abf 96be 903e
00000240: d6e2 11bd cfe3 4fbe b020 493a ec4a bcbf
00000250: eb47 303e bd6b 56be 9ccb a03e ea90 dc3e
00000260: 326a 94bd 45cc c63f 4791 9f3f 17ab 5fbe
00000270: 9631 fc3b f76c 3d3e 0b1d 8fbe df0f 42be
00000280: 7c2a 4b3f eba2 ffbe ca92 d5bd ccdb 453f
00000290: c40b 393f 2f94 76be 7599 0c3e 2e09 e23e
000002a0: c134 6abf 90e6 1abe e9c4 603d 84ec 3fbf
000002b0: feb6 4ebf 7d44 87bc f417 c03d 877b 9abe
000002c0: f5a2 ab3e cbd5 7c3c 5028 93be a87e 143f
000002d0: af1c ce3c c24f d33e 7425 1ebe 735c 773e
000002e0: a503 d13e 2e7c de3e d87a 043f f4aa 5dbe
000002f0: 5196 31bf 4e60 8abe 955b 253d 4d38 52bf
00000300: 237d dbbe c0e8 a7be 9eee 90be 514f 52bf
00000310: 8ac2 523d d701 25bd dda1 253d 153a ac3f
00000320: aca6 18bf 69b0 55bf 38b0 29bb 0f85 373f
00000330: fc8d 23bf 2ee9 363e 342f 14bd aa1b 9abe
00000340: 5dae 24bf fbe6 ce3d b8ed 2ebf 4aa7 86bf
00000350: cd2b 6b3e 4a75 f13d 9738 67bf e29d 1c3e
00000360: 7bb4 00ba e942 fbbe 737f 0fbf 7487 dabe
00000370: ae29 5dbf 813f b13e d821 b8bf 8d2f c0bf
00000380: e223 963e da8b 593f 9d30 093d 33fe c6be
00000390: 2994 41bd b3a8 4b3e 3adc ef3e 588d 08bf
000003a0: 381b 5dbe a811 7f3d cefb d63d 73c9 af3d
000003b0: 360d 8d3e 2b25 33bf 4f2d d1be ad80 0fbf
000003c0: c04c 03bd b168 0d3f f405 e33d a371 dbbc
000003d0: eca4 273f fcee bb3e a892 40bf efe5 1c3f
000003e0: 2e21 8c3e fadb 4d3d 9e6e 793b cc5a 203c
000003f0: d04a 9cbe 0f4c a13d 44d2 e33d 7632 3fbe

l2.bias f4 [256]
-0.5272194 -0.048780423 -0.0063192393 -0.22361736 -0.039418563 -0.21219398 -0.052795157 -0.036717143
-0.16967863 -0.0051109213 0.29980335 0.0732869 -0.06810581 -0.19431551 -0.18461552 -0.16923746
-0.16979456 0.036827717 -0.0019742092 -0.23060276 -0.030652253 0.37920764 -0.0750523 0.27616864
0.13298635 -0.06473246 0.038132463 0.064753875 -0.008316752 0.030680072 0.4045216 -0.23199327
-0.36453804 0.026511649 -0.030330924 -0.025669266 0.17673269 -0.26460642 -0.021775225 -0.22028726
0.17592268 0.107952684 -0.011910413 -0.23070551 0.09355579 -0.13744517 -0.14709651 0.11195155
-0.119009346 -0.07351855 -0.14025617 0.30117795 -0.05668898 0.0045639146 -0.03558935 0.0015163748
-0.071366504 -0.16460569 -0.39920217 -0.29424244 -0.060222726 -0.018221917 -0.010225876 -0.19316542
-0.2507227 -0.6944052 -0.023523595 -0.05396928 -0.013230408 0.06994005 -0.23560463 -0.12516724
0.0055773333 0.00799125 -0.004515405 -0.003368898 0.23864183 -0.043891598 -0.15981656 -0.035489034
-0.009050283 0.08886852 0.20207678 -0.04588137 0.019348526 -0.004410228 -0.046060912 0.15761554
-0.5811523 -0.019891314 -0.43045253 -0.10760909 -0.35499975 -0.05298581 -0.020375196 -0.18519773
0.20230399 -0.014332363 -0.04498069 -0.3491763 0.05451051 0.012078371 0.12877755 0.014990599
-0.16261993 -0.09677564 0.0010479396 -0.027784854 -0.07450875 0.15428331 0.23175861 0.5530278
0.032799166 -0.049912635 0.39191228 0.25005022 0.09885146 -0.0041804244 0.062966414 0.09531264
-0.04253684 0.34592447 -0.34097528 0.405403 0.0036094883 -0.33389202 -0.1098991 -0.044728365
-0.028546123 -0.093271635 0.2780346 0.19667582 0.024810173 -0.340398 -0.015108714 0.014713857
-0.038547635 -0.037730597 0.15321288 0.14658912 -0.032060955 0.006818262 -0.029272327 0.09934487
-0.29272255 0.3419252 -0.014707917 0.006343171 -0.001244385 -0.29462126 0.0027078004 -0.18498804
-0.4970291 -0.01670871 -0.23857708 0.0016034206 -0.13153975 0.21725613 0.28125772 -0.015407135
0.3718143 -0.06621048 -0.028322631 -0.4076122 -0.3013682 0.49105576 -0.05418083 -0.055104263
0.058286306 -0.03628994 -0.052912783 0.47630987 -0.06595446 0.26823765 0.03129415 0.22241278
0.004028951 0.12769769 -0.36823878 0.015391218 -0.011092669 -0.007949427 -0.014790183 0.37612072
-0.13699791 -0.38755178 0.004186671 -0.18663135 0.4475253 0.18233545 -0.025971709 -0.21628249
-0.01073547 -0.2506758 -0.37558147 -0.0037320855 -0.19054133 -0.05153973 -0.27075496 0.020565756
-0.025316536 -0.06263688 -0.040735517 0.3188772 -0.42011017 -0.0050091348 -0.10241584 -0.09285286
-0.0061356025 -0.03443735 -0.46258065 -0.093582384 -0.0688008 -0.14968567 0.0036913955 -0.0024716898
-0.12312351 -0.059940666 -0.34873116 0.032263987 0.2220381 -0.023423817 -0.06106155 0.24847627
0.13444105 -0.31918725 -0.10514544 -0.012666299 -0.020629745 0.119162664 -0.029215936 -0.26421562
0.25781664 -0.041892644 -0.05655086 0.011061143 -0.17868584 -0.05176414 -0.27264896 -0.21562557
-0.05300492 -0.031836256 0.09457329 -0.045880333 -0.051674582 0.2849386 0.19270192 -0.052702874
-0.11306907 0.17731142 -0.43161517 0.2140276 -0.008986663 -0.043166935 -0.05077822 -0.39635918
00000000: daf7 06bf fbcd 47bd 9f11 cfbb f3fb 64be
00000010: 5c75 21bd 6149 59be bc3f 58bd b764 16bd
00000020: 3cc0 2dbe 8479 a7bb d37f 993e 7117 963d
00000030: 0f7b 8bbd a5fa 46be da0b 3dbe 964c 2dbe
00000040: a0de 2dbe a9d8 163d bc61 01bb 2123 6cbe
00000050: 6f1a fbbc 8127 c23e 05b5 99bd fa65 8d3e
00000060: 932d 083e 7492 84bd c930 1c3d ae9d 843d
00000070: fc42 08bc c654 fb3c 751d cf3e a58f 6dbe
00000080: bba4 babe f52e d93c 8f78 f8bc 5a48 d2bc
00000090: 6af9 343e 7e7a 87be f561 b2bc fc92 61be
000000a0: 1325 343e 4c16 dd3d e523 43bc 113e 6cbe
000000b0: 2e9a bf3d 6dbe 0cbe 78a0 16be db46 e53d
000000c0: 2cbb f3bd e590 96bd 509f 0fbe ff33 9a3e
000000d0: b432 68bd e48c 953b 23c6 11bd 18c1 c63a
000000e0: 9a28 92bd 658e 28be 3a64 ccbe f2a6 96be
000000f0: 1bac 76bd 2146 95bc 6f8a 27bc 28cd 45be
00000100: ba5e 80be 8ac4 31bf 8eb4 c0bc e40e 5dbd
00000110: 5ac4 58bc bb3c 8f3d 5742 71be d72b 00be
00000120: 10c2 b63b bbed 023c f6f5 93bb bbc8 5cbb
00000130: 865e 743e adc7 33bd f4a6 23be f35c 11bd
00000140: a347 14bc b300 b63d 37ed 4e3e 1aee 3bbd
00000150: cd80 9e3c ad83 90bb 5eaa 3cbd f865 213e
00000160: 66c6 14bf 1cf3 a2bc 4664 dcbe 2862 dcbd
00000170: 87c2 b5be a607 59bd e2e9 a6bc 79a4 3dbe
00000180: c728 4f3e 4ad2 6abc ac3d 38bd 3cc7 b2be
00000190: 6a46 5f3d 5ce4 453c 43de 033e 219b 753c
000001a0: d785 26be 4f32 c6bd 055b 893a 109d e3bc
000001b0: 0b98 98bd 72fc 1d3e 2152 6d3e 3b93 0d3f
000001c0: 6b58 063d 3171 4cbd baa8 c83e 9506 803e
000001d0: a272 ca3d f1fb 88bb 89f4 803d 4633 c33d
000001e0: 1c3b 2ebd 031d b13e 5094 aebe fb90 cf3e
000001f0: 2a8d 6c3b e5f3 aabe c812 e1bd 1735 37bd
00000200: 8fd9 e9bc 3305 bfbd 8d5a 8e3e 6365 493e
00000210: b43e cb3c a648 aebe 8a8a 77bc 6412 713c
00000220: 20e4 1dbd 668b 1abd d6e3 1c3e 751b 163e
00000230: 5952 03bd ba6b df3b 85cc efbc 5375 cb3d
00000240: bbdf 95be d210 af3e 7af9 70bc 60da cf3b
00000250: a21a a3ba 99d8 96be 5a75 313b 816d 3dbe
00000260: 997a febe b4e0 88bc 8d4d 74be de29 d23a
00000270: 5bb2 06be 6478 5e3e 0301 903e 356e 7cbc
00000280: 725e be3e 5c99 87bd dd04 e8bc 8cb2 d0be
00000290: ef4c 9abe a96b fb3e b8ec 5dbd 02b5 61bd
000002a0: 9fbd 6e3d c3a4 14bd 13bb 58bd e3de f33e
000002b0: 2213 87bd 7256 893e 4b2e 003d 2dc0 633e
000002c0: 4a05 843b 2fc3 023e cb89 bcbe 722b 7c3c
000002d0: 07be 35bc 503e 02bc 8652 72bc e592 c03e
000002e0: 2e49 0cbe 306d c6be 5830 893b 4a1c 3fbe
000002f0: 0922 e53e 25b6 3a3e 9fc2 d4bc 2879 5dbe
00000300: d3e3 2fbc 9458 80be 374c c0be 0196 74bb
00000310: 441d 43be 531b 53bd 65a0 8abe 8479 a83c
00000320: a064 cfbc c447 80bd 49da 26bd df43 a33e
00000330: ae18 d7be ab23 a4bb 65bf d1bd a429 bebd
00000340: 2a0d c9bb 2e0e 0dbd 5fd7 ecbe 1fa8 bfbd
00000350: 6fe7 8cbd 3347 19be 57eb 713b 13fc 21bb
00000360: 2e28 fcbd 5884 75bd e48c b2be 3e27 043d
00000370: f55d 633e 4ee3 bfbc ad1b 7abd 9070 7e3e
00000380: eaaa 093e 836c a3be 7e56 d7bd 4f86 4fbc
00000390: b6ff a8bc 8e0b f43d 4256 efbc 4547 87be
000003a0: 8b00 843e 9f97 2bbd e0a1 67bd cc39 353c
000003b0: 6cf9 36be a306 54bd a598 8bbe f3cc 5cbe
000003c0: b01b 59bd bc66 02bd a4af c13d 04ed 3bbd
000003d0: baa8 53bd 79e3 913e a753 453e f8de 57bd
000003e0: c290 e7bd 2091 353e aafc dcbe 0d2a 5b3e
000003f0: cc3c 13bc d0cf 30bd d3fc 4fbd 97ef cabe

l3.weight f4 [3, 256]
-1.1933348 -0.0343921 -0.004394352 -1.9827325 0.0020020055 -0.64184207 0.052037496 -1.3880467
-0.597008 0.00052056374 1.9336208 -2.4389935 0.003605927 2.9102924 0.89471006 -0.178228
-2.0295887 1.6497724 2.0876703 -3.1618953 0.03102171 -1.0318273 -0.009753595 -2.3363147
-0.89232266 -1.7419661 -0.18455519 2.4909256 -0.017047977 3.4472795 2.583921 1.4753081
-2.8079073 -1.0599813 -0.024252864 -0.023338353 -3.036661 0.79573065 -0.78979564 1.0206393
0.18209423 -2.6389961 -0.021006128 0.16469412 -0.927951 -1.6929169 -0.1026446 -3.030172
2.4287574 -0.002869915 -0.38142526 2.1619005 0.025040433 -1.8647139 -2.2774978 -0.7312001
1.0132222 1.5027504 1.9370284 2.8401365 -0.01475915 0.034789294 0.050531805 1.9044478
-0.66118824 1.7330195 1.3275621 0.0076019918 -0.02944937 -0.4045088 0.6812229 0.8786208
0.6948516 0.009365802 0.027973678 0.29141194 1.1168455 0.0014350915 2.291388 0.0016162541
-0.01746321 -0.1107106 -2.0560408 -0.012968226 1.8101927 0.0036778955 0.030522244 0.7559703
-1.7898228 0.6740842 2.2855783 -1.6450179 -0.91803366 0.02635459 0.34384924 -1.3129781
0.29097292 2.766467 -0.032039642 0.7232545 0.15652257 -0.020198382 0.31349352 0.9538637
0.20252402 -1.6864542 1.435525 0.0042569316 0.021742804 -0.82475126 -0.3335976 1.4016385
1.6410563 -0.039434172 -0.19237012 -1.9251182 0.12731205 -0.0357122 -1.9537404 -2.1328707
-0.0145310145 -0.8293326 -0.10862384 1.5419269 0.691575 2.4246955 -0.6721141 -0.043589927
0.023659226 -1.024114 2.4792209 -0.8084189 -1.368273 -0.6809593 0.0027844415 2.798669
-0.019593704 -0.020062512 -1.1015198 -2.458094 -0.1511381 -0.18552342 2.6970756 1.3926231
-0.97590554 2.8208704 -0.0239625 -0.034499027 0.009843326 -2.2086616 -0.032648545 0.21587302
-1.2540605 -0.4074208 0.87586534 0.005090986 -0.74404144 -0.7340551 2.0490453 -0.0601453
-0.8506319 -0.03851766 0.018673737 -0.065759525 1.261304 -0.11812056 0.8022001 -0.005943004
-1.4039625 -0.030989112 0.019945867 -1.2832401 0.007119115 2.3368094 -0.5749764 0.09597214
-1.2667515 1.3262352 -0.94288075 0.002989375 -0.90749913 -0.024456337 0.056226883 0.029798536
0.2117422 -0.24865294 0.018209765 -0.22529727 0.42654526 0.077879265 -0.0154802175 2.8664966
0.06693756 1.3828158 1.68787 2.41494 1.2147253 0.022850065 0.1257289 0.78181094
0.019991606 0.011656405 -0.01572448 1.3623286 1.5971229 -0.03016162 -1.201349 -1.5991802
0.0008416123 0.7502472 0.6094448 -0.81295025 0.050729934 0.73148006 2.1729972 -1.2110755
-0.6309685 2.1150622 0.10755224 0.9327318 -1.9644849 -0.018845294 2.301505 2.598782
-0.5173287 2.7623732 1.4974221 -0.018161925 -0.030949147 1.382685 -0.014504119 1.0992483
-1.2967203 0.012044643 -1.3960197 -1.6339127 1.339524 -0.033773616 2.5394392 -1.9693105
-0.045482855 0.035943896 -1.1598912 0.039550785 0.24610367 -2.5739427 -2.3549497 1.6756179
-1.2576265 1.9046983 0.8548077 -1.452039 -0.0068451464 0.0072573535 0.8521325 1.0861998
00000000: 32bf 98bf bbde 0cbd 7ffe 8fbb 2eca fdbf
00000010: 1434 033b c34f 24bf 4525 553d 84ab b1bf
00000020: 84d5 18bf 7176 083a e380 f73f 7818 1cc0
00000030: 6b51 6c3b 3b42 3a40 b80b 653f 6781 36be
00000040: c8e4 01c0 be2b d33f 649c 0540 7e5c 4ac0
00000050: 3e21 fe3c eb12 84bf 8bcd 1fbc 2e86 15c0
00000060: 426f 64bf bff8 debf 09fc 3cbe 536b 1f40
00000070: 33a8 8bbc 3aa0 5c40 f65e 2540 e5d6 bc3f
00000080: c1b4 33c0 78ad 87bf f1ad c6bc 1330 bfbc
00000090: a758 42c0 01b5 4b3f 0c30 4abf 4fa4 823f
000000a0: e976 3a3e 50e5 28c0 0b15 acbc 93a5 283e
000000b0: 328e 6dbf 80b1 d8bf 5537 d2bd 57ee 41c0
000000c0: c370 1b40 2f15 3cbb 2c4a c3be 945c 0a40
000000d0: 9821 cd3c f2ae eebf 86c2 11c0 ee2f 3bbf
000000e0: 44b1 813f 205a c03f 8cf0 f73f ccc4 3540
000000f0: 5dd0 71bc 387f 0e3d 70fa 4e3d f2c4 f33f
00000100: a243 29bf 95d3 dd3f 8eed a93f 211a f93b
00000110: ce3f f1bc c71b cfbe a064 2e3f 4bed 603f
00000120: cbe1 313f 0573 193c 0e29 e53c f233 953e
00000130: cbf4 8e3f ae19 bc3a 1aa6 1240 7dd8 d33a
00000140: 010f 8fbc 3dbc e2bd 2c96 03c0 af78 54bc
00000150: 65b4 e73f d908 713b c909 fa3c 4587 413f
00000160: ea18 e5bf c890 2c3f ea46 1240 f28f d2bf
00000170: 4104 6bbf 95e5 d73c 020d b03e ab0f a8bf
00000180: 67fa 943e cc0d 3140 003c 03bd 3527 393f
00000190: 7447 203e 1477 a5bc 3982 a03e 6930 743f
000001a0: 7562 4f3e bbdd d7bf 48bf b73f bb7d 8b3b
000001b0: f71d b23c e622 53bf 4ecd aabe e468 b33f
000001c0: 220e d23f ba85 21bd acfc 44be 466a f6bf
000001d0: 175e 023e f546 12bd 2a14 fabf f480 08c0
000001e0: 7e13 6ebc 244f 54bf 2d76 debd dc5d c53f
000001f0: 0f0b 313f 362e 1b40 ab0f 2cbf 5a8b 32bd
00000200: fed0 c13c 2b16 83bf 8eab 1e40 8bf4 4ebf
00000210: 9223 afbf 5953 2ebf 2d7b 363b 651d 3340
00000220: fa82 a0bc 235a a4bc 9afe 8cbf 6951 1dc0
00000230: f2c3 1abe daf9 3dbe e39c 2c40 7941 b23f
00000240: f2d4 79bf 2489 3440 014d c4bc da4e 0dbd
00000250: e745 213c b65a 0dc0 7bba 05bd d10d 5d3e
00000260: 0e85 a0bf 7699 d0be b638 603f 49d2 a63b
00000270: 8079 3ebf 09eb 3bbf 8f23 0340 eb5a 76bd
00000280: 03c3 59bf b2c4 1dbd aaf9 983c eeac 86bd
00000290: 6972 a13f 31e9 f1bd fc5c 4d3f 88bd c2bb
000002a0: 0bb5 b3bf e1dc fdbc 8465 a33c 3641 a4bf
000002b0: 7747 e93b 498e 1540 a731 13bf 0b8d c43d
000002c0: ea24 a2bf 13c2 a93f a260 71bf 64e9 433b
000002d0: dd51 68bf a858 c8bc 294e 663d 0f1c f43c
000002e0: f3d2 583e e09e 7ebe a52c 953c 54b4 66be
000002f0: 2464 da3e 2a7f 9f3d bda0 7dbc ae74 3740
00000300: 8f16 893d 1c00 b13f 200c d83f 618e 1a40
00000310: 1e7c 9b3f 0f30 bb3c 14bf 003e c324 483f
00000320: 70c5 a33c 82fa 3e3c a0d0 80bc c960 ae3f
00000330: 866e cc3f 8015 f7bc cec5 99bf f0b1 ccbf
00000340: a59f 5c3a 3310 403f 9304 1c3f 821d 50bf
00000350: 31ca 4f3d 4742 3b3f 6312 0b40 8604 9bbf
00000360: 2787 21bf 2e5d 0740 5944 dc3d 83c7 6e3f
00000370: 3e74 fbbf 7261 9abc dc4b 1340 7252 2640
00000380: a76f 04bf b9ca 3040 87ab bf3f 51c8 94bc
00000390: 1189 fdbc d2fb b03f afa2 6dbc 2bb4 8c3f
000003a0: eefa a5bf e556 453c c6b0 b2bf 0d24 d1bf
000003b0: 8675 ab3f 3456 0abd 2c86 2240 5e12 fcbf
000003c0: 3b4c 3abd e839 133d 5177 94bf 0100 223d
000003d0: 9a02 7c3e 7abb 24c0 7fb7 16c0 a67a d63f
000003e0: e8f9 a0bf 27cd f33f add4 5a3f 6adc b9bf
000003f0: 404d e0bb 18cf ed3b 5b25 5a3f 9808 8b3f

l3.bias f4 [3]
-0.0815128 0.23757362 0.027952531
00000000: 2ff0 a6bd 8046 733e b5fc e43c
