saves/Dobot-v4/none/seed_0/model/critic.pth (torch, 610661 bytes, 5 tensors)

l1.weight f4 [512, 39]
00000000: 7443 dc3e e9b1 a83f aacb b93c 020e 2f3e
00000010: 8328 8fbf aaeb e93d 67f8 2d3e 89cf e63c
00000020: 4911 273d 3fc6 dc3e 65ed d0be 08eb 873e
00000030: 873e 43bf b46e 9140 8b6c 373e 75ca 813e
00000040: bc57 84be d667 163d 7079 8ebf e9ef d6bf
00000050: 2487 c53f 5fcd 10bf b0dc 953f aa73 af3c
00000060: 0910 33bf 8eb8 8340 3e6d aebe c624 a83e
00000070: 0264 8e3f ebea 63bc 6449 85bf 7eaa 7fbf
00000080: 98ae 7940 a227 ccbe 76f8 df3f c356 2ebf
00000090: c6a2 b23c cea8 b73b 9f82 053d d739 dd3e
000000a0: 3f5c 563f 701a 62bf 9c7b c9be fdca fbbe
000000b0: e891 283f a6b9 e73e 566b c9be ce49 06bd
000000c0: 5648 693e 1b1c 91be d7f8 87be 74d6 1ebf
000000d0: c927 02bf 36f4 0ebd dc06 2640 ad17 1d40
000000e0: 1a48 22bf 50e0 b03f a93f df3f 5d35 e43c
000000f0: 03ca 903e c093 6540 b9ee 433f 564a 4ebf
00000100: f81f e53d f902 2e3d dc86 db3f b28d 3240
00000110: 31b6 3dc0 43ac 203f b213 1d40 ff2b 73bf
00000120: 8af8 1b3e 507c 8a40 16c8 2b40 2e8f e63c
00000130: edba 553c a1fb 20bb e758 82be ea5f dabd
00000140: 485f 3cbe 74be 9cbd 036d 89bd 947d 9ebc
00000150: df8f 70bd 15f3 9bbb fe93 7abe 5b60 643d
00000160: 0547 ff3d cc05 fcbd cd4a a93d 3e5e 473e
00000170: 7858 a93d ef55 61bd 2d1e 673e 87c6 de3d
00000180: f0b4 023e d3b9 c03e 4630 313d a3b1 953b
00000190: a3c1 ba3e 6dfd d23d 176f 08bd c68e e8bd
000001a0: 5fa2 313e ebaf 0fbe 7fa7 7c3e 2d84 103e
000001b0: 1367 3a3e 5f96 f03d c798 d4bb 1047 913b
000001c0: fc79 383d be96 823e da3d 3ebb de68 603c
000001d0: f0dd 53bd d43b 5cbd 35b2 8d3e 7675 d53d
000001e0: e8b0 743f 1cf3 cd3e 8d41 643f f9b4 2c3f
000001f0: 4490 ae3d 0276 6dbc b3c5 083e dc61 813d
00000200: 2382 99bf c6e7 773f efd9 1340 a7f9 2abf
00000210: 377f 143e 2fcd 853f 29f4 97be d8e1 d13f
00000220: d613 7c40 34ce f03f f500 9e3f 36e8 cc3f
00000230: ead8 fd3e 2466 583f 60e3 e93f 3428 f5bf
00000240: da11 723e 82b2 703f 96f5 443f 7b09 8c3f
00000250: 8df4 7640 6425 0541 eda5 6f3f cbf5 f43f
00000260: ca34 8740 dded 38bd 9d14 733d 8643 183d
00000270: 5172 39be d45c 14be 7cd3 8bbe afdd 9dbd
00000280: 6b6c 94bd 3ee8 8dbb e8cd 33be 1fa9 b73c
00000290: 3530 6fbe fd3e f1bd 2b60 bdbc 3204 81bd
000002a0: 33c8 063d 38aa 8a3d c89f 593e 4ae0 d93b
000002b0: e79c 893e f34d 7e3e 6330 8bbd e8e4 563e
000002c0: 6be5 453e 60b7 d03c 74be 603e 6b2c 693e
000002d0: 32c8 8f3d 0793 1a3e b8d3 143e bdb2 72bd
000002e0: d0b9 1d3e b2af 373c 7cb1 33bd 27db 003e
000002f0: 3966 b53d bfe1 80bc 7fff 213d 65cd 233e
00000300: 6c49 97bd 9c53 553d 48a1 a4bd be9e f13e
00000310: 9212 163e ad4a 81be 133b 31be eb52 7ebf
00000320: ffcb a73e 66fb 2cc0 ba0a 3f3f 7aa8 7abe
00000330: 0838 38bf 725e 82bc 6db0 99be 8182 b53f
00000340: 383f 31c0 fc8d 15bf 1a79 82bf 24a5 68bf
00000350: 71e2 db3e 62ef bcbf 068d a13f acce cc3e
00000360: 83ef bdbf 2cf5 3340 d531 a63f 848c ac3f
00000370: 01f5 58c0 c746 46c0 e100 87bf 8d5f b7bf
00000380: 1462 ba3f 3ebf b7bf 1e79 b83f c0fe fb3f
00000390: bf72 e7bf 47f4 9540 2e26 e840 f9c5 f5bb
000003a0: 1678 e5bb 59a4 a33c 4fda 9abf 6700 993f
000003b0: bbd5 42bf b57c 053f b8e4 e4be 4b04 ba3c
000003c0: a139 e83e 73c0 a03f 084c 4bbe cb1b 173f
000003d0: 997f 583f 4adb 563e 1d4d e63e c47d 3540
000003e0: 108f d13d 2a82 ebbf e9d1 e13f a4a3 a23f
000003f0: 7ed1 52bf 4825 afbf b3d2 5bbe 9d54 6d3d
0.43020213 1.3179294 0.022680122 0.17095187 -1.1184238 0.114219025 0.16989289 0.028175132
0.04078797 0.4312 -0.40806118 0.26546502 -0.76267284 4.5447636 0.179125 0.25349775
-0.25848186 0.03672012 -1.113081 -1.6791965 1.5431867 -0.5656337 1.1707973 0.021417458
-0.6994634 4.1162786 -0.3406772 0.32840556 1.112427 -0.013910989 -1.0413022 -0.99869525
3.9012814 -0.39873987 1.7497699 -0.6810114 0.021806132 0.00560484 0.032595273 0.4320819
0.83734506 -0.8832159 -0.3935212 -0.49178305 0.65847635 0.45258826 -0.39339703 -0.03278523
0.227815 -0.28341755 -0.26557037 -0.6204598 -0.5084196 -0.034900866 2.5941687 2.45457
-0.6339127 1.3818455 1.7441303 0.027857477 0.28279123 3.587143 0.76536137 -0.8058218
0.11187738 0.042483304 1.7150531 2.7898984 -2.964245 0.6276285 2.454327 -0.9498901
0.15231529 4.327675 2.6840873 0.028144445 0.013045055 -0.0024564045 -0.25458452 -0.106628254
-0.18395722 -0.076535136 -0.067102455 -0.01934699 -0.058730956 -0.0047592022 -0.24470517 0.055755954
0.12464718 -0.12305793 0.0826622 0.19469544 0.08268827 -0.055013593 0.22570105 0.1087771
0.12764335 0.37641773 0.043258928 0.004568295 0.36475858 0.103022434 -0.03330907 -0.11355357
0.17347096 -0.14031951 0.2467327 0.14112921 0.18203382 0.11747431 -0.006487939 0.00443352
0.04503821 0.25505632 -0.0029028566 0.013696877 -0.051725328 -0.053767994 0.27675024 0.104227945
0.9558244 0.4022454 0.8916252 0.6746364 0.0852361 -0.014493467 0.13356666 0.06317493
-1.199284 0.96838033 2.3101766 -0.6678719 0.14501654 1.0453242 -0.29678467 1.6397047
3.9387107 1.8812928 1.2344042 1.6008365 0.49579555 0.84530854 1.8272514 -1.9152894
0.23639622 0.9402238 0.76937234 1.0940393 3.8586762 8.321629 0.9361256 1.913751
4.225194 -0.04514872 0.05934583 0.03717377 -0.18110014 -0.14488536 -0.27309787 -0.077082984
-0.072472416 -0.004330664 -0.17559016 0.02241951 -0.23358233 -0.11779592 -0.023117146 -0.06299628
0.03290577 0.06770748 0.21252358 0.006649052 0.2687752 0.24834423 -0.067963384 0.20985758
0.19325797 0.025478065 0.21947652 0.2277085 0.07020606 0.15095149 0.1453389 -0.05925249
0.15402913 0.011211323 -0.043870434 0.125836 0.08857388 -0.015732644 0.0395503 0.1599632
-0.07387051 0.05208169 -0.080385745 0.47191423 0.14655522 -0.25252286 -0.17307691 -0.9934527
0.32772824 -2.7028441 0.7462574 -0.24478331 -0.71960497 -0.015914176 -0.30017415 1.4180452
-2.7694836 -0.58419776 -1.0193207 -0.90876985 0.429462 -1.4760554 1.2621162 0.40001428
-1.4838718 2.811839 1.2983958 1.3480382 -3.3899539 -3.09807 -1.0547143 -1.4326035
1.4561181 -1.4355237 1.4411962 1.9687119 -1.8081893 4.686069 7.2546606 -0.007500407
-0.0070028407 0.019975828 -1.2097872 1.1953248 -0.76107377 0.5214341 -0.4470575 0.022707125
0.45356467 1.2558731 -0.19853222 0.59026784 0.845697 0.2098209 0.44980708 2.8358011
0.10232365 -1.8399098 1.7642184 1.2706189 -0.8235091 -1.3683252 -0.21467094 0.05794202

l1.bias f4 [512]
00000000: 388e 97be d9a4 68be 4355 a7bc 9394 03bc
00000010: a52a 433c 6148 c1be 8c63 18bf 15a0 33bf
00000020: 8041 663d 7f45 56be 550c d9bd 6780 26bf
00000030: 272e 9ebe 60a4 6bbe 02da 53be f8c9 6ebe
00000040: 8fc7 92be ce7a 4bbe 33bb d73d a856 02be
00000050: 21f1 debd 1de5 dabe ff64 8cbc 5cd5 3bbe
00000060: e26e aebe b779 0abf 4c50 bbbe f87a 0ebe
00000070: efd9 8e3d 92be cabe 9adb 45bd 9a6b d5ba
00000080: 3b0e 22bf f3f3 c33c 9c92 0ebf 705c 3ebf
00000090: c74c f7be 0413 82be 2be7 98bd 82e2 053e
000000a0: 0c9e 81be cd81 ffbd 4fbd c4be df6d fcbe
000000b0: 3724 6bbd add9 b0be 70d1 aebe 8d72 a2be
000000c0: c148 16bd 8227 9c3e a799 81bd 53be 2ebe
000000d0: 3e67 ccbe 21c6 4bbf f024 edbe 4713 05bf
000000e0: 582f 00bf 13e3 71be 3262 c4be babe 8abe
000000f0: 4d6f e9be aa1d 0dbc 96fb 8bbd 33cb 703e
00000100: daf6 80bd 14af c3bd 4439 49bc 2ae5 23bf
00000110: 100b c83e 5127 ddbe f757 4fbd c2cd 36be
00000120: 3778 0cbf 2389 bdbe c3a2 36bf a545 c93e
00000130: 027f e2be ef0f 8bbe 5201 e4bc 7c90 79be
00000140: c04e 14be 702c 12bf e62a 5bbf 0ec3 e6bd
00000150: c5a2 f5be 3e05 37bf b13f c7be 0cdb bebe
00000160: c190 9dbe b8c7 3fbf b2f4 8cbe a8e6 5abf
00000170: aaac 6fbe 15b5 50bd 4e09 97bd 630b 9cbd
00000180: 1a00 adbe 6e16 10be 9e4c cdbe a7cd 62be
00000190: 6fe5 31be d043 16bf 0e83 27bf ab18 42be
000001a0: 3ee2 18bf d314 b4be 8ea9 c2be dc29 853d
000001b0: 994a cfbe f0d2 3bbf a384 81be fbba b4be
000001c0: 532d 08bf 7cb8 d6be 9a85 8ebe b654 0cbf
000001d0: cd35 cfbd a1dd b8be 6c50 23be 7df1 67bf
000001e0: a7ed 323c 0991 55bc 0c3a 39be 3c1e fabe
000001f0: b3f7 c4be 2107 073d 1ea0 7ebe c270 c7be
00000200: 9faf 50be 3b6a 06be 7935 3fbe 2fa4 d9be
00000210: aa1a 48be 2fa0 913d 5555 49be d2c7 12be
00000220: 2875 f2bd 0c23 72be 6adc cdbd 56b0 5bbe
00000230: a311 a6be 3273 35be 4bbd 0ebe 4cfa 30be
00000240: b483 71be bf19 b1bd 661b d0bd 4b1b 853e
00000250: 4aa9 c1bd e58f e9bc 561e 0c3d 29e3 95be
00000260: f70b 8bbe 7f77 1fbf 389b 9ebc 000a 05bf
00000270: d131 3abe 847f a3be d767 8ebd 16fd 23be
00000280: 098b 673c 000a 12be a188 f0be 2b2f c8bf
00000290: 059e 8bbe 8285 6abe ee3a 2fbe 2efb b3be
000002a0: f9d8 33be 9681 03bf 8a07 dcbd 6703 7dbe
000002b0: 9ffc 42be a978 2c3c 4d2e 6abf 5937 e4bd
000002c0: 50dd 42be 5434 21bf f771 25be f3f1 69bf
000002d0: b53d 52be b2cb 5bbe 3368 27be 8c11 80be
000002e0: d559 083d 12c2 a7bd 7105 b1be 0f1f f7be
000002f0: ffed fd3d 85e9 b7be b8e0 78bd d8cf 9fbf
00000300: 9fd1 e73e 3d47 413e 67f5 47be 7936 b5bd
00000310: 302f 1d3d 3ab8 9abe 2920 58be b42f d8be
00000320: 4b67 3dbe 203f a7bc 6c26 a2bd 5f91 85bd
00000330: 7665 4fbd 0efc 37bf 529d 9dbd a07a bebd
00000340: 76ad 9dbe 2696 dbbe 93a1 11bd b8b4 babd
00000350: 7ea5 18bf 947e 38be d909 8cbe 1186 86bf
00000360: 518c eebd a8f7 bfbe 4f47 f8be d2e6 54be
00000370: 558b 39be 4940 42be 8022 0abe a9a5 09bf
00000380: f2f4 a13d 0999 e3be 904c 1cbe 0812 97be
00000390: f4c8 65be 990c 1bbe 3ea1 c3be d281 4fbe
000003a0: 0118 d0be 8e98 72bd 81cc e0bc f95c dabe
000003b0: 98d2 8abe c779 89bd 40c7 02bf 9358 e03d
000003c0: cf80 a9bd 8773 c7be b604 a2bd ce2e 023d
000003d0: 7d27 7c3e 69f1 00be 35df 0dbf d299 00bf
000003e0: c077 bbbd 9583 ebbe e8a8 e9be 44ac ed3d
000003f0: 2076 a8be a30a 24bf a1d1 54be 8cc5 cd3e
-0.29600692 -0.22719134 -0.020426398 -0.008031028 0.011912023 -0.37750533 -0.59526896 -0.7016614
0.05621481 -0.20924948 -0.10598055 -0.65039676 -0.30894586 -0.23011923 -0.20688632 -0.23319232
-0.28667876 -0.19871065 0.10533752 -0.12728369 -0.108858354 -0.42752925 -0.017138002 -0.18343109
-0.34068972 -0.5409197 -0.365847 -0.13914096 0.06975161 -0.3959852 -0.04830513 -0.0016282678
-0.63302964 0.023920035 -0.5569246 -0.743598 -0.48300764 -0.25405133 -0.07465967 0.13074687
-0.25315893 -0.124759294 -0.3842568 -0.49302575 -0.057407584 -0.34541073 -0.34144163 -0.3172802
-0.036690477 0.30498892 -0.06328135 -0.1706479 -0.39922518 -0.79599196 -0.46317244 -0.5198254
-0.5007224 -0.23621778 -0.38356167 -0.27098638 -0.45592728 -0.0086130295 -0.068350956 0.23515014
-0.06297083 -0.09554878 -0.01228172 -0.6402155 0.3907094 -0.4319406 -0.050621 -0.17851928
-0.54870933 -0.3701869 -0.71342105 0.39310947 -0.44237524 -0.27160594 -0.02783266 -0.24371523
-0.14483166 -0.57099056 -0.8561233 -0.112676725 -0.47975746 -0.71492374 -0.3891578 -0.37276495
-0.307745 -0.7491412 -0.27530438 -0.85508204 -0.2340571 -0.050953943 -0.073748216 -0.07619359
-0.3378914 -0.14071056 -0.40097517 -0.22148763 -0.17372678 -0.58697224 -0.6543435 -0.18954723
-0.5972022 -0.35172138 -0.38019985 0.06502125 -0.404866 -0.7336874 -0.25296506 -0.35298905
-0.5319416 -0.41937625 -0.27836305 -0.5481676 -0.101176836 -0.3610659 -0.15948647 -0.90602857
0.010920919 -0.013035067 -0.1808855 -0.48851192 -0.3847023 0.032965783 -0.24865767 -0.38953215
-0.20379494 -0.13126461 -0.18672742 -0.42508075 -0.19541422 0.07110631 -0.19661458 -0.14334038
-0.11838752 -0.23646182 -0.10051806 -0.21453986 -0.3243533 -0.17719725 -0.13939397 -0.1728298
-0.23585397 -0.08647489 -0.10161476 0.25997385 -0.094561175 -0.028510997 0.034208618 -0.29274872
-0.27157566 -0.6229171 -0.019361123 -0.51968384 -0.18183066 -0.31933224 -0.069534 -0.16014513
0.01413227 -0.14261627 -0.4697924 -1.5639395 -0.27268997 -0.22902492 -0.17112324 -0.35152572
-0.17563237 -0.5136961 -0.107436255 -0.24708329 -0.1904168 0.0105268145 -0.914769 -0.11143369
-0.19029737 -0.6297047 -0.16156755 -0.9138481 -0.20531352 -0.21464422 -0.16348343 -0.25013387
0.033288796 -0.08191313 -0.34574464 -0.48265883 0.1239891 -0.3592035 -0.060761184 -1.2485304
0.45277116 0.18874831 -0.19527207 -0.088482805 0.03837508 -0.3021868 -0.21106018 -0.42223895
-0.18496434 -0.020415843 -0.07917485 -0.06521868 -0.05063387 -0.7186898 -0.07696022 -0.093007326
-0.30796403 -0.42887992 -0.03555448 -0.091165006 -0.5962752 -0.18017036 -0.27351263 -1.0509664
-0.11647857 -0.37493634 -0.48491904 -0.20791176 -0.18119557 -0.18969835 -0.13489723 -0.537684
0.07908048 -0.44452694 -0.15263581 -0.29505944 -0.22439939 -0.15141524 -0.38208956 -0.20264366
-0.40643314 -0.05922752 -0.027441265 -0.42649058 -0.27113795 -0.0671268 -0.5108528 0.10954394
-0.082765214 -0.38955328 -0.07911055 0.031782918 0.24624439 -0.1259209 -0.5541871 -0.5023471
-0.091537 -0.45998827 -0.45636678 0.11605123 -0.32902622 -0.6407873 -0.20783092 0.4018978

l2.weight f4 [256, 512]
00000000: 46ab b1bc 4ffb 0b3d 344d 42bd d31c 9fbd
00000010: 248c aabc 9658 0fbc 0277 163d fe01 89bb
00000020: 2dd7 ee3c 9c4e 0e3c ca76 4abd 8e24 bfbc
00000030: babb 0fbd 502f 4ebc 2599 6aba 623d b93b
00000040: b6ab ee3c 75ea 91bc db41 43bd 0554 b43b
00000050: 9d62 823b 335b b03c 7106 7fbb 583c 47bb
00000060: 0aa7 46bd 0fe7 b73b 43d5 9e3b 4907 06bd
00000070: 85a0 3abd ce87 033c 92c6 acb9 30b2 c2bb
00000080: d315 d13c 518a 5c3b cca8 17bd 03a6 853c
00000090: 8c9b 8abd da97 58bc be4f 123d b6ea 1cbd
000000a0: 030d 2f3d b8f6 35bc de28 8d3c cb61 14bc
000000b0: d4f7 cabc 7e37 8d3c 8313 edba b173 27bd
000000c0: e0f0 00bd 221b 05bb ef71 0f3d 99a1 8cbc
000000d0: f899 013d 4f86 20bd d8bf 80bd 36ce a8bc
000000e0: 2509 53bc 3903 4fbc e9b4 043d a3a7 ffbb
000000f0: eb79 0fbb cccb 76bb e869 f53a 74b3 33bc
00000100: fb6e e03b 59a7 51bb fc58 ccbc 84ed 0a3b
00000110: cead 0abd 2eeb 26bd 55dd 55bc 71ce c83c
00000120: 517a 89bc d794 90bc b961 42bd 45c9 85bc
00000130: 5e9e c73c 9216 023d 1c21 2d3d 5a8f 853b
00000140: e1ea ab3c e430 72ba b9dc 66bc 1586 71bb
00000150: 6c33 50bc 1474 173b 64a4 913c 9333 2d3b
00000160: e71a c8bc 5029 273c 034b 9e3c 596a 94bc
00000170: 74b3 8cba 8379 94bc 7233 9dbc d6a4 2ebd
00000180: a4ee 21bd 8893 033d 1726 8cbc 3694 cebc
00000190: 6cc4 a23c 6578 cc3c c78c 7fbc 7e45 313c
000001a0: 6ef4 79bd 02a7 203d 82fd 26bd 829f e5bb
000001b0: 4a49 04bb 0b24 2bbc 5b85 683c 81b9 113c
000001c0: c83b 293b 045f 9bbc f7d5 8fbc b170 7fbc
000001d0: 343c f7bc 7d3b 763c 18d5 18bd be45 c5bc
000001e0: 2857 1dbd 17af ee3c d61c 5e3c c6c3 a2bd
000001f0: e32f 69bc ce56 ef3c 2c65 293d f4e6 cb3c
00000200: 9d97 663c 4b73 c33c ee32 96ba 9e05 8539
00000210: f600 6ebc ffbb 02bd 5501 b4bc edc0 36bd
00000220: a1c6 f23c a854 1cbd fc33 e9bc 7350 07bc
00000230: 8ac0 7b3c 3573 9c3c f92e 0cbd d0ec 9a3b
00000240: e2de b93c 3eae 34bd 1e48 2f3d 126e 73bd
00000250: 5feb 1a3b acc8 10bd 53e1 063d 9a73 b9bc
00000260: 19c7 9f3b 0d5d f0bc 8849 2cbd b92b b33c
00000270: 8a24 2a3c a33a 013a a0a7 bebb 69b6 fabc
00000280: ea81 bd3c 5a81 83bc 8151 c5bb 02c9 1b3d
00000290: 8da4 16bd 136d 863c 7410 bbbc 5202 f23c
000002a0: 74d5 e53c d966 d1bc 1eee f0bc b923 24bc
000002b0: 3f32 05bd bfd0 923c 6a51 e63c a552 4ebc
000002c0: 93a9 0bbd 4172 fbbc 2a96 81bc 64dd 08bd
000002d0: deff 093d f5ed 1abd be5f c93c 0325 173c
000002e0: ff95 553c 70d9 02bc 8932 1ebd c573 b03c
000002f0: fa19 a6bd 39f3 28bd 0cca 16bc 272e c7bc
00000300: ab8e c9bc ae18 02bb 27e8 7f3c 5ee2 25bd
00000310: a467 f5bc 7718 fd3b bd23 14bd 42c0 7abd
00000320: 1fa7 f73c c63f 83bc 2927 973c 5dc5 0f3b
00000330: b908 88bc 01f2 fd3c 8096 f3bc 3774 193c
00000340: ddf1 75bb 3fee bebc 9f22 263c 3d0e 1dbd
00000350: c34b 953c 6db0 1f3d 7f12 3bbd d8cd 3abd
00000360: 411b aa3c 99a5 e33c 7007 08bd d856 243c
00000370: 68ad 2fbd a260 25bd bff0 193d 2f1e 07bc
00000380: 583d 28bc 2e3c 3abd 2ca2 b9bc a9b3 00bc
00000390: 42c8 acbb 4977 9abc ee4c 96bc 734d 07bb
000003a0: cb3f 0739 4dbf eabb c4ae a6bb 8bf0 efbc
000003b0: a99d 193d e1bb 36bd 4c37 96bc 12c6 023d
000003c0: 67d7 8b3c 77a8 903c 0b30 083c 699b 9fbb
000003d0: 388c 41bd 05a5 533c ccd6 ae3c 004d fabc
000003e0: a300 e83c 81c5 29bd 280b bc3c 5242 993c
000003f0: 0969 e4bc 1808 cdbc c7f7 3dbd fddb f3bc
-0.021688115 0.034175213 -0.047436908 -0.0776917 -0.020818777 -0.008749148 0.03673459 -0.0041811457
0.029155338 0.008685734 -0.049429692 -0.02333286 -0.03509114 -0.012584522 -0.0008949212 0.0056530694
0.029134613 -0.017811993 -0.047670227 0.00550318 0.003979041 0.021527862 -0.0038913751 -0.0030400958
-0.048499145 0.005612261 0.0048472 -0.03272179 -0.04556324 0.008027984 -0.00032954343 -0.0059416518
0.025523102 0.003365178 -0.03702621 0.016314512 -0.067679495 -0.013219798 0.03572058 -0.038309775
0.04273702 -0.011106186 0.017231401 -0.009056519 -0.024776377 0.017238375 -0.001808748 -0.040881816
-0.031479716 -0.0020310362 0.035020765 -0.0171669 0.031640977 -0.039190587 -0.06286591 -0.020606142
-0.012880598 -0.012635046 0.032399092 -0.0078019663 -0.0021892737 -0.0037658093 0.0018723579 -0.010968078
0.0068491674 -0.0031990616 -0.024944775 0.00211987 -0.03385716 -0.04075163 -0.013053258 0.024512501
-0.016781958 -0.017649097 -0.047456477 -0.016331324 0.024367508 0.031759806 0.042267904 0.0040759267
0.020986022 -0.00092388527 -0.01409071 -0.00368536 -0.012707572 0.002310996 0.017778583 0.0026428446
-0.02442689 0.010202721 0.019322878 -0.018117117 -0.0010734634 -0.018124348 -0.01918957 -0.04263767
-0.039534226 0.03212312 -0.017108006 -0.025217157 0.019869052 0.024959752 -0.015597529 0.010819791
-0.061024122 0.03922177 -0.040769108 -0.00700754 -0.0020185285 -0.010445605 0.014191951 0.008894325
0.0025822986 -0.018966205 -0.017558081 -0.015590833 -0.030180074 0.015028832 -0.037312597 -0.024081107
-0.038413197 0.029136224 0.01355668 -0.07947497 -0.0142326085 0.029216196 0.04135625 0.0248904
0.014074233 0.023858687 -0.001145927 0.00025371922 -0.014526596 -0.03191757 -0.021973291 -0.044617582
0.02963573 -0.038166672 -0.02846717 -0.008258927 0.015365729 0.019097904 -0.034224484 0.0047279373
0.022689287 -0.044111483 0.042793386 -0.059431143 0.0023638827 -0.035347626 0.03292973 -0.022638131
0.004876029 -0.029341245 -0.042062312 0.021871435 0.010384688 0.0004929697 -0.0058183223 -0.030604558
0.023133237 -0.01605289 -0.006021679 0.038033493 -0.03677802 0.016409433 -0.022834994 0.029542122
0.028055884 -0.025561737 -0.029410418 -0.010018283 -0.03251862 0.017921804 0.028114993 -0.012592946
-0.034097265 -0.030694129 -0.015818674 -0.03341426 0.03369128 -0.03782459 0.024581786 0.009225133
0.01303625 -0.007986411 -0.038622413 0.021539578 -0.081104234 -0.04124758 -0.009203445 -0.024314
-0.024604162 -0.0019851136 0.015619314 -0.040499084 -0.029956646 0.0077238637 -0.036166895 -0.061218508
0.030231057 -0.01602162 0.01845129 0.0021937706 -0.016605722 0.030999186 -0.02973485 0.009366087
-0.0037528195 -0.023306964 0.01014009 -0.038343657 0.018224603 0.038986612 -0.045671936 -0.045606464
0.020764949 0.027788924 -0.033210218 0.010030471 -0.042889982 -0.04037536 0.03758311 -0.008246942
-0.010268532 -0.045467548 -0.022660337 -0.007855334 -0.005272896 -0.018855708 -0.01834723 -0.0020645529
0.00012898368 -0.007163918 -0.0050867517 -0.029289505 0.037503872 -0.04461277 -0.018336914 0.031927176
0.017070485 0.017658455 0.008312236 -0.0048708213 -0.047252864 0.012917762 0.021342658 -0.030554295
0.028320616 -0.04144812 0.022954538 0.018708382 -0.027882116 -0.025028273 -0.046378877 -0.029767985

l2.bias f4 [256]
00000000: 3473 15bd a12a 80bd 48c1 08bb 0f7c febb
00000010: 1485 053c 196b 15bd f4c1 e53c fe4b c2bc
00000020: f78a 06bd d98f 16bd 6681 ca3c e610 ddbc
00000030: 5193 54bf 734b 96bc 3213 0b3d fdaf 05be
00000040: 7127 e6bc b027 51be a397 a9bc 63f0 6ebd
00000050: 01e4 933e 30bd 61bd 1f38 543f 80ad 3abd
00000060: 003f 40bd 0c2d 1dbc 7d9e 51bc 3262 0bbd
00000070: 4f76 1fbd c57a 073f 6c9c bfbc 7ec6 80bd
00000080: b9f9 82bd d8fc c03e 2e07 01bc 8ad8 20bd
00000090: 370a abbd 021d 7abd fc92 1cbd 4e20 38bd
000000a0: c55b 82bd 3863 f2bc be12 41bc 6112 83bd
000000b0: bfd3 91bd c574 1fbd d9d5 e9bd d8e8 edbb
000000c0: c433 c2bc 4329 5d3f 8205 aabd 6113 52bd
000000d0: 7585 39bc 6e11 77bd d336 46bd 4506 c4bc
000000e0: 5ea7 ae3f 898a dfbe 7731 58bc 1968 cebb
000000f0: 79f4 1cbd 1524 6cbb f103 dfbc 97e2 1d40
00000100: 300d 00bd 48a0 bc3e f29a ca3e 467d 9abb
00000110: 94ae 9dba bc40 91bd 3640 f7bc d19d 4bbd
00000120: 4817 b3bc 77af 393e cde0 22bd 285e 00bc
00000130: 5bcb 23bd 5854 1abd ceaa d33e 17dc 06bd
00000140: 9eef a13b 9809 033d ee0b 643f 19ac 433f
00000150: 0f77 0640 0f07 523b efab 1cbd 4f2f 37bd
00000160: 5a65 c7bc e282 cebc e605 013c fcfe 71bd
00000170: 8798 cbbb 0503 7a3c 86a5 39bc 1532 f9bb
00000180: 7c5f 383c 64ea 9c3c 027c bcbc a3c7 86bb
00000190: b6dd 11bd b00f 2cbd d8d1 75bc 5467 223f
000001a0: 92fe f4bb 388d 6ebd 5e5b f3bb 74ab 7fbd
000001b0: c71d 96bd 56bc 1c3b 7c3a 51bd 661c e93f
000001c0: eb9f 963b 6438 44bd f837 09bd 6828 6fbd
000001d0: 3c5b d13e 0493 88bc b646 dabc 2912 063d
000001e0: b5eb 3abc 79b3 223f c484 25be 3e4b 6dbd
000001f0: 7823 c5bd 394e a03e 8ba3 96bd 56e0 b2bd
00000200: 2191 aabc 5416 70be 6014 333d f8ff 1d3e
00000210: 18df 83bd aa1b d7bb 0670 41bd 84fa 223f
00000220: 26ee 0cbf 2aed 7dba 417b 963c a2b7 a53c
00000230: 9b51 b6bc ae44 03bd 58a7 75bd a8ea 9ebd
00000240: 91fe 923c 3b34 26bd 76a8 423c 2f59 c4bd
00000250: 7e4c 8bbc 930d 29bd dd37 a6bd 05eb b73b
00000260: 48e5 0ebe 5755 023f b9ea 803d 8590 dabc
00000270: 70b9 b23a c19d 09bd a34d 9fbc b546 b43e
00000280: 5373 d3bb 85c4 a43b 248b 4fbd 9514 22bb
00000290: e09b c43e ec23 b0bd 63cf 02bd 9d86 d8bc
000002a0: 0970 25bc 56a9 d8bc 636e 80bd b120 1fbd
000002b0: f721 59bd 9720 8fb9 b7dd ddbc ad6e 47bd
000002c0: ddc7 3340 9445 38bd 9acf 76bd 6a75 b4bc
000002d0: 2ab8 9abd aace 6cbd 4cb2 4cbd a481 cfbe
000002e0: 9cc6 44bd c434 3ebd 14e8 0ebd 0fc4 0abf
000002f0: a54a 333f 4eee 8cbd 0c3c 60bd 572f 86bc
00000300: 4dfc ffbb 813a 2840 4349 46bd 53aa fd3d
00000310: 4b4e a9bd 380c 81bd 4126 c3bc 9400 20bd
00000320: ef5a 94bc 70e3 b4bd 1c8b b93b c6ce 5c3f
00000330: 71d3 463f de1b 893b 2016 72bd 00b3 263d
00000340: 8b76 c839 c643 23bc 286c 3140 f43e 89bc
00000350: 5eec 403f 1b7c e53b b4b8 593e c0f9 4b3f
00000360: 920c 79bc 0b8a 65bd f1dc 31bd 6364 8fbd
00000370: e358 c8bd 783a efbb 64ab abbd 4235 0f40
00000380: b9dd 803b d214 1ebd f253 a4bc d69e 8dbd
00000390: f436 98bd 746d edbc c209 13bd 60a8 f8bd
000003a0: e505 75bd 9356 0bbd 804b 33bd 99b1 d4bb
000003b0: 0835 be3f 8f95 18bd 491d 64bd 4c0b 2fbc
000003c0: 5463 81bf 7628 04bd afc3 9c3b 9900 50be
000003d0: 2cbf 043d 0212 3bbf cd24 c1bd e3f1 80bd
000003e0: a176 7e3a 2209 81bd ef7b c53e 8db1 a8bd
000003f0: 1cd7 40bd eb7e ea3e 7840 19bd 374e 563e
-0.03648682 -0.06258131 -0.0020867158 -0.007766254 0.008149404 -0.03647909 0.028046586 -0.023717877
-0.03284737 -0.036758278 0.024719905 -0.026985597 -0.83037287 -0.018346524 0.033953853 -0.13055415
-0.028094979 -0.20425296 -0.020702189 -0.05833472 0.2888489 -0.055112064 0.82898134 -0.04557562
-0.04693508 -0.00959326 -0.012794134 -0.034029193 -0.038931187 0.52921706 -0.023390017 -0.062878594
-0.06395287 0.37692904 -0.007875247 -0.039269008 -0.08351558 -0.06106282 -0.038226113 -0.044952683
-0.0636516 -0.029588327 -0.011784254 -0.0639999 -0.071204655 -0.03892972 -0.11417741 -0.007260423
-0.023706324 0.86391085 -0.08301832 -0.051288012 -0.011323323 -0.060319357 -0.04839213 -0.02392877
1.3644826 -0.4366038 -0.013195387 -0.0062990305 -0.038319085 -0.0036032249 -0.02722356 2.466955
-0.031262577 0.36841035 0.3957134 -0.004714641 -0.0012030178 -0.07092425 -0.030181985 -0.049711052
-0.021861687 0.18133341 -0.039765168 -0.007834949 -0.039988857 -0.037678093 0.4134125 -0.032924738
0.0049418947 0.03199157 0.89080703 0.76434475 2.1010168 0.0032047664 -0.038249906 -0.04472285
-0.02434032 -0.025208894 0.007874941 -0.059081063 -0.006213251 0.015259509 -0.011330968 -0.007604847
0.011253234 0.019154735 -0.02300835 -0.004113154 -0.03561183 -0.04200715 -0.015003644 0.63438916
-0.007476636 -0.058240145 -0.0074266633 -0.06241937 -0.07329898 0.0023915968 -0.051081166 1.8211792
0.0045967004 -0.04790534 -0.03350064 -0.058388144 0.4088992 -0.016671665 -0.026645046 0.032732163
-0.011408736 0.63555104 -0.16163927 -0.057933085 -0.09625906 0.3130968 -0.07355412 -0.08734195
-0.020821156 -0.23446018 0.043720603 0.15429676 -0.06439036 -0.006564577 -0.047225975 0.63663507
-0.55050886 -0.0009686524 0.018369319 0.020229165 -0.02225571 -0.03204792 -0.059974045 -0.07759601
0.017943652 -0.040577155 0.0118809845 -0.09587323 -0.017004248 -0.04127271 -0.08116124 0.0056127333
-0.13954651 0.5091147 0.0629477 -0.02668024 0.0013635587 -0.03359771 -0.0194462 0.35210195
-0.0064529567 0.0050283098 -0.050669804 -0.0024731506 0.38400173 -0.086006016 -0.03193606 -0.026431376
-0.010097512 -0.026447933 -0.062710546 -0.038849536 -0.053010907 -0.00027299367 -0.027083261 -0.048689533
2.8090737 -0.04498823 -0.060256578 -0.022028644 -0.07554658 -0.057814278 -0.049974725 -0.40528595
-0.04804097 -0.04643704 -0.034889296 -0.5420541 0.70035774 -0.068813905 -0.054744765 -0.016379995
-0.007812059 2.6285708 -0.04840971 0.123860024 -0.08266886 -0.06301159 -0.023821952 -0.03906305
-0.018109767 -0.08832443 0.005662335 0.8625301 0.77666384 0.00418423 -0.05910313 0.04069805
0.00038235294 -0.009964889 2.7722263 -0.016753651 0.7536067 0.00700332 0.21261865 0.79677963
-0.015200751 -0.05603985 -0.043423597 -0.07001569 -0.09782579 -0.007300671 -0.083822995 2.2376256
0.0039326814 -0.038594075 -0.02005956 -0.06915061 -0.074323565 -0.028982855 -0.035897978 -0.1214149
-0.059820075 -0.03401811 -0.043773174 -0.006490898 1.4859934 -0.037252005 -0.05569199 -0.010683846
-1.0108438 -0.03226515 0.0047840695 -0.20312728 0.03240888 -0.7307435 -0.09430847 -0.06296136
0.0009707008 -0.0630057 0.38571116 -0.0823699 -0.047080144 0.45799956 -0.037414998 0.20928274

l3.weight f4 [1, 256]
00000000: d543 ecbc fd61 cd3c 4d97 4a3c 0a7a 15bb
00000010: 85f2 01bd be69 013b 2766 acbb eb67 9cbc
00000020: 8c9a f63c 8378 fabc 333e f7bb 7531 d13b
00000030: 6e1b d33e a6b9 993b 5d18 d4bb 2644 b4bf
00000040: 5258 fabb 963a b6c0 3f4a 413c 4271 043d
00000050: 7d28 8fc0 12d1 94bc d46e a0c0 fa55 edbc
00000060: ed6c 253c a67b bbbc 6a35 aabb 03f6 80bc
00000070: eba3 77bb f5f4 86c0 c8d1 51be c967 8c3c
00000080: aa57 bebc f0bc 5ec0 e4ba c53c eade 213c
00000090: d2c7 83be e9b6 a7ba 9672 88bb 65a1 bd3c
000000a0: 1bb0 49bb f8a7 82bc c57d ee3c 760e d1bc
000000b0: 57dd f43b 10d4 f53c 1ed7 f9bc aa2d e8bc
000000c0: 6b4f 963c ef56 6fbf 0eca f13a 45ed 543a
000000d0: 32b4 46bb fd13 463c 519b 063c f4e3 45bb
000000e0: 3fbb a3bf b7af 583f 6646 993c a576 8dc0
000000f0: d6f8 913c 8f47 6ebc bd13 2abd 5ae7 e6be
00000100: 6ba9 b23c 9bcc 3ac0 528f dbc0 e979 e53c
00000110: df6f 493c b158 5dbf 1194 f0bc 8df4 eb3c
00000120: 15c1 84bc 5a52 afc0 e8dd 713c 12c6 ca3c
00000130: 5901 adbc d9dd f1bc 140a ebc0 b300 ee3a
00000140: 0863 ec3c f7c2 fcbd e34b 72c0 cf95 ecbf
00000150: 8db2 09bf d6c8 c13c fbea a5bc 75b4 f9bb
00000160: e760 acbc fac6 373d 3522 cabc df85 383c
00000170: 1508 c93c c4ef 90bc f5d7 ab3b e7a8 1ebc
00000180: 9826 223a 1686 473b 699a b4bb e5fb 8abb
00000190: d20f 6bbc c02a f3bc af5f 353c 496d 59c0
000001a0: a261 9cbd f232 363c 165b bd3c 773f 06bd
000001b0: 5a2d 723c 7bd6 93bc eede dbbc 3d6f 7fbf
000001c0: 4503 d8bc 5419 8a3c 1b65 ec3a e0a1 07bc
000001d0: 51de bbc0 7ef8 eb3c cf17 e5bc b11f e8bb
000001e0: 2c91 b1bc 1fa3 c1c0 f21c 94c0 64ed cbbc
000001f0: ffee f33c 5abb a5c0 5a1f 04bd 457b ac3c
00000200: 2080 98bc 3e81 863f 89dd 40bc 8893 d9c0
00000210: d102 0d3c fdb1 353a 8308 8abb 22a9 b5c0
00000220: 63c8 f43e 0131 fabb c637 53bc cb98 17be
00000230: b166 a13c a703 9fbc 29f3 9bbc a97d d53c
00000240: aa05 7a3c 3fc2 ddbc 28b2 723b af8e bfbc
00000250: 069e 4dbc 59ff cebc 4dfd f93c 204e ac3c
00000260: 0a50 38bc 9e48 8dc0 4cb4 69c0 57ed 58bc
00000270: 3f4c 68bc 5709 e6bc 50df 8bbb d86a c5c0
00000280: 402a 4dbc e05c 92bc 8e7e 08bb a84c 8ebc
00000290: 922b 74c0 cbbf a53c 3a5c 4bbc ab82 afbc
000002a0: fc0f 2dbc 4a23 e53c 1913 163c 593a 7a3c
000002b0: e2bf 7bbc c518 583c 0ac6 f43c 98c8 d5bc
000002c0: 789c 04bf 1055 d6bc 1d43 e9bc 844d d5bc
000002d0: 6cad c9bc a549 dd3c 916a 573c 3705 0b3f
000002e0: f20a b5bc c6e0 cb3c ac6a f6c0 7d42 a5c0
000002f0: fe50 9ec0 7275 f13c 372c 4dbd 17f8 ffbb
00000300: d963 3abc 74d9 05bf 6208 bb3c e41b a6c0
00000310: bdc9 92bc f0f9 b7b8 1a9b dfbb c73d 5bbc
00000320: d455 fbbc 46bd 743c 727c df3c 04b0 97c0
00000330: 051f b0c0 44f1 15ba 69ee debc 8e68 52bb
00000340: 4dc9 3ebc b9cc 883c 940d fdbe e534 6fbc
00000350: 30d5 98c0 d9fa e83b eb75 a5c0 6621 51c0
00000360: 941a 883c f757 7fbb f97c c2bc ddd2 01bd
00000370: 69c0 f23c 7be7 25bc cc17 cbbc 2ae0 2abf
00000380: 2351 a73b 5431 cbbc 2895 fcbc afa4 cbba
00000390: 9f23 403d 4eef e7bc 11d9 25c0 6c87 d03c
000003a0: 8283 af3c 8f92 e43c 8db4 78bc 3d7e ddbc
000003b0: 2fc7 c9be b226 60bc eec4 8a3b 7969 17bc
000003c0: 8ac2 0d3f c130 db3a f057 acbc ca53 2640
000003d0: d8fb 82c0 0c7f 113f 699a 983a a4e9 d8bb
000003e0: a45c 1939 f230 b9b8 f67a 39c0 ba00 a13c
000003f0: 7ae8 24bc 43f2 95c0 c12b 9fbc 265e d1c0
-0.028840939 0.025071139 0.0123651745 -0.0022808337 -0.031725425 0.0019746865 -0.005261201 -0.01909252
0.03010299 -0.030575043 -0.0075452565 0.0063840696 0.41231865 0.0046913205 -0.006472631 -1.4083297
-0.007639923 -5.6946516 0.011797487 0.032334574 -4.4736924 -0.018166099 -5.013529 -0.02897166
0.010096771 -0.022886109 -0.0051943557 -0.015742308 -0.0037786912 -4.217402 -0.20490181 0.017139332
-0.02323516 -3.4802818 0.024136968 0.009879807 -0.25738388 -0.00127956 -0.0041640503 0.023148248
-0.0030775133 -0.015949234 0.029112706 -0.02551959 0.007472675 0.030008346 -0.030498084 -0.028342087
0.018348416 -0.93492025 0.0018447058 0.0008122514 -0.0030319807 0.0120897265 0.008215741 -0.0030195685
-1.2791518 0.8464312 0.018710326 -4.420733 0.01781885 -0.014543428 -0.04152273 -0.45098382
0.0218093 -2.9187381 -6.861245 0.028012233 0.012294739 -0.8646346 -0.029367479 0.028803134
-0.01620535 -5.4788027 0.014762379 0.02475265 -0.021118807 -0.02952473 -7.3449802 0.0018158167
0.028855816 -0.12341874 -3.7858818 -1.8483218 -0.5378807 0.023655336 -0.020253649 -0.007620389
-0.0210423 0.044867493 -0.024674514 0.011262386 0.024539987 -0.017692454 0.00524425 -0.009683824
0.00061855605 0.0030444912 -0.005511571 -0.004241454 -0.014347034 -0.02968347 0.011070176 -3.3972952
-0.076358095 0.011120545 0.023114722 -0.03277537 0.0147813205 -0.018046608 -0.0268397 -0.9977911
-0.026368747 0.01685778 0.0018035503 -0.00827834 -5.870888 0.028805014 -0.027965454 -0.007083856
-0.021675669 -6.0511622 -4.6285334 -0.02489347 0.029777048 -5.17912 -0.03225646 0.021054873
-0.018615782 1.0508192 -0.011771568 -6.799259 0.0086066285 0.00069311244 -0.0042124405 -5.676896
0.47809133 -0.0076352363 -0.012891715 -0.1480438 0.019702287 -0.019410921 -0.019036846 0.026060896
0.0152601395 -0.027070163 0.003703246 -0.023383467 -0.012549883 -0.025268244 0.030516291 0.021033347
-0.011249552 -4.4151144 -3.6516294 -0.01324018 -0.014178335 -0.028080625 -0.0042685643 -6.1692924
-0.01252228 -0.017866552 -0.0020827386 -0.017370537 -3.8151593 0.020233056 -0.012412125 -0.021424612
-0.010562893 0.027970929 0.009159827 0.0152727 -0.015365573 0.013189499 0.029879589 -0.026096627
-0.5180125 -0.026163608 -0.028474385 -0.026037939 -0.024618827 0.027012656 0.013147966 0.5430483
-0.022099946 0.024887454 -7.7005215 -5.1643662 -4.9473867 0.029474948 -0.050090995 -0.007811557
-0.011376345 -0.5228493 0.022831146 -5.1909046 -0.017918462 -8.7726745e-05 -0.0068239095 -0.013381428
-0.030680574 0.014937704 0.02728102 -4.7402363 -5.5037866 -0.00057198503 -0.027213292 -0.0032105776
-0.0116446735 0.016699182 -0.49424422 -0.014600013 -4.776024 0.0071099815 -5.1706443 -3.2676635
0.016614236 -0.0038962343 -0.023741232 -0.031695236 0.029632764 -0.01012599 -0.02479162 -0.667483
0.005106108 -0.024803795 -0.030832842 -0.001553675 0.04690897 -0.028312352 -2.5913737 0.0254552
0.021425012 0.027901916 -0.015179765 -0.027037734 -0.39409778 -0.013681101 0.0042349016 -0.009241455
0.5537497 0.0016722904 -0.021038026 2.598864 -4.0932426 0.56834483 0.0011642698 -0.006619649
0.00014625728 -8.830604e-05 -2.89813 0.019653667 -0.010065192 -4.685823 -0.019430043 -6.5427427
