saves/Dobot-v1/dpba/seed_0/model/actor.pth (torch, 581463 bytes, 6 tensors)

l1.weight f4 [512, 24]
00000000: 4ff7 883d c18c 833e 1bfb c0be aef3 43be
00000010: 91b4 b1be 1184 de3e 252d f3be 8559 233f
00000020: 0212 e43c ff30 8bbe ecd2 823d 9793 27be
00000030: 3611 513e a5fd 2bbf a4e0 5abe 4f27 c13e
00000040: 91aa 05bf b98e 293e 4b97 583e c0a5 dbbd
00000050: 8877 13bd 473b f03e 7d68 3bbd db61 7b3e
00000060: 1045 16bc 3c53 1dbf 50da 543e ff1a af3e
00000070: d866 58bd 5d11 8ebe 5dd7 af3e 62dd 84be
00000080: 055b 81be 6168 e03e 7f31 95be b777 aabe
00000090: cc98 f4bc d810 bf3f 6155 d43c 7f1f 6f3d
000000a0: 88f2 0040 8453 d7be 253a c4be c13c 34be
000000b0: 25d2 353e 481a 1dbf e007 293c d17a 153f
000000c0: 3d06 ce3e 5690 90be 37c4 86be 97e2 46be
000000d0: 04f6 cb3d ef1e 2d3f 0e24 bdbe 7547 febe
000000e0: d926 b2bd 3a4d 17bf 74eb e2be d0a5 9cbf
000000f0: e3aa 5d3e a9e9 ccbd 7693 f3bd 1a3a 143f
00000100: 4199 0dbe a354 2d3f d315 fd3e 4a4b 403e
00000110: 34cd 983e 5c43 1e3f b644 2b3d 4a4e 593f
00000120: 6785 3f3e 587c 38bd c267 493d a2e6 ed3e
00000130: c00d eabd a2e4 583d 2a38 e63e 204f 78be
00000140: 6678 ccbe 123c 113f 7799 5f3b 2f02 c0be
00000150: b588 4a3f 49bc dd3f 32e7 b13d 8a13 643f
00000160: 9894 5240 351a 3abe 5b9e a7be 6ac9 9a3e
00000170: 3c2b bc3e b27e 97be d815 2e3b 7772 eabe
00000180: 47e9 953d b7b2 9fbf c36e 10bf 3a95 563d
00000190: 4928 ac3e 0396 a03f b5e4 c2bd 566e 8dbc
000001a0: 941d 29bf c83f 4f3d 52ca 6ebe d572 4bc1
000001b0: 5ca5 a6bd 7fbe d5bb 4e75 bbbe 5e5c 213d
000001c0: 855b 88be bc1d 853e cb61 3d3e 9b7f fd3c
000001d0: a5d3 5d3f d688 09bd 5814 803e 4e6e ba3f
000001e0: 9d0d a43d 0d54 483c 0ffa cbbd 9dd0 c53d
000001f0: 5581 48be 60c7 f7bd 864c 51bd cca2 cbbd
00000200: 1d3f 92bd e451 2bbe 7cd9 31bd 5db8 323d
00000210: e22b 08be 85a1 2bbc 1fa1 153e abe6 abbc
00000220: 19e5 b93b f041 90bc a535 293d b8e7 043e
00000230: 12ff 453e cbbd 043e 0b73 463e d1de 71bc
00000240: 4566 76be c64e 1dbe aeaf f03d 1a43 a5bc
00000250: e67c 24be 60be 12be a595 6dbe 3bbc 083d
00000260: 5caa b1bd b0b1 bd3d 19ec 403e faad 68be
00000270: 383c 8d3e 3a4a 02be 1d95 113c 9c1f 2abd
00000280: 7c63 f1bb d43d e6bc a6e4 16be dab2 0ebe
00000290: f4ee c63c 458a b33c ac74 6abd 80db fabb
000002a0: e690 893e 5187 c3bf 49a1 163d 737d dc3e
000002b0: 7903 a93e fb8e 9c3e cefd ef3c f7f5 a5be
000002c0: 3713 c4be 19d7 8f3e 6eb2 a6be 19de 8fbf
000002d0: 1803 613f 98ed 6d3f 8064 d73e 0a37 da3e
000002e0: 3227 ca3f 4d42 653e 9aea 4bbe 8436 253e
000002f0: 50e9 2f3f 3140 7cbe 8cb6 293f 1c53 623f
00000300: 7c72 13be 396e a1bc 68a8 2cbe 043e bebd
00000310: c6d1 fbbd 4d72 4d3d ebcc e0bd 7ee7 91bb
00000320: 5ee8 97bc 5874 203e cd00 1ebe 6611 11be
00000330: 5fe2 e5bd 5804 2e3e 70bd 38bd 4ffa 373e
00000340: c99a ce3d e675 ea3c 9929 913a ff22 8abc
00000350: ad45 653d 0f6c 93bd 82b3 b43c ced4 5cb8
00000360: 1dfc 91bd 5019 12bd d390 4ebe b7b0 60be
00000370: 4a10 8bbe 4feb 873f 5bfe 5c3e ad29 f6b7
00000380: 920a 67be de22 8e3d 3c04 38be 2dfd 54c0
00000390: d236 14be 8281 39be 9199 bdbd 8be2 233e
000003a0: edec e2bd cb58 cd3f 536f 983c 64e0 323d
000003b0: 2d48 353d 0e17 dabd 470c 1e3e 5590 0c3f
000003c0: aa85 97bf 5beb 0fbf 1245 12be 5335 82bd
000003d0: da77 ab3c d19b 7abf 3b6e 683e 8373 a43f
000003e0: 8e2a 22be e215 94bd 2031 953f eb05 ac3d
000003f0: 99cd 8ebe 0ea9 5dbc 3e79 483c 2e41 b0be
0.06687795 0.25693324 -0.37691578 -0.19135925 -0.34708074 0.43460134 -0.4749538 0.6380847
0.027840618 -0.2718582 0.063878864 -0.16364895 0.20416722 -0.67183906 -0.21374756 0.37725303
-0.5221339 0.1655835 0.21151464 -0.10724974 -0.036002666 0.46920225 -0.045753945 0.24549048
-0.009171739 -0.6145513 0.20786405 0.34200284 -0.052832454 -0.27747622 0.34343997 -0.25950152
-0.25264755 0.43829635 -0.29139325 -0.3329446 -0.029858015 1.4927015 0.025919618 0.058379646
2.014803 -0.42055905 -0.3832561 -0.17601301 0.17755945 -0.61368227 0.010316819 0.5839053
0.40239134 -0.2823512 -0.26321575 -0.19422375 0.09959033 0.67625326 -0.3694157 -0.49663892
-0.08698816 -0.59102213 -0.4432026 -1.2238102 0.2164722 -0.10005505 -0.1189336 0.57901156
-0.13827993 0.6770727 0.49430713 0.1877872 0.29844058 0.6182153 0.041813575 0.84885085
0.18703233 -0.04504046 0.049171217 0.4646502 -0.11428404 0.052952416 0.44964725 -0.24248934
-0.39935607 0.56732285 0.0034118572 -0.37501666 0.7911485 1.7323085 0.08686675 0.89092314
3.2903194 -0.1817406 -0.32738003 0.30231792 0.36751735 -0.29588848 0.0026563313 -0.45790455
0.07319885 -1.2476414 -0.5641901 0.052388407 0.33624485 1.254578 -0.09516279 -0.017264526
-0.6606076 0.050597936 -0.23319367 -12.715535 -0.081370085 -0.006522953 -0.36612934 0.03939473
-0.26632324 0.25999248 0.18494336 0.030944636 0.8665107 -0.033577763 0.2501552 1.4564912
0.08010409 0.0122270705 -0.09959804 0.096589305 -0.19580586 -0.12098575 -0.05109837 -0.099431604
-0.07140944 -0.16730458 -0.0434203 0.043632854 -0.1329799 -0.010475521 0.14612244 -0.020984014
0.0056730625 -0.017609566 0.041310925 0.12979019 0.19335583 0.12963025 0.19379823 -0.014762596
-0.2406245 -0.15362081 0.11752258 -0.020173598 -0.1606327 -0.14330435 -0.23201616 0.033382636
-0.086750716 0.09262407 0.18840064 -0.22722617 0.27585006 -0.12723628 0.008885649 -0.04153405
-0.007366596 -0.028105654 -0.1473566 -0.13935414 0.024283864 0.021916518 -0.057240173 -0.007655561
0.2686836 -1.527567 0.036774907 0.4306446 0.33010462 0.30577835 0.029295828 -0.3241422
-0.3829591 0.28093794 -0.32558006 -1.1239654 0.87895346 0.92940664 0.42068863 0.42620116
1.5793211 0.22388573 -0.19913712 0.16134077 0.6871538 -0.24633862 0.6629417 0.88408065
-0.14399141 -0.019705879 -0.16861117 -0.09289172 -0.122958705 0.050157834 -0.10976585 -0.004452645
-0.018543418 0.15669382 -0.15429993 -0.14166793 -0.112248175 0.16993845 -0.045102537 0.17966579
0.10088117 0.028620671 0.0011075019 -0.01686239 0.05597465 -0.07198345 0.022058252 -5.2650277e-05
-0.07128165 -0.03566867 -0.20172434 -0.21942411 -0.27160865 1.0618685 0.21581404 -2.9344892e-05
-0.22562626 0.06940244 -0.17970365 -3.3279526 -0.14474037 -0.1811581 -0.09257806 0.16004388
-0.11080346 1.6042722 0.018607771 0.043671027 0.044258285 -0.106489286 0.15434371 0.54907733
-1.1837666 -0.562185 -0.1428416 -0.06357827 0.020931173 -0.97894007 0.226983 1.2847751
-0.15836546 -0.07230736 1.1655617 0.08399566 -0.27891234 -0.013529075 0.012235938 -0.34424728

l1.bias f4 [512]
00000000: 0942 c0bb b9e0 8c3c 70c5 bcbd 2dc8 b5be
00000010: c69e 6dbe 8a88 3d3d b805 08be e16d de3d
00000020: 0d70 5ebd 78b8 35be 0244 47be 1e54 5cbd
00000030: f42b 503e a66b fa3d b6e5 8fbe 8ecd a1bd
00000040: c654 03bf 9057 5cbe af06 46be 803d 88bd
00000050: a81e 613c 6aa9 21be afac ac3d 0890 bdbe
00000060: f2b0 103e b5ba c5bb 25ac d63d da5e 33bd
00000070: 671f 253e d466 41be b56b 293e 5289 ad3e
00000080: e712 6d3e 8262 5e3e d8dd 1a3e 350f a6be
00000090: b8e1 0dbe cdd4 01bc 8876 f4bd 2e3d aabd
000000a0: cbfa eebc e9e1 9abd 9187 2ebd c1e7 ce3a
000000b0: ad91 18be d028 1c3e 6992 8cbe 75cd 16be
000000c0: 7f78 3bbd 1dc9 e03c 1ca2 2cbe c3cc 02be
000000d0: 892f 14be c6a7 143d f459 0bbe ae8b 963b
000000e0: 893a b2bc d573 f9bc f94a dd3d aaef 38bd
000000f0: 1b33 ed3d 6598 36be 6356 52be 67d9 293e
00000100: 82cd 213e a69c 4a3d b407 28be 5de1 b1bc
00000110: 3ec0 adbe b33d 80bc afe3 eb3c 9469 0dbe
00000120: 6348 8dbd 8661 a0bb 0b94 26bd c744 e63e
00000130: 0da6 9bbd aac9 2dbe c52f 92be 8fd9 fbbb
00000140: 1d60 8abd 1f78 3abd 6654 eb3d 90e6 d2bd
00000150: 8410 b53e 727b d7be 7bc5 43be 513e 58be
00000160: 110a 0dbc a111 813c 8bf6 26be 0cb8 4fbe
00000170: be84 1b3d 71b6 a9bc deb6 833e a78a f5bd
00000180: b790 95bc f140 ab3c 1406 c0bd 2f76 89be
00000190: 79c0 ebbd 650b 5cbe f547 043e edac 52be
000001a0: 7b9f c13c 3c3c 363d 0b39 5b3e 8a9e e5be
000001b0: 8593 573e 165c 2abd 93e1 5cbe 44f0 04be
000001c0: df4d c1bc f1a2 29be 4e38 b1be 0592 b3bd
000001d0: 9aa3 2dbe e12d b43c 963e a9be 262e 6bbe
000001e0: d990 51be 47f5 68be 11a8 91be 2d45 04be
000001f0: 878a 57be 48c1 2fbd 3d5b 17bf dcbf bcbd
00000200: 010f 6ebd 9db7 a13b 5e1d 2dbd edad f7bd
00000210: f6cc b9bd 1165 3dbe 946d c53d 35fa 423d
00000220: 800f e0bd cb71 4ebe c7de abbd b64f 34be
00000230: f0bc a2bd d440 34be ead0 d3be 5f2c 74be
00000240: 27a7 ae3d ed73 f4bc d7ee 45bc 6542 0a3e
00000250: 51da 06bc b04e 493e 360d af3d 8fc0 e6bc
00000260: 56ef 9d3d fca4 ccbd 85fc f63d 8cfb dfbd
00000270: 2053 75bd 2a2a cc3d 32ba dbbd a5cc 3dbe
00000280: 1710 0ebe 1230 20be 0c63 80be 3e5b f6bd
00000290: 99f2 5fbd eb98 d0bd 872c 43be 3119 a2bd
000002a0: 76d7 f4bd 086d 16be 6331 293e bf0d 5bbe
000002b0: ac3f 24bd 89ca e23d 8617 64bd be69 80be
000002c0: 0ccb f73d 1c3c a1be b58e 2fbd 0d8a 73bd
000002d0: c5fd 84be 3d8a 1c3e f6e6 22bd 2d01 72be
000002e0: 1fc4 c5bd e23d 80bd c1b5 8c3d 4b6b 0abc
000002f0: a843 a43c 9773 b83d b180 203e 33a2 673e
00000300: 4997 38be a776 5fbd deea 9bbd b2d4 11be
00000310: 025b 90bd ca8f 2ebe 579f 01be e965 57be
00000320: 6a82 4cbe 852b 61bd 041c 26be f4f9 edbe
00000330: 3862 10be 7ca2 c83c 370d 723e a908 ebbd
00000340: 3cbf a6be a802 923d e430 c7bc a9e1 febd
00000350: c72e 59be 0913 5b3e e92a 50bc 8cbb a93d
00000360: 0840 97be 2574 23bd 8a14 8fbe c221 adbd
00000370: a18f c8bb c7e6 42be 5630 1cbe 1b95 f5bc
00000380: 61eb 213e 62a8 99bd 6f25 98be 0403 cf3d
00000390: 3f71 393d d2bf 9bbe 7108 38bd 74ce 163d
000003a0: f3d0 63be 4a6f d5bd 9bb9 343e 253b d1ba
000003b0: cfca 2d3d 8643 d4bb 9db1 153d 1237 16be
000003c0: 093e 48bc ccac b2be 4c79 28be ddf8 bebd
000003d0: 0c51 45be 9a55 13bd 6e66 1abe b791 edbe
000003e0: cdcb b9bd 8055 e53d 54ea 1cbe f119 cdbc
000003f0: b8b2 b9bd 93fe 9ebd 26aa c5bb 1d20 48be
-0.005867247 0.017197 -0.09217346 -0.35504285 -0.23205099 0.046272792 -0.13283432 0.108608015
-0.05430608 -0.1774615 -0.19459537 -0.053791158 0.20329267 0.122275636 -0.28104943 -0.079005346
-0.5130123 -0.21517777 -0.19338487 -0.06652355 0.013740219 -0.15787283 0.08431374 -0.3702395
0.1413 -0.00603422 0.10482053 -0.04379163 0.1612526 -0.18886882 0.16544993 0.3389383
0.23151742 0.21717265 0.15123689 -0.32433477 -0.13855636 -0.007924271 -0.119366705 -0.0831245
-0.029172322 -0.0756262 -0.042609755 0.0015785621 -0.14899321 0.15249944 -0.27455452 -0.14726813
-0.04576921 0.027439648 -0.16858715 -0.12773423 -0.14471258 0.036292814 -0.13608533 0.004594288
-0.021756427 -0.03045074 0.108053155 -0.045150436 0.11582013 -0.17831571 -0.20540766 0.16586839
0.15801051 0.049465798 -0.16409189 -0.021713907 -0.33935732 -0.01565442 0.028795091 -0.13809806
-0.06898572 -0.004894438 -0.04066853 0.44974348 -0.07600031 -0.1697146 -0.2855207 -0.007685847
-0.067566134 -0.045524713 0.11490707 -0.102978826 0.35364163 -0.4208637 -0.19118302 -0.21117522
-0.008608357 0.015755476 -0.16304986 -0.20285052 0.03796839 -0.020716878 0.25725454 -0.119893365
-0.018257482 0.02090499 -0.09376159 -0.2684798 -0.115113206 -0.21488722 0.12918074 -0.20573778
0.023635617 0.044491038 0.21408479 -0.44847518 0.21052368 -0.041591726 -0.21570425 -0.12982279
-0.023596702 -0.16566063 -0.3461327 -0.087680854 -0.1695694 0.021994533 -0.33055562 -0.22966823
-0.20465411 -0.22749816 -0.28448537 -0.12917013 -0.21048938 -0.042908937 -0.59123594 -0.09216282
-0.058119778 0.0049352185 -0.042264335 -0.120937206 -0.09072296 -0.18495585 0.09640041 0.047601897
-0.109404564 -0.20160596 -0.08392101 -0.17608532 -0.07946193 -0.17602855 -0.41370326 -0.23845051
0.085279755 -0.029840434 -0.01208087 0.1350189 -0.008230762 0.19658923 0.08547442 -0.028167991
0.07711665 -0.09992406 0.12059883 -0.10936651 -0.059893727 0.0996898 -0.10728873 -0.18535097
-0.13873325 -0.15643337 -0.25075567 -0.12029122 -0.05467472 -0.10185417 -0.19059955 -0.07914961
-0.119551584 -0.1469003 0.16522746 -0.21391962 -0.040099785 0.11073787 -0.055686496 -0.25080675
0.12099275 -0.31491172 -0.042860705 -0.059457827 -0.2597486 0.15287109 -0.039771043 -0.23633261
-0.09656548 -0.06261803 0.06870604 -0.008448432 0.020051792 0.09006422 0.15674092 0.22620468
-0.1802646 -0.054556515 -0.07613157 -0.14241293 -0.07048608 -0.17047039 -0.1265844 -0.2103497
-0.19971624 -0.054973144 -0.16221625 -0.46479762 -0.14099967 0.024491541 0.23637854 -0.11476261
-0.32567775 0.07129413 -0.024315305 -0.12445385 -0.2120925 0.2139398 -0.012705543 0.08287725
-0.2954104 -0.039905686 -0.27945358 -0.084537044 -0.0061206375 -0.19033347 -0.15252814 -0.029978326
0.15812446 -0.075028196 -0.2971606 0.10107997 0.045274016 -0.30419785 -0.044929925 0.036817983
-0.22247677 -0.10421617 0.17648928 -0.0015963061 0.04242974 -0.006477776 0.03654634 -0.14669445
-0.012221822 -0.3489746 -0.16452521 -0.09324811 -0.19269198 -0.035970308 -0.15078136 -0.46400234
-0.09072075 0.111979485 -0.15323764 -0.025036784 -0.09067291 -0.077634 -0.006032246 -0.195435

l2.weight f4 [256, 512]
00000000: 37ad 43bf e69c 183f a15c 9bbd fb3f 00bf
00000010: 0c5d e03f 9adb a03b 5bbe 3e3b 7ba9 073f
00000020: 8099 9cbc c018 94bf da8d 3a3d a978 a9bd
00000030: cb5b 4bbf 47f3 2d3f 12dd a8be 711f 7c3f
00000040: 3f7e 973e caf4 d33e fdac 823c 7f10 4c3f
00000050: 4862 84be 010a ec3c b4c7 5dbf b06d 053f
00000060: 3a2b 0e3e 53f1 233d 2e8d 1a3f 83af 5d3d
00000070: e455 5bbd 3232 c13c 2904 2b3e 58e1 8e3d
00000080: f77f b43e 3deb 2a3f a03b d0bd e2b2 d23d
00000090: d273 a8ba 751d 31bd 2df7 f4be a8b7 30be
000000a0: 3d6b f9be cda9 c1bc db3f 1abf 52bf 033c
000000b0: 8019 783d d5d2 72be 97ee b23e ff82 91bf
000000c0: 17bf 323d 9260 b0bd afdc f0be 0853 0fbe
000000d0: b286 9a3e b2fb 19bf 08fb 7fbf ccaf 2dbd
000000e0: 2a15 d3bd 2596 2b3f 2155 54bf 1b9f e53d
000000f0: 523e 243f e34b 293e c022 dc3e 8300 87be
00000100: 587a 46bf daf5 9f3d 8699 c93c 65f5 713f
00000110: 8b08 06bf 9db9 86be 00f3 71be eda5 31bc
00000120: ed69 543f fabd 8abd 4acd 5dbe c337 723f
00000130: b0fd 4d3f 63df 123f b6ec 41be 0c14 32be
00000140: 42b6 a03f e400 0c3f 045d b3bd a4f1 9dbd
00000150: 22c9 a23e f2a6 3fbe c3c0 31bd 6a4b 853e
00000160: 5f00 153e 2055 eabe 08c7 1d3d 392c 8e3e
00000170: b3c8 a33d 869e 4f3d 64d3 bdbe eb43 c7bc
00000180: cd9b 0440 77fe 183f 760f c73e b92c 913e
00000190: e7ef c9bf 4a70 8a3c b148 c73c eca2 913f
000001a0: d838 9bbf c838 623f cac3 df3e e808 fa3e
000001b0: 7262 e13e 9ee4 e33d 3246 123d 3834 70bf
000001c0: 3c79 c7be 6692 153d 4500 4cbf f2ba 263e
000001d0: f241 0fbd c4ce cabe 76f7 58be 0689 f6bd
000001e0: 88ce 40be c777 00bf 3df3 18be 3279 823e
000001f0: 29cf a93f 41cb 8ebe 5d8a e4be 492a ca3d
00000200: 19f2 63bf 454a 94bf 723c d43d d02b 3a3c
00000210: 522e 0ebd 4a7d e9be 6425 5c3e 376b dbbe
00000220: b438 31bd 9137 ae3e 3d39 e2be c1a1 bd3d
00000230: 45b4 883c 40a8 f83d 3911 28be 4c54 1bbc
00000240: 378b 873e 7f7f 113f f033 60be fac8 87be
00000250: a217 12bf 1116 c0be 3ec2 123f 4ec9 093d
00000260: 4eea 28be ee4e a33e 4e61 f3be 1506 be3d
00000270: 1d49 493d 7fe2 febb 9975 15bf df30 1dbe
00000280: dfac 6a3e 7d06 80be 9284 c9be f381 2c3c
00000290: 87e5 8dbd 6e46 9fbe 5757 98be 2af6 1abf
000002a0: 1c0c a7be 9ea9 833e d448 343e 1f8a 83be
000002b0: 75c0 c2bd 7d9a 09bf 7349 493f 93eb 48bf
000002c0: 1836 52bd 5bd4 a63d 1ca2 2d3f 8847 4bbf
000002d0: adeb e63b bebf 7cbc 867e 8cbd b968 7dbe
000002e0: f848 aabf 8297 063f f20f 2ebe 5c22 283e
000002f0: 14c0 3b3e 7d55 463e 5795 513e ce10 d9be
00000300: f3cc 2f3d ee70 d3be 2755 1abd b028 c23e
00000310: 788f 16bf 1f61 c93b 4544 19c0 5db9 32bf
00000320: 5f62 02bf c491 3d3f d5bc 523f e2ab 4c3e
00000330: 2e7d 933d 488d 82be 1578 fb3e e11a 58be
00000340: a313 76bf 73cf 98be 7827 a1be c271 06bf
00000350: 2688 cbbb 93d9 31bf 94b7 1fbe b318 0f3f
00000360: ec46 74be 05c1 a13e 43a1 96be d3fc abbc
00000370: 198d fbbe 7ee3 1bbf 461f 293d 3521 f1be
00000380: a148 bbbe 0fcf 333d 257d 52bf 2dee b63e
00000390: ef70 163f 6418 06bf eb80 163d 4b1c 17be
000003a0: 9b8c b6bf 21dd 6d3b ac21 1b3e 90de a1be
000003b0: 19b3 b4bf 7726 843b cf6e c2be 3ea5 8e3d
000003c0: 5205 31bd 9cea db3e dfa1 2c3f e592 a1bf
000003d0: 662f 1bbd 7f21 093d 4756 d73e bfab 443e
000003e0: 7bef b5be 155a 683e 2da5 e93d b48a 22bf
000003f0: 3596 99bf b8f8 afbe 9bcc 233f bde8 cabc
-0.7643618 0.5961441 -0.07586027 -0.50097626 1.7528396 0.004908991 0.002910516 0.5299298
-0.019116163 -1.1570053 0.045545436 -0.08274967 -0.7943694 0.67949337 -0.32981163 0.98485476
0.29588506 0.41397697 0.015951628 0.7971267 -0.25856233 0.028813364 -0.8663285 0.52120495
0.13883677 0.040025067 0.60371673 0.05412246 -0.05354871 0.023583505 0.16700806 0.06976575
0.3525388 0.66765195 -0.101676226 0.102880254 -0.00128519 -0.043240983 -0.4784483 -0.1725756
-0.4871463 -0.023640538 -0.60253686 0.00804122 0.060571194 -0.23713239 0.34947655 -1.1368102
0.04363927 -0.08612169 -0.47043368 -0.13996518 0.3018089 -0.6014968 -0.9999242 -0.04240398
-0.10306771 0.6702598 -0.82942396 0.112119876 0.64157593 0.16532855 0.42995262 -0.26367578
-0.7753043 0.07810564 0.024609338 0.9451507 -0.52356786 -0.26313487 -0.23627853 -0.010842782
0.8297413 -0.067745164 -0.21660343 0.94616336 0.8046522 0.5737211 -0.18937954 -0.1739046
1.2555621 0.5468886 -0.08757976 -0.07712105 0.31794077 -0.18716028 -0.043396723 0.260341
0.14550923 -0.4576807 0.03851989 0.27768114 0.07997265 0.05068829 -0.3707534 -0.024324378
2.0720093 0.5976328 0.38878983 0.28354433 -1.5776337 0.016899247 0.024326654 1.1377845
-1.2126722 0.8836789 0.43704063 0.4883492 0.4402042 0.1112759 0.035711475 -0.9382968
-0.38959682 0.03651657 -0.7968791 0.16282251 -0.034975 -0.39610875 -0.21188149 -0.12037854
-0.18828785 -0.50182766 -0.14936538 0.2548309 1.3266345 -0.27889445 -0.44636813 0.098713465
-0.89041287 -1.1585165 0.103630915 0.011362985 -0.034712143 -0.456034 0.21498638 -0.42855236
-0.043266967 0.3402677 -0.44184294 0.09259368 0.016687522 0.12141466 -0.1641282 -0.009480547
0.264734 0.5683517 -0.21894813 -0.2652052 -0.5706731 -0.37516835 0.5732764 0.033639245
-0.1649563 0.31896156 -0.47535175 0.09278504 0.049141992 -0.0077784653 -0.58382565 -0.15350674
0.22917508 -0.2500495 -0.39358956 0.010529029 -0.069285445 -0.3110842 -0.29754135 -0.60531867
-0.32626426 0.25715345 0.17605907 -0.25691316 -0.095093645 -0.53751355 0.786277 -0.7848446
-0.05132112 0.08145972 0.67825484 -0.79406023 0.0070471377 -0.015426574 -0.0686007 -0.2474698
-1.3303518 0.5257493 -0.1699827 0.16419357 0.1833499 0.19368549 0.20467125 -0.42395633
0.042920064 -0.41297096 -0.037678864 0.37921667 -0.58812666 0.006145611 -2.3947918 -0.6981409
-0.5093135 0.74050546 0.82319385 0.19987443 0.072016105 -0.25498414 0.49115053 -0.21104003
-0.96123713 -0.2984577 -0.31475425 -0.5251733 -0.0062112985 -0.69472617 -0.15597373 0.55897063
-0.2385518 0.31592575 -0.29419908 -0.02099458 -0.49131086 -0.60894 0.04128959 -0.47095647
-0.3657885 0.04389864 -0.82222205 0.3572859 0.58766073 -0.5238097 0.03674404 -0.14756887
-1.4261659 0.0036295133 0.15149564 -0.31615114 -1.4117156 0.0040329057 -0.37975165 0.06965111
-0.043217964 0.4295243 0.67434496 -1.2622954 -0.037887 0.03347921 0.42058012 0.19206141
-0.35534272 0.22690614 0.11408458 -0.63492894 -1.1998965 -0.34369445 0.6398408 -0.024769181

l2.bias f4 [256]
00000000: b54d 163e 75b2 033b ca70 c83d e25b 81be
00000010: 1ed5 62ba 1995 53bd 4e89 65be 9bba f1bd
00000020: 76c4 eb3d 5515 583c 3495 89bd d0b2 8a3e
00000030: a55f bc3d 9a26 c43e daad 573c df69 93bc
00000040: 28f3 e5bc f39f 33be be9f 18bc 32b6 1ebd
00000050: 6ef0 803b 211d 2abd 3042 a6bd 6c6f 1fbd
00000060: 4e62 4abd c5fd fcbc f46c c9bd 3c86 7dbd
00000070: 3513 88bd 2380 77bd 8647 87bc 1bcd 15ba
00000080: 82a2 26be 72f1 4fbe 0858 383e 8e0a 27bc
00000090: 006a 4a3c 7b39 78bc 69da c13b c834 84bd
000000a0: 7416 113d 5bcf 4ebd b16a cbbd 5d7e 88bd
000000b0: 80a5 fdbc c13a a4bb be14 cbbc 1d97 7c3e
000000c0: 91ab 8e3c 7e29 63bd d048 b8bb 11a4 25bd
000000d0: e86e 71bd f162 87bd 6528 6cbc 1771 2dbd
000000e0: 482f 2bbd ded1 8f3e 69f6 f03c 6df3 bcbe
000000f0: 53cc 303b dee9 653b 9481 dbbc 73d6 0abc
00000100: 9364 5cbe c076 2fbb 4193 2a3c 0ace 8abd
00000110: fd8c 1d3e 77ca 4bbc 03b1 18bd 2e58 953d
00000120: d742 25be 6bda ddbd efd5 263f c2aa 863e
00000130: e434 6ebd 0ef9 1a3d 416f fa3d 0382 73bd
00000140: fd44 a5bd 2bb5 d0bd 2274 86be ae48 3dbe
00000150: bc6f 343e d738 613c 54df 1fbc db36 7f3c
00000160: 3e7e 23bc 7481 63bd ff1b 89bc 9b82 9fbc
00000170: f432 2b3e 7c86 06be f537 63be fe56 6f3d
00000180: 1295 863c e4ce b8bc d755 3e3e 0f9a 8ebc
00000190: c337 953b f0a7 8ebc 20fd 09be b55a 93bd
000001a0: 8478 853e 9468 eebc 1020 573c 1770 68bd
000001b0: 5644 b7bc 54bf 22bd c3e9 29bc f737 22be
000001c0: 74cd 863e 7169 083c c1c4 be3b 8440 293c
000001d0: 1827 b8be a3c2 8fbd 3589 09bd 77c8 bebc
000001e0: b496 e3bb 6dfb 48bc 87e8 b4be d781 e13c
000001f0: 667a c1bd 40bf 7b3d 6b3e 2a3e 6f4c cc3b
00000200: a0cf 16bd 15c1 b33b 5984 42bc b534 6fbd
00000210: 1ca0 a43d 4fb9 6f3c 69af e13d dd05 1f3e
00000220: 0623 8abd 6af0 013e c874 c2be 5a3a 2dbd
00000230: a213 49bd 2f17 dabd 3fc1 c4bc 986a 36bd
00000240: b981 82bd a4df 20bd 17c5 043e 1064 c2ba
00000250: 9fae 18bd 4530 a1bd 58d2 70bd 2292 82b9
00000260: f96c b73c 4b18 a73b deef 70bd f472 07be
00000270: 6d44 8cbd fdf1 4abd 5150 7b3e a2fc 36be
00000280: a3d1 edbc c28b 193e 3656 dc3a 6e1a ab3e
00000290: ca59 853b d7c6 38be 01dc e23c 0d26 92bd
000002a0: 97df e5bc 3fac 96bc 6f48 f13b dda9 863e
000002b0: 1040 c2bd c34f 543e 681d 473e 8df0 833e
000002c0: 4b9c 1cbe 1b76 86bd 5f84 0bbe 109e 663e
000002d0: 3273 a43e c545 ff3c 72ea 56bc ba07 be3e
000002e0: 6f98 04bd 5aeb 85bc c2a9 41bb f373 00bd
000002f0: 599c 453c 669d 12bd e614 67bd 85b7 dfbc
00000300: 3b81 ec3a 0f52 4bbc 69b5 14bd 5d03 663d
00000310: dadd 7a3c 836a 813c c584 d3bc 2548 3bbc
00000320: e17a c8bc 0d6d 54bd 4a5a 9dba 1198 d2bc
00000330: 7e58 efbb 9c77 93bd d205 963e 0247 5c3e
00000340: 6d14 4cbd 9039 903c 987e 5cbe 1856 fa3a
00000350: e5e5 01bd 85d2 b8bc 181c 353e 92ce b1bd
00000360: 52d5 a9be 529e 4cbe 3a6b 23bf d538 983c
00000370: 33ea e43d a4b2 35bc 411f c13b 6d9f 673d
00000380: b8c1 97bb 18bb bcbc 2e20 a3be 0331 8cbd
00000390: 5175 89be e61a e1bd f440 52bc 104a 6ebd
000003a0: 4d8a 60bd 4d01 b53e c65d c83d 31c5 9b3c
000003b0: 21aa 72bd a606 04bd d591 533e 1eae 2bbc
000003c0: 80cf 2dbe f0dc 1dbe 9d2d dd3b 1cdd 8e3e
000003d0: 7dc5 533c eef3 a6be 84bb aebd d795 a7bc
000003e0: 573e 043c 225d c6bc d6a7 85bd 19a7 33bd
000003f0: 7386 16be d3c7 81bc 41d9 e3bd 8a1c a0ba
0.1467808 0.0020095382 0.09787138 -0.25265414 -0.0008652973 -0.051655862 -0.22415659 -0.1180317
0.11512081 0.01318868 -0.06717911 0.27089548 0.0919793 0.383107 0.013164008 -0.01799482
-0.028070047 -0.17541485 -0.009315429 -0.038747974 0.0039349115 -0.041531686 -0.08118093 -0.03892462
-0.049410157 -0.030882725 -0.09835234 -0.061895594 -0.066442885 -0.060424935 -0.016513597 -0.0005714462
-0.1627293 -0.20306948 0.18002331 -0.0101953875 0.012354374 -0.015150423 0.005915929 -0.0645538
0.035421804 -0.05049072 -0.09932459 -0.06664727 -0.030962706 -0.005011887 -0.024790164 0.2466702
0.017415794 -0.055459492 -0.0056239143 -0.04043967 -0.05894366 -0.066106685 -0.014413928 -0.04234418
-0.041793138 0.28089803 0.029414373 -0.3690447 0.0026977255 0.0035082023 -0.026795186 -0.00847398
-0.21522741 -0.0026773661 0.010411085 -0.0677758 0.15385814 -0.012438408 -0.037278187 0.072922096
-0.16138779 -0.108326755 0.65170187 0.26302153 -0.05815591 0.037835173 0.12228251 -0.05945016
-0.08069799 -0.10190805 -0.26260477 -0.18484756 0.17620748 0.013746462 -0.009757835 0.015577043
-0.009978829 -0.055543378 -0.016736982 -0.019471457 0.16718656 -0.13137239 -0.22189315 0.05843257
0.016428504 -0.02255959 0.18587433 -0.017407445 0.0045537665 -0.017414063 -0.13475466 -0.07195035
0.2606851 -0.029102601 0.013130203 -0.056747522 -0.022371452 -0.039733246 -0.010370675 -0.15841661
0.26328623 0.00832592 0.0058217947 0.010330323 -0.35967326 -0.07019546 -0.033578116 -0.023288948
-0.0069454554 -0.012266976 -0.35333654 0.027527733 -0.09447174 0.061461687 0.16625373 0.0062346975
-0.0368191 0.0054856637 -0.011872374 -0.058399875 0.08038351 0.014631583 0.11019785 0.1552958
-0.067449614 0.12689367 -0.37979722 -0.042291977 -0.04909099 -0.10648953 -0.024017928 -0.04453525
-0.06372399 -0.03927578 0.12965809 -0.0014830846 -0.037275907 -0.07870535 -0.05879435 -0.0002490441
0.02239083 0.0050993315 -0.058822505 -0.13227445 -0.06848989 -0.049547184 0.24542357 -0.1786981
-0.029030627 0.1499472 0.0016810361 0.33418602 0.0040695416 -0.18044601 0.027692797 -0.07136164
-0.028060718 -0.01839268 0.007363371 0.2630147 -0.09484875 0.20733552 0.19444811 0.25769463
-0.15293996 -0.065654956 -0.13624714 0.22521234 0.32119137 0.031161198 -0.01311742 0.3711527
-0.032371935 -0.016347576 -0.0029550646 -0.031360578 0.012061202 -0.035794638 -0.056416415 -0.027309189
0.0018043885 -0.012409701 -0.03630582 0.05615555 0.015311683 0.015797859 -0.025820145 -0.011430775
-0.024472656 -0.05186181 -0.0012005058 -0.025707277 -0.0073042503 -0.07200548 0.29301316 0.21511462
-0.049824167 0.017605573 -0.21532667 0.0019099144 -0.031713385 -0.022561321 0.17686498 -0.08681978
-0.33170563 -0.1998227 -0.6383549 0.018581787 0.111774825 -0.0110899545 0.0058936183 0.056548525
-0.0046312474 -0.023038432 -0.3186049 -0.06845286 -0.26847318 -0.109914586 -0.012832869 -0.0581761
-0.054819394 0.35352555 0.09783511 0.019014927 -0.05924428 -0.032232903 0.206611 -0.0104785245
-0.16973686 -0.15416312 0.0067498223 0.27903068 0.012925503 -0.3260798 -0.085318595 -0.020457191
0.008071504 -0.024214331 -0.06526153 -0.04386053 -0.14699726 -0.015842354 -0.11125422 -0.0012215537

l3.weight f4 [3, 256]
00000000: 0f42 a1bf fd38 59bd 2877 06bf 1c60 583d
00000010: fe3a 25bd b99c f83b af75 a1be 7514 12bf
00000020: 5138 48c0 52a1 623c aa26 02bc 5cb0 c8be
00000030: 4779 83be ba1b d33f 16b8 2abd f435 b13d
00000040: ff60 653e 46c3 7b3f 7f4e 55bd 5ceb a4bc
00000050: 91fc e2bb f581 80bc 10aa a63f 9ce2 7bbd
00000060: adde 19bd afef 0b3f 8e6a 58be 4522 a0bb
00000070: 25d7 95bd 7dd5 d93f 3db6 29bd d981 073d
00000080: 0978 1e40 059d 833f fe01 2140 62c3 38bc
00000090: ff4d b73b 8bb4 7cbd 9609 24bc 2b4a a8be
000000a0: dd04 45bf 5d9e 43bd a871 04bf 02c8 103d
000000b0: e68c 5a3d 351c 963c 399e 0b3c 2b01 50bf
000000c0: 42a7 493c 5cbf 5b3d b83e afbc a4cb 95bc
000000d0: ce25 4fbd 1ced 64bd 6924 5c3f c08a b03c
000000e0: 4c6f 33bd 47dd 203f 3c86 99bf 042b ddbf
000000f0: 5afe 9abf 1b9c c33c c7f1 6ebd 9d4c 763d
00000100: 8381 2d3f fe68 8fbe fd9a 0f3f 25de 4240
00000110: f72d ae40 887d 46bd f049 1c3d de44 2e3e
00000120: 6633 e03f e750 01be 8773 da3f b7c1 3bc0
00000130: 9aa2 653d 604e ebbc 04bf 45be da20 54bd
00000140: 8737 4f3f 09e6 1c3f 9dd5 fdbf 2019 f6be
00000150: 8e3d 03bf 21f3 593b 6e0b 473d 2c4f 243c
00000160: 284c 50be ae58 f83d 8100 3bbd b73f f33b
00000170: c2a7 17c0 55a7 0bbf beca 93c0 da14 a7be
00000180: e1dc ae3c eb40 323d 48d2 4b40 42bd 3b40
00000190: 3436 40bd 49db 4dbd 7783 2f3d 38a3 a33c
000001a0: c3e1 0ac0 759b 7f3d b244 1dbb 6db3 70bc
000001b0: 0775 1ebd 9059 9f3c 0c45 093d b237 243f
000001c0: e961 6740 900f 253c 95a9 343d 771e 5fbf
000001d0: b4ae cdbd 716e 40bd 4baf 8abc f577 1ebd
000001e0: d50a bcbc 99cf 103d 91bc 183f 5518 d1bc
000001f0: d5dc c13f 70c3 b13e 84ea e5bf 972e 353f
00000200: f721 0a3e de49 493c 1704 1c3d 3388 a640
00000210: 81e5 6440 7c5c d93f df2c 0cbf f9ba 1240
00000220: 613d 9bbc e6f8 b1bd 52cb 043f 0eb5 e03c
00000230: edb6 0b3d e2a3 80be 4876 cb3c 6b21 1e3d
00000240: 2dfa f83c 6416 4c3b 239f e63e 836b a1bf
00000250: d5c9 9d3c 6233 3cbf d2d5 08be 3449 9a40
00000260: 2c67 b0bf 358b f4bc 46ac 333d 0739 a53f
00000270: 479c 20bf ba70 fabf 2d38 52bf dd46 243f
00000280: bb4d 50bc bff3 9f3f cd2f 5cbd aa33 133f
00000290: e50c 03bc 40e5 273f 1b04 3240 9706 08bc
000002a0: 9e4c 0c3c d2a6 403f c0e6 babc 849c 8c40
000002b0: df54 94bf 7cde 8f3f 24fe edbf d4bf 04bf
000002c0: dcb8 6040 31d2 e13c 37c6 8ebf d7fd f1be
000002d0: 58c8 f1bf 26bb a1be f0e0 273c 4ff3 81be
000002e0: 64ac 6bbb 7323 b0bb fd2a f739 9009 28bc
000002f0: 5ad1 083d 27a5 043d 622f 6f3e eaf4 19bd
00000300: 7ee8 6b3d 970f 7a3c ea27 75bc f999 e3be
00000310: 7c24 033d d82b 7abf 619c 46bb f9af 263b
00000320: 789c 553f a3e1 5b3d f387 a4bc 8222 3abd
00000330: 93a2 97bb bc3d 20bc 4a4b 32c0 8f55 8dc0
00000340: 1d1c 9c3c 7fb5 413c 3139 3bc0 efe2 f53c
00000350: d9a0 173d 3e37 253f add9 fc3f a049 3440
00000360: ca0c cd40 1f33 983f e124 03c0 1116 7fbf
00000370: 0daa 4cc0 8109 98bf 8ff4 a03d 5bc7 bb3f
00000380: 9201 bf3c ed5e 6a38 82dd e13e a1ab 653d
00000390: 5f33 bebe 0508 4cbc 5784 923d 336a fcbc
000003a0: c0b1 a5bc 804f 1a3f c260 aebf 4906 7440
000003b0: f31c 14bc e320 efbc 4c48 04c0 3e01 083d
000003c0: 9186 523e 05c9 ffbe 380b e1bb 3d57 a83f
000003d0: 6ac5 26bd 7689 d240 56b1 6cc0 b6dc 40bb
000003e0: b79e 19bb 0db3 a6bc ae6a 903b 320c 083d
000003f0: 7602 b5be a2de f93c fb2e ff3e 71bd 07b8
-1.2598284 -0.053032864 -0.5252557 0.052826032 -0.040339462 0.007587042 -0.31535098 -0.57062465
-3.1284373 0.013832407 -0.007943789 -0.39197052 -0.25678465 1.6492836 -0.041679464 0.08652869
0.22400282 0.9834484 -0.052076813 -0.02013176 -0.006927081 -0.015686968 1.3020649 -0.06149541
-0.037565876 0.54662603 -0.21134397 -0.0048868977 -0.07316426 1.7018276 -0.04143356 0.033082817
2.4760764 1.0282294 2.5157466 -0.011277052 0.0055940147 -0.061695617 -0.010012051 -0.32869086
-0.76960546 -0.04775845 -0.51735926 0.035346992 0.053357027 0.018323997 0.00852161 -0.8125178
0.012307944 0.05364929 -0.021392211 -0.01828558 -0.050573163 -0.055890188 0.8599306 0.021550536
-0.043807313 0.6283764 -1.199409 -1.7278752 -1.2108872 0.023878148 -0.058336046 0.060131658
0.67775744 -0.2800979 0.5609587 3.0448086 5.443111 -0.04845956 0.03815645 0.17018458
1.7515686 -0.12628518 1.7066506 -2.9336984 0.056063272 -0.028723896 -0.19311148 -0.051789142
0.80944103 0.61288506 -1.9830815 -0.48066044 -0.512658 0.0033256488 0.048594885 0.010028642
-0.20341551 0.12126289 -0.045654777 0.007423367 -2.3696141 -0.54552203 -4.618499 -0.32633096
0.021345558 0.04351894 3.1847095 2.9334264 -0.046926692 -0.050257955 0.042849984 0.01997529
-2.1700294 0.062404115 -0.0023997244 -0.014691216 -0.038685825 0.019451886 0.033513114 0.64147484
3.615351 0.010074511 0.04410704 -0.8715586 -0.100430876 -0.046980325 -0.01692929 -0.03868862
-0.022954384 0.03535423 0.5966273 -0.025524298 1.5145518 0.3471942 -1.7962193 0.70774215
0.13489519 0.012285678 0.038089838 5.204126 3.5765078 1.6981349 -0.5475597 2.292662
-0.018950166 -0.08690052 0.5187274 0.027430084 0.03411 -0.25125033 0.024836674 0.03860609
0.03039273 0.0031141276 0.45043287 -1.2610935 0.01926128 -0.73515904 -0.13362816 4.821436
-1.3781486 -0.029851535 0.043865465 1.2908028 -0.6273846 -1.9565651 -0.8211697 0.6417063
-0.012713845 1.249626 -0.053756524 0.5750071 -0.00799868 0.6558418 2.7815006 -0.008302352
0.008563189 0.7525455 -0.022815108 4.394106 -1.1588401 1.1239772 -1.8593183 -0.51855206
3.511283 0.027566047 -1.115424 -0.47263977 -1.8889265 -0.31588095 0.0102465 -0.25380942
-0.0035960907 -0.0053753196 0.0004714354 -0.010256186 0.03340278 0.032384064 0.23357919 -0.037587084
0.05759477 0.015262506 -0.01496313 -0.4445341 0.032017216 -0.9772315 -0.0030305611 0.0025434478
0.8344188 0.05368198 -0.020084357 -0.045443065 -0.0046275347 -0.009780344 -2.7858453 -4.416694
0.019056374 0.011823057 -2.9253657 0.030015437 0.03701863 0.6453742 1.9753929 2.8169937
6.407811 1.1890601 -2.049126 -0.99643046 -3.197879 -1.18779 0.07859146 1.4670213
0.023316178 5.5878354e-05 0.4411431 0.05607188 -0.37148568 -0.012453084 0.07154148 -0.030812358
-0.02022636 0.6027756 -1.3623278 3.8128836 -0.009040105 -0.029190486 -2.0669127 0.03320431
0.20559146 -0.49958053 -0.0068677925 1.3151623 -0.040715612 6.57928 -3.6983237 -0.002942843
-0.0023440549 -0.02034905 0.0044072485 0.033214755 -0.3535344 0.030501667 0.4984053 -3.236294e-05

l3.bias f4 [3]
00000000: d564 7bbe e399 05be 5f95 f0bd
-0.24550183 -0.13046984 -0.1174724
