saves/Dobot-v4/sr/seed_0/model/critic.pth (torch, 307031 bytes, 5 tensors)

l1.weight f4 [256, 39]
0	0x3f3f6f01	0.74778754
1	0x3e89c9c8	0.2691176
2	0x3e8cd6a1	0.275075
3	0x3e2503f4	0.16114789
4	0x3ee8fc69	0.45505074
5	0x3ef14ee5	0.47130504
6	0x3ed587b9	0.4170511
7	0xbf8d8daf	-1.1058863
8	0x3e33be33	0.17553024
9	0xbda86108	-0.08221632
10	0xbf328449	-0.697331
11	0x3e39e503	0.18153767
12	0xbf914be8	-1.135129
13	0x3fe74c0b	1.8070081
14	0xbed78901	-0.42096713
15	0xbed081c9	-0.40724018
16	0x3f468f96	0.77562845
17	0x3ca5c507	0.020235552
18	0x3da39fb2	0.07989444
19	0xbe299d10	-0.16563821
20	0xbe513b5c	-0.204328
21	0x3ebe590c	0.37177312
22	0xbc8c2d58	-0.017111465
23	0xbdd34eab	-0.10317739
24	0xc01c7774	-2.4447908
25	0x4159e499	13.61831
26	0x3e505fba	0.20349017
27	0xbee1ccea	-0.4410165
28	0x3f60ffb4	0.8789017
29	0x3f80a55e	1.0050466
30	0xbce8ea51	-0.028432043
31	0xbea0b7ab	-0.31390128
32	0x3fd8ca3f	1.6936721
33	0xbef57723	-0.47942457
34	0xbe381da6	-0.1798006
35	0xbe32b81f	-0.17453049
36	0x3ee04f48	0.43810487
37	0xbe54f57e	-0.20796773
38	0xbe12f0f1	-0.14349724
39	0x3e996096	0.29956502
40	0xbe284fb1	-0.1643665
41	0xbe237dc4	-0.15965945
42	0xbe93db60	-0.28878307
43	0x3eac3d8c	0.33640707
44	0x3e98739a	0.29775697
45	0xbf2b34bd	-0.6687735
46	0xbf37e79b	-0.71837777
47	0xbd353238	-0.044237345
48	0xbdd2b88c	-0.10289106
49	0xbe043a0e	-0.12912771
50	0xbf7b31ef	-0.9812307
51	0xbef03957	-0.46918747
52	0x3f1092e5	0.56474143
53	0x3e51871b	0.20461695
54	0x3ea2d43d	0.3180255
55	0xbefad4f2	-0.4899059
56	0xbe4a4d9a	-0.19756165
57	0x3fc6507f	1.5493315
58	0xbf524807	-0.82141155
59	0xbdb5e224	-0.088810235
60	0x3ed705fd	0.41996756
61	0xbe6d80e1	-0.23193695
62	0xbec4a7e3	-0.38409337
63	0xc00f697b	-2.240813
64	0x3fdc1900	1.7195129
65	0x40d8b7c1	6.772431
66	0x3fe33651	1.7750951
67	0xbfb45618	-1.4088774
68	0x3f9a6120	1.206089
69	0x4000376e	2.0033832
70	0xc0094418	-2.144781
71	0x3fa3d5fa	1.2799675
72	0x3f8fea00	1.1243286
73	0xbe6a2226	-0.22864589
74	0x3f6add6c	0.9174411
75	0xbef9b2ea	-0.48769313
76	0x3eb16f37	0.34655163
77	0x3e69087d	0.22757144
78	0xbd3c76ae	-0.04601162
79	0x3dae74bf	0.08518361
80	0x3cff2cc0	0.031149268
81	0xbf05ba70	-0.52237606
82	0x3ee34236	0.44386452
83	0x3eb82a56	0.359698
84	0xbdf53880	-0.11973667
85	0xbefedd8e	-0.49778408
86	0x3d50e417	0.050998773
87	0xbe9556ca	-0.29167777
88	0xbe570dd4	-0.21001369
89	0xbf0d5753	-0.5521137
90	0x3e583494	0.21113807
91	0xbf60e82f	-0.87854284
92	0xbddaa55e	-0.106760725
93	0x3f0de541	0.5542794
94	0xbf1ac7be	-0.6046103
95	0xbed3ae45	-0.41343895
96	0xbeb96432	-0.36209255
97	0x3d76fcaf	0.06029957
98	0xbed66323	-0.4187251
99	0xbd9de495	-0.07709614
100	0xbf696b5b	-0.91179436
101	0xbf0d6d0c	-0.5524452
102	0x3fb8c46e	1.4434946
103	0xc0972fe4	-4.724596
104	0x4090c5a8	4.524128
105	0x3fe9e074	1.8271623
106	0xbf55b381	-0.83477026
107	0x3daa0b60	0.08302951
108	0x3efc4ea5	0.4927875
109	0x3f766803	0.9625246
110	0x3ad7c31b	0.0016461344
111	0x3e987313	0.29775295
112	0xbf5e2cd0	-0.8678713
113	0xbfa9d802	-1.3269045
114	0xbe405245	-0.18781383
115	0x3cb98198	0.022644803
116	0xbba71d3a	-0.0050999196
117	0xbe0881a9	-0.13330711
118	0xbd2a0f55	-0.041518528
119	0xbe7da45e	-0.24769732
120	0xbd9ae331	-0.075628646
121	0x3dd66c43	0.10469868
122	0x3d21662f	0.03940409
123	0xbe424eab	-0.18975322
124	0xbd5805b5	-0.052739818
125	0xbe72ba36	-0.23703846
126	0xbe21bc82	-0.15794566
127	0xbd87ec58	-0.06636876
128	0xbeeb7d57	-0.45994064
129	0x3d259385	0.04042389
130	0x3eb8f459	0.36123922
131	0x3d28babe	0.041193716
132	0xbe6f52d4	-0.2337144
133	0x3ecd9259	0.40150717
134	0x3dcfb311	0.10141576
135	0xbea06bc9	-0.31332234
136	0x3e88e124	0.2673427
137	0x3d562ae2	0.05228699
138	0xbed1ab36	-0.40950936
139	0x3f050326	0.5195793
140	0x3dc09d3f	0.09404992
141	0xbf05ff2e	-0.523425
142	0x3f931f89	1.1493999
143	0xbf43d52e	-0.7649716
144	0xbe69af8e	-0.22820875
145	0x3e8858ca	0.2663024
146	0xbe74d005	-0.23907478
147	0xbdd4d1c3	-0.103915714
148	0x3ec0a28b	0.3762401
149	0x3e571856	0.21005377
150	0xbdbe4454	-0.09290376
151	0x3ecc68ee	0.39923805
152	0x3eafdb33	0.34346923
153	0xbd5cb950	-0.053887665
154	0xbce0ed07	-0.027456773
155	0xbe27e8f0	-0.16397452
156	0x3e02b4f6	0.12764344
157	0x3e5cc4c9	0.21559443
158	0x3e420885	0.18948562
159	0xbf35436d	-0.7080601
160	0x3f0ed62c	0.5579555
161	0x3f57cd27	0.8429741
162	0xbf4b074b	-0.79308003
163	0xbf70dd18	-0.9408736
164	0x3e82cf4a	0.25548774
165	0xbf2b1984	-0.6683581
166	0xbeace614	-0.33769286
167	0xbf5cc180	-0.8623276
168	0xbf69ba3f	-0.91299814
169	0xbf978b0b	-1.1839308
170	0x3e492b3a	0.19645396
171	0x3e897d16	0.26853245
172	0xbea36440	-0.31912422
173	0xbee2a572	-0.4426685
174	0xbf12ef5d	-0.5739649
175	0xbe8b8982	-0.27253348
176	0xbeaf4167	-0.34229586
177	0x3d147736	0.0362465
178	0x3ebd73c4	0.37002385
179	0xbf2253c9	-0.63409096
180	0xc0fdfcb2	-7.9370966
181	0xc0d2a07a	-6.5820894
182	0x4141e0ef	12.117415
183	0x3fa1f272	1.2652113
184	0xbfcefec1	-1.6171495
185	0x3fdf066e	1.7423837
186	0xbde83f49	-0.11340196
187	0xbf668f15	-0.90062076
188	0x4046e0aa	3.1074624
189	0x3f0751c5	0.52859145
190	0x3de965dc	0.11396381
191	0x3facbaa6	1.349446
192	0xbf4170b3	-0.7556259
193	0x3ebbdec0	0.36693382
194	0x3ec7b1f6	0.3900296
195	0xbea27444	-0.3172933
196	0xbe069bb5	-0.13145335
197	0xbe2a4992	-0.16629627
198	0xbe5a108f	-0.21295379
199	0x3de502df	0.11182188
200	0x3d9ed670	0.077557445
201	0xbc8d041c	-0.017213874
202	0xbdfb606f	-0.122742526
203	0xbdfb9a17	-0.1228525
204	0xbd9f7c48	-0.07787377
205	0x3defbfc7	0.117065005
206	0xbf56880c	-0.8380134
207	0xbe923878	-0.28558707
208	0x3f4efcbc	0.8085439
209	0x3dd53dff	0.104122154
210	0xbed1ddf2	-0.40989643
211	0x3f13e68c	0.5777366
212	0x3eb46acb	0.35237727
213	0xbdce2706	-0.10066037
214	0x3f30245f	0.688055
215	0x3e962bc0	0.29330254
216	0xbe071238	-0.13190544
217	0x3f819682	1.0124056
218	0x3e83bb6e	0.25728935
219	0xbeff6e84	-0.49889004
220	0x3fe4ab87	1.7864846
221	0xbfb40dcf	-1.4066714
222	0xbeab12bf	-0.3341274
223	0x3f4712cc	0.77763057
224	0x3dc9af34	0.098478705
225	0xbe1a2292	-0.1505225
226	0x3ebb173d	0.36541167
227	0x3d189953	0.037255596
228	0xbdaf5eb1	-0.08562983
229	0x3f184c87	0.5949177
230	0x3f4c059b	0.79696053
231	0xbda43ae5	-0.08019046
232	0xbea25ebf	-0.3171291
233	0xbee92bbe	-0.45541185
234	0xbe0ebc16	-0.13938937
235	0xbdd52772	-0.10407914
236	0xbc6703fb	-0.01410007
237	0xbd6b0cb8	-0.057385176
238	0xbdd6a4f6	-0.104806826
239	0xbd506055	-0.05087312
240	0x3ddf9341	0.10916758
241	0xbd480ba2	-0.04883922
242	0x3db73815	0.08946244
243	0xbd628045	-0.05529811
244	0xbc9397fd	-0.01801681
245	0x3ce93e44	0.028472073
246	0xbe1b141a	-0.15144387
247	0x3e026ea6	0.12737522
248	0xbc9be373	-0.019029355
249	0xbda4254a	-0.08014925
250	0xbdbac584	-0.09119704
251	0x3e23d3cd	0.15998764
252	0xbbad7ac3	-0.0052941754
253	0x3d7821a0	0.060578942
254	0x3c862b02	0.01637793
255	0x3b083148	0.0020781327

l1.bias f4 [256]
0	0x3e0f2719	0.13979758
1	0x3db7e62d	0.089794494
2	0x3ceacf38	0.028663263
3	0xbe05e53c	-0.13075727
4	0x3e96b48c	0.2943462
5	0xbe0dbee7	-0.13842355
6	0xbe502882	-0.20327953
7	0xbe7f908f	-0.24957488
8	0xbe697ff3	-0.22802715
9	0xbeaca11e	-0.33716673
10	0xbecd6fa3	-0.40124235
11	0x3e036349	0.12830843
12	0xbe3ebfe6	-0.18627891
13	0xbe1c0e92	-0.15239933
14	0xbe9967ed	-0.29962102
15	0xbe45ada0	-0.19304514
16	0xbe251634	-0.16121751
17	0xbd09f769	-0.033683214
18	0x3e5ef018	0.21771276
19	0x3e7bca82	0.2458897
20	0x3e96a4f2	0.29422718
21	0xbe44d438	-0.1922158
22	0xbd2e4450	-0.042545617
23	0xbe03b91f	-0.12863587
24	0xbd883ad6	-0.06651847
25	0xbdc65e8a	-0.09686001
26	0xbd989703	-0.07450678
27	0xbd805e7b	-0.06268021
28	0x3c1c2d6a	0.009532312
29	0xbe590b96	-0.21195826
30	0x3d677617	0.056509104
31	0xbe478103	-0.19482808
32	0x3ec24453	0.37942752
33	0xbe815ef0	-0.25267744
34	0xbdcd3f58	-0.100218475
35	0xbdd30dca	-0.103053644
36	0xbb8e137f	-0.00433582
37	0xbe0f0f85	-0.13970764
38	0xbb3a1365	-0.0028392908
39	0x3eddc0c6	0.43311137
40	0x3de8275f	0.113356344
41	0xbcbc4812	-0.022983585
42	0x3db39c11	0.08770002
43	0x3c9477fb	0.018123617
44	0xbea5691e	-0.3230676
45	0x3dfe5b90	0.12419808
46	0xbcdd703c	-0.027031057
47	0xbe3221ba	-0.17395678
48	0xbdd4f5fb	-0.103984796
49	0x3d46beb1	0.0485217
50	0x3cb36666	0.021899413
51	0xbdd10486	-0.10205941
52	0xbe8cb243	-0.27479753
53	0xbe5756aa	-0.21029153
54	0xbbd5fa1a	-0.0065300586
55	0xbde8af1d	-0.11361525
56	0xbe07c84d	-0.13260002
57	0xbe3740ec	-0.1789586
58	0xbe0bebe8	-0.1366421
59	0x3c041387	0.008061296
60	0xbdd542e0	-0.10413146
61	0x3bf0194b	0.007327234
62	0xbce93d33	-0.028471565
63	0x3c6231e7	0.013805843
64	0x3db555e6	0.088542745
65	0x3e2d1188	0.16901219
66	0xbed550a0	-0.41663074
67	0xbdc7cf7e	-0.09756373
68	0x3a3d8209	0.00072291546
69	0x3c1132ff	0.008862256
70	0x3e0e3936	0.13889012
71	0x3d90c6ae	0.07069145
72	0xbd72d352	-0.059283562
73	0xbd8bf9f0	-0.06834781
74	0x3d0df869	0.03466073
75	0x3a7b3e68	0.00095841894
76	0xbd3611c0	-0.04445052
77	0xbd9dcd62	-0.07705189
78	0xbd2fe5f9	-0.04294393
79	0xbd6a9cd9	-0.057278488
80	0xbeee03a7	-0.46487162
81	0x3badf737	0.0053090113
82	0x3ceeb606	0.02913953
83	0xbedbfc8a	-0.4296611
84	0xbcb6c504	-0.022310741
85	0xbe3e1937	-0.18564306
86	0x3da43670	0.08018196
87	0xbe54b0ae	-0.20770523
88	0xbd8a6a06	-0.067585036
89	0xbe81e74e	-0.25371784
90	0xbe36454b	-0.1779987
91	0x3e9ffa58	0.31245685
92	0xbd15d111	-0.036576334
93	0x3c2b75e2	0.010465117
94	0xbec07773	-0.37591133
95	0xbe7e9d78	-0.24864757
96	0xbd8fd204	-0.07022479
97	0xbe8c89a7	-0.2744877
98	0xbe242230	-0.16028666
99	0xbe4696a4	-0.19393402
100	0xbdb2ca08	-0.08729941
101	0xbe04fc81	-0.12986948
102	0xbdfee3ed	-0.12445817
103	0x3d22cbe9	0.039745245
104	0xbce855f4	-0.028361298
105	0xbee9751e	-0.45597166
106	0xbda6a3d2	-0.08136715
107	0x3d7690ad	0.060196567
108	0xbdb9a0aa	-0.09063847
109	0xbe413707	-0.18868648
110	0x3e8f7ef1	0.28026536
111	0xbd947499	-0.07248802
112	0xbda0dbf5	-0.078544535
113	0x3d5a3db1	0.05328149
114	0xbe18dcc1	-0.14927961
115	0xbcda721b	-0.026665738
116	0xbe37e239	-0.17957391
117	0x3f169460	0.5882015
118	0xbdbfc189	-0.09363086
119	0xbde259f5	-0.11052314
120	0xbda44fce	-0.08023034
121	0xbe375ff3	-0.17907695
122	0xbd4e1780	-0.05031538
123	0xbdc54e5b	-0.09634086
124	0xbd95881a	-0.0730135
125	0xbe016f51	-0.1264012
126	0xbedec894	-0.43512404
127	0xbddff449	-0.109352656
128	0x3cff8446	0.031191003
129	0xbd565455	-0.05232652
130	0x3ed599c7	0.41718885
131	0xbec52b09	-0.38509396
132	0xbb18e025	-0.002332696
133	0xbda80cc7	-0.08205562
134	0xbdc9807b	-0.09838959
135	0x3d1ab470	0.037769735
136	0xbe011613	-0.12606077
137	0xbc469301	-0.012120009
138	0x3c8e6e08	0.017386451
139	0x3c790007	0.01519776
140	0xbdebdbdf	-0.115165465
141	0x3e571306	0.2100335
142	0x3e6f6974	0.23380071
143	0xbe092aed	-0.13395281
144	0xbd76b751	-0.060233418
145	0x3cc76749	0.024341242
146	0xbe4096cb	-0.18807523
147	0x3cbe1a18	0.023205802
148	0x3e311199	0.17291869
149	0x3b201174	0.0024424465
150	0xbdef63b5	-0.116889395
151	0xbe90601f	-0.28198335
152	0xbd3e2fde	-0.04643237
153	0x3d6fe6f2	0.058569856
154	0xbe7168f9	-0.235752
155	0xbe9f4675	-0.31108442
156	0xbe007efe	-0.12548444
157	0x3d641a87	0.05568936
158	0xbe1b056e	-0.1513879
159	0x3d11e26c	0.035616323
160	0xbe9cfd24	-0.3066188
161	0xbdef7dd7	-0.11693924
162	0xbdafbed2	-0.08581318
163	0xbdd58d80	-0.104273796
164	0xbcebbc72	-0.028776381
165	0x3e9ef2f4	0.31044734
166	0x3da00197	0.07812803
167	0x3d2e4662	0.04254759
168	0x3d4e59b0	0.0503785
169	0xbeb13e0f	-0.3461766
170	0xbb22783b	-0.0024790901
171	0xbc0eb355	-0.008709748
172	0xbc8b310b	-0.016991159
173	0xbcb07eeb	-0.021544894
174	0xbd407a9b	-0.046991926
175	0x3ebe7475	0.37198225
176	0xbde78174	-0.11303988
177	0xbe4db09e	-0.20086905
178	0x3f4796df	0.77964586
179	0xbe5b8d3f	-0.214406
180	0xbdf3dcd2	-0.119073525
181	0xbdae6f50	-0.08517325
182	0xbe53e2a5	-0.20691927
183	0x3e0ad4fc	0.1355781
184	0x3c9076c4	0.017634757
185	0x3e539a10	0.20664239
186	0xbef1f18a	-0.47254592
187	0xbe79b413	-0.24385099
188	0xbcc0d778	-0.023540244
189	0xbcb07a96	-0.021542829
190	0xbdb9344a	-0.090431765
191	0xbe8a5b3a	-0.27022725
192	0xbebcf9a6	-0.36909217
193	0xbe1b613d	-0.15173812
194	0xbe3468f3	-0.1761816
195	0x3d3bd1d3	0.0458544
196	0xbdfe6728	-0.12422019
197	0x3de44498	0.11145896
198	0xbe6663a7	-0.22498952
199	0xbdd8f541	-0.105936535
200	0xbdeb0338	-0.11475223
201	0xbdd13df5	-0.102168955
202	0xbda5917f	-0.08084392
203	0xbd86bb08	-0.06578642
204	0xbf054d11	-0.5207072
205	0xbe0f6946	-0.14005002
206	0xbd71a58b	-0.058995765
207	0xbe8ea1de	-0.2785787
208	0xbdb88e54	-0.09011522
209	0xbbf46829	-0.007458706
210	0xbe012884	-0.12613112
211	0x3f06ccc7	0.52656215
212	0xbe389542	-0.18025687
213	0xbd7526b2	-0.059851356
214	0xbe26d55e	-0.1629233
215	0xbdf4f21f	-0.119602434
216	0xbe10f4d3	-0.14155893
217	0xbe3aaacf	-0.18229221
218	0xbe2e9c3c	-0.17051786
219	0xbd9ae01b	-0.07562276
220	0xbda4277d	-0.08015344
221	0x3dae77bd	0.08518932
222	0xbcd6e622	-0.026232783
223	0xbe2b51cf	-0.16730426
224	0x3e3c8d9c	0.18413395
225	0xbd1e536b	-0.038653772
226	0x3dffa5eb	0.12482818
227	0x3d96614f	0.07342779
228	0xbdc60d0e	-0.09670459
229	0xbe03c0b7	-0.12866484
230	0x3e5f37bf	0.21798609
231	0xbe430f7c	-0.19048876
232	0xbe6f1518	-0.2334789
233	0x3a909d50	0.0011033211
234	0x3dc4258d	0.09577475
235	0xbe95f58f	-0.2928891
236	0x3c7d0522	0.015443118
237	0xbe6aead9	-0.2294115
238	0xbd84b780	-0.06480312
239	0x3cafe212	0.021470103
240	0x3d89e921	0.06733919
241	0xbc51eaec	-0.012812357
242	0x3ed71503	0.42008218
243	0x3d0876e9	0.033316527
244	0xbf043d6e	-0.51656234
245	0x3de17465	0.110085286
246	0xbd0badd4	-0.034101322
247	0xbdeb02d4	-0.11475149
248	0xbe789e56	-0.2427915
249	0xbc7fa6c1	-0.015603722
250	0x3c29c622	0.01036218
251	0x3d86feb4	0.065915495
252	0xbe69ae88	-0.22820485
253	0x3d2b0cde	0.041760318
254	0xbec28a1b	-0.3799599
255	0xbe457530	-0.19282985

l2.weight f4 [256, 256]
0	0xbd615a59	-0.055017803
1	0x3cd84f34	0.026404954
2	0xbc8296ac	-0.015940987
3	0xbd64193e	-0.055688135
4	0xbba84a01	-0.005135775
5	0x3bda846a	0.006668617
6	0xbc8e0e9c	-0.01734095
7	0xbcfcc050	-0.03085342
8	0xbaf111e1	-0.0018392169
9	0xbacba201	-0.0015535952
10	0x3bb7a94a	0.0056048976
11	0xbc5591f7	-0.013035289
12	0xbd08d184	-0.033402935
13	0x3d2c08a8	0.042000443
14	0xbc408111	-0.011749522
15	0xbd5a0685	-0.053228874
16	0xbbc9a519	-0.0061537144
17	0xbd89ab6d	-0.0672215
18	0xbd00beea	-0.03143207
19	0xbd4d2180	-0.050080776
20	0x3d115118	0.035477728
21	0xbd3d3b67	-0.04619923
22	0xbd4788e8	-0.04871455
23	0xbd2843aa	-0.041080154
24	0x3cb304fd	0.021852965
25	0xbcf18e43	-0.029486781
26	0xbd3247ad	-0.043525387
27	0x3d83ce8e	0.064358816
28	0xbd6cb7f1	-0.057792608
29	0xbd4a48e6	-0.049385928
30	0xbd2fce9d	-0.04292165
31	0xbd03a908	-0.032143623
32	0xbceea1b0	-0.029129833
33	0xbd90f95d	-0.07078812
34	0x3d05717b	0.032578927
35	0x3d6e7208	0.058214217
36	0x3b8e625a	0.0043452205
37	0x3d6cfdea	0.05785934
38	0xbcf0e197	-0.029404445
39	0x3cee4638	0.029086217
40	0xbda3b558	-0.07993573
41	0xb90e9d10	-0.00013600686
42	0xbc1a50a0	-0.009418637
43	0x3c789ea7	0.015174544
44	0x3c3ac691	0.011399881
45	0x3bde74da	0.006788832
46	0xbc26fedf	-0.010192602
47	0x3d2dc010	0.042419493
48	0x3cb5be88	0.022185579
49	0x3c6c2020	0.014411956
50	0xbd2ba34a	-0.04190377
51	0xbd797e10	-0.06091124
52	0xbd0185ec	-0.03162186
53	0xbcf57063	-0.029960817
54	0xbc6b2053	-0.014350968
55	0x3cd8b972	0.026455615
56	0x3c93526a	0.017983634
57	0xbd95db32	-0.07317199
58	0xbd4029cc	-0.04691486
59	0xbd8928cb	-0.06697234
60	0xbd580bcb	-0.05274562
61	0x3cae00d8	0.021240637
62	0xbd6a86be	-0.057257406
63	0xba90d98f	-0.0011051166
64	0xbdaac6fc	-0.083387345
65	0xbd23db94	-0.040004328
66	0xbd6c4f76	-0.057692967
67	0x3ca5fd3a	0.02026235
68	0x3cd0aaf8	0.02547215
69	0x3cb9e3df	0.022691665
70	0xbaba08dd	-0.0014193315
71	0xbbf1da18	-0.007380735
72	0xbba78d79	-0.0051133004
73	0xbd329610	-0.043600142
74	0x3c912bee	0.017721143
75	0x3c3dfbc8	0.011595674
76	0xbd2e8df9	-0.042615864
77	0x3ca64345	0.020295748
78	0x3d531015	0.05152901
79	0xbc70b8c0	-0.014692485
80	0xbcf6b1ed	-0.030114138
81	0xbb833680	-0.0040042996
82	0xbd316904	-0.04331304
83	0xbb8093f6	-0.0039238883
84	0xbd587b1a	-0.052851774
85	0x3c6a980c	0.014318477
86	0x3c9d4805	0.01919938
87	0x3d6044f7	0.05475327
88	0x3d46e8e6	0.048561953
89	0xbcadee40	-0.02123177
90	0xbd48f265	-0.04905929
91	0x3c52fc42	0.012877526
92	0xbd03852d	-0.03210943
93	0xbc9fa84e	-0.019489434
94	0xbcae9e3d	-0.021315688
95	0xbd28dadb	-0.04122434
96	0xbcdcb92d	-0.026943767
97	0xbd388d8f	-0.045056876
98	0x3d10ef1e	0.03538429
99	0x3cb315e0	0.021861017
100	0x3d42e0d2	0.047577687
101	0xbd3d41b8	-0.046205252
102	0xbd8dcc6e	-0.069237575
103	0x3d65162a	0.05592934
104	0xbbd7adf0	-0.0065820143
105	0xbd08f407	-0.033435848
106	0x3d4e0cc6	0.05030515
107	0xbced68bc	-0.028980605
108	0xbda58b09	-0.080831595
109	0xbcaea1d8	-0.021317407
110	0xbd405fa7	-0.04696622
111	0xbd2ee3f5	-0.042697866
112	0xbbba26c6	-0.0056808917
113	0x3d350d78	0.044202298
114	0xbd77a55b	-0.06046043
115	0x3d62cba8	0.055370003
116	0x3c94311c	0.018089823
117	0xbc6575da	-0.014005149
118	0x3d53cb58	0.051707596
119	0x39f2afcc	0.00046288816
120	0xbd5ab86e	-0.053398542
121	0xbca52bc2	-0.020162467
122	0xbcbc0eee	-0.022956338
123	0x3c4f0a90	0.012636796
124	0xbd79521a	-0.060869314
125	0x3d08c8e9	0.033394728
126	0xbc848048	-0.01617445
127	0x3c4bda08	0.012442119
128	0x3cae788d	0.021297717
129	0xbc756b28	-0.014979161
130	0xbd395df4	-0.045255616
131	0x3d089469	0.03334466
132	0x3d4b9368	0.049701124
133	0xbd0c2031	-0.034210388
134	0x3d89829f	0.06714367
135	0xbd06da80	-0.03292322
136	0xbbca9dc6	-0.006183359
137	0x3d04c8a4	0.03241791
138	0xbc344a86	-0.011004096
139	0x3bbdda23	0.005793826
140	0x3cf11cf6	0.029432755
141	0xbdb252a5	-0.087071694
142	0x3cbc6459	0.022997068
143	0xbcad3e80	-0.021147966
144	0x3c5c3875	0.013441195
145	0xbd3bb236	-0.045824252
146	0xbd0d60dd	-0.034516204
147	0x3d4d1191	0.05006558
148	0xbc00f785	-0.007871513
149	0xbd45cdfe	-0.048292153
150	0x3d09022b	0.033449333
151	0x3b30ce5d	0.002697847
152	0xbd0db31a	-0.034594633
153	0xbc888a20	-0.016667426
154	0x3d77849b	0.060429197
155	0x3d38e676	0.04514166
156	0xbba943cf	-0.005165554
157	0xbcb0e3fc	-0.021593086
158	0xbd39c2ca	-0.04535178
159	0xbc8679fd	-0.01641559
160	0x3c9f6e20	0.019461691
161	0x3c95dd5c	0.018294029
162	0x3d1fc906	0.03901007
163	0xbd76a1e0	-0.06021297
164	0x3a4bfe7b	0.0007781756
165	0xbd71853b	-0.05896495
166	0xbc6f60d7	-0.014610491
167	0xbbe0f6d0	-0.00686536
168	0xbd1c8504	-0.03821279
169	0x3ce3ce1e	0.027808245
170	0xbd760ea3	-0.060072552
171	0xbd354a5a	-0.04426036
172	0xbd02649f	-0.03183424
173	0xbd4febde	-0.05076205
174	0xbcc72e55	-0.024314085
175	0x3b733000	0.0037107468
176	0x3c11f94a	0.008909533
177	0xbd3a57a2	-0.04549373
178	0xbd5e7099	-0.0543066
179	0xbca25c64	-0.019819446
180	0xbcc3dfa0	-0.023910344
181	0xbb52a583	-0.003214211
182	0x3b76f52c	0.0037682755
183	0x3d3c75c1	0.046010736
184	0xbd4097b6	-0.047019683
185	0x3bed0127	0.0072328034
186	0xbd4380b3	-0.04773016
187	0xbd59970d	-0.05312257
188	0x3ca9937f	0.020700214
189	0xbd3fc30a	-0.046816863
190	0xbd7ba6be	-0.061438315
191	0xbbfbc5f0	-0.007683508
192	0xbd757ea9	-0.059935246
193	0x3d766d2d	0.060162712
194	0x3d4068c4	0.046974912
195	0xbc15ae20	-0.009135753
196	0xbb73f1e0	-0.0037223026
197	0xbd025a3a	-0.031824328
198	0x3cb9969a	0.02265482
199	0xbd710733	-0.058844756
200	0xbd087f4a	-0.033324517
201	0xbd60805c	-0.054809913
202	0x3d04fa24	0.032465115
203	0x3d1ee2e7	0.03879061
204	0x3d470279	0.048586342
205	0x3d07ded5	0.033171494
206	0xbcee3468	-0.029077724
207	0xbca44098	-0.020050332
208	0xbd6a89a1	-0.05726016
209	0xbd4d4bca	-0.050121106
210	0xbbffd490	-0.007807322
211	0x3c9308f6	0.017948609
212	0x3cfe1308	0.031014934
213	0xbd6bf2e2	-0.057604678
214	0x3c484f40	0.012225926
215	0xbd3a2fa8	-0.045455605
216	0xbd3792d6	-0.044817768
217	0x3d6864b2	0.056736656
218	0xbb563a87	-0.0032688694
219	0x3ad44fd7	0.001619811
220	0xbd21fb05	-0.03954603
221	0xbd2761f2	-0.040864892
222	0xbd844e0e	-0.064602
223	0x3d6384f0	0.0555467
224	0xbcf818e1	-0.0302853
225	0xbd54e27e	-0.051973812
226	0xbcc4fbb1	-0.024045797
227	0xbd0f2230	-0.034944713
228	0x3c862b38	0.01637803
229	0xbd7d8ee6	-0.061903857
230	0xbda3bd9e	-0.07995151
231	0xbc197588	-0.009366401
232	0x3a9028fa	0.001099854
233	0x3c9c9cdc	0.019117765
234	0x3d4f50c9	0.050614152
235	0x3bb9ad55	0.0056664147
236	0x3cc61a19	0.024182366
237	0xbcad6d79	-0.021170365
238	0x3b6bb53b	0.0035966176
239	0xbcc0b194	-0.023522176
240	0x3d2804a7	0.04102006
241	0x3d4e01d2	0.050294705
242	0x3d1ef20e	0.03880506
243	0xbd965b89	-0.07341678
244	0xbda5b483	-0.080910705
245	0xbbc17a60	-0.005904481
246	0x3d04d498	0.032429308
247	0x3d64c88e	0.055855326
248	0x3d55072c	0.052008793
249	0x3d133e4d	0.035948087
250	0x3b2408e0	0.0025029704
251	0xbd12bda1	-0.035825375
252	0x3c865f94	0.016402997
253	0xbd3adb2c	-0.045619175
254	0xbd47bc31	-0.048763458
255	0x3ca35eee	0.019942727

l2.bias f4 [256]
0	0xbd94f384	-0.072730094
1	0xbd5e9ca5	-0.054348607
2	0xbd51970e	-0.051169448
3	0xbd3cc9ff	-0.046091076
4	0xbc98c245	-0.018647322
5	0xbd7a044b	-0.06103925
6	0xbd17fa7e	-0.037104122
7	0xbd95b389	-0.07309634
8	0xbc45d54b	-0.012074779
9	0x3d83fa04	0.06444171
10	0xbd925b09	-0.0714627
11	0xbf665b52	-0.89983094
12	0x3cb70b8c	0.022344373
13	0xbe9f703b	-0.31140313
14	0xbdc8f383	-0.09812071
15	0xbc8fc66b	-0.017550668
16	0xbd821c05	-0.063530006
17	0xbdc165cb	-0.094432436
18	0xbca41b73	-0.02003262
19	0xbd66ed81	-0.056378845
20	0xbe56c857	-0.20974861
21	0xbd4b4d11	-0.049634043
22	0xbd31b076	-0.043381177
23	0x3b9f4da3	0.00486155
24	0xbc02c4ea	-0.007981518
25	0xbcf40e92	-0.029792104
26	0xbd4dd4a1	-0.050251607
27	0xbd29e4e3	-0.04147805
28	0xbc9a6252	-0.01884571
29	0xbda5dce5	-0.08098773
30	0xbe55e0b1	-0.20886494
31	0xbd816e59	-0.06319875
32	0x3a51acb6	0.0007998453
33	0xbda293d5	-0.07938353
34	0xbdb3ad0b	-0.0877324
35	0xbda8f181	-0.08249188
36	0x3d999189	0.07498462
37	0x3cd3ce2d	0.025855148
38	0x3c3bb369	0.011456349
39	0xbdfb4198	-0.122683704
40	0x3c1c5688	0.009542115
41	0xbdbd6add	-0.09248898
42	0xbd11c272	-0.035585828
43	0xbcfd01c6	-0.030884635
44	0xbd6f65c8	-0.058446676
45	0xbca266ee	-0.019824471
46	0xbe056b00	-0.13029099
47	0xbc7e1efb	-0.015510316
48	0xbcdd6e41	-0.027030112
49	0xbdbc02be	-0.091802105
50	0xbc46c578	-0.012132041
51	0xbc1e1b03	-0.009649995
52	0xbc4c9ea0	-0.012488991
53	0xbdf53221	-0.11972452
54	0xbd9a616d	-0.07538114
55	0x3d224312	0.039614744
56	0xbd04dd5d	-0.03243767
57	0xbd0b92db	-0.0340756
58	0xbda75fc6	-0.08172564
59	0xbd56a597	-0.052404013
60	0xbd9ca101	-0.076478966
61	0xbd93c019	-0.07214374
62	0xbc060993	-0.008180994
63	0xbd8bd1bb	-0.06827112
64	0xbd238c4f	-0.03992873
65	0x3c6b2505	0.014352088
66	0x3d7e8f1b	0.062148195
67	0xbca6ad91	-0.020346435
68	0x3c748d20	0.014926225
69	0xbd6d54fb	-0.05794237
70	0xbd80475c	-0.06263611
71	0xbd3ec140	-0.046571016
72	0xbd97fb06	-0.07420926
73	0xbe16f97c	-0.14743608
74	0xbddccac6	-0.107808635
75	0xbda409b5	-0.08009664
76	0xbd7b0174	-0.061280683
77	0xbd633ea3	-0.055479657
78	0xbd24f661	-0.040274028
79	0xbd93247f	-0.071846955
80	0xbd3243e3	-0.043521773
81	0xbe7a5b41	-0.24448873
82	0x3c9b204e	0.018936303
83	0xbd7fb320	-0.062426686
84	0xbc2510a4	-0.010074768
85	0x3ca3a71d	0.019977147
86	0xbd613cbf	-0.054989573
87	0xbd02ad56	-0.031903587
88	0xbc46506a	-0.012104133
89	0xbc9ab20c	-0.018883727
90	0xbd207048	-0.03916958
91	0xbd9ce36e	-0.07660566
92	0xbda7125d	-0.081577994
93	0xbc8704b4	-0.016481735
94	0xbd67bd5d	-0.056577075
95	0xbc9b4cbf	-0.018957494
96	0x3d1b8534	0.03796883
97	0xbca85a03	-0.020550733
98	0xbce7e2d4	-0.028306402
99	0xbd820272	-0.06348123
100	0xbd1d0cea	-0.038342394
101	0x3d0a8aa8	0.03382364
102	0xbd10341b	-0.03520594
103	0xbe05456a	-0.1301476
104	0xbd18c988	-0.03730157
105	0xbd51a329	-0.051180992
106	0xbd97c2fb	-0.074102364
107	0x3c25a3f3	0.010109889
108	0x3d119d73	0.035550546
109	0x3cb113d2	0.021615896
110	0xbe40f602	-0.18843845
111	0xbcc6ed11	-0.024282964
112	0x3e9f8351	0.31154874
113	0xbce58208	-0.028016105
114	0xbd88707a	-0.06662078
115	0xbbc30d8a	-0.0059525417
116	0xbcc5b09a	-0.024132062
117	0xbcf75333	-0.03019104
118	0xbdbbeb93	-0.091757916
119	0xbd89ce2b	-0.067287765
120	0xbe0b8699	-0.13625564
121	0xbd3b6208	-0.045747787
122	0xbd870682	-0.06593038
123	0xbcdbb0df	-0.026817737
124	0xbd063191	-0.032762114
125	0xbc49486f	-0.012285336
126	0xbd0d851d	-0.034550775
127	0xbd8e5e2c	-0.069515556
128	0xbdbcdc8e	-0.09221755
129	0x3cf3b508	0.029749408
130	0xbbf6569b	-0.0075176484
131	0xbcdf115a	-0.027229954
132	0xbdf5f1e7	-0.1200903
133	0xbd5e6a6a	-0.054300703
134	0xbde85f0d	-0.113462545
135	0xbd9c2779	-0.07624716
136	0xbd5dfce4	-0.054196253
137	0x3ccc0618	0.02490525
138	0xbdc13b5f	-0.09435152
139	0xbd083764	-0.03325595
140	0xbd5234de	-0.05131995
141	0x3e86c6d2	0.26323563
142	0xbd7ecaeb	-0.062205236
143	0xbdeb6b8b	-0.114951216
144	0xbd6dbaa3	-0.05803932
145	0xbded5937	-0.11589282
146	0xbc35a0dc	-0.011085715
147	0xbcde572a	-0.027141172
148	0x3b1db2ab	0.0024062793
149	0xbc55c7ed	-0.013048154
150	0xbde4ea38	-0.11177486
151	0x3b9575e2	0.004561172
152	0xbcd1acf6	-0.02559517
153	0xbcdcdd50	-0.026960999
154	0xbd91a2ee	-0.071111545
155	0x3ca3b7a7	0.019985033
156	0x3b6747ed	0.0035290674
157	0xbdd73484	-0.105080634
158	0xbd97e154	-0.07416025
159	0xbdd6305a	-0.10458441
160	0xba844108	-0.0010090182
161	0xbc8f7dfd	-0.01751613
162	0xbda4a945	-0.08040098
163	0xbd81b10b	-0.063325964
164	0xbdabfbc7	-0.08397632
165	0xbd5b217f	-0.05349874
166	0xbd137c6b	-0.036007326
167	0xbd6881b2	-0.056764312
168	0xbd4a4d67	-0.049390223
169	0xbc9b156c	-0.018931113
170	0xbd9c24e2	-0.07624222
171	0xbd480bc5	-0.04883935
172	0xbd422a64	-0.047403708
173	0xbdd65c57	-0.10466831
174	0xbd175353	-0.0369447
175	0xbdf0e703	-0.11762812
176	0xbd5c5892	-0.053795405
177	0x3c22871c	0.009919908
178	0xbdbd172d	-0.09232936
179	0xbd97e389	-0.07416446
180	0xbd919c70	-0.07109916
181	0xbd9bfa3f	-0.0761609
182	0xbd0b57e3	-0.034019362
183	0xbd98ee40	-0.074673176
184	0xbd47fa72	-0.048822828
185	0xbd3071cb	-0.04307727
186	0xbcb814b2	-0.022470806
187	0xbd200f63	-0.039077174
188	0xbde9e475	-0.11420528
189	0xbc3455f2	-0.011006819
190	0x3d213f58	0.03936705
191	0xbdcfd14d	-0.10147343
192	0xbd76e3b0	-0.060275733
193	0xbd8c7e61	-0.06860042
194	0xbd9da7bf	-0.07698011
195	0xbda747ef	-0.08168017
196	0xbc45ea7d	-0.012079832
197	0xbdd82dca	-0.105556086
198	0x3bd3a50a	0.006458883
199	0xbd99b7db	-0.07505771
200	0xbe121b16	-0.14268145
201	0xbd19df08	-0.037566215
202	0xbd8f5009	-0.06997687
203	0xbda75546	-0.081705615
204	0x3ca168e4	0.019703336
205	0x3f397481	0.72443396
206	0xbc4bccbc	-0.012438949
207	0xbe0cfd61	-0.13768531
208	0xbdafd21c	-0.08584997
209	0xbde1b3ff	-0.1102066
210	0x3b03d6f8	0.0020117145
211	0xbdbc068a	-0.09180935
212	0x3abd1ee3	0.0014428761
213	0xbda387a6	-0.07984857
214	0xbc90c4c5	-0.017671952
215	0xbccdb86f	-0.025112359
216	0xbdc692e4	-0.09695986
217	0xba2b34e1	-0.0006531012
218	0xbe416a5a	-0.18888226
219	0xbda2ff4a	-0.07958849
220	0xbd89a1a8	-0.067202866
221	0x3c91b885	0.017788181
222	0xbd22a8e3	-0.039711844
223	0xbca40bdd	-0.020025188
224	0x3c98b3e1	0.01864046
225	0xbe07958a	-0.13240638
226	0xbddd4398	-0.10803908
227	0xbd9f645c	-0.07782814
228	0xbd771afc	-0.06032847
229	0xbd7aad0d	-0.06120019
230	0xbcd87db5	-0.02642713
231	0xbb91ecab	-0.004453262
232	0xba66b764	-0.0008801131
233	0x3cd84538	0.026400194
234	0xbda3716f	-0.0798062
235	0x3bef5977	0.007304366
236	0xbdac8e48	-0.084255755
237	0xbc8960c7	-0.01676978
238	0xbd893393	-0.0669929
239	0xbd866533	-0.06562271
240	0xba7befcd	-0.0009610623
241	0xbe024081	-0.12719919
242	0x3d2cb1fa	0.04216192
243	0xbb480ce1	-0.0030525255
244	0xbd916205	-0.07098774
245	0xbdfe21d9	-0.124088
246	0xbdbbce43	-0.09170201
247	0xbdad959a	-0.084758
248	0xbdac7372	-0.08420457
249	0xbd19c9ac	-0.037545845
250	0xbd1482e5	-0.036257643
251	0xbd62e6ff	-0.055396076
252	0x3bcc6f5f	0.0062388624
253	0x3d194e7d	0.037428368
254	0xbdd6b94a	-0.1048456
255	0x3b3b913d	0.0028620504

l3.weight f4 [1, 256]
0	0x3c1bdf87	0.009513742
1	0x3c595dcf	0.013266995
2	0xbc80dfea	-0.01573177
3	0xbc5cc806	-0.013475424
4	0xbd1be4d8	-0.03806004
5	0xbc309105	-0.010776763
6	0x3c1ccad2	0.0095698405
7	0xbb726bec	-0.0036990596
8	0xbcc41aef	-0.023938624
9	0x3d0b0850	0.033943474
10	0x3cbab1a1	0.022789778
11	0xbf2362c3	-0.63822573
12	0x3c7579fd	0.014982698
13	0x3cf0020c	0.029297851
14	0xbc9c30f7	-0.019066317
15	0xbaff563c	-0.0019480656
16	0x3c5e94df	0.013585298
17	0x3bc6d5bd	0.00606796
18	0x3c877eb4	0.016539909
19	0xbc97c61b	-0.018527081
20	0xbf0459d1	-0.5169955
21	0x3c21d158	0.009876572
22	0xba0fc74c	-0.00054847146
23	0x3a883bd8	0.0010393811
24	0xbca83944	-0.020535119
25	0xbc3bc683	-0.011460903
26	0x3b4d5d8e	0.003133628
27	0x3c8d8805	0.017276773
28	0xbc10117b	-0.00879323
29	0xba5a0c4d	-0.0008317873
30	0x3bddfdab	0.0067746243
31	0x3cd8b39a	0.026452828
32	0xbbbbb7ad	-0.005728683
33	0x3ca7d694	0.020488061
34	0xbc18d15b	-0.009327258
35	0x3af0365f	0.0018326751
36	0x3d192e5c	0.037397727
37	0xbcd52a76	-0.026021224
38	0xbb05dc1b	-0.0020425383
39	0xbcb3cb2e	-0.02194747
40	0x3c14119e	0.009037403
41	0xbd27d8c5	-0.040978212
42	0xbb91eb0c	-0.0044530686
43	0xbc21c4bf	-0.009873568
44	0xbd07dea2	-0.033171304
45	0x3c246428	0.010033645
46	0xbc380580	-0.01123178
47	0x3d5967aa	0.053077377
48	0x3c7cabee	0.015421851
49	0xbc0c6ac6	-0.008570379
50	0x3c96f51e	0.018427428
51	0xbc230016	-0.009948751
52	0xbb3f908f	-0.002923045
53	0x3c0d0a41	0.008608402
54	0x3ca37d22	0.019957129
55	0xbc42348f	-0.011853351
56	0x3b8a2ece	0.0042170053
57	0xbba27130	-0.0049573407
58	0x3ca8c6f0	0.020602673
59	0x3d2c0dfd	0.042005528
60	0x3c9d122e	0.019173708
61	0xbc957c88	-0.018247858
62	0x3be5763c	0.00700262
63	0x3bd518ee	0.006503216
64	0x3c4aed09	0.012385615
65	0xbcf1ea2d	-0.029530609
66	0x3e87c121	0.26514533
67	0xbb946f06	-0.0045298366
68	0x3d14be2a	0.036314167
69	0x3d9792cc	0.07401046
70	0xbccf3484	-0.025293596
71	0x3d2f1cdb	0.042752128
72	0x3b8f9ec1	0.0043829386
73	0x3c83fefe	0.0161128
74	0x3c5f6a73	0.013636219
75	0xbcad98fa	-0.021191109
76	0xbc098f3b	-0.008395965
77	0xbbfab142	-0.0076505253
78	0xbcc4cff4	-0.024024941
79	0x3c713829	0.014722862
80	0x3cfb835e	0.03070229
81	0xbca0cda1	-0.019629302
82	0xb9994e4c	-0.0002924077
83	0xbc675ea5	-0.014121686
84	0x3cd5a4d1	0.026079567
85	0x3c58e56d	0.013238293
86	0x3cfd723d	0.030938262
87	0x3bb25958	0.0054427795
88	0xbc7ba674	-0.01535951
89	0xbb45ad63	-0.003016316
90	0x3cbf8219	0.023377465
91	0x3cbe5bd7	0.023237152
92	0x3d12ab18	0.0358077
93	0x3c041556	0.0080617275
94	0xbc67b705	-0.014142756
95	0xbb925619	-0.00446583
96	0xbba1a927	-0.0049334946
97	0xbc2b59a4	-0.010458384
98	0xbd014aea	-0.031565584
99	0xbb4218ed	-0.0029616908
100	0xbc9e746a	-0.01934262
101	0x3c6f744a	0.014615128
102	0x3ce277d0	0.027645022
103	0x3d19686a	0.037453093
104	0x3af62f6d	0.0018782445
105	0x3d17ef06	0.037093185
106	0xbc6a5355	-0.0143020945
107	0xbaf0a9c5	-0.0018361142
108	0xbd0e1457	-0.034687366
109	0x3ccc4230	0.024933904
110	0x3ba838e8	0.005133737
111	0xbb869292	-0.004106828
112	0x3c4010b7	0.011722735
113	0xbc30f5c3	-0.010800782
114	0x3cb9fc15	0.02270321
115	0xbc589ee5	-0.013221477
116	0xbc832790	-0.016010076
117	0xbcae82f6	-0.021302681
118	0xbbfbd3e6	-0.0076851724
119	0x3cac48dd	0.021030838
120	0xbc94e72c	-0.018176638
121	0x3cdcc6d1	0.026950272
122	0xbd0b3ebd	-0.03399538
123	0xbcd3065b	-0.025759866
124	0xbb2fcde0	-0.0026825592
125	0xbc7e8c2d	-0.01553635
126	0xbcd68417	-0.026186032
127	0x3c3a9b66	0.011389589
128	0x3cd9a94f	0.02656999
129	0x3c34b09f	0.011028438
130	0x3b378e8c	0.0028008549
131	0xbcd5ccd5	-0.026098648
132	0xbc88c8f6	-0.016697388
133	0xbb8ac374	-0.0042347256
134	0x3ad13135	0.0015960099
135	0x3d10c8e2	0.035347827
136	0xbac395a0	-0.0014921911
137	0x3b6fd868	0.0036597494
138	0x3c9e0f55	0.01929442
139	0xbe9167ba	-0.2839945
140	0xbcbb4932	-0.02286205
141	0x3f82e96d	1.0227486
142	0x3c91b714	0.017787494
143	0xbcf438c2	-0.02981222
144	0x3c3428d3	0.010996061
145	0xbcc195d8	-0.023631021
146	0x3cc8dc98	0.02451925
147	0x3cc3cf01	0.023902418
148	0xba53c2ca	-0.0008078037
149	0xbc4b111d	-0.012394217
150	0x3cb2640f	0.021776227
151	0xbcb332a4	-0.021874733
152	0xbcdfa1a1	-0.02729875
153	0xbbd0e342	-0.0063747475
154	0xbcd237d6	-0.02566139
155	0x3cdab1a7	0.02669604
156	0x39dde687	0.0004232416
157	0xbc8b1239	-0.016976463
158	0x3ad8ca98	0.001653987
159	0xbc718266	-0.014740562
160	0xbcceddc0	-0.025252223
161	0xbc611a23	-0.013739142
162	0x3cc679ed	0.02422806
163	0x3cc93873	0.02456305
164	0x3c59dd3a	0.013297373
165	0xbcbf7abe	-0.023373958
166	0x3cb544d1	0.02212754
167	0x3ccf2c40	0.025289655
168	0xbca43cd4	-0.020048536
169	0x3c9f9b93	0.019483363
170	0x3e075470	0.13215804
171	0x3dae919a	0.08523865
172	0xbce45661	-0.02787322
173	0x3c76c12f	0.015060707
174	0xbcefddde	-0.0292806
175	0xbc980272	-0.018555854
176	0x3c942662	0.018084709
177	0x3ce6a654	0.028155483
178	0x3c62b811	0.01383783
179	0xbc966b91	-0.018361839
180	0x3cc427e7	0.023944808
181	0x3c66d61f	0.014089136
182	0x3b8d1de3	0.0043065413
183	0xbca17aaf	-0.01971182
184	0x3a2b83c3	0.00065427664
185	0x3b356bf3	0.002768275
186	0x3c3dc07a	0.0115815345
187	0x3d1ffe46	0.039060853
188	0xbc02058d	-0.007935894
189	0xbc8e274e	-0.017352726
190	0x3e014c70	0.12626815
191	0xbd013e0f	-0.031553324
192	0xbcc426c4	-0.023944266
193	0x3c836e2d	0.016043747
194	0x3c39150e	0.011296524
195	0xbcafaaad	-0.02144369
196	0x3c6b5594	0.014363665
197	0x3d091c8a	0.033474483
198	0xbce38731	-0.027774425
199	0xbc984de2	-0.018591825
200	0x3db74e8d	0.08950529
201	0xbc425887	-0.011861927
202	0xba58c118	-0.00082685193
203	0xbc1dc359	-0.009629094
204	0x3c36b13e	0.011150656
205	0x3f601b0d	0.87541276
206	0xbb9c6964	-0.0047733057
207	0xbcbafef1	-0.022826644
208	0x3cd8235e	0.026384052
209	0xbca6a883	-0.020344025
210	0x3c88ee5e	0.016715225
211	0xbc93941b	-0.018014958
212	0x3bf54f8d	0.00748629
213	0xbc1bd393	-0.009510892
214	0x3bad5353	0.005289474
215	0x3cdea555	0.027178446
216	0xbc5a6480	-0.013329625
217	0x3b076ab0	0.0020662956
218	0xbeb11bc2	-0.3459149
219	0x3c1f2973	0.009714472
220	0xbcb16830	-0.021656126
221	0x3d236763	0.03989352
222	0x3bb69818	0.00557233
223	0x3bbddc7a	0.005794105
224	0xbb02bb2c	-0.001994799
225	0x3cc3fb6b	0.023923596
226	0xbcc672a6	-0.02422459
227	0xbd03d4be	-0.03218531
228	0xbc2fa3d3	-0.010720211
229	0xbb8f9892	-0.0043822015
230	0xbc2de359	-0.010613286
231	0x3cf2c0cc	0.029632948
232	0xbbfaa178	-0.007648643
233	0x3c2b7fa6	0.0104674455
234	0x3bb5b04d	0.0055446983
235	0xbcc75c86	-0.02433611
236	0xbcae946b	-0.021311006
237	0xbab715f0	-0.001396833
238	0xbcb8a75c	-0.02254074
239	0xbd232707	-0.03983214
240	0x3cb1512f	0.021645157
241	0xbcaf09e7	-0.021367026
242	0x3b37d518	0.0028050598
243	0xbcce0027	-0.025146557
244	0xbbbf9433	-0.005846524
245	0x3be4c645	0.0069816434
246	0xbc9e9fca	-0.019363303
247	0xbc6bc2c6	-0.014389699
248	0xbb686cbf	-0.0035465208
249	0x3c8c0649	0.01709284
250	0x3dc05c88	0.09392649
251	0x3c49ea01	0.012323857
252	0x3cc529b7	0.024067743
253	0xbd035b81	-0.032069687
254	0x3cc26fc9	0.023734944
255	0x3c9a313a	0.018822301
