saves/Dobot-v3/sr/seed_0/model/actor.pth (torch, 306007 bytes, 6 tensors)

l1.weight f4 [256, 36]
000000 6f 36 ab be d6 8a 01 3f 56 40 c5 bb 48 83 01 bf
       -0.33439967 0.5060247 -0.0060196323 -0.50590944
000010 8e 69 f0 be 34 ce 29 bf c9 b7 f4 be ef 6d 37 3f
       -0.46955532 -0.66330266 -0.47796467 0.7165212
000020 fb cf e0 3c 03 c7 33 bf 6e 31 c4 3e de 15 17 3f
       0.027442923 -0.7022554 0.38318962 0.5901774
000030 f0 9e d1 bd 06 69 e8 3d 29 fd 13 be ca 98 06 3d
       -0.10235393 0.11348157 -0.14452042 0.032860555
000040 8c 8d a4 bd c3 2e fd bc b7 6a a4 3e 08 43 99 3b
       -0.080348104 -0.030906087 0.32112667 0.00467718
000050 f3 24 19 3d 5d 79 5b 3e e2 3d 6f 3e 93 70 40 3c
       0.037388753 0.21433015 0.2336345 0.01174559
000060 11 8f 7a bd 91 c8 57 bf 3b e4 a8 bf 09 20 b9 3d
       -0.061171595 -0.84290415 -1.319465 0.09039313
000070 0a 8b 83 bf 20 e5 92 bf 9b 04 32 3f 66 12 be be
       -1.0276806 -1.1476173 0.6953828 -0.37123412
000080 68 40 cc be 6f 1d 8f 3e 13 e5 10 be e7 fb 8c bf
       -0.39892888 0.27952144 -0.14149885 -1.1014374
000090 e0 12 88 be ec b0 58 bf 42 24 a5 3e 9e 33 3f 3e
       -0.265769 -0.8464496 0.32254225 0.18672034
0000a0 3d a6 d8 3e b3 67 61 bf 38 05 94 3e 93 bc 36 3e
       0.4231433 -0.8804886 0.28910232 0.17845373
0000b0 6f 23 03 be 6e 95 51 3e c7 30 07 3e ed cd 9f 3e
       -0.12806486 0.20467159 0.13202201 0.31211796
0000c0 92 45 ed 3c ba 3a 48 be 7c 4d f6 3d 7e 9a 2d 3f
       0.028963838 -0.19553652 0.12026498 0.6781386
0000d0 86 09 48 3f d1 38 fb 3d 6a 21 a8 3e 66 c1 ca bc
       0.7813953 0.12266696 0.32837993 -0.024750423
0000e0 ec d7 ea bd 4a 9b 74 3d 4c 72 e2 3e d3 e7 1a be
       -0.11466965 0.059718408 0.44227827 -0.15127496
0000f0 08 88 aa bf 20 cf 18 bf f2 8f 70 be cc 2f b1 3e
       -1.3322763 -0.5969105 -0.23492411 0.3460678
000100 de 9e 75 3f f7 18 09 bf 62 ae 71 3e 59 cd 37 3e
       0.9594554 -0.5355372 0.23601678 0.17949428
000110 22 ab b8 bf b4 de 8b be 49 ff b9 3e 46 a1 6a bf
       -1.4427226 -0.27318347 0.3632758 -0.91652334
000120 1a e9 5a 3d e4 07 f8 bd 74 3e 78 be 1c 10 72 3d
       0.05344496 -0.1211088 -0.24242574 0.059097394
000130 3f fd bd 3d 81 35 ad be 67 82 3b be ee 8f 53 3e
       0.092768185 -0.33829883 -0.18311463 0.20660374
000140 40 e0 93 be a9 7d 03 3a 4c af d1 3c c6 47 b8 bd
       -0.28882027 0.0005015978 0.025596283 -0.08998065
000150 9b 08 72 3d 6c 05 a1 3e 7e 8c ba 3d 6a 1a 81 3d
       0.059090238 0.3144945 0.09108828 0.06303866
000160 f9 d9 15 3e 88 16 49 3e 3c 49 8d 3e fe 7b 3d 3e
       0.14633931 0.19637501 0.27594936 0.1850433
000170 96 41 7f 3e 78 9f f3 ba d1 16 9a bd 05 ea 99 3e
       0.24927363 -0.0018586954 -0.07523883 0.30061355
000180 a0 74 5d 3d 10 15 34 3e e1 e0 07 be 5f 7c 04 bd
       0.0540663 0.1758616 -0.13269378 -0.032345172
000190 2c 8d a9 3e 4d 10 cf 3d 4d e9 4f 3e 4f 9c 82 3d
       0.33115518 0.10110531 0.20303841 0.0637747
0001a0 18 1d 1f bd 3a e0 00 3e 2b 27 de 3d c6 79 fb 3c
       -0.038846105 0.12585536 0.108473144 0.030697715
0001b0 08 59 6d 3d 3d d5 00 bf 23 0a 1e be 46 34 76 3e
       0.057946235 -0.50325376 -0.15433554 0.24043378
0001c0 32 a0 74 bd a4 ea 26 be 5e 92 84 3e c4 ee 5c bd
       -0.059723087 -0.16300446 0.2589292 -0.053938642
0001d0 98 77 80 be 70 40 d5 3d ff ae e7 bc af 50 40 be
       -0.25091243 0.10412681 -0.028281687 -0.18780778
0001e0 fd 0e 97 bd 18 6f 88 3d 7a 9d 9d 3e ac 31 23 3e
       -0.07375906 0.066618145 0.30784208 0.15936917
0001f0 39 de 58 be 07 79 d7 3c b8 97 e2 3d 55 e4 38 3e
       -0.21178521 0.026302828 0.11064094 0.18055852
000200 46 79 c4 3d 31 38 a6 3d d9 50 ff 3d 25 7a 92 3e
       0.095934436 0.081161864 0.12466592 0.28608814
000210 55 fd ce bd 4a 83 94 3d cd c5 80 3e 1f f5 e4 3d
       -0.10106913 0.07251604 0.2515091 0.11179566
000220 1b e4 54 be b7 d3 9c bb fa 28 79 3e 51 7f 02 3e
       -0.2079014 -0.0047859806 0.24332038 0.1274388
000230 7e d6 33 3e c6 91 d5 3d 71 c4 56 3e 57 8a d3 3e
       0.17562291 0.10428195 0.20973374 0.41316482
000240 9f 19 00 bf 15 b7 7d be 6f 48 26 be c9 79 b1 3d
       -0.50039095 -0.24776872 -0.16238569 0.08665807
000250 b0 28 5f bc 9e 23 35 be d8 38 e8 3c 46 79 64 3e
       -0.0136205405 -0.17689368 0.028347418 0.22311887
000260 88 98 d7 3c 03 ea c5 bd b1 ab d7 3e a1 3b 53 3c
       0.02631785 -0.09663775 0.42123178 0.012892635
000270 4d 89 14 bc 2b d9 30 3d eb 5e 8f 3e dc a2 fa bd
       -0.009065938 0.043175858 0.28002104 -0.12238094
000280 b1 fe cf 3d c5 ef 8f bd 09 12 2d bd e9 5f 09 3e
       0.101560004 -0.07028154 -0.042253528 0.13415493
000290 b8 be b9 3d fa ae 99 bc 2a e5 0f 3e 3f 5e 3c 3d
       0.0906958 -0.018760193 0.14052263 0.045988318
0002a0 29 ac 4d be 5c 06 2a be 54 af 27 3d 6e 25 1d be
       -0.20085205 -0.16603988 0.04093869 -0.1534631
0002b0 03 b6 6e 3d ee 4c 19 3e 48 4e 27 be 3e 03 2d be
       0.05827905 0.14970753 -0.16338456 -0.16895768
0002c0 5f 07 a0 3d df 86 b6 3d e0 19 a0 be 8b 39 14 be
       0.07813906 0.08912443 -0.3126974 -0.14475076
0002d0 fa b1 83 3e b5 b2 8f bf a6 1d 85 3e 6c d6 81 3d
       0.25721723 -1.1226412 0.25999182 0.06339726
0002e0 c4 c1 e5 3d 05 97 ed be 7f 5e cc 3d 62 bd 89 be
       0.112185985 -0.4640428 0.09978961 -0.269023
0002f0 c1 fa 66 be 14 78 76 3e 3e ee dd bd 41 0e 60 be
       -0.22556593 0.24069244 -0.10836457 -0.21880437
000300 5d a4 14 3e 43 63 9e 3d 28 91 cc 3e 65 c2 21 3f
       0.14515825 0.077337764 0.39954495 0.6318725
000310 e1 65 5a 3f 87 8c a6 3d 27 d3 b9 3e eb 0b 27 be
       0.85311705 0.08132272 0.3629391 -0.1631314
000320 e9 bf d5 3d fc 80 59 3e 7b c4 1e 3d 90 eb e6 3e
       0.104369946 0.2124061 0.038761597 0.45101595
000330 ef be f7 bd d7 da 49 3f da 31 d9 3e 84 5f df 3e
       -0.120969646 0.7884955 0.42420846 0.4362756
000340 de 89 8e 3f 5b c2 46 bf a0 08 f9 3d 15 da 51 3c
       1.1135824 -0.7764031 0.12159848 0.012808342
000350 e7 35 04 3f a5 e0 66 bd a9 83 a0 3e b4 d4 e5 3d
       0.5164475 -0.05636658 0.3135045 0.112222105
000360 8b 57 ee be 47 0e 9e 3e 23 50 bf bc 92 f9 bc 3c
       -0.46551165 0.30870268 -0.023353642 0.023068223
000370 12 68 19 be 81 7c 39 be e7 fe 9b be d9 72 ec 3e
       -0.14981106 -0.181139 -0.30467913 0.46181372
000380 45 4c 24 be 1f 6d 70 bd 6b 1f d4 3e 18 a6 ca 3d
       -0.1604472 -0.058697816 0.4143022 0.09894961
000390 e8 99 8c be 0b df 48 3e e6 00 1b bd 09 67 b5 bd
       -0.2746117 0.19616334 -0.037842654 -0.08857543
0003a0 17 2c 08 3e 29 93 5e bc 47 cd 1e be 75 51 37 3d
       0.13298069 -0.01358489 -0.15507995 0.044755418
0003b0 08 ce 03 be 2d 40 ca bd e6 c3 a6 3e 8c b2 62 3c
       -0.12871563 -0.09875522 0.32571334 0.013836514
0003c0 98 b7 97 be bc a9 d8 bd 63 be 9e bd 7f 54 cd bd
       -0.29632258 -0.10579249 -0.07751157 -0.10025882
0003d0 1f cb f8 be ea 4e ee be f0 31 19 be 0d 65 d8 bc
       -0.4859247 -0.46544582 -0.14960456 -0.026415372
0003e0 07 ee 24 bf 13 af e2 bd 06 34 e4 bd 72 89 c6 be
       -0.644257 -0.11068549 -0.11142735 -0.38776737
0003f0 ce dc 92 be da 71 2a bf 0d 72 90 be d0 fd 9d be
       -0.28684086 -0.66579974 -0.28212014 -0.30857706

l1.bias f4 [256]
000000 bc 98 bf bd a0 e3 6a 3e 5f 24 1d bd 77 a2 83 bc
       -0.09355304 0.22938395 -0.038364764 -0.01606868
000010 d2 28 31 be af 4c 3c 3e bf 6f a1 be 2a 2d c9 bd
       -0.17300728 0.18388627 -0.31530568 -0.098230675
000020 43 85 a4 3d ff a1 64 bc e1 11 f5 bd 96 ec 04 3c
       0.0803323 -0.0139546385 -0.11966301 0.008113047
000030 46 a3 8c 3d 76 f7 91 bd a1 47 11 bc 12 c9 3a 3d
       0.068670794 -0.071272776 -0.008867175 0.04560191
000040 9f 2b 18 3e bf 20 61 be 52 e2 54 3d 17 bf f1 bd
       0.1486039 -0.21985148 0.05197365 -0.118040256
000050 a7 ca 9a be 44 f2 87 be be b6 04 be ff fb 4f 3d
       -0.30232736 -0.26552022 -0.12960336 0.05077743
000060 44 75 db bd 60 7b d6 bd 65 01 80 3e 24 81 8e 3c
       -0.10715726 -0.10472751 0.25001064 0.017395563
000070 39 a6 5b 3e cb 3a 9c 3d 45 7d 00 bd ce 10 47 bd
       0.21450128 0.07628401 -0.031369466 -0.04860001
000080 36 6d 70 bd 46 24 5a be 3f c4 ad be 8e c4 a0 3b
       -0.0586979 -0.213029 -0.33938786 0.0049062436
000090 6b c7 b5 bd 21 b9 16 be be c6 1e 3d 5e 89 e2 bb
       -0.088759266 -0.14719059 0.038763754 -0.006913348
0000a0 d2 6a 0d bd 24 66 2d bb 16 d9 00 be f3 78 88 3e
       -0.0345257 -0.0026458586 -0.12582812 0.26654777
0000b0 5c e7 29 be 98 29 85 bd b0 db db bd af 76 38 be
       -0.16592163 -0.06502074 -0.107352614 -0.18014024
0000c0 e4 27 3d be 05 f6 5e bd 46 88 04 3c 97 b6 74 3e
       -0.18472248 -0.05443384 0.008089131 0.23897777
0000d0 cf 4f 5e 3e 89 d1 80 be a8 b9 5e be ec 78 5c be
       0.21710132 -0.25159863 -0.2175051 -0.21530503
0000e0 4f 22 bb 3d 79 55 51 3c 67 bf ce 3b a7 d6 6f bd
       0.09137403 0.012776726 0.006309438 -0.058554318
0000f0 43 d8 d4 bd a4 38 71 3d 8e 09 34 be a0 a2 c3 bd
       -0.10392811 0.058891907 -0.1758177 -0.09552503
000100 c4 57 de 3d dd 9c d5 bd 79 ca 8c bd 0e 41 f4 bd
       0.10856584 -0.1043031 -0.06874556 -0.11926471
000110 a4 00 94 bd 77 86 15 3e 2b f3 cc bd fe 18 5c be
       -0.07226685 0.14602076 -0.10007318 -0.21493909
000120 78 87 e0 bd cd be 03 3e c9 6a 48 bd 19 73 fe 3d
       -0.109633386 0.12865753 -0.048929963 0.12424297
000130 cc 27 22 3d d8 80 fb 3d 15 1c ff bc c0 02 91 bc
       0.039588735 0.12280434 -0.03114132 -0.017701507
000140 c3 e5 a7 bd c2 fe 80 bd 2d 31 e7 bd 5a a9 60 3b
       -0.081981204 -0.06298591 -0.112886764 0.003428063
000150 9f d0 8a bd 2d e9 2c 3e c3 5d 20 bd 4f 95 f5 bd
       -0.067780726 0.16885825 -0.03915192 -0.11991369
000160 d1 6a bd 3d ca 73 08 be f8 ed 84 be 37 a2 92 be
       0.09248889 -0.1332542 -0.25962806 -0.28639385
000170 d8 59 02 be ab d9 98 3d 9b e9 0a 3e da 06 b8 3c
       -0.12729585 0.07463392 0.13565676 0.022464205
000180 ce 80 ed 3d 4c ce bb bc f2 0a a9 bd ba a1 dc 3c
       0.11596833 -0.022925518 -0.08254041 0.026932586
000190 03 32 18 be d2 6b d7 bd f4 f2 ef bd d7 cc 13 be
       -0.14862828 -0.10518612 -0.117162615 -0.14433609
0001a0 a2 b0 14 3d 99 32 ec bc 0d 41 83 3d 5f 07 56 3e
       0.036301263 -0.02883272 0.06408892 0.2090125
0001b0 a0 20 41 be 5c 86 1c be 4e a9 52 bc b8 47 0c be
       -0.18860102 -0.15285629 -0.012857748 -0.13699234
0001c0 1c 12 28 3c 69 2f 7e bd 7f 93 86 bd e7 79 52 be
       0.010258224 -0.062056933 -0.065711014 -0.20554315
0001d0 da ff 25 be ef e6 32 be 59 9f bb bd 70 c5 45 3e
       -0.16210881 -0.17470907 -0.091612525 0.19313598
0001e0 4c 5c 40 be 07 c4 14 be 7d ec 18 be 43 a7 cf bc
       -0.18785208 -0.14527903 -0.14933963 -0.025348311
0001f0 a5 9d b0 3d ee fb 83 bd 53 23 b7 bd 95 81 c4 bd
       0.08623818 -0.06444536 -0.089422844 -0.09595028
000200 c0 fa 4b bc a0 70 d8 bd 8f 9e fa 3d a3 64 ae 3c
       -0.01244992 -0.105683565 0.12237274 0.021288222
000210 c9 f6 91 3e 56 58 82 bc c4 71 7f be f4 b3 53 bc
       0.28508595 -0.015911262 -0.24945742 -0.012921322
000220 76 60 43 3d be ad 86 3d 00 d0 21 be a5 ed 4c be
       0.047699414 0.065761074 -0.15802002 -0.20012529
000230 68 00 aa bd ad 33 70 3e 43 f4 e1 bc eb 4c 27 bd
       -0.08300859 0.23457213 -0.027582293 -0.04084484
000240 46 13 03 be 54 a9 f3 bc 85 87 bd bd d2 42 01 be
       -0.12800321 -0.029743828 -0.09254364 -0.12623146
000250 88 19 55 bd e0 b4 6a be 00 d6 e3 bd 0d 07 11 be
       -0.0520263 -0.22920561 -0.11124802 -0.14162846
000260 06 ac 3a bd d7 56 93 be 5c 97 3a bc 95 f9 a5 3d
       -0.04557421 -0.2877719 -0.011388626 0.081042446
000270 87 22 24 be 54 f8 a2 3d b8 a3 bb bc 7e b0 5f 3c
       -0.16028796 0.07957521 -0.022905216 0.013652919
000280 ea 50 6f 3e 05 2d f1 bd 22 c9 6c bd 47 03 35 3d
       0.2337071 -0.11776165 -0.057809003 0.04419258
000290 bb dd dc bd 08 62 80 bd f7 0f 15 be 67 87 ce bc
       -0.10784479 -0.06268698 -0.14556871 -0.02521105
0002a0 09 33 38 bd ea 1c 96 be 4e 25 0e 3e b8 89 54 be
       -0.044970546 -0.29318935 0.13881418 -0.2075566
0002b0 cd e9 5e bd fb c1 c3 3d 10 9a 4a be 62 3e f5 3d
       -0.05442219 0.09558483 -0.19785333 0.11974789
0002c0 26 ae 8f 3d cc b1 9b 3d 85 ff 62 be a4 50 21 3d
       0.07015638 0.076022714 -0.22167785 0.039383546
0002d0 00 eb ba 3d 36 b4 f5 bd f0 e1 01 be ae 4c d3 bd
       0.09126854 -0.11997263 -0.12683845 -0.1031736
0002e0 1a bb 2f be 37 70 0d 3e da 4f f5 bd fd c1 5e 3e
       -0.17161217 0.13812338 -0.11978121 0.21753688
0002f0 23 1a 20 be 38 d8 63 3c 16 ff 0b 3e 9e f4 1b be
       -0.1563497 0.013906531 0.13671526 -0.15230033
000300 ce f3 46 be 43 53 e9 bd e5 5d 33 bd d8 25 09 be
       -0.19428942 -0.11392834 -0.043790717 -0.13393342
000310 bc 16 a0 bd 63 5f e9 bc 17 7f 6a 3c 28 0f 03 bc
       -0.07816836 -0.028487867 0.014312527 -0.007999219
000320 98 ec 5a be 44 0a fa 3c bb e5 56 be 0c b9 ae 3d
       -0.21379316 0.030522473 -0.20986073 0.08531389
000330 d7 b3 16 be 0a 14 89 bc e0 1f b2 be c6 a3 be bd
       -0.14717041 -0.016733188 -0.34789944 -0.09308581
000340 21 b1 ea bd ed 29 20 3c 80 80 32 3e 0d 65 92 bd
       -0.11459566 0.009775621 0.17431831 -0.0714818
000350 21 d5 f4 bd f9 a0 5d be 69 e8 2a be 38 7a 94 3d
       -0.119547136 -0.21643437 -0.1669022 0.07249874
000360 ee 66 25 bd f7 d6 26 bb 77 d5 c8 bd 81 ca d1 bd
       -0.040381365 -0.002545772 -0.0980634 -0.10243703
000370 a8 39 67 3c 3c 9f fb 3d 1b b9 a4 be 6f 70 58 3e
       0.014112867 0.12286231 -0.32172474 0.2113664
000380 de 03 86 3d b0 f7 a0 bd 88 13 a2 3e b3 75 3c 3e
       0.06543706 -0.07859743 0.31655526 0.18404274
000390 d4 2d 1d 3c 2f 69 0f be b0 d0 2b bd be aa dc bd
       0.009593446 -0.14004968 -0.041947067 -0.10774754
0003a0 f1 83 e0 bd 69 3e c0 3d 4b 46 72 3e 49 3f 0b bd
       -0.10962666 0.09386904 0.23659627 -0.0339959
0003b0 32 69 be bd 4a 52 ff 3d 02 f6 27 bd c7 a7 9d 3d
       -0.09297408 0.12466867 -0.041006096 0.076980166
0003c0 1c fb 94 bb 49 88 97 be 1f 1b 0c 3d 73 d9 1c 3e
       -0.004546536 -0.29596165 0.034205552 0.15317325
0003d0 b5 e8 90 bc 58 01 8f 3e a8 f3 6d be 5f 70 ba bc
       -0.017689088 0.27930713 -0.23237479 -0.02275866
0003e0 fc 7a 23 bd 9f 6f 3c be 7e 72 12 bd 35 10 2f bd
       -0.03991221 -0.18401955 -0.03575372 -0.042740066
0003f0 10 a8 ec bd 86 61 40 bd fd 34 8e bd a4 eb 3e 3c
       -0.11555493 -0.046968006 -0.069437005 0.011652861

l2.weight f4 [256, 256]
000000 6f 81 7c 3d fa ca be 39 bf c9 e0 3d f7 95 c1 3d
       0.061646875 0.00036390853 0.1097598 0.09452432
000010 a8 f5 42 be 70 d7 84 bf b4 8b 7f bc 9f 7c 0a 3c
       -0.19039023 -1.0378246 -0.015597273 0.008452564
000020 6c 5f 7c 3e 06 52 70 bf 5a 72 13 3e 32 0b 5e bd
       0.24645776 -0.9387516 0.1439909 -0.054209895
000030 c4 f3 31 be 75 75 59 bf b6 46 d5 3d b4 a8 4e 3e
       -0.17378145 -0.8494485 0.10413878 0.20181543
000040 f3 bf ec 3e 44 6d 37 bb 44 e2 8c be ff 4e c5 3e
       0.46240196 -0.0027988711 -0.27516377 0.38536832
000050 03 c0 f3 bd 0e 7b b4 3e d4 4c 6b 3d b9 33 6a 3e
       -0.11901858 0.35250133 0.057446316 0.22871293
000060 7c 79 1d bd ba 74 21 bf ee ad 1b 3f 55 fa ac bd
       -0.038445935 -0.63068736 0.6081227 -0.084461845
000070 52 9b cd 3e 37 4b b5 3e 3f 88 cd 3d 65 75 a9 be
       0.40157562 0.35408947 0.100357525 -0.33097377
000080 86 b7 26 bd d0 14 8d 3d 4f a5 92 3e 3c 2b 4f be
       -0.040702365 0.06888735 0.28641745 -0.20231336
000090 6c e3 6a 3d 19 90 58 bf bc 14 a1 3e 7e 5c 91 be
       0.057345793 -0.84594876 0.31461132 -0.28390878
0000a0 7a 26 2a 3d c2 99 59 3d 3b ac de bc dc 23 c5 be
       0.0415406 0.05312515 -0.027181735 -0.3850392
0000b0 da ed 4b bd 1f f9 f5 bd 21 f4 82 bd d8 e8 06 bf
       -0.04978738 -0.12010407 -0.0639422 -0.5269904
0000c0 7a 25 b4 be ad cb d8 bd 47 f1 f4 3e f2 41 1e be
       -0.35184842 -0.10585723 0.4784033 -0.15454844
0000d0 41 91 b9 bf fe 85 0e bd bf bd c8 bd 7a 6a b8 3d
       -1.4497453 -0.034795754 -0.09801816 0.09004684
0000e0 10 11 be 3e 4a c1 cb ba 8a 93 d2 3e a0 d5 ed 3a
       0.37122393 -0.0015545276 0.41128188 0.001814533
0000f0 25 7d c1 be 36 a4 b2 3d 0b 48 96 3e 22 88 3f 3e
       -0.3779079 0.08722727 0.2935184 0.18704274
000100 21 45 4a bf 21 6c 25 bd 16 cc da 3e 8d 56 77 3e
       -0.7901173 -0.040386323 0.4273383 0.2415411
000110 65 c8 00 be 7f be 2d bf d4 3d 65 3d dc a1 8b 3e
       -0.12576444 -0.678688 0.055967167 0.27271926
000120 d2 0c f0 3e fa 37 88 bf d5 e6 09 bf 42 e9 1b 3e
       0.4688478 -1.0642083 -0.53867847 0.152257
000130 43 d5 8b be 27 50 2b 3f 66 ca 80 3e 30 5e 94 3b
       -0.27311143 0.6691918 0.25154418 0.0045278296
000140 fe e5 97 bc 53 9e 48 bd 0e c1 cf 3c 4f c3 15 bf
       -0.018542286 -0.048979115 0.02536061 -0.5850114
000150 3d f9 66 3e 9c 5a 1a 3f 39 25 a2 3c 6d e0 3d bf
       0.22556014 0.6029451 0.01979314 -0.7417057
000160 f9 63 30 be ea 20 4a 3e 66 2f c9 3d b3 e2 a0 be
       -0.17225637 0.19739118 0.09823494 -0.31422958
000170 f3 9f d1 bd 5d b3 ca 3d 54 c2 aa be cf 02 e1 bd
       -0.10235586 0.09897492 -0.33351386 -0.10986864
000180 b1 64 0d bf 01 35 da 3d 4c 2e b8 3c 00 08 6a be
       -0.5523177 0.10654641 0.022483014 -0.22854614
000190 1e e9 1a 3e 78 85 88 bf 0e 78 b6 3c f1 e0 9a 3d
       0.1512799 -1.0665731 0.022274043 0.075624354
0001a0 42 69 22 3f 87 b3 9d be f4 2a 51 3e d6 21 78 3d
       0.6344186 -0.3080103 0.20426542 0.060579143
0001b0 6d 7d ff 3d aa 2d cd bb 35 aa 2a bf ec 21 1c 3f
       0.12475095 -0.006261547 -0.66665965 0.6098926
0001c0 b5 c3 47 3e 40 37 a0 bd 1f 91 c3 3d 16 89 39 bf
       0.1950825 -0.07823038 0.09549164 -0.724748
0001d0 a0 bb fc 3b 44 f6 9d be 4f 43 a8 3e 8e bb c6 bf
       0.0077127963 -0.30851948 0.32863852 -1.5525987
0001e0 f3 75 8d 3e ed bb 79 3e 81 d4 46 3f 44 6a 1b bd
       0.2762905 0.24388094 0.77668005 -0.03794314
0001f0 1e 2e da 3e 7d 69 cb be 20 7a 2f bc a3 ec e9 3d
       0.4261331 -0.3972892 -0.010710269 0.11422088
000200 e2 15 91 bc a4 4f 36 be 1f 8d 2a bf 48 f8 ed bb
       -0.01771063 -0.17803818 -0.66621584 -0.0072622634
000210 b4 f9 48 bf 02 fd b7 be f0 d2 47 be 99 5f 8c bd
       -0.78506017 -0.35935217 -0.1951406 -0.06854171
000220 15 8e 6c 3e 6b af ec bf 27 d8 c3 3d d2 5b fe bc
       0.23101075 -1.8491033 0.09562712 -0.031049643
000230 38 b2 1c bd 45 f9 28 bf ae 2f 7a be 93 84 db 3e
       -0.0382559 -0.66005355 -0.24432251 0.42874584
000240 42 83 82 3e 36 85 0b be 62 a8 e4 3e 14 80 82 3e
       0.25490767 -0.13625035 0.44659716 0.2548834
000250 f9 3e c9 bb 58 9c ee 3d e8 0a c1 3c 46 5b b4 be
       -0.00614154 0.11650914 0.02356477 -0.35225886
000260 cd e0 67 be cf bd 03 3f 41 19 f5 be 2d fd 8a 3e
       -0.22644348 0.514615 -0.4787083 0.27146283
000270 ea 8e 2a 3e b2 d7 b6 3e b0 9b 06 bf 33 26 b6 3d
       0.1665608 0.35711437 -0.5258131 0.08894005
000280 32 89 c1 3d 85 bb 57 be f9 8b 12 bf 9a 3d 87 3d
       0.09449996 -0.21067627 -0.5724483 0.066035464
000290 b5 86 57 3d b4 16 79 be 41 f4 4e be d1 39 29 bf
       0.0526187 -0.24325067 -0.20210363 -0.66103846
0002a0 c7 e4 a5 3d e3 21 3c 3e 10 a5 1d 3f be 63 2b bd
       0.081002764 0.18372302 0.6157999 -0.04184317
0002b0 b2 aa e7 3e ba 98 5b 3e 4c d8 eb bd 0d 8f 45 bf
       0.45247418 0.2144498 -0.11515865 -0.77171403
0002c0 92 be 76 3d 1e f6 33 3f 2b 75 d5 3d 6e ff 34 bf
       0.060240336 0.7029742 0.10422739 -0.70702255
0002d0 c3 e7 8b 3e f1 de 40 3d 1d 3f 4b 3d 04 ec 0a bd
       0.27325258 0.047087613 0.049620736 -0.03391649
0002e0 b8 f7 e3 be 60 ed 48 3d 0e 23 ec be 58 a4 3c bf
       -0.44524932 0.049054503 -0.46120495 -0.7368827
0002f0 30 40 94 bb 6e db 4e 3d 3c 3d 7a bf 0a 21 90 3d
       -0.0045242533 0.050502233 -0.97749686 0.07037552
000300 7e bd 82 be 58 28 0e bc 77 ed 55 bf 83 63 af be
       -0.25535196 -0.008676611 -0.8356547 -0.3425561
000310 0e 3a 80 be 2e a9 ae bb 4a 19 fe 3e d8 62 da be
       -0.25044292 -0.0053302264 0.4962867 -0.42653537
000320 d7 f5 34 be 43 93 95 bf 6b 5d 82 3c 37 09 64 bf
       -0.17671905 -1.1685566 0.015913686 -0.8907656
000330 b0 55 cc bb a4 ab c5 3e bc 23 cb 3e 48 80 dd 3c
       -0.0062358007 0.38607514 0.396757 0.027038708
000340 62 72 8c 3d 25 80 9c 3e 37 3f 0c c0 d5 52 ad bc
       0.06857754 0.30566517 -2.1913583 -0.021157661
000350 63 c0 f4 be 2d f8 30 3f cc e0 64 3c e8 41 69 bf
       -0.4780303 0.69128686 0.013969611 -0.9111619
000360 4d 62 25 bf eb 0d 08 3b b8 76 46 be 04 4e 12 bf
       -0.6460312 0.002076025 -0.19381225 -0.5715029
000370 e5 e6 ad 3e 4d 23 3e be c8 3c aa be d9 5c 3f 3e
       0.3396522 -0.18568154 -0.33249497 0.18687762
000380 49 cb 3a 3e d5 53 93 3e a2 06 41 3e cd 42 ba bf
       0.1824161 0.28774896 0.18850186 -1.4551636
000390 bb bc 7e bf b4 7a 35 3e 22 4a 04 be 83 96 d5 3b
       -0.9950673 0.17722589 -0.12918904 0.0065181865
0003a0 90 d1 95 bc 7a 3d 01 bd b5 85 b2 3e 68 fb 4a bd
       -0.018288404 -0.03155277 0.34867635 -0.049556166
0003b0 a1 c9 72 bd 42 c1 91 be 34 be 98 bf 74 e6 6d be
       -0.05927432 -0.28467757 -1.1933045 -0.23232442
0003c0 54 d5 0e bd 1d 5b 8c be 31 2f 94 3c 78 77 61 3e
       -0.034871414 -0.27413264 0.018088909 0.2201823
0003d0 cd 4f 19 3e 6e 80 18 bf ce 04 10 bd 65 c7 35 be
       0.14971848 -0.5957097 -0.035160832 -0.17751844
0003e0 be 5b 7d 3d da ab b9 3c af 1a 95 3e 60 14 8e bb
       0.06185507 0.022664953 0.2912192 -0.004335925
0003f0 52 85 7d 3d 05 a8 74 be 36 ee a1 be 6e c9 9e bd
       0.061894722 -0.2389222 -0.31627053 -0.077532634

l2.bias f4 [256]
000000 81 80 c4 3d 8f 72 4f bd 82 b5 db bc 1c 8b 24 be
       0.09594823 -0.05064636 -0.026819948 -0.16068691
000010 44 94 50 be f8 7b 93 bd c4 8a c4 3d 9b b4 b3 bd
       -0.20369059 -0.072013795 0.0959678 -0.08774682
000020 ff fe 25 3d 35 36 0c 3e f6 6a 84 3d 79 c3 61 3e
       0.040526386 0.13692553 0.06465714 0.22047223
000030 1a 5d bd 3d c1 bb 51 3e e8 4e 8f bd 0b 5c 9a bd
       0.09246273 0.20481779 -0.06997472 -0.07537087
000040 6e e8 22 bf b7 4d a1 be 17 b4 0d 3e 15 4b cd be
       -0.6363591 -0.31504604 0.1383823 -0.40096346
000050 c1 1b 94 bc b4 6e 52 bd 8e 84 36 3c 7c 94 ed bd
       -0.01807964 -0.051375106 0.011140002 -0.11600587
000060 ac 05 42 bd 06 8c 79 bd 92 93 8d be 6c 8f c9 bd
       -0.04736869 -0.060924552 -0.2765165 -0.09841809
000070 ab 28 a3 3c 2b 6b e2 bd 6e 48 dc bd 1b 14 8e be
       0.019916853 -0.11055597 -0.10756002 -0.27749714
000080 e2 71 a7 bd 98 cc 41 3d 74 89 33 bc ed fe 75 bd
       -0.08176018 0.047314256 -0.010958064 -0.06005757
000090 19 ae 6b 3c 25 0a bd be dc dc 46 bd 17 17 b1 3b
       0.01438477 -0.36921802 -0.04855047 0.005404364
0000a0 91 fa 48 be ce df 43 bc b3 03 15 bd 1e dc 16 be
       -0.19626833 -0.011955215 -0.03638048 -0.14732406
0000b0 c5 88 6d be 36 6e 00 bb 99 d3 56 3e bb cf 09 be
       -0.23196705 -0.001959694 0.20979156 -0.13458149
0000c0 32 b9 1b bd 7c 1c fb bd 77 3b aa be df 76 b9 bd
       -0.038018413 -0.12261292 -0.33248493 -0.09055876
0000d0 26 d1 92 be 10 06 3f be c6 0f 87 be a5 3a be bd
       -0.28675193 -0.18654656 -0.26379222 -0.09288529
0000e0 f2 30 50 bc c1 e3 73 bd fb 02 68 bc fa a9 c3 bd
       -0.012706982 -0.059543375 -0.014160867 -0.09553905
0000f0 c4 17 88 be f9 82 43 bd ff 32 b0 be da 6c 49 3b
       -0.26580632 -0.047732327 -0.34413907 0.0030735047
000100 e0 6b 9d be 5a c3 45 3e b8 9e ca be c5 be 42 be
       -0.30746365 0.19312802 -0.39574218 -0.19018085
000110 d2 f6 88 be e8 dd 81 3d 60 e8 2b be 3a 82 cb 3d
       -0.2675081 0.063411534 -0.16787863 0.09936948
000120 ca 84 e5 3c 07 e4 59 bd a4 51 a2 3d 1f 07 ca bd
       0.02801742 -0.05319598 0.07925728 -0.098646395
000130 cf b5 78 bc 45 14 13 3e fc b0 31 bd 0b c6 0a be
       -0.015180065 0.14363201 -0.043381676 -0.1355211
000140 13 24 4a 3d c8 db b1 be b4 90 b0 3e ae 39 de bd
       0.04935081 -0.34737992 0.344854 -0.10850845
000150 8a 9b 8b 3d 35 cc 11 bd 9e d7 1a bd 59 36 91 be
       0.06816776 -0.035595138 -0.037803285 -0.28361776
000160 99 1b c0 3e 9e d3 56 bd a7 e5 0e 3d 95 4a a8 bd
       0.37521055 -0.052447908 0.034886982 -0.082173504
000170 07 ee f9 bd 99 39 a0 3e 14 17 d1 bd 5f 08 cd 3d
       -0.12203603 0.31293944 -0.1020948 0.10011362
000180 79 e2 8d be 03 54 cd bb c0 a9 59 bd 7f 3c 09 3c
       -0.27711847 -0.0062661185 -0.0531404 0.00837624
000190 4e d5 e6 3b 65 89 03 3e 2b b5 76 3e 51 2f 25 bd
       0.007044471 0.1284538 0.24092548 -0.040328328
0001a0 62 99 4e 3e 4a ab 46 bc 05 75 96 be e1 99 9e be
       0.20175698 -0.012125799 -0.29386154 -0.30976775
0001b0 00 44 0c 3e ea f3 83 bd b2 2b 90 bd 53 90 07 be
       0.13697815 -0.06443007 -0.07039584 -0.13238649
0001c0 09 22 93 3c b3 1b 43 bd ca f3 31 3c b2 d0 2d 3e
       0.017960565 -0.047633838 0.0108613465 0.16974142
0001d0 ae 56 f9 bc 7c b0 f5 bc 38 41 d3 ba 84 25 17 3e
       -0.03043684 -0.02999138 -0.0016117459 0.14760405
0001e0 2d a0 50 bd 67 bf 9b 3d 11 18 15 3e e4 22 a1 bc
       -0.050934006 0.076048665 0.14559962 -0.019669957
0001f0 fe 2b 80 bd e0 2e a3 bd 8f 7d 27 3d 7a bd 83 be
       -0.06258391 -0.07967925 0.040891226 -0.25730497
000200 9a 54 60 be e7 79 13 be c2 d1 5c 3d 9d 13 1f 3e
       -0.21907273 -0.14401971 0.05391098 0.15534826
000210 d2 97 b6 3c f8 b6 8b bd 54 ad 9c bd 72 c2 69 bd
       0.02228919 -0.06822008 -0.07650247 -0.057070203
000220 7f d6 9b bd db 1f 7c bd 77 2b 00 bd 81 e2 de 3d
       -0.07609271 -0.061553817 -0.03129145 0.10883046
000230 4d 6b a5 3d 39 d7 8f be 05 fc 49 be 10 10 be bb
       0.080771066 -0.2809389 -0.19725044 -0.0058002546
000240 ff 08 97 be 55 e0 44 be 0d 4e 10 3e 84 ac a3 bd
       -0.2949905 -0.19226201 0.14092274 -0.07991889
000250 fe 83 08 3e 9d c5 24 be ce 0d f9 3d a5 9c 5e be
       0.13331601 -0.16091008 0.12160836 -0.21739443
000260 b2 90 f6 bd e2 cb 17 bd 6d c2 58 bd 67 43 3a bd
       -0.12039317 -0.037059672 -0.052919794 -0.045474436
000270 87 83 c2 be 72 c5 32 be 81 1d a3 3d 69 00 0b 3e
       -0.37990972 -0.17458132 0.07964612 0.13574375
000280 2f 4a 17 bd c8 70 a7 bd 59 3b ae 3c d5 e3 bf bd
       -0.03693598 -0.08175808 0.021268534 -0.093696274
000290 56 b5 2f bd 1a 52 d7 bc 08 3f b5 bb 5e 51 0f 3d
       -0.042897545 -0.026284266 -0.0055311956 0.034989707
0002a0 a1 49 64 3d 01 35 1f bd 37 d7 87 bd 74 12 aa be
       0.05573428 -0.038868908 -0.06632846 -0.33217204
0002b0 c7 63 a1 bd 6b f3 8f bd b0 ce a0 be 6f eb 00 3e
       -0.07880359 -0.0702885 -0.3140769 0.12589811
0002c0 23 d9 e1 be f6 37 2d be c5 63 a8 be 73 46 99 be
       -0.44110975 -0.16915879 -0.32888618 -0.2993656
0002d0 60 a1 02 3e 5d 43 47 3e 66 bd 05 3e 93 a6 83 3e
       0.12756872 0.19459291 0.13060531 0.25713024
0002e0 09 cf cc 3c 1c 4b 02 3c 40 b3 fa 3c 18 c0 5e be
       0.025001066 0.007952478 0.030603051 -0.21752965
0002f0 eb d2 4c be f9 b4 9f 3d e2 d1 e6 bd f7 b3 36 3e
       -0.20002334 0.0779819 -0.11270501 0.17842089
000300 e6 b9 a2 bd 71 ab 16 3d b9 d5 5b be d5 b5 98 3c
       -0.079456136 0.036784593 -0.21468247 0.018641392
000310 37 17 b7 be 53 35 cb 3d 30 33 a1 bc 94 54 cc be
       -0.357599 0.0992228 -0.019677728 -0.39908278
000320 c2 82 ee bd 01 8b 18 be 46 52 e7 3d 5a e5 28 be
       -0.11646034 -0.14896776 0.11294989 -0.1649374
000330 c0 72 3f 3d 13 9d e2 bc 5d 3e 67 be f9 98 1c 3d
       0.046740294 -0.02766279 -0.22582383 0.038231824
000340 41 4b c0 3b 6e c9 01 be 0d 51 fd 3d bd 58 88 bc
       0.005868346 -0.12674496 0.12368975 -0.016643876
000350 20 05 6c bd a7 32 a5 bd a4 ae 08 bd 1c f9 3d be
       -0.057622075 -0.08066302 -0.033369675 -0.18552059
000360 44 0c 5e 3e ce 61 fe bd e5 59 cc 3b a4 68 50 bd
       0.21684366 -0.124209985 0.006236302 -0.050881043
000370 18 11 a2 bd ab 25 59 3e 19 e3 98 bd ef c3 21 3e
       -0.079134166 0.21205775 -0.074651904 0.15797399
000380 15 b5 8f 3d 63 14 84 be 5e 72 90 be c9 a3 8c be
       0.070169605 -0.25796804 -0.28212255 -0.27468708
000390 75 b0 cd bc f5 89 0b bd c4 8c 10 be 7a b2 8d b8
       -0.025108555 -0.034067113 -0.14116198 -6.756648e-05
0003a0 68 2d 97 bc c1 ed da bd e4 97 ae 3d fc de 40 be
       -0.018454269 -0.10689879 0.085250646 -0.18835062
0003b0 db 06 14 3e 57 06 96 3c 3d 11 1d 3e c8 d3 3c 3e
       0.1445574 0.01831357 0.15338607 0.18440163
0003c0 3c 56 59 bd 2a 4f 97 bd f8 f9 cb 3d 12 47 69 bd
       -0.053060755 -0.07388146 0.09959787 -0.056952544
0003d0 74 28 9a be a2 ea 13 be 02 c8 20 bd 0f 0a d4 bd
       -0.30108988 -0.14444974 -0.039253242 -0.10353481
0003e0 3b bd 6e be 70 b1 36 be 75 a5 4c be 7f f8 83 3d
       -0.23314373 -0.17841125 -0.19984992 0.06443881
0003f0 b6 85 78 bd 74 c5 3f bd 7a f2 ba bd 54 8d 70 3c
       -0.06067439 -0.046819165 -0.0912828 0.014682133

l3.weight f4 [3, 256]
000000 ca 5f fc bf 10 a6 ce 3f 09 a1 84 3e f3 6e fa be
       -1.9716733 1.6144428 0.2590411 -0.48912773
000010 16 a4 87 3f 7f a3 79 3f bd 57 62 3f 4e 4e aa be
       1.059695 0.975151 0.8841513 -0.33262867
000020 15 d6 65 bf 49 47 10 bf af 76 bd bf e4 f3 31 bf
       -0.8977979 -0.5635877 -1.4801844 -0.6951277
000030 f1 b5 b4 3f 6f 29 58 3f 88 c6 b4 be 26 9b a4 bc
       1.4118024 0.8443822 -0.35307717 -0.020093512
000040 b4 0c 91 3f 00 f7 b0 3f 47 85 87 be 0e a9 1e bf
       1.1332002 1.3825378 -0.2646887 -0.61976707
000050 ff 9d f8 bc 97 97 7d be 63 61 19 bd 0d ec 9a be
       -0.030348776 -0.24764858 -0.03744639 -0.30258217
000060 48 cc 6a bf f4 47 73 3d da 18 5d be 41 df 81 bf
       -0.9171796 0.05939479 -0.21591511 -1.0146257
000070 04 2d d3 3f d1 ac 9a 3e cd c7 b4 3f 14 ba 06 bf
       1.6498113 0.30209973 1.4123474 -0.5262768
000080 60 5a 11 3d 46 cc d0 bf d5 0d d6 3c a2 b4 2b bc
       0.03548658 -1.6312339 0.026129643 -0.010480078
000090 3c b2 bc bc a0 6c b5 3d 28 45 97 3f bc f9 02 3e
       -0.023034208 0.08858609 1.181798 0.12790579
0000a0 f6 96 15 be 89 d8 b9 3e 0e 6e 45 3f a4 e7 62 3f
       -0.14608368 0.36298016 0.77121055 0.88634706
0000b0 34 b6 7c bf 00 1f 6b bd aa dc 80 3f a7 71 44 bd
       -0.9871552 -0.05740261 1.0067341 -0.04795995
0000c0 eb 97 5f 3d ee 78 33 bf da 25 52 3b 81 bf 21 be
       0.05458824 -0.701064 0.0032066018 -0.15795709
0000d0 cf 8b 5b 3f b8 88 52 bf e9 a2 e8 be 7b a3 4b bc
       0.85760206 -0.82239866 -0.4543679 -0.0124291135
0000e0 8c 2a 89 3d b3 0a 04 3d 35 eb 2e 3e df 24 cb 3e
       0.06697568 0.032236766 0.17081912 0.39676568
0000f0 1e c0 95 be 9d 37 19 bd 11 ae fe 3e e1 00 00 3d
       -0.29248136 -0.037406553 0.49742177 0.03125084
000100 8e f0 46 3f a8 60 4e 3f 1a ba c5 bf 58 ef e7 3f
       0.7771081 0.80616236 -1.5447419 1.8119917
000110 ac f2 da 3e cf 18 b3 3d f7 fa 8e be b4 26 f8 3d
       0.4276327 0.08744966 -0.27925846 0.12116757
000120 6f 1a 99 3f 74 d9 da 3e 6d 35 cc bd 29 c1 a0 bc
       1.1961192 0.4274403 -0.09971128 -0.019623356
000130 9e d0 7f 3e b2 6e 84 3e 10 a6 0f bd 05 c7 e8 bd
       0.24981925 0.25865704 -0.03507048 -0.11366085
000140 ae d1 90 bf b2 b4 01 3f 90 c5 cb 3f 3d f4 50 3f
       -1.1313989 0.50666344 1.5919666 0.8162268
000150 ef 71 ea 3d 70 db 51 3e 27 e1 d4 bc fe f1 d7 bc
       0.11447512 0.20493865 -0.025986267 -0.026360508
000160 05 c4 9f 3f 2a 6f 4a 3d 47 a9 9e 3c 7a ce b6 bd
       1.2481695 0.04942242 0.019367827 -0.08926101
000170 4c 62 98 3e f9 88 dd be ce 53 b9 3f 3f e1 d0 be
       0.29762495 -0.43268564 1.44787 -0.4079685
000180 ff 90 a6 3f 8e 10 05 3f 8b 82 e2 bd 5f ac 4e bf
       1.3012999 0.51978385 -0.11060055 -0.8073177
000190 4e 4d 15 3d 70 da 54 bc a5 ac 89 bf ce 51 29 3e
       0.036450677 -0.012991533 -1.0755812 0.16535112
0001a0 74 c4 6e bd 90 fa 12 3f 80 28 a4 be 71 fc d4 be
       -0.05829282 0.5741358 -0.3206215 -0.41598848
0001b0 f6 5f 07 bf b8 6b 4f bf 64 00 aa bd 39 8c 40 3f
       -0.528808 -0.8102374 -0.08300856 0.7521396
0001c0 b8 48 58 bd f2 ac 20 bd d8 5a 44 3d 2c 9f b1 3f
       -0.052803725 -0.039227434 0.047938198 1.38767
0001d0 0a af 45 3f 6f db 98 3b de 76 8a bf 6b b4 cd be
       0.77220213 0.0046648304 -1.0817525 -0.4017671
0001e0 fe 00 38 bf db 54 63 bf 59 ec f9 be c4 9f b0 3c
       -0.71876514 -0.88801354 -0.4881313 0.021560557
0001f0 5f 3f 9d 3f b9 ec 66 3f 2b ab 31 be b2 6c b6 3f
       1.2284964 0.9020496 -0.17350452 1.4251921
000200 22 9b b1 3d f1 58 c1 bc b2 55 a4 3e 96 a1 f2 3e
       0.08672167 -0.02360198 0.3209663 0.47388905
000210 4a 79 c7 3e fb 40 1f be fd 3e 48 3f e7 c7 3f 3d
       0.38959724 -0.15552132 0.7822111 0.0468215
000220 b4 d1 5d be f2 fe ae bd ad 20 a5 3f b1 75 17 be
       -0.21662027 -0.08544721 1.2900597 -0.1479099
000230 de 27 88 bf 71 ae 1a 3f 34 87 df 3f a3 f6 5e be
       -1.0637167 0.60422426 1.7463136 -0.21773772
000240 06 0d 08 bf 7e 69 82 3f dc 60 3a 3f ab 8a ed bb
       -0.5314487 1.0188444 0.72804046 -0.0072491965
000250 be 56 98 3e d8 ce 05 bd dc 68 3d bf d0 0e 46 be
       0.2975368 -0.032667965 -0.7398813 -0.19341588
000260 79 1d c2 bf ff c6 54 bd 9e d9 8b 3c 45 3a 02 bb
       -1.5165244 -0.05194759 0.017071541 -0.0019871157
000270 4c df cf be 6a ba de bf 19 75 23 3e ee 39 c3 3e
       -0.4060005 -1.7400639 0.15962638 0.38130134
000280 a1 63 c3 3f 6f 81 be bf bb fc e5 3f 71 21 a1 3f
       1.5264779 -1.488325 1.7967752 1.258833
000290 38 7d fc be 80 c3 9e 3d c4 97 b5 3d c3 d0 4e 3d
       -0.49314284 0.077521324 0.088668376 0.05049206
0002a0 c1 25 19 3e d4 9b a8 bf fd 9b 2d bd e4 ef d1 bd
       0.14955808 -1.3172555 -0.04238509 -0.10250834
0002b0 5f 8f 05 40 ef 5f 88 3c aa bb 26 be c9 ee 1a bd
       2.0868757 0.016647307 -0.16282526 -0.03782538
0002c0 47 e6 b9 3d a8 4e 88 bf d7 d5 16 be 42 fe 3e bf
       0.09077125 -1.0649004 -0.14730011 -0.74606717
0002d0 30 11 29 3e f5 e6 af 3e 3e fd 1b 3f 9c ad 96 be
       0.16510463 0.34355894 0.6093329 -0.29429328
0002e0 19 d4 80 bd 08 56 40 3e cd a6 4f be fd af f1 bd
       -0.062904544 0.18782818 -0.20278473 -0.11801145
0002f0 f7 15 63 bb c1 1b 8c bf 21 a7 20 bf b4 7a 46 3f
       -0.0034650543 -1.094597 -0.6275502 0.7753098
000300 50 4f e5 3c 26 35 51 bd 20 a6 87 bb 03 d7 45 3d
       0.02799192 -0.051076077 -0.0041396767 0.048300754
000310 41 61 51 bf 66 ea 67 3e 4d de 2e bf 0b aa 5b 3e
       -0.8178902 0.2264801 -0.68307954 0.21451585
000320 cc 58 0e 3f c0 2e d8 be 80 17 d5 3e d0 d2 ba 3e
       0.55604243 -0.42223167 0.41619492 0.36488962
000330 13 7f 3d be 5b c2 60 bf 15 7c c4 be fa c1 13 3f
       -0.18505506 -0.8779656 -0.38375917 0.5771786
000340 ed 16 c2 bf 47 3d 23 bf 6f 14 ab be 02 48 c7 3f
       -1.5163246 -0.63765377 -0.33414027 1.556885
000350 59 40 40 3e fb 8c 5e bf d7 7d 17 3d ab 9f 2d 3e
       0.18774547 -0.8693387 0.036985245 0.1695544
000360 76 db 7f 3f ae 56 2d 3d bb 16 4a 3c ed e2 d3 bc
       0.99944246 0.042318992 0.012334521 -0.025865043
000370 92 79 df be d3 15 94 3e 14 02 bc 3e e1 81 21 3e
       -0.43647438 0.289229 0.36720335 0.15772201
000380 ee 63 46 bf 15 27 46 bf b5 e3 51 bf 0b fc d6 3f
       -0.7749623 -0.77403384 -0.8198808 1.6795667
000390 1c ff 05 3f 02 f6 8e bf ee 84 88 bf 09 8b c5 bc
       0.5234239 -1.1168826 -1.0665567 -0.024114149
0003a0 28 33 fd 3e 34 94 9c 3d 1f ee 83 3f 31 42 04 3f
       0.49453092 0.07645455 1.0307044 0.516635
0003b0 5d 97 e3 3e c0 eb 1f 3e 34 c6 ab 3f 50 3d c5 3f
       0.4445142 0.15617275 1.3419862 1.5409336
0003c0 e5 cd 79 bb 08 e8 b3 38 93 31 7a bf 09 be 4a bf
       -0.0038117107 8.578604e-05 -0.97731894 -0.7919622
0003d0 18 6f e1 bf 97 9a cd bd 74 22 b8 bd 78 ea d6 3e
       -1.7612028 -0.10039251 -0.089909464 0.4197576
0003e0 0a 32 20 3e 37 70 79 3f 2d 3d 9c bc 99 3f 48 3e
       0.15644088 0.9743685 -0.01907214 0.1955551
0003f0 52 c9 98 3d 44 07 28 3d 7a 0c f9 3c 5b af fd 3b
       0.07460274 0.041022554 0.030401457 0.0077418513

l3.bias f4 [3]
000000 be df 58 3c 07 f6 a9 3d 0d 6c 97 3d
       0.013236938 0.08298879 0.07393656
