saves/Dobot-v3/sr/seed_0/model/critic.pth (torch, 307031 bytes, 5 tensors)

l1.weight f4 [256, 39]
00000000: 0187 96bd 87e6 1a3f d8ea e4be ce26 db3b
00000010: 35ec 743b d54a d63d 1449 843d 6a16 e0be
00000020: 2f83 04bc bd20 293e a031 af3d 0013 e6bd
00000030: 6ccb 80be ef11 483f 7fc2 fb3d 54ba db3f
00000040: 7805 823e 77ae 1fbe b761 eb3f 586b eebe
00000050: 7436 45be dd95 dbbe 4028 08be d83b 313f
00000060: 59cc e8bf b04b 3040 67cf 39bf 67fb c63f
00000070: 9a0f 59bf 037e e4bf 2dfb 453f 1ed9 17c0
00000080: 6cb7 9ebf d94e 12bf 0bbc 85bf 5faf e33f
00000090: 0fe6 43bb 77fd 8cbc e614 543b 3a7a 6bba
000000a0: b74c a8bc 6e27 f5bd 874d 743c a875 aabd
000000b0: 2dee ddbd 22e1 0ebe 0058 01be 8339 4abe
000000c0: 89c5 e7bc faed eebd ed33 cbbd ad8d e7bd
000000d0: f57b 183e 8453 27bd c990 5dbd 064d d13d
000000e0: 78a1 123e 1d89 d9bd 4e0c 1d3e ac30 97bd
000000f0: dc64 f5bd 01fe aa3d 6560 2dbd 5abf 34bd
00000100: 61d8 f6bd 83cc 873d c969 1dbd 6f4a db3d
00000110: 568c ca3d 48b0 4c3c e267 323d 3fa2 b3bb
00000120: 847f 813d 3f95 b3bd 6672 a93d 389d 61bc
00000130: 5618 85bd 5a7f 9c3d c948 81be aae1 133f
00000140: 544b 14bf a374 bbbf 49a5 92bf d4fc d3bf
00000150: 76a8 e6bf 8faa 653f 4906 42be 4a18 c4bf
00000160: 83d1 ae3e 5e9d 453e c810 82be cc19 763e
00000170: 2781 9cbc 6261 16bf c15a 293f 3e60 533e
00000180: cefc 213f db47 64bf 7542 ad3e 7c65 9cbf
00000190: 4b6a 0cbf 5306 0a3f 1bdf 993d f8fa 2e40
000001a0: 1f1b cebe 6399 f63c 9874 193f 1105 433e
000001b0: 3a00 983f fe31 ecbf bbe0 84be dd65 d8be
000001c0: 98b1 bcbf ef88 3e3f 3891 5cbd 2db4 bbbc
000001d0: 2162 90bd 0505 33be b3eb 293e ab44 1dbc
000001e0: 260f 123e 4715 a9bd 2bf0 e63d ef73 963d
000001f0: 7490 bb3e f3a9 abbd e3ae d33d 7281 8e3e
00000200: da0c cabe e40e 9bbe 3b85 393d bb9f 803d
00000210: e1f4 943f 4658 e33f b2af 1c3f 5616 c6bf
00000220: c70f 433f 9b02 f2bd 836f 6e3f 77f8 013e
00000230: d37f 22bf 45ef d6bf 660a dfbf b389 953f
00000240: 5ed2 a33f e0f8 1240 9109 9b40 6278 8cbf
00000250: 1f9d 5e3f 24dd 883d f27c 0a3f 07ff 4f3d
00000260: b323 4dc0 f912 92ba ee0f 113c 1792 043c
00000270: 79a9 bf3e f525 0b3e 39f6 283f 98a0 d23e
00000280: cadc da3e 8ed5 db3e d616 163f 9a2d 88be
00000290: 1467 6a3e 2b01 be3e dfc9 a7be 05e3 dfbd
000002a0: 35a3 d33e d09a 17bf 6dbc e9be 28b3 3cbd
000002b0: a71e 04bf c785 05bf bbe4 343f b622 abbe
000002c0: 4b2e f5be f974 65bd 9eef 24bf 9e61 83be
000002d0: 07e3 66bf 627c dc3e 4b41 723f 76e4 6fbe
000002e0: a822 d7bc 001a 98bd 424a 68be 73e0 013f
000002f0: 9b51 543e 2d7d 70be b767 38be 6d73 883e
00000300: 47be 0d3c e3ce 013e 3079 98bd b8cb 10c0
00000310: 51fb 00c0 b8f6 aebf 34c4 bcbf 361c fdbe
00000320: 3381 e33e a2a4 5d3e 3822 e03f cb52 0bbf
00000330: 533f 3cbf 680f 0740 035d c9bf e9ec ef3d
00000340: 9a92 333d aa66 e13e 4c4d 0dc0 0f0f 2fbf
00000350: 8f20 e4bd 9fb7 243f 98be 103b 77eb 263f
00000360: b794 863d d016 95be beb5 8d3e 301c 813f
00000370: 1482 33bc 65e8 a43f a724 a4bf 0f64 84bf
00000380: 9d47 dc3d 2de6 693f cc7b 16bf 3bca dd3f
00000390: c782 853e 2f25 60bf ba15 613f b780 0ebe
000003a0: 799e b13d 1bb5 b0bb f423 46be 41b9 1dbe
000003b0: 07f2 4ebe 7739 ab3d eeda 6fbe 6d7c abbd
000003c0: acfe 033e e054 503d 467f 82be 3046 5e3d
000003d0: 5c1c b7bc e5cf 74be b41e 8dbe 8352 2c3e
000003e0: 78c7 093e cca3 f2bb 47bc b73e 7c5b a93d
000003f0: 9d24 0f3f c21e 293e 8ded 7d3e 9b73 07be
-0.07349969 0.60508007 -0.44710422 0.0066879755 0.0037372236 0.10463492 0.06459251 -0.437671
-0.008087917 0.16516395 0.08554387 -0.11234093 -0.251552 0.78152364 0.122929566 1.7166238
0.25394797 -0.15593897 1.8389195 -0.46566272 -0.19259053 -0.42887774 -0.13296604 0.6923194
-1.8187362 2.7546196 -0.72582096 1.5545472 -0.8478943 -1.7850956 0.7733639 -2.3726268
-1.2399726 -0.5715156 -1.0448011 1.7787894 -0.0029891764 -0.017210705 0.003236109 -0.0008982752
-0.020544393 -0.11970411 0.014911062 -0.083232224 -0.10836444 -0.13953069 -0.12631226 -0.19748501
-0.028292434 -0.11666484 -0.099220134 -0.113063194 0.14891036 -0.04085113 -0.054093156 0.10219769
0.14319408 -0.106218554 0.15336725 -0.0738233 -0.11982128 0.08349229 -0.042328257 -0.0441278
-0.1205299 0.066308044 -0.038430963 0.107075565 0.09890048 0.012493201 0.0435561 -0.0054819877
0.0632315 -0.08768701 0.08273773 -0.013770394 -0.06498782 0.07641478 -0.25250843 0.5776621
-0.5792744 -1.464497 -1.1456691 -1.6561532 -1.802016 0.89713377 -0.1894771 -1.5319912
0.3414422 0.19298312 -0.25403428 0.24033278 -0.019104553 -0.58742344 0.66154104 0.20642182
0.63276374 -0.8917214 0.33839765 -1.221847 -0.5484969 0.539159 0.07513257 2.734068
-0.40255067 0.030102437 0.5994353 0.19044901 1.1875069 -1.8452756 -0.25952706 -0.42265216
-1.4741697 0.74427694 -0.05384943 -0.022913063 -0.070499666 -0.17482384 0.16593818 -0.009598891
0.14263591 -0.082560115 0.11276277 0.07346331 0.36633646 -0.083820246 0.10336091 0.27833134
-0.3946293 -0.30284798 0.045293074 0.06280466 1.1637231 1.7761314 0.6120559 -1.5475566
0.7619595 -0.11816903 0.93138903 0.12692438 -0.63476294 -1.6791769 -1.7425048 1.1682647
1.2798574 2.2964401 4.844918 -1.0974238 0.869585 0.06682804 0.540969 0.050780322
-3.205304 -0.001114457 0.008853896 0.008091471 0.37433985 0.13588698 0.66000706 0.41138148
0.42746574 0.42936367 0.58628595 -0.2659729 0.22890884 0.37110266 -0.32771203 -0.109319724
0.41335455 -0.592206 -0.4565157 -0.046069294 -0.5160927 -0.52157253 0.70661515 -0.3342492
-0.4788688 -0.056019757 -0.64428127 -0.25660414 -0.90190166 0.43063647 0.9463088 -0.23426995
-0.026261643 -0.07426834 -0.22684577 0.5073311 0.20734255 -0.23485251 -0.18008314 0.26650563
0.008651323 0.12676577 -0.0744499 -2.262434 -2.0153391 -1.3669043 -1.4747376 -0.49435586
0.4443451 0.21644834 1.7510443 -0.5442321 -0.73534125 2.1103153 -1.573151 0.11715109
0.043840982 0.4402364 -2.2078428 -0.6838235 -0.111390226 0.64342684 0.002208626 0.6520304
0.06571334 -0.29118967 0.2767772 1.0086727 -0.010956306 1.2883421 -1.2823685 -1.0343035
0.10755847 0.91366845 -0.5878265 1.7327341 0.26076338 -0.8755674 0.8792378 -0.13916288
0.086728044 -0.005392683 -0.19349653 -0.154027 -0.20209514 0.0836057 -0.23423359 -0.08373342
0.12890118 0.050862193 -0.25487727 0.054266155 -0.02235239 -0.2390743 -0.27562487 0.1682835
0.13454998 -0.00740478 0.35885832 0.082694024 0.5591524 0.1651564 0.2479765 -0.13227694

l1.bias f4 [256]
00000000: 8f4c 53be d8a7 44be f0ec 11bf 23ee 35bd
00000010: 4655 c23e 48dc 303d 453b 2dbe 30dd 983d
00000020: d1e3 f9be c925 0abe 0877 9fbd 10a6 e9bd
00000030: 5549 493d 9dd4 943d f71f 38be 0ce5 6abe
00000040: 6d3f c4bc c27f 17bc d3bc e1bd 9df6 9f3b
00000050: 75d9 c1bc 7735 4cbe 1a57 39bc 8809 82bd
00000060: 3ca5 ecbe ca15 0bbe 0604 23bc c0a6 06be
00000070: 0ad2 303c 85be 233d 9fdd 05bf 4038 3dbe
00000080: 8850 d8be b6d2 1fbf 5d69 43be 1250 993d
00000090: 3dd1 f2bd a18c 4abd 168b c9bd a288 c1bd
000000a0: a8ce 08be 702d b73e a132 a3bd 0b73 c53e
000000b0: 0480 2abe ef12 cebd d532 a7bd f321 efbe
000000c0: 7270 c43d defd edbe 320c bcbd 9a3d c8bd
000000d0: 8f4d 5ebe 45d9 30be 9a1e 7f3c 5e17 74be
000000e0: 19d5 c1bd 8e72 843e 72fd 8ebe 538f 82be
000000f0: 5049 83bd eb2a b0bd 46be 5fbe 9c04 1dbd
00000100: 4d8e aabe 92c0 ddbd 394e 06be 990b 8dbc
00000110: e098 873e cda3 aabc c373 53be 949c 3c3d
00000120: ce45 83bc 1182 53bc f17c dabd bf86 88be
00000130: f5c1 8cbe 46a3 533e ef46 e5be 2ff0 53be
00000140: b601 debd 288d 43bf 915c 80be d9cc 1abd
00000150: dc5f f1bd 7f24 f9bd bde1 babe 4fed 163a
00000160: 9d1c 60be 069c 75be 3b55 573e 485a 7abd
00000170: 3efa c4bc 5a0b 843e ea5a 07be 0d74 86be
00000180: 36b3 96bc 7872 33be fa2c 763e 4953 16be
00000190: 25a0 e3bd 320e 7f3e 7a37 b8bd 6b80 ae3e
000001a0: e62d d3be 30c6 92bb 8cce 42be 0d82 d73e
000001b0: 91e7 eabd fa73 54be 33ff c1bd b110 4dbe
000001c0: a39c 02be 4c57 b3bd ef9c fcbd 08d7 8fbe
000001d0: 0680 b2bd 6eae 4bbd 2144 cabe 7f49 9e3e
000001e0: 7d37 ccbd 834e 42bd d39e 6cbd 7e8c 87bc
000001f0: 838b a33c b72f fabd d337 69be 1735 04bf
00000200: 0dad 32be 2c75 8dbe 320a 5abe 1ee7 72bd
00000210: af08 7abc 154f 8abd 97ff 9ebe 6b67 b0be
00000220: 71b2 91be f704 51be 8894 24be 201b a6be
00000230: 24f1 54bd 18af 3bbd 197c dfbe e444 083a
00000240: 3ac6 5abd 7d9b 95be 6c05 d0bc a232 07bd
00000250: 0a27 6dbe c994 02bf 3bd8 6b3e d4ae 86be
00000260: edec 813c c4f9 e63e e762 f03a 1e15 93be
00000270: dcf3 223d 358f b43e bc2b 8b3d ddcc 50be
00000280: b61e 023f 7400 b6bc ea0f e8bd 269a 97bd
00000290: f374 91be 9806 67be a2ae 8cbd 8776 22be
000002a0: 2f19 673c 02ea 54be e149 85be 061b 0ebf
000002b0: 2388 b5bd b949 66be 30d3 68be f04a 7ebc
000002c0: 1e1d 02be 1084 06be 6297 06be d30a bb3d
000002d0: e4a6 73bd 82af 7cbe dfe9 dfbc 3334 8e3e
000002e0: 8e18 aabe 1103 593d ff46 d6be ef64 f6bd
000002f0: 176f b0bd d3f3 39be 47df 9dbe 694b fabe
00000300: c948 33bd 9a0b ebbe 9b4a 5fbd 348f a23d
00000310: 6d3c fabe f936 cbbd a311 03bd 3468 2abe
00000320: df9a c5be c07d 8ebc b630 adbd 57bf 24be
00000330: 4172 5bbe 51ae cbbd 50d8 4bbe 1267 00bf
00000340: 1c6e b0be 3960 68be 76dd 07be bc33 88be
00000350: b18a 563e a83d 053d 1508 14be f412 30be
00000360: 10cc 68be 5893 ba3c ccfd fabd dbe8 a73e
00000370: 197d aebc 8f17 28be 606d 0e3e ad18 d13e
00000380: 32f0 b23e a7bd d43e 716e e8bd 29c2 693d
00000390: 4e74 44be 05a0 aebd bbd0 90bd 8d96 5dbe
000003a0: cc70 1dbe 6b64 b7bd 49e2 2fbe 27fc dc3e
000003b0: d8a4 08bd b0b2 0dbe 5314 9ebe 6da7 1f3e
000003c0: 3614 e53c 832c afba 060b d0bd d319 44be
000003d0: 1d42 3dbe 2721 b8bd e8e4 8ebe 3e50 82bd
000003e0: 47e7 4ebe 8d05 3ebe 1f20 cabd ee44 86bd
000003f0: 5a40 37be 18f0 c1be 5fdf 4dbe 1ddf ef3d
-0.20634674 -0.19204652 -0.5700216 -0.044416558 0.37955683 0.043178827 -0.16917141 0.07464063
-0.48806623 -0.13490976 -0.07786375 -0.11408627 0.0491422 0.07267115 -0.17980944 -0.22938937
-0.023956025 -0.009246768 -0.110223435 0.0048816935 -0.023663262 -0.1994227 -0.011312271 -0.06349474
-0.46219814 -0.1358253 -0.00994969 -0.13149548 0.010792265 0.039976615 -0.5229129 -0.18478489
-0.4224894 -0.62430894 -0.19083162 0.07485975 -0.11856315 -0.04945052 -0.09840982 -0.09449889
-0.13360083 0.35776854 -0.07968641 0.38564333 -0.16650397 -0.10062205 -0.08163992 -0.4670559
0.0959176 -0.46482748 -0.091820136 -0.097773746 -0.21709274 -0.17270382 0.015571261 -0.23837039
-0.09464473 0.25868648 -0.27927738 -0.25499973 -0.064104676 -0.08601936 -0.21849927 -0.038334474
-0.33311692 -0.108277455 -0.13115777 -0.017217444 0.26483822 -0.02083006 -0.20649628 0.046047762
-0.016024496 -0.012909428 -0.10668362 -0.26665303 -0.27491727 0.20667753 -0.4478068 -0.20697092
-0.1084017 -0.7638726 -0.25070623 -0.037793014 -0.11785862 -0.12165164 -0.3650035 0.00057574076
-0.21885915 -0.239853 0.21028607 -0.061121255 -0.024045106 0.2578991 -0.13218275 -0.26260415
-0.018396001 -0.17524135 0.24040595 -0.14680208 -0.111145295 0.24907759 -0.08994956 0.3408235
-0.41245955 -0.004479192 -0.19024104 0.42091408 -0.11469949 -0.20747367 -0.094725035 -0.20025899
-0.12755065 -0.08756885 -0.1233462 -0.28093743 -0.08715825 -0.049726896 -0.39505103 0.30915448
-0.09971521 -0.047438156 -0.057768654 -0.016546484 0.019963985 -0.12216132 -0.22775201 -0.5164351
-0.17448826 -0.27628458 -0.21292952 -0.05930244 -0.015260859 -0.06753365 -0.31054375 -0.34453902
-0.28456452 -0.2041205 -0.16072285 -0.3244257 -0.051987782 -0.04582128 -0.43649366 0.0005198254
-0.0534117 -0.2922019 -0.02539321 -0.03300727 -0.23159423 -0.5100828 0.23031704 -0.26305258
0.015860045 0.4511243 0.0018340022 -0.2872705 0.039783344 0.35265508 0.06795451 -0.20390649
0.5082811 -0.022217013 -0.1133116 -0.07402448 -0.28409538 -0.22561109 -0.06869246 -0.15865527
0.014105125 -0.20792392 -0.26032928 -0.55509984 -0.08863857 -0.2248906 -0.22736812 -0.015520796
-0.1270642 -0.13136315 -0.13143685 0.09132924 -0.05948533 -0.24676326 -0.027333198 0.277742
-0.3322186 0.05298144 -0.4185104 -0.1203097 -0.08614939 -0.18159418 -0.3083441 -0.48885658
-0.043770585 -0.4590729 -0.05451451 0.0793747 -0.48874226 -0.099225946 -0.03199924 -0.16641313
-0.3859472 -0.017393947 -0.084565565 -0.16088615 -0.21430303 -0.099453576 -0.19906735 -0.5015727
-0.34459007 -0.22692956 -0.13268074 -0.2660197 0.20951344 0.032529503 -0.14456208 -0.1719473
-0.22734094 0.022775337 -0.12255439 0.32794842 -0.021299886 -0.16415237 0.13908911 0.4083914
0.3494888 0.41550943 -0.1134919 0.05706993 -0.19184992 -0.08526615 -0.07071062 -0.21639462
-0.1537506 -0.089547 -0.17176165 0.43161127 -0.033360332 -0.13837695 -0.3087488 0.15591212
0.027963739 -0.0013364706 -0.101583526 -0.19150476 -0.18482251 -0.08990698 -0.27909017 -0.06362961
-0.20205413 -0.18556805 -0.09869408 -0.06556116 -0.17895642 -0.3787849 -0.2010474 0.11712477

l2.weight f4 [256, 256]
00000000: ae35 9fbe a816 553d 917d 70be abdd 30bc
00000010: 1c77 7dbc cecd 16be ee07 e43d d470 21bc
00000020: fb32 4fbe 0927 8ebd 3beb da3c d3e3 07bd
00000030: a6a1 72bc e4c2 1d3c 3dc5 44bd d5d1 ab3d
00000040: 4cf9 24bc 2f3a c3bb bcf8 9bbe 5499 21bc
00000050: 7bb2 373d 3e62 69bd e7ed 403d 45f8 04be
00000060: 2ef1 7cbe 8e7c 043d eefa 0a3c 8155 d5bc
00000070: 5f25 33be 30cc 103c 91a6 99bd 86f4 443c
00000080: 5276 02be 48a2 80be 7c53 95be c7cc 1fbe
00000090: a7c2 da3b 7cf4 6cbc cc62 47bd 36c8 7f3d
000000a0: 8511 57be 3517 9f3d c5b4 843c 0900 5dbc
000000b0: ca59 6c3d ea00 033d b710 01be 7c73 4abd
000000c0: 1d69 853d 53f7 37be a648 75bd 2f36 31bd
000000d0: 33b2 243b 7c09 093d 708e 463d ddd4 29bd
000000e0: f61d 86bd cbe8 e9bd 3b64 5b3d 522e 78bd
000000f0: 928d 41be 3a04 643d df46 96bd f454 93bd
00000100: d732 c9bd 5a6d 4dbc 243b 143d 4765 d8bb
00000110: a59f b53d 17e0 55bb b899 5ebd c2d5 c3be
00000120: 107b ddbd a7f2 503c aa53 8c3c b05a 08bd
00000130: d1a1 573d 2001 afbe 928e bc3b 9509 10bd
00000140: a77c 23bd a598 e2bd a85c 49be 84dd 5f3c
00000150: c21c 113d 6690 223d 263f 74be d625 0abc
00000160: 8a39 9dbc 35e7 cabc b6e6 b7bc aca6 623c
00000170: 7d9b 4dbd 34ce bcbd b872 1dbd 6459 51be
00000180: 5c87 27bd 4410 b03c 2a15 b5bc a2d7 7abd
00000190: 0133 983d 66e3 923d a03c 3abd 9112 183d
000001a0: 022c b13d f550 f6bb c6d4 75bc 31a4 a9bd
000001b0: a99d ccbe b7ed eb3d 340d 78bd e8b0 edbc
000001c0: c616 113d ee18 72bc d21c 67bd e2d2 87be
000001d0: 10b1 103d 3b7b 2cbd a406 4f3d ec68 ef3c
000001e0: 0686 473d 92f5 983c c2ca 6bbc f73d 77bd
000001f0: 47ee a1bb a958 f23b b2f8 903b bcb3 cebd
00000200: 444b 5ebc 480e 2dbe d02c db3c fb77 8e3d
00000210: 825f be3d a9b3 f0bc 9347 65bd b076 08be
00000220: 16a1 a5bd 0ab3 19be 6d11 74bc 2792 a53c
00000230: 1585 b6be 4236 d43c 5303 0abd ca0b 72bc
00000240: 2c5c 403d 2735 03bc b068 b53d 5e4b 943c
00000250: 26fd 56bd 044f 96be 9af2 60bd 577c 2f3d
00000260: fb76 d1bd c55e 91bc ecdf 33bd 3c3e f2be
00000270: a666 0abd a459 05be 1254 633d 47d8 0a3d
00000280: 974e ab3d 6eb8 d6be bda1 d3bd c430 c23d
00000290: 373b 21bb e429 cabc 1468 2b3d cf09 6f3c
000002a0: 4807 b9be 92f1 45bd 4bac 22bd bb4d cbbd
000002b0: 893e 5a3d 503e 0dbd 9841 b2b9 662d 673d
000002c0: 09aa 30bd 6f53 d73c 9722 0cbd b6be 4abd
000002d0: b0ab a3be 7e03 a0bc 67ac bdbe 801f 773b
000002e0: af28 6cbe d526 5fbc d44c 1cbe d319 75bc
000002f0: f162 963d 688a e2bc 7412 82be c920 4fbd
00000300: 3ec2 283d 284a 90bc a104 d8bc 9d4f 88bd
00000310: 8115 a5be 73d6 0ebd 1a90 10bd ec5c 87be
00000320: 163f bebe 0b5a 893d ed72 aebc a07a c5bc
00000330: e766 933d c897 07bd 60cf 373d f27e 3bbe
00000340: 4321 67bd 1485 a73c 366b cd3c e847 cabe
00000350: 157f c7be 100e 86be 46ba ee3c 41da e9bb
00000360: c660 ee3d bac2 393d d661 293d 7f29 40be
00000370: 61fb 50bd f27c 14be 37f9 4ebe 8238 1abc
00000380: 91c1 19bc 233b 953d bd8a 71bd 8ad4 0e3e
00000390: f99f 02bd 0eba 80bc c08e cabc d54f a5bb
000003a0: 75ef 533d 9199 c33c a48d 73bd 3265 e73c
000003b0: 22b9 cbbc 4bd9 c9be 933e 77be e5b0 c63c
000003c0: 09e5 36be 31a1 9abe 8cd7 b8bc 6052 ebbc
000003d0: 4db8 60bd aef2 493d 01aa 0d3d dee8 de3d
000003e0: e98a 423c c801 d03c 2ba9 7dbc 28b6 0a3d
000003f0: 281f a0bd dee7 eebd 5178 1c3d 4bab 8dbd
-0.31095642 0.05202356 -0.234854 -0.010795037 -0.015470292 -0.14726946 0.11134325 -0.0098535605
-0.20234291 -0.06941039 0.026723495 -0.033176254 -0.014809048 0.009628985 -0.048039664 0.08389632
-0.010069203 -0.0059578638 -0.30463207 -0.009863216 0.044847947 -0.056978457 0.04710188 -0.12985332
-0.24701378 0.032345347 0.008482678 -0.026041748 -0.17494725 0.008837745 -0.07502473 0.01202119
-0.12740448 -0.2512381 -0.29165256 -0.1560546 0.0066760364 -0.0144625865 -0.048678204 0.062446795
-0.21002777 0.07768098 0.016199479 -0.013488778 0.057702817 0.031983294 -0.12604032 -0.04942654
0.065141894 -0.1796544 -0.059883736 -0.043264564 0.002513063 0.03345631 0.048475683 -0.041462768
-0.06548683 -0.11421355 0.053562384 -0.06059105 -0.18901661 0.055668093 -0.07337736 -0.07193938
-0.0982415 -0.0125382785 0.036189213 -0.00660387 0.088683404 -0.0032634789 -0.054345816 -0.38249022
-0.10814488 0.012753165 0.017129738 -0.03328961 0.052644555 -0.34180546 0.0057543004 -0.035165388
-0.0399138 -0.11064271 -0.19664252 0.013663653 0.035427816 0.03968849 -0.23852214 -0.008431872
-0.019192476 -0.024768451 -0.022448879 0.013833683 -0.050197113 -0.092190176 -0.038439482 -0.20444256
-0.040900573 0.021492131 -0.022104818 -0.0612408 0.07431603 0.07172279 -0.045467973 0.03712708
0.08650972 -0.007516975 -0.015004342 -0.0828327 -0.39964035 0.1151995 -0.060559466 -0.02901502
0.03542211 -0.0147764515 -0.05642397 -0.26528078 0.03532511 -0.04210971 0.050543442 0.029224835
0.0487118 0.018671785 -0.014391603 -0.06036183 -0.004941735 0.007395823 0.004424178 -0.10092875
-0.013567749 -0.16899979 0.026754767 0.06956478 0.092955604 -0.029382544 -0.05597646 -0.13326526
-0.08087365 -0.15009704 -0.014896733 0.020211292 -0.3564841 0.025904778 -0.033694576 -0.014773319
0.046962902 -0.008008278 0.08857858 0.018102344 -0.052487515 -0.2935716 -0.054918863 0.04284319
-0.10227772 -0.017745385 -0.04391472 -0.47313106 -0.0337893 -0.13022476 0.055500098 0.033897664
0.08364599 -0.41937584 -0.103335835 0.094819576 -0.0024601945 -0.024678178 0.041847304 0.014589741
-0.36138368 -0.048326083 -0.039715093 -0.09926935 0.053282294 -0.034483254 -0.00033999677 0.05643978
-0.04313091 0.026284901 -0.034212675 -0.049498282 -0.31966925 -0.019532915 -0.37045595 0.0037707984
-0.23062395 -0.013620098 -0.15263683 -0.01495977 0.0734309 -0.027653888 -0.25404704 -0.050568376
0.04120087 -0.017613485 -0.026369395 -0.0665581 -0.3224297 -0.034872483 -0.035293676 -0.2643808
-0.37157506 0.067066275 -0.021295035 -0.024106324 0.071973614 -0.033103734 0.044875503 -0.18310145
-0.056428205 0.020449199 0.025075536 -0.39507985 -0.38964143 -0.26182604 0.029141556 -0.0071366136
0.11639552 0.04535172 0.04135307 -0.1876583 -0.051020984 -0.14500788 -0.20212255 -0.009412887
-0.009384529 0.0728667 -0.0589702 0.13948265 -0.031890843 -0.015713718 -0.024726272 -0.005044917
0.051742036 0.023876937 -0.05946125 0.028246496 -0.024868552 -0.39423594 -0.24144964 0.024254272
-0.17860807 -0.30201104 -0.022563718 -0.028725803 -0.054863263 0.049303703 0.034585956 0.1088426
0.011873939 0.025391474 -0.015482227 0.033865124 -0.078184426 -0.11665319 0.03820068 -0.06917437

l2.bias f4 [256]
00000000: 2438 a5bd af97 aabd f7f8 da3c a2d5 883c
00000010: eaa1 fdbd 9681 feba 5092 e5bc 8705 aebd
00000020: ea62 163c c44e 70bb 33b9 62bd 6eba 47bd
00000030: cfb7 99bd 27d5 8ebd d78c 523c 6bde 273f
00000040: 2c39 31be bfb5 123d 14f9 913c ff67 99bd
00000050: 0643 47bd b1ba b6bd edf5 96bd 3969 a0bd
00000060: 9d85 3abd a78d cbbc 8a4f 893d f01a 1e3c
00000070: c8ce bcbd dc9f 02be 30f1 2fbd 380b 52be
00000080: 6931 4ebd 0501 b1bd c04b 6cbd a320 8abd
00000090: 357b afbc 5b1d 70bd 5074 b9bd 19b1 9abd
000000a0: fdc7 e1bc 4cd4 4cbd c49b 82bd 37c1 e6bc
000000b0: 3dd9 56bd c912 ed3e 5e2f 4fbd c759 66bc
000000c0: dd18 8dbd 8ea7 f2bb 14f6 76bd d100 4c3c
000000d0: d89f c9bd 575d 66bd b910 90bd 1924 9a3c
000000e0: 05cc 49be d9ff f4bc 739b 35bd 1b8e 33bd
000000f0: 72f2 16be 46f0 c3bb 0677 9a3c 602c 753c
00000100: 7e20 4fbd f005 e1bd 7f63 873a 6c9f a3bd
00000110: 7396 cf3b f096 ccbd c4ce 71bd b944 5abd
00000120: 8546 23bc a06d a7bd 138b 73be b66e cfbd
00000130: 3d7a 5cbd baa7 1cbd b98e 5c3c 5632 27bc
00000140: c2f8 a1bc b6d3 b33b c9f1 bbbd 5524 e2bc
00000150: 4838 aebb c718 593b 9d66 bcbb 271c 9ebd
00000160: c138 2ebd bfb3 ffbd aa8e dfbd 1861 1fbd
00000170: 0269 e73e 03ba 94bd b964 ff3e a3e2 cebc
00000180: 8368 66bd d69d fb3e 87cf a33c 2c03 bf3b
00000190: 26e4 e73a a454 933a 8eda 013d e4aa 223b
000001a0: cf87 71be 1000 bb3c b9c2 013c 5312 77bd
000001b0: 9a5e 853c 06d7 7a3a 16d7 2dbd 64ff fdbc
000001c0: d532 d1bd 2bc6 27bb 1077 dbb9 c88e 81bd
000001d0: 91a3 39bd a59a 5b3b d761 8cbd 9d5b 91bd
000001e0: e8af 0dbd e0cc 98bd c1d4 96bb 7f27 8abd
000001f0: 5b49 a0bd 0590 bcbd 1e79 a03c 7442 363c
00000200: cf17 a0be f3d7 f0bc e957 aabd 6e68 b83d
00000210: 64e2 213d a6fa 843c efd6 ebbb b14d 96bc
00000220: 3ec6 a1bc 03a1 9dbd f3ec 90bc a713 4bbe
00000230: ded9 ba3b 73f2 17bd d828 ec3b 1b76 bf3b
00000240: 1762 a5bd 1be5 21bc 347a 35bd 31e1 59bd
00000250: 8087 14bb 2865 b0bc 244c 8cbd c854 88bd
00000260: 53f2 a8bd d909 793c 949b b7bd c674 723d
00000270: 9afa 8cbd 8835 8ebc e659 2abd 265a 3dba
00000280: 7304 d7bd ecc4 8fbd a513 e7bb c8c2 3dbd
00000290: 2e76 1bbd 8ee8 8f3c 71a2 dabc 1071 a6ba
000002a0: 4210 58bd 779c 88bc 2ab3 5abd 3e17 70bd
000002b0: 0be0 22bc 8ec9 893d 4226 5ebd 06bb 66bb
000002c0: 3aae e2bd 6e18 2cbd 4380 78bc 9e7e 1fbd
000002d0: f1dc c33c e402 79bd f059 4fbd f4b0 dabd
000002e0: e304 813d 2e18 2f3f cd1f 79bd 5401 4abe
000002f0: d50a 46bd 2799 a1bc fbf5 08bc bb1e e3bc
00000300: 9c0e 89be 2d30 d8bd acda 9bbc a5ff 6cbd
00000310: 32ca 30be ffc5 94bd 1d87 66bd 848f 06be
00000320: 50f0 3dbd 0b98 9f3b cb12 7abb 720d 13bb
00000330: 27bf 54bd 00bf a03b 6d92 04be 9f8f a9bd
00000340: 0b7e 7fbd 0ab4 ac3c 33f9 2f3c 4f7b 87bd
00000350: c499 ab3b 4d05 66bd b76a f5bc d18f 98bc
00000360: 1bc7 20bd 8fc1 64bd 851b 79bd d0aa 903c
00000370: 37ea 543d 8611 87bd fb7f 10bd 8e1e 64bc
00000380: 920f 92bc f5e8 4fbd 69bc ffbc 542c debc
00000390: 8869 76bd 14ac b9bd 71f0 c7bc 700c 433d
000003a0: 4c42 d6bd a414 fdbc b4c1 b2bd 4e57 003f
000003b0: 7ab6 c1bc 7278 013f 5c59 97bd a324 5abd
000003c0: e87d 3d3d 637c 93bd 3407 41be 2923 02be
000003d0: 6851 b3bd 1fbe e4bd 4539 56bd bc55 abbd
000003e0: 234a a1bd dd44 1cbd 149b 373d aa21 89bd
000003f0: df88 1f3c f7d9 1abd 986f fbbc 3e72 ab3c
-0.080673486 -0.083297126 0.026730044 0.01670343 -0.12384398 -0.0019417282 -0.028023869 -0.08497148
0.009178856 -0.0036668042 -0.0553524 -0.048761778 -0.07505762 -0.06974249 0.012850962 0.6557376
-0.17306966 0.035817858 0.017818965 -0.07490539 -0.048647903 -0.08922327 -0.07371125 -0.0783257
-0.04553758 -0.024847819 0.06704624 0.009649977 -0.09219128 -0.12756294 -0.042954624 -0.20512092
-0.05034009 -0.086427726 -0.05768943 -0.06744506 -0.021421054 -0.058621746 -0.09055388 -0.0755331
-0.027561182 -0.05000715 -0.06377366 -0.028168304 -0.05245327 0.46303394 -0.050582282 -0.0140594905
-0.06889508 -0.007405228 -0.060293272 0.0124513665 -0.09844941 -0.05624136 -0.070344396 0.01881604
-0.19706734 -0.029907154 -0.0443377 -0.043836694 -0.14740923 -0.0059795706 0.018855583 0.014964193
-0.050568096 -0.109874606 0.0010329335 -0.07989392 0.0063350736 -0.099897265 -0.059035078 -0.053288195
-0.009965544 -0.08175206 -0.23783521 -0.10128538 -0.053827513 -0.038245894 0.013461762 -0.010204872
-0.019771937 0.0054878844 -0.09176976 -0.027605215 -0.005316768 0.003312634 -0.005749537 -0.077202134
-0.042534593 -0.12485456 -0.10915883 -0.038910955 0.45197302 -0.072620414 0.49881533 -0.025254553
-0.056252014 0.49143857 0.019996418 0.0058292355 0.0017691895 0.0011240435 0.03170257 0.0024821097
-0.23586963 0.022827178 0.007919961 -0.06032021 0.016280461 0.0009568784 -0.04244145 -0.031005569
-0.102147736 -0.0025600295 -0.00041859644 -0.063260615 -0.045322005 0.0033508923 -0.06854599 -0.07097552
-0.034591585 -0.07460952 -0.004602999 -0.067458145 -0.078264914 -0.09207157 0.019589003 0.011124242
-0.31268165 -0.029399848 -0.08317549 0.090042934 0.039522544 0.0162328 -0.007197253 -0.018347593
-0.01974785 -0.07696726 -0.017691111 -0.19831716 0.0057022413 -0.037096452 0.0072070174 0.0058429367
-0.0807535 -0.009881283 -0.044305995 -0.053193275 -0.0022663772 -0.02153261 -0.0685046 -0.06656796
-0.08249345 0.015200102 -0.08965221 0.059193395 -0.06883736 -0.01735951 -0.04158964 -0.0007223211
-0.104988955 -0.07019982 -0.0070519024 -0.046328336 -0.0379545 0.017566945 -0.026688786 -0.001269849
-0.05274988 -0.01667617 -0.05339352 -0.058615915 -0.009941111 0.06727897 -0.054235704 -0.003520669
-0.11068387 -0.042015485 -0.015167299 -0.03893911 0.023909064 -0.060793772 -0.05062288 -0.106782824
0.0629976 0.6839627 -0.060821343 -0.19727069 -0.048350174 -0.019726349 -0.008359428 -0.027724614
-0.2676896 -0.10556064 -0.01902517 -0.05786099 -0.17264631 -0.07264327 -0.056281198 -0.13140684
-0.046371758 0.00487042 -0.0038158174 -0.0022438434 -0.05194011 0.0049055815 -0.12946482 -0.08279347
-0.062376063 0.021081943 0.010740566 -0.06615316 0.005236836 -0.0561574 -0.029958112 -0.018623265
-0.03925238 -0.055848654 -0.06081726 0.017659575 0.051981177 -0.06595139 -0.0352783 -0.0139233
-0.01782969 -0.050759275 -0.03121777 -0.027120747 -0.060159236 -0.090660244 -0.024406644 0.047619283
-0.10461864 -0.030893631 -0.08728352 0.50133216 -0.023646582 0.5057441 -0.07390091 -0.053257596
0.04626265 -0.07201459 -0.18850404 -0.12708725 -0.087557614 -0.11169075 -0.05230071 -0.08365962
-0.078754686 -0.03815161 0.04482563 -0.06695874 0.009737222 -0.037805524 -0.03069286 0.020928498

l3.weight f4 [1, 256]
00000000: af3b 9e3c dc0f 02bb 6045 343b d754 d6b8
00000010: 8a47 f63b 0be8 273c 32f5 a8bc 076e 09bd
00000020: 04a0 9abc 9332 d63a a170 7d3b 965a 74bc
00000030: d419 5bbc 799e c93c 63d3 603c 01ca f03e
00000040: 9977 ae3b 5d46 ee3c 66bf c93c 488d 27bc
00000050: 9228 78bc 9065 f4bc ae36 febc 5c8e 153c
00000060: fe60 0b3a a68c 673a 2218 e03c 8561 aeba
00000070: b7ad 663c c5c5 24bc ffe8 d23c 009d dabb
00000080: d9f8 ecb8 0ed9 1a3b 2948 333c 1506 f93c
00000090: 79b7 bd3c c727 a8bc fbe9 483c 2d16 e8bc
000000a0: 4c5b f03c 2d2f ac3c 06e6 f4bc bdff fa3c
000000b0: 11a9 9c3c 599b 8f3f 39b0 00bc 38db cc3c
000000c0: 985f a7bc 003b 503b 0f2d 633c f13c b1ba
000000d0: cd20 893c bb45 6c3c 23dc 23bc 17fe ed3c
000000e0: f86b 43bc ca4f 5fbb f0b3 e73c 3c7f 24bc
000000f0: b1b6 643c 6b15 8d3c a69f fdbb 7d61 1ebd
00000100: 7eab 7b3c c056 ac3a d4fb d43c c58c d7bc
00000110: 20cf 053d 03f5 76bc d8d1 d2bc e84e 0a3e
00000120: 8c1d 9b3b 2e75 8d3c aa3b a7bc 2a4c e73c
00000130: 3aa9 9e3b 9930 643c f573 c63b 4d80 ed3c
00000140: a7da 883b 5fb3 a3bc c172 46bc 10e8 13bc
00000150: 85f9 fc3c b8a2 17bd ef7c 5f3c f2f0 733c
00000160: 58d7 6e3a 129e 03bc 4587 18bc 0c34 473d
00000170: ba28 423e 0470 833c c9f0 c53e f09d 5bbc
00000180: 6b21 1d3d 5dd4 893e dd63 383c 4891 c6bc
00000190: 6419 acbc 7865 bebb a448 ad3b f37e b43a
000001a0: 262d 1bbc c0f1 1b3b 9ec4 f43c 44c7 1b3c
000001b0: a7f9 ec3a 7160 a33c 4e13 b43c b96b 0dbd
000001c0: c328 813c 1a28 97bb 4af2 a2bb f2f6 a1bc
000001d0: eef8 a43c 1e56 9f3c 574c 313b a328 ad3c
000001e0: 217a c13c 3c31 39bc a35f cbbc 135a ac3c
000001f0: dd52 643c e9bf b1bc f0f8 943c 4d08 aa3c
00000200: 0ae1 953c 4a4d 76bc 4642 493b 1909 1c3c
00000210: f758 023c f8f8 993b eb75 6fbc 4c8b 473c
00000220: 3e3e 33bc c502 0cbc 8751 e1bc c3fe 6cbd
00000230: 58e1 093d e30a 2abd c9b9 4b3c 49f0 523d
00000240: afc1 c23c 6f60 8ebc c6e2 a23b 9115 e33c
00000250: e49a 5dba 28c5 f1bc 207d 24bc 6fda 9a3c
00000260: 287e 003d bed0 08bd 652e fb3c 1fc3 283d
00000270: 86a0 a13c 52a9 cc3c a6e9 04bd 190d 383c
00000280: 5af6 a2bd 6161 20bc 7c5d 39bc 6d53 96bb
00000290: 6f47 8dbb 6668 c63c 9ff7 ad3c e477 d43c
000002a0: c3ec c93b bba4 353c 4d15 5e3c 7c28 fb3c
000002b0: 4833 543c 7b59 343d 4836 013d 82cb 0abc
000002c0: 430e f7bc fc6d ba3c deaf 2dbc 5051 ef3c
000002d0: a7dd f43b 56b1 fd3c c95d 8fbc 16e6 c7bb
000002e0: fa6c 2d3d 2e18 883f c555 903c b28c 42be
000002f0: 6a34 92ba ee6e e73c 5a3c 013d b225 db3c
00000300: 5dbd bf3a a599 f93c ebed 3439 6c4f 623c
00000310: 1e0a e03c 7e56 df3c 79a4 96bc 01a2 d43c
00000320: efac bbbc 3640 8abb a5be 043c 2ce1 73bc
00000330: 027c 2a3c 74af daba 7a1c 843c 47b8 f13c
00000340: 327b ad3c b3d6 f4bc a40a c13c d87d 28bd
00000350: 5eca b2bc 5fd4 c23a d721 103b c297 e83b
00000360: ac05 273c 6872 2c3d 9216 a23c db15 003d
00000370: 1a57 cc3c 21f1 94bb 08d0 0ebd 695e db3c
00000380: db06 06bb fbd2 50bc 8e87 6a3c 1b1b 2c3c
00000390: e676 2c3c a680 5a3c 47dd b13c 649c 633d
000003a0: d459 f73b 3ff0 e03b 31c2 09bc 1994 9a3f
000003b0: 1868 f73c fdff 493f 0418 b83c 93b4 663c
000003c0: a6a8 c13c 0d49 a33c 8df6 fdba b018 5b3b
000003d0: 2554 f93c 1694 2f3c cd84 283d 97fa 49bc
000003e0: 9edf 363d 6aec 223c 3fa8 243d 70c4 1abc
000003f0: c7b9 16bc 8e61 8bbc a09c 08be 3821 953c
0.019315569 -0.0019845879 0.002750717 -0.00010220118 0.0075158523 0.010248194 -0.02062473 -0.033552196
-0.01887513 0.0016341977 0.0038671868 -0.0149141755 -0.013372857 0.024611698 0.0137222735 0.47029117
0.0053243157 0.029086286 0.024627399 -0.010226555 -0.0151463915 -0.029833585 -0.031031933 0.009128179
0.0005316882 0.0008832909 0.027355257 -0.001330421 0.014079503 -0.010056918 0.025745867 -0.006671548
-0.000112997084 0.002362791 0.010942497 0.030398408 0.023158776 -0.02052678 0.012262817 -0.028330887
0.029340409 0.021018589 -0.02989484 0.030639524 0.019123586 1.1219283 -0.007854515 0.025006875
-0.020431325 0.0031773448 0.013865723 -0.001352219 0.016739273 0.014420922 -0.010001215 0.029051824
-0.011927597 -0.0034074658 0.028284043 -0.010040101 0.013959573 0.017222127 -0.007739979 -0.03866719
0.015360711 0.0013148412 0.025998987 -0.026312241 0.032668233 -0.015073064 -0.025734827 0.13506663
0.004733747 0.01726779 -0.020414192 0.02823456 0.0048419507 0.013927602 0.0060563036 0.028991843
0.004176456 -0.019982992 -0.01211232 -0.009027496 0.030880699 -0.037020415 0.013640626 0.014888989
0.0009111068 -0.008033292 -0.0093095945 0.04863362 0.18960848 0.016044624 0.38660267 -0.013404354
0.038361948 0.26919833 0.011254278 -0.024239197 -0.021008201 -0.005810436 0.0052882005 0.0013770744
-0.009471213 0.0023795217 0.02987891 0.009507958 0.0018079773 0.019943448 0.021981861 -0.03452656
0.015766507 -0.004612935 -0.0049727308 -0.019771073 0.02013823 0.019450244 0.0027053559 0.021137541
0.023617806 -0.011303242 -0.024825877 0.021039044 0.013935772 -0.021697955 0.018185109 0.020755911
0.018295784 -0.015033076 0.0030709668 0.009523653 0.007955781 0.004698869 -0.014615516 0.012179207
-0.010940133 -0.008545582 -0.027504696 -0.057860147 0.03366217 -0.04151429 0.012434431 0.051498685
0.023773996 -0.017379967 0.004970881 0.027720245 -0.00084535615 -0.029512957 -0.010039598 0.018902985
0.031370312 -0.033402197 0.030661771 0.041201707 0.019729864 0.024983082 -0.032449387 0.0112335915
-0.07957144 -0.009788842 -0.011313792 -0.004587582 -0.004311494 0.024219703 0.021236239 0.025936075
0.0061622574 0.011086638 0.013554883 0.030658953 0.0129516795 0.044030648 0.031545907 -0.008471372
-0.030158168 0.022757523 -0.010601012 0.029213578 0.007472712 0.03096835 -0.017500775 -0.0061004264
0.042340256 1.0632379 0.017619023 -0.18998984 -0.0011154537 0.028251138 0.031551696 0.026751373
0.0014628578 0.030468771 0.00017254769 0.013812881 0.027348574 0.027262922 -0.018388974 0.025956156
-0.02290961 -0.0042190803 0.008102094 -0.014885228 0.010405542 -0.0016684369 0.01612686 0.029506816
0.021176908 -0.029887533 0.023564644 -0.04113564 -0.021825012 0.0014864317 0.0021992826 0.007098169
0.010194223 0.042101294 0.019786153 0.031270843 0.024943877 -0.0045453464 -0.034866363 0.026778417
-0.0020450864 -0.012745614 0.014314545 0.010504509 0.0105263945 0.013336336 0.021711959 0.055569068
0.00754855 0.006864577 -0.008408115 1.2076446 0.030201003 0.7890623 0.022472389 0.014081138
0.023639988 0.019932294 -0.0019375846 0.0033431463 0.030435631 0.010716459 0.041142274 -0.012327812
0.04464685 0.009944061 0.040199514 -0.009446248 -0.009199566 -0.017014291 -0.13340998 0.018204316
