saves/Dobot-v3/her/seed_0/model/actor.pth (torch, 606039 bytes, 6 tensors)

l1.weight f4 [512, 36]
0	0x3e19eed3	0.1503251
1	0x3e008468	0.12550509
2	0xbd3fa436	-0.046787463
3	0xbe25f67e	-0.1620731
4	0xbdafd8e0	-0.085862875
5	0x3d9d008e	0.076661214
6	0xbd61b14e	-0.05510073
7	0x3e311560	0.1729331
8	0x3c974129	0.018463688
9	0x3c0d914a	0.008640597
10	0xbe4a8e81	-0.19780923
11	0x3c58c5bd	0.013230738
12	0xbeab66f2	-0.3347698
13	0x3e54f755	0.20797475
14	0xbdfa2608	-0.12214285
15	0x3a613f18	0.00085924705
16	0x3d1fac5c	0.038982734
17	0x3d8048aa	0.062638596
18	0xbcf4b98a	-0.029873628
19	0xbdc6f2fe	-0.09714316
20	0x3cdfb8ae	0.027309742
21	0x3dd359c6	0.10319857
22	0xbd9023ca	-0.07038076
23	0x3db9d8cd	0.090745546
24	0xbed00480	-0.40628433
25	0x3eec1834	0.46112216
26	0xbe3c4039	-0.18383874
27	0xbe20c840	-0.1570139
28	0xbd377d56	-0.044797264
29	0xbdf7fa4f	-0.121082895
30	0x3d1edbca	0.038783826
31	0x3e6591b1	0.22418858
32	0xbe1eb0db	-0.15497153
33	0xbde10fd6	-0.109893486
34	0xbd65cb24	-0.056101933
35	0xbe9ffcad	-0.31247464
36	0xbdd54e21	-0.104152925
37	0x3e3cf94c	0.18454474
38	0x3d9b221b	0.075748645
39	0x3def7c82	0.1169367
40	0xbd61ef98	-0.055160135
41	0xbd0129f0	-0.031534135
42	0x3c1e2dbe	0.0096544605
43	0xbda671bd	-0.081271626
44	0xbdb3bdfd	-0.08776472
45	0xbd3e35c5	-0.046437997
46	0x3e0368cf	0.1283295
47	0x3dd4eb02	0.10396387
48	0xbd3f3a07	-0.0466862
49	0x3becd956	0.007228057
50	0x3d89b763	0.06724431
51	0x3e4b137e	0.19831654
52	0x3d1c71e6	0.03819456
53	0xbc67e826	-0.01415447
54	0x3e3937ac	0.18087643
55	0xbdf18c57	-0.11794346
56	0xbba3700f	-0.0049877237
57	0xbe286e27	-0.1644827
58	0xbe05ff14	-0.13085586
59	0xbdf44312	-0.11926855
60	0x3dadac2a	0.08480103
61	0x3d9bfc5b	0.07616492
62	0xbcf28905	-0.029606352
63	0x3dc445bd	0.09583614
64	0x3d7147e8	0.058906466
65	0xbc1d96c2	-0.009618463
66	0x3db743e0	0.08948493
67	0x3c627c94	0.013823647
68	0x3db1cf9b	0.08682176
69	0x3e0131ab	0.12616603
70	0xbe17ddec	-0.1483075
71	0x3d96b134	0.073580176
72	0x3c17a635	0.009255935
73	0x3df93c61	0.121697195
74	0x3dedacf8	0.11605257
75	0x3dd0c846	0.10194449
76	0xbcc753e8	-0.024332002
77	0xbdeb5d9e	-0.114924654
78	0x3d915ab2	0.07097377
79	0x3cd04e17	0.025427861
80	0xbe3b17e7	-0.18270837
81	0x3de69802	0.11259462
82	0x3e575b83	0.21031003
83	0xbe65db4f	-0.22446941
84	0x3d2d8dda	0.04237161
85	0x3a5d011a	0.0008430645
86	0x3b81ccbf	0.003961175
87	0xbd8d21c2	-0.068912044
88	0x3dd19371	0.102332
89	0xbd97b609	-0.07407767
90	0x3db0a610	0.08625424
91	0x3dd1a8a5	0.102372445
92	0x3e1821a4	0.14856583
93	0x3df17ce6	0.117914006
94	0xbdf04656	-0.117321655
95	0xbdaab4c6	-0.08335261
96	0x3dc8399e	0.097766146
97	0x3d4e3834	0.05034657
98	0x3d80e832	0.06294288
99	0xbdb69ecf	-0.08917009
100	0x3e4be9c5	0.19913395
101	0x3e44d30b	0.19221132
102	0xbd1c48e1	-0.03815544
103	0xbc89a719	-0.016803311
104	0xbdbd73b5	-0.09250585
105	0x3d38d10b	0.045121234
106	0xbd92f82d	-0.07176242
107	0xbd1a376a	-0.037650503
108	0x3d910bfb	0.07082363
109	0x3d3f33dc	0.046680316
110	0xbd1d3d8b	-0.03838877
111	0x3dc64e0e	0.096828565
112	0xbdf28da5	-0.11843423
113	0x3e346067	0.176149
114	0x3d4ec946	0.050484918
115	0xbe189260	-0.14899588
116	0xbcd014b3	-0.025400495
117	0xbb6b7325	-0.0035926786
118	0xbd833095	-0.06405751
119	0x3d30992b	0.043114822
120	0x3caf714a	0.021416325
121	0x3da112ad	0.0786489
122	0xbddcdbe6	-0.1078413
123	0x3db213bd	0.08695171
124	0xbe2f70f0	-0.17132926
125	0xbdf865ef	-0.12128817
126	0xbcf86e68	-0.030326083
127	0xbd8f68f9	-0.07002444
128	0xbd9d67e9	-0.07685835
129	0xbe0e9ea4	-0.13927704
130	0xbd612d4d	-0.054974843
131	0x3c947d7b	0.01812624
132	0xbe434931	-0.19070889
133	0x3da49721	0.08036638
134	0x3d7cc639	0.061712477
135	0xbaff1822	-0.0019462148
136	0x3b96ce02	0.0046021948
137	0xbd3e04cc	-0.046391293
138	0x3dbb6b75	0.09151355
139	0x3e0d9acd	0.13828583
140	0x3e161d10	0.14659524
141	0x3dd398bb	0.103318654
142	0x3e1b82d5	0.15186627
143	0xbc3790d6	-0.011203965
144	0xbf077010	-0.5290537
145	0xbe2b8831	-0.16751172
146	0x3e22c601	0.15895845
147	0x3e037a48	0.12839615
148	0x3cd5fa94	0.026120462
149	0x3c0db1b1	0.008648322
150	0xbdc9ba99	-0.09850044
151	0x3f0d3e94	0.5517361
152	0x3b92b261	0.004476831
153	0x3e39ce8e	0.181452
154	0x3f1ec5dd	0.62020665
155	0xbe81d587	-0.2535822
156	0x3e853308	0.26015496
157	0x3e0d0452	0.1377118
158	0xbba551ea	-0.0050451653
159	0x3c2ebaf9	0.010664695
160	0xbe176217	-0.14783512
161	0xbda3860f	-0.07984554
162	0xbe240a37	-0.16019522
163	0xbe8ced39	-0.27524737
164	0xbdac41b7	-0.084109716
165	0x3ce26b9f	0.027639208
166	0xbe247103	-0.16058736
167	0x3d3fff6f	0.04687446
168	0xbe23f52a	-0.16011491
169	0x3da9881a	0.082779124
170	0x3f1a5ac3	0.6029474
171	0xbd7ee4fe	-0.062230103
172	0xbdd2a982	-0.10286237
173	0x3e6864b9	0.22694673
174	0xbe53a393	-0.20667867
175	0xbe2511a6	-0.16120014
176	0x3db25b49	0.087088175
177	0xbe077e4d	-0.13231774
178	0xbdcdc863	-0.10047986
179	0x3d7edc4d	0.062221814
180	0x3e149dc5	0.1451331
181	0x3b6cd750	0.0036139078
182	0x3dd79b02	0.10527612
183	0x3d3c0d6c	0.045911238
184	0x3d9f20f9	0.07769961
185	0x3d95e482	0.07318975
186	0xbdce3fc6	-0.100707576
187	0xbe9b4336	-0.30324715
188	0xbe063f8f	-0.13110183
189	0x3d991115	0.07473961
190	0xbd8c7a4c	-0.06859264
191	0x3e1487bc	0.14504904
192	0xbdfea274	-0.12433329
193	0xbdda879c	-0.10670397
194	0xbe145c83	-0.14488415
195	0xbde68be3	-0.1125715
196	0xbdd38e2a	-0.1032985
197	0x3d66cd65	0.056348223
198	0xbd26f8cb	-0.04076461
199	0xbb9da5c8	-0.0048110224
200	0x3b9e28c4	0.004826637
201	0x3d8175b1	0.06321276
202	0xbe19b610	-0.15010858
203	0xbdf3eb9d	-0.11910174
204	0xbd554406	-0.052066825
205	0x3d2bf17a	0.041978337
206	0xbeb949cf	-0.36189124
207	0x3e087350	0.13325238
208	0x3dae94cd	0.08524475
209	0xbd127d2a	-0.035763897
210	0x3d433e8f	0.047667082
211	0x3b062558	0.0020469036
212	0xbba47cab	-0.0050197444
213	0xbd9104bd	-0.07080982
214	0x3c48d0fa	0.012256855
215	0xbd0a375e	-0.03374421
216	0xbe234609	-0.15944685
217	0xbda5417f	-0.08069133
218	0x3dda386a	0.106552914
219	0xbe14ce3e	-0.145318
220	0xbd2dd7fa	-0.0424423
221	0x3e5ea51b	0.2174267
222	0x3d44ae41	0.048017744
223	0x3e958d29	0.2920926
224	0xbe197306	-0.14985284
225	0x3d96dd88	0.073664725
226	0xbb9d98d1	-0.004809477
227	0xbdcf9149	-0.10135133
228	0xbda37529	-0.07981331
229	0x3e677d2f	0.22606348
230	0xbc81e484	-0.015856035
231	0x3e3e7dcb	0.18602674
232	0x3d4a539b	0.04939614
233	0x3df78c64	0.12087324
234	0x3e10be53	0.14135103
235	0xbd6e8ad7	-0.058237877
236	0x3da6aac4	0.0813804
237	0xbe109c15	-0.1412204
238	0xbca98818	-0.020694777
239	0x3d3bbaa3	0.045832288
240	0xbe20d715	-0.15707047
241	0x3ebe0725	0.37114826
242	0xbca4dbc2	-0.02012432
243	0x3c9b7d3b	0.018980613
244	0x3dfe56da	0.12418909
245	0xbe44601c	-0.19177288
246	0x3df9adcb	0.121913515
247	0xbd9d4bb1	-0.076804526
248	0x3da3434a	0.07971819
249	0xbd598eb7	-0.05311462
250	0xbcd28328	-0.025697306
251	0x3d60426b	0.05475084
252	0x3e263c9d	0.1623406
253	0xbd0168a9	-0.031593952
254	0xbd9f0382	-0.07764341
255	0xbd8f021b	-0.069828235

l1.bias f4 [512]
0	0x3da5d9a3	0.080981515
1	0xbd9e5f5a	-0.077330306
2	0xbdbd2c0e	-0.092369184
3	0xbdd9fb46	-0.1064363
4	0x3dbabeed	0.091184475
5	0x3e0c5f38	0.13708198
6	0x3d603097	0.05473384
7	0x3de34f7c	0.11099145
8	0xbd7e391d	-0.062066186
9	0xbd53f308	-0.051745445
10	0x3de60e48	0.11233193
11	0xbbcf3fc2	-0.006324739
12	0x3e074d01	0.13212968
13	0xbdf9e275	-0.122013964
14	0xbdecc170	-0.11560333
15	0xbe00dd99	-0.12584533
16	0xbd3e83ee	-0.046512537
17	0x3db260b1	0.08709849
18	0x3a9043b4	0.0011006505
19	0xbda0c1d9	-0.078494735
20	0x3d577e28	0.052610546
21	0x3de68a9f	0.112569086
22	0xbe29ac6a	-0.16569677
23	0xbc7cbcf2	-0.015425907
24	0xba7fac40	-0.0009753145
25	0xbdf9ef13	-0.12203803
26	0xbd2b24dd	-0.041783202
27	0xbd1fa486	-0.03897526
28	0xbd84121d	-0.06448767
29	0x3e0f2284	0.1397801
30	0x3c92cb0c	0.017919086
31	0x3bc3b800	0.0059728622
32	0xbcb09dfb	-0.021559706
33	0x3caf910d	0.02143147
34	0x3e182889	0.14859213
35	0x3d2b70c3	0.041855585
36	0xbc84d8f3	-0.01621673
37	0x3da5c824	0.080948144
38	0xbd9ddd42	-0.07708217
39	0xbe27c79a	-0.16384736
40	0x3baaae84	0.005208792
41	0xbe19d133	-0.1502121
42	0x3e122446	0.1427165
43	0xbddc3280	-0.107518196
44	0x3cd6a5e5	0.026202152
45	0x3d642016	0.055694662
46	0xbdc9ba7f	-0.098500244
47	0xbd4577e0	-0.048210025
48	0xbde951c0	-0.11392546
49	0x3c1d2bdd	0.009592977
50	0x3e216824	0.15762383
51	0x3db70e7e	0.08938311
52	0x3dd7675f	0.10517763
53	0x3c9bc92d	0.019016827
54	0xbdf27320	-0.118383646
55	0xbc39ae11	-0.011333005
56	0xbd8d5fce	-0.06903039
57	0x3d834cd2	0.06411137
58	0x3c21db40	0.009878933
59	0x3db3cef6	0.08779709
60	0xbd93ba2f	-0.07213246
61	0x3d5728dd	0.052529205
62	0x3d2cd0ec	0.04219143
63	0x3db68f96	0.089141056
64	0x3da5a165	0.08087424
65	0xbdb2ae27	-0.08724623
66	0x3d8e70b2	0.06955089
67	0x3dbf7974	0.09349337
68	0x3e227fb3	0.15869026
69	0x3e0b9587	0.13631259
70	0xbe11e036	-0.14245686
71	0x3d2c350b	0.042042773
72	0x3c72716b	0.014797549
73	0x3d941c35	0.072319426
74	0xbd8ac647	-0.067761
75	0xbcc54325	-0.024079869
76	0xbd083e4a	-0.03326253
77	0xbd85229a	-0.0650074
78	0xbdac1497	-0.08402365
79	0x3d895512	0.06705679
80	0xbdffb09b	-0.12484857
81	0x3dce9f7d	0.10089014
82	0x3cd1b6c0	0.025599837
83	0x3caaf282	0.02086759
84	0x3e1b169f	0.15145348
85	0xbe15c15b	-0.1462454
86	0x3dc9a1e5	0.09845332
87	0xbe0567ac	-0.13027829
88	0xbcd31287	-0.02576567
89	0x3d1a7f11	0.037718836
90	0xbd97541e	-0.07389091
91	0x3cbc846a	0.023012359
92	0xbd4875ee	-0.04894059
93	0xbca7041c	-0.020387702
94	0x3dbf90f3	0.09353819
95	0x3e1ad28f	0.15119384
96	0x3d45e130	0.04831046
97	0x3d97f901	0.074205406
98	0x3d4245f0	0.04742998
99	0xbd63cca2	-0.055615075
100	0x3d7c5fc2	0.06161476
101	0xbe13300c	-0.14373797
102	0xbdb0c1cd	-0.086307146
103	0x3df043f5	0.11731712
104	0x3ded42a8	0.11584979
105	0x3e0b111d	0.13580747
106	0x3c5d3e6c	0.013503652
107	0xbcd31ed5	-0.025771538
108	0xbd98c336	-0.074591085
109	0xbdb73b16	-0.089468166
110	0xbcaf35d6	-0.021387976
111	0xbbbd0a26	-0.005769032
112	0x3dcc2ecb	0.099698626
113	0x3deddaba	0.116139844
114	0x3e06e9cb	0.13175122
115	0xbd804843	-0.06263783
116	0x3afd2433	0.0019313156
117	0xbd76205b	-0.06008945
118	0x3c75abae	0.014994545
119	0xbe236934	-0.159581
120	0xbc95bbf8	-0.018278107
121	0xbc803ccb	-0.015653988
122	0xbc196857	-0.009363255
123	0x3dd9e198	0.10638732
124	0xbd0c6e21	-0.034284715
125	0xbd17f4f2	-0.037098832
126	0x3e1773ea	0.14790311
127	0xbd74f2e8	-0.059801966
128	0xbd233b1e	-0.0398513
129	0xbc0d6734	-0.008630563
130	0x3dcdd3ba	0.10050149
131	0x3dac7337	0.08420413
132	0x3da0f6f0	0.078595996
133	0x3d24dd43	0.040250074
134	0xbd49c34f	-0.049258526
135	0x3dc61ade	0.09673093
136	0x3deadf48	0.11468369
137	0x3db4ae38	0.08822292
138	0x3d918055	0.071045555
139	0xbc102aaf	-0.008799239
140	0x3e2d279d	0.16909643
141	0xbc1fcbac	-0.009753149
142	0xbdaebc42	-0.08532001
143	0xbc18537d	-0.009297249
144	0xbda7dc14	-0.081962734
145	0x3e15a927	0.14615308
146	0xbe157e82	-0.1459904
147	0xbd88b44c	-0.06675014
148	0x3d13edfe	0.03611564
149	0x3da74751	0.081678994
150	0x3e399aae	0.18125412
151	0x3e07a462	0.13246301
152	0x3ba6125c	0.0050681066
153	0x3dec081d	0.11524985
154	0x3d22c10a	0.039734878
155	0xbdbbcd27	-0.09169989
156	0x3d055c40	0.03255868
157	0x3c978a17	0.018498464
158	0xba745c7c	-0.00093216426
159	0xbca2ce49	-0.019873755
160	0x3d67e066	0.056610487
161	0x3d2a0a13	0.041513514
162	0x3d709872	0.058739133
163	0x3d676339	0.05649111
164	0x3d8d0d97	0.06887358
165	0x3d2f0ae1	0.042734984
166	0x3dcfc65b	0.10145255
167	0xbd9e6200	-0.07733536
168	0x3d253681	0.040335182
169	0x3e394545	0.1809283
170	0xbd7ae969	-0.061257754
171	0x3b3ad9a5	0.0028511074
172	0xbd58b825	-0.05290999
173	0xbd7b9e40	-0.061430216
174	0xbdeba755	-0.115065254
175	0x3d51ddf0	0.051237047
176	0xbbfe3033	-0.0077572106
177	0xbda6051c	-0.08106443
178	0xbd19a9b7	-0.03751537
179	0x3d34c56f	0.0441336
180	0x3d8f1aec	0.06987557
181	0xbe0a0208	-0.13477337
182	0x3c14460c	0.009049904
183	0x3ddfdaac	0.1093038
184	0xbdd83e4f	-0.105587594
185	0xbdf0b1a0	-0.11752629
186	0x3da992ad	0.08279929
187	0xbc66a8db	-0.014078344
188	0xbd3f2290	-0.04666382
189	0xbdb97c44	-0.09056905
190	0x3d32082b	0.04346482
191	0x3d527ccd	0.05138855
192	0x3dcf6aba	0.10127778
193	0x3e524575	0.20534308
194	0x3bf6fc45	0.007537397
195	0xbdac15ce	-0.084025964
196	0x3cd191c2	0.025582198
197	0xbe2901da	-0.16504613
198	0xbe080c96	-0.13286051
199	0x3dad3118	0.084566295
200	0x3d6f0ba0	0.058360696
201	0xbda65754	-0.08122125
202	0xbdbcc59b	-0.09217378
203	0x3db2559b	0.08707734
204	0xbe11d563	-0.14241557
205	0xbd507e15	-0.05090149
206	0x3de8784e	0.11351071
207	0xbcf83211	-0.030297311
208	0xbd90365e	-0.0704162
209	0x3da099dc	0.07841846
210	0xbd96b4d7	-0.07358711
211	0x3e07f89e	0.13278434
212	0x3e0646c8	0.13112938
213	0x3c156e84	0.009120587
214	0xbdc2d318	-0.09512919
215	0xbd41fb96	-0.04735907
216	0xbe1cbe20	-0.15306902
217	0x3daade86	0.08343224
218	0x3d138b0d	0.03602128
219	0x3cdf4bcc	0.027257822
220	0xbd1ca607	-0.038244274
221	0xbd7bc579	-0.06146762
222	0x3d04c0c1	0.032410387
223	0x3df5f347	0.12009292
224	0x3dd77298	0.10519904
225	0x3e582afa	0.21110144
226	0x3b917569	0.004439045
227	0xbe26ebd6	-0.16300902
228	0x3d68ef4c	0.056868836
229	0xbda96e89	-0.08273036
230	0x3df17a9b	0.11790963
231	0xbd1db677	-0.03850409
232	0xbdae61db	-0.08514758
233	0xbd625bb9	-0.055263255
234	0xbc174121	-0.009231837
235	0xbde1a952	-0.110186234
236	0xbdcf3790	-0.101180196
237	0xbc8af21b	-0.016961148
238	0x3c99bad3	0.018765843
239	0x3e4428fa	0.19156256
240	0x3dc34121	0.09533907
241	0x3e1c8610	0.15285516
242	0x3cacebec	0.02110859
243	0x3d94ffca	0.072753504
244	0xbd7984f4	-0.06091781
245	0xbcd9264d	-0.026507521
246	0x3dcec257	0.10095661
247	0x3d832b48	0.064047396
248	0x3e15b710	0.14620614
249	0x3d63523e	0.055498354
250	0xbdccfe38	-0.10009426
251	0xbe1a9fa4	-0.1509996
252	0x3e191a94	0.14951545
253	0xbc85e634	-0.016345121
254	0xbc8864ba	-0.016649593
255	0xbcc13966	-0.02358694

l2.weight f4 [256, 512]
0	0xbd644fbe	-0.05574011
1	0x3b6e624f	0.0036374514
2	0x3c9cef4e	0.019157078
3	0xbc9a8ec1	-0.018866898
4	0x3b2ac5d9	0.0026057868
5	0xbd0f9fa7	-0.035064366
6	0x3cadef73	0.021232342
7	0xbcc3531f	-0.023843346
8	0xbccda54f	-0.02510324
9	0x3cebc2b4	0.028779365
10	0xbd30cf88	-0.043166667
11	0x3cc4c8ae	0.024021473
12	0x3cc861c2	0.024460677
13	0xbc71de8b	-0.014762531
14	0xbd8c3f23	-0.0684798
15	0xbd18bbae	-0.03728836
16	0x3cde1ee0	0.027114332
17	0xbb1464c2	-0.0022643064
18	0x3aa48ff2	0.0012555106
19	0x3cc148e7	0.023594333
20	0xbd23d1d8	-0.039995044
21	0x3c410d31	0.01178293
22	0x3c01996d	0.007910115
23	0xbb6e0222	-0.003631719
24	0xbdf6d6c4	-0.12052682
25	0xbd19cac2	-0.03754688
26	0xbd2783cd	-0.04089718
27	0x3ce2844b	0.027650973
28	0x3d046cbd	0.032330263
29	0x3d13454e	0.035954766
30	0x3c8e703a	0.017387498
31	0xbc243755	-0.010022958
32	0xbd0d49cf	-0.034494217
33	0xbd45e0c9	-0.048310075
34	0xbcb63562	-0.022242252
35	0xbd222a6c	-0.039591238
36	0xbc1ec07f	-0.009689449
37	0xbcec2c51	-0.028829725
38	0xbd48b86e	-0.04900401
39	0xbc02e353	-0.007988769
40	0xbd46ef5d	-0.04856812
41	0xbd96d8d9	-0.07365579
42	0xbbac1acc	-0.005252218
43	0x3d101bd2	0.03518278
44	0x3cc7a0a9	0.0243686
45	0x3cb391c2	0.021920089
46	0xbcceb7c9	-0.02523412
47	0x3b59680f	0.0033173596
48	0xbd35e9bd	-0.044412363
49	0x3bd316be	0.00644192
50	0x3cca7a3c	0.024716489
51	0xbd2b9435	-0.041889388
52	0x3cd76d27	0.026297165
53	0xbcd7d2c1	-0.026345612
54	0xbd201f5e	-0.039092414
55	0xbcd57133	-0.026054954
56	0x3c6a2cfa	0.01429295
57	0xbd37bef3	-0.044859838
58	0xbc5ce4a3	-0.013482246
59	0x3b3575c5	0.0027688604
60	0xbd892606	-0.066967055
61	0x3cebe730	0.028796762
62	0xbcc05bae	-0.023481216
63	0x3c3da8fa	0.011575932
64	0x3c862ed1	0.016379746
65	0xbd37a4c5	-0.04483487
66	0x3d07f1c1	0.03318954
67	0x3b65b03e	0.0035047675
68	0xbcee7ff9	-0.029113756
69	0xbde8f3c9	-0.11374623
70	0x3d2f5f82	0.042815693
71	0xbcf00f0c	-0.02930405
72	0x3ca12396	0.019670289
73	0x3d4b1642	0.049581774
74	0xbbfab552	-0.0076510096
75	0x3c91822a	0.017762262
76	0xbcfd05a1	-0.030886473
77	0x3d2a2796	0.04154166
78	0xbc3fadf7	-0.011699191
79	0xbc30fbfc	-0.010802265
80	0xbb208689	-0.0024494252
81	0x3d1d0cd2	0.038342305
82	0xbd2beaa0	-0.041971803
83	0xbb2cc1b0	-0.0026360564
84	0x3be7356a	0.007055928
85	0x3cea114d	0.028572703
86	0xbce30635	-0.02771292
87	0xbd1489a1	-0.036264066
88	0xbbd25a8c	-0.0064194854
89	0xbcc9114e	-0.024544384
90	0xbcb046c8	-0.021518126
91	0x3c140ef1	0.009036765
92	0xbd00bb4c	-0.03142862
93	0x3ce294ae	0.027658787
94	0x3c165a6e	0.009176834
95	0xbc3b28f2	-0.011423336
96	0x3c2bb59a	0.010480309
97	0xbb559d9e	-0.0032595168
98	0xbb5c4ac5	-0.0033613902
99	0xbb143b35	-0.0022618298
100	0x39871213	0.00025762673
101	0x3befbbeb	0.0073161027
102	0xbcb1d68c	-0.02170875
103	0xbd0b02ea	-0.033938326
104	0xbd7c70c9	-0.061630998
105	0x3c85a543	0.016314154
106	0x3b2af63c	0.0026086709
107	0xbd567c2a	-0.052364506
108	0x3cd1a7cd	0.025592709
109	0x3d209f2f	0.03921431
110	0xbbd42ca9	-0.0064750505
111	0xbc9e3a35	-0.019314865
112	0xbd31b01f	-0.043380853
113	0x3d17ce40	0.03706193
114	0xbd34e8b7	-0.044167247
115	0x3cc93694	0.024562158
116	0x3c0023ca	0.007821033
117	0x3d19f6e6	0.037588976
118	0xbcf55cce	-0.02995148
119	0xbb491e20	-0.0030688122
120	0xbbd23a07	-0.006415609
121	0x3c864f7f	0.016395329
122	0x3b977cb6	0.004623021
123	0xbc0d2bc6	-0.008616393
124	0x3d08e464	0.033420935
125	0x3c440042	0.011962952
126	0xbcfb3473	-0.030664658
127	0xbc8ccfee	-0.017188992
128	0x3c9971e1	0.01873106
129	0x3d42a992	0.047524996
130	0xbd342ab4	-0.043986037
131	0xbd1090da	-0.03529439
132	0xbd20e8f4	-0.03928466
133	0x3cccb733	0.0249897
134	0xbc5320ac	-0.012886208
135	0x3c87d11c	0.016579203
136	0xbd11b390	-0.035571635
137	0x3cadb5bb	0.02120482
138	0xbc5176df	-0.012784689
139	0xbc7ac315	-0.0153053
140	0x3cf58b8f	0.029973773
141	0x3cfe9d92	0.031080995
142	0xbd2f94c4	-0.042866483
143	0x3c9d2b75	0.019185761
144	0xbd11c023	-0.035583626
145	0xbd317584	-0.043324962
146	0x3a4920b0	0.00076724123
147	0x3d07369b	0.03301106
148	0x3b060e74	0.0020455392
149	0x3cba1d9c	0.022719197
150	0x3c2d165b	0.010564412
151	0x3ca27b90	0.01983431
152	0x3c5de26d	0.013542754
153	0xbd24e272	-0.040255018
154	0xbd824629	-0.06361038
155	0xbd2a0810	-0.041511595
156	0xbbda321c	-0.0066588055
157	0x3ac375b3	0.0014912396
158	0xba25c94d	-0.00063242466
159	0xbd38e3ab	-0.045138996
160	0xbe0af062	-0.13568261
161	0xbd013919	-0.031548593
162	0xbd2da529	-0.042393837
163	0xba5d7956	-0.00084485614
164	0xb9ad27b6	-0.00033026718
165	0xbd329134	-0.043595508
166	0xbbd68bf4	-0.0065474454
167	0x3c9beb3a	0.019033063
168	0xbd3b5b65	-0.045741457
169	0x3b62d816	0.003461366
170	0xbd30ca1d	-0.0431615
171	0x3d324599	0.043523405
172	0xbcce275d	-0.025165254
173	0xbc6d3631	-0.014478252
174	0xbd2da651	-0.04239494
175	0xbd1863e0	-0.037204623
176	0xbcf81f02	-0.030288223
177	0x3ccc92f0	0.024972409
178	0x3cbcadc8	0.023032084
179	0xbc79bb7d	-0.015242455
180	0x3b613e57	0.0034369433
181	0xbcd9488e	-0.026523855
182	0xbc3cc5a5	-0.0115217315
183	0x3c999188	0.018746153
184	0xbd5089eb	-0.05091278
185	0xbbfa8016	-0.0076446636
186	0xbd23eb18	-0.040019125
187	0xbd0c8dea	-0.034315027
188	0xbd2c79e8	-0.042108446
189	0x3bf97a82	0.007613481
190	0x3d255b95	0.040370543
191	0xbc1ad49e	-0.009450106
192	0xbb6e60a4	-0.003637352
193	0xbbcbe0ca	-0.0062218653
194	0xbb30def9	-0.002698837
195	0x3b04eae4	0.0020281607
196	0x3c51c79c	0.012803938
197	0xbd2501d7	-0.040284958
198	0x3d25a1dd	0.040437568
199	0xbd034e91	-0.03205735
200	0x3cd4f332	0.02599487
201	0x3c2d61ae	0.010582371
202	0xbb29b038	-0.0025892388
203	0x3c4e1974	0.012579311
204	0xbbc242fd	-0.005928396
205	0xbcb3ce1b	-0.021948865
206	0xbcbe41f6	-0.023224812
207	0xbd2f7979	-0.042840455
208	0x3c8fa788	0.01753594
209	0x3cc80d82	0.024420504
210	0x3c512b1a	0.012766624
211	0x3d322fe0	0.04350269
212	0x3c7ae1b3	0.0153126
213	0x3d17c98e	0.037057452
214	0xbc273548	-0.010205574
215	0x3d38d43f	0.04512429
216	0x3c36ec9c	0.0111648105
217	0xbc53078a	-0.012880215
218	0x3ce85416	0.028360408
219	0xbd310431	-0.043216888
220	0xbd954c50	-0.07289946
221	0xbc8521cf	-0.016251473
222	0x3d50c8c7	0.050972726
223	0x3b588a01	0.003304124
224	0x3bfc9f2a	0.0077094035
225	0x3d2a1ab6	0.04152938
226	0x3bdbea2a	0.006711264
227	0xbc8eae4f	-0.017417101
228	0x3bd95625	0.0066325837
229	0x3ce1c07d	0.027557606
230	0xbc747900	-0.014921427
231	0xbbace5d4	-0.005276421
232	0xbd03eb00	-0.032206535
233	0x3b937060	0.00449948
234	0x3cb8f607	0.022578252
235	0x3c7786f5	0.01510786
236	0x3be56d21	0.0070015346
237	0x3cf3a733	0.029742813
238	0xbbea3059	-0.007146877
239	0xbcba622d	-0.022751892
240	0x3cda63d9	0.02665894
241	0xbd3a29e3	-0.045450103
242	0x3c529eba	0.012855226
243	0x3cab36e8	0.020900205
244	0xbabde6ed	-0.0014488377
245	0xbd1fef90	-0.039046824
246	0x3ceee8b3	0.029163694
247	0x3c91e9b0	0.017811626
248	0xbc85476a	-0.016269404
249	0x3cbba098	0.022903726
250	0x3c8e1a20	0.017346442
251	0x3c205acc	0.009787273
252	0x3d20c740	0.03925252
253	0xbc8491eb	-0.01618286
254	0x3ce319d6	0.02772228
255	0xbd0845ed	-0.03326981

l2.bias f4 [256]
0	0xbd2c1bfb	-0.04201887
1	0xbcca215b	-0.024674108
2	0x3b8ea71f	0.0043534185
3	0xbd1f6a47	-0.038919713
4	0x3d2aeb9c	0.0417286
5	0x3da91edf	0.08257841
6	0xbd2d0f94	-0.042251185
7	0xbd152163	-0.036408793
8	0x3d883c72	0.06652154
9	0x3d092a1b	0.03348742
10	0xbcc82bbd	-0.024434919
11	0xbb14a6da	-0.002268246
12	0xbd3e4e24	-0.04646124
13	0x3d0e1d07	0.03469565
14	0x39137151	0.00014061226
15	0xbcc2381d	-0.023708398
16	0x3c9d7469	0.019220548
17	0xbcc045cd	-0.023470784
18	0xbc5a2a5d	-0.013315764
19	0x3bfbc8a2	0.0076838294
20	0xbbf3dec0	-0.0074423254
21	0xbca2c5ec	-0.019869767
22	0xbd2886b4	-0.041144088
23	0x3c334d66	0.010943746
24	0xbc7dee70	-0.015498742
25	0x3c9405f4	0.018069245
26	0x3c62de9b	0.013847019
27	0xbb7e5b4f	-0.0038811748
28	0x3c8d098e	0.01721647
29	0xbce577dc	-0.028011255
30	0x3ca77a5c	0.020444088
31	0x3c07dfb3	0.00829308
32	0x3b548866	0.0032429933
33	0xbbd34d94	-0.006448457
34	0xbc21449c	-0.009843018
35	0x3c00ffc7	0.007873482
36	0xbce4c8b8	-0.027927741
37	0x3e1daa01	0.15396883
38	0xbd0b95c6	-0.034078382
39	0x3cc0b035	0.023521522
40	0xbbf4b42e	-0.007467768
41	0xbc220a87	-0.009890205
42	0x3c8e40cd	0.017364884
43	0xbc5d6cb5	-0.013514687
44	0x3bb398ab	0.005480846
45	0x3d179c4a	0.037014283
46	0xbd24f97a	-0.040276982
47	0x3d1b9ef7	0.037993398
48	0x3d023464	0.031788245
49	0xbd148060	-0.03625524
50	0xbcdc7822	-0.026912753
51	0x3c856ad0	0.016286284
52	0xbcffc73e	-0.031222936
53	0x3ce0ee74	0.027457453
54	0x3aeb9cde	0.0017975827
55	0x3c8154fe	0.015787598
56	0x3c18c09a	0.009323264
57	0xbc5c3e23	-0.013442549
58	0x3c8e1750	0.0173451
59	0x3ba65a91	0.0050767143
60	0xbc3a709a	-0.011379385
61	0x3cc6b8e8	0.024258092
62	0x3c8d357b	0.017237416
63	0xbc368fab	-0.011142652
64	0xbd1657fb	-0.036705
65	0xbd1d77c0	-0.03844428
66	0x3d6907f6	0.056892358
67	0xbc4b24f9	-0.012398952
68	0x3c2b870b	0.0104692085
69	0x3d8d598e	0.06901847
70	0xbc5a8b73	-0.013338911
71	0x3ceafc27	0.028684689
72	0xbcbca216	-0.023026507
73	0x3cea4fa8	0.028602436
74	0x3cc04863	0.023472017
75	0xbc598e5f	-0.013278573
76	0xbc4c8635	-0.012483169
77	0xbc399f76	-0.011329522
78	0x3ccce662	0.025012199
79	0xbb4b3b3d	-0.003101065
80	0x3c486ca4	0.012232933
81	0x3cc43055	0.023948828
82	0x3e07122e	0.13190529
83	0xbc16da3d	-0.0092073055
84	0x3b4e3078	0.0031461995
85	0x3bd2372e	0.0064152693
86	0x3b08d066	0.0020876168
87	0xbc921b06	-0.017835151
88	0xbc6a17be	-0.014287887
89	0x3c90cf85	0.017677078
90	0xbd21f0bf	-0.039536234
91	0x3ba58c20	0.0050521046
92	0x3ca3c94e	0.01999345
93	0x3c343ed7	0.01100131
94	0xbb3684e8	-0.0027850214
95	0xbc94dcde	-0.018171724
96	0xbd16154d	-0.036641408
97	0x3d04c227	0.03241172
98	0x3d063a08	0.032770187
99	0x3be29685	0.006914916
100	0x3ce2e541	0.027697207
101	0x3cf23c6e	0.02956983
102	0xbd3a6263	-0.045503985
103	0x3d45f3d3	0.048328232
104	0x3c7cd871	0.015432463
105	0x3bf6fae4	0.0075372327
106	0xbd0acc3d	-0.033886183
107	0x3c1861f9	0.009300702
108	0xbd38fe55	-0.045164425
109	0xbcda9315	-0.026681462
110	0xbac17ff0	-0.001476286
111	0x3c2a017b	0.0103763295
112	0x3bc7c0fb	0.006096003
113	0xbcf87f79	-0.030334221
114	0x3d3dcbd3	0.04633696
115	0x3d20b51d	0.039235223
116	0x3ca32d7b	0.019919148
117	0x3cea2161	0.02858037
118	0x3cbb8a05	0.022892961
119	0x3c523acf	0.012831404
120	0xbc1724b4	-0.009225059
121	0x3cbfd7e9	0.023418384
122	0xbd543b47	-0.051814344
123	0xbc86469f	-0.016391097
124	0x3cfc216d	0.030777657
125	0x3cd06a98	0.025441453
126	0x3cc52528	0.024065569
127	0xbc78aee8	-0.01517842
128	0x3da753cf	0.08170282
129	0x3da52e0c	0.08065423
130	0x3b77e4b5	0.003782553
131	0xbb00b262	-0.0019637574
132	0xbb899193	-0.004198262
133	0x3b3d249b	0.002886093
134	0x3c749dbb	0.014930184
135	0xbd29ee90	-0.041487277
136	0xbc852689	-0.016253727
137	0xbb106f8d	-0.0022039146
138	0x3d20d99c	0.03927003
139	0x3cb899af	0.02253422
140	0x3cb52e05	0.02211667
141	0x3d007b27	0.031367447
142	0x3d72a36b	0.05923788
143	0xbca0b546	-0.019617688
144	0x3c92f7b6	0.017940383
145	0x3d02ca65	0.0319313
146	0x3bc6a8d6	0.0060626073
147	0x3d1a60c1	0.037689928
148	0x3c88217c	0.01661753
149	0x3d00a66d	0.031408716
150	0x3cf79567	0.030222608
151	0x3dab61f1	0.0836829
152	0xbd0f5c51	-0.03500015
153	0x3dcf411f	0.10119843
154	0xbccdb62b	-0.025111279
155	0x3ceee88d	0.029163623
156	0xbc005287	-0.007832176
157	0x3dd348d4	0.10316625
158	0x3cbc26a7	0.02296765
159	0x3c4855ce	0.012227489
160	0xbd1f06a4	-0.038824692
161	0xbd157a07	-0.036493327
162	0xbc42afd9	-0.011882746
163	0x3c997e18	0.018736884
164	0x3c14a922	0.0090735275
165	0xbd13e238	-0.03610441
166	0xbcb3afe2	-0.021934453
167	0xbd0870b3	-0.033310603
168	0xbc873d46	-0.01650871
169	0xbc9ba03b	-0.018997302
170	0xbcf9b86b	-0.030483445
171	0x3be37fb0	0.006942712
172	0xbd0575e8	-0.032583147
173	0x3d404a65	0.04694595
174	0x3be0f1a3	0.006864743
175	0xbc0dd6f6	-0.008657208
176	0xbbf8e315	-0.0075954297
177	0x3d4c237b	0.049838524
178	0x3d25dc5b	0.04049335
179	0x3c903566	0.017603587
180	0x3c6aa643	0.014321866
181	0xbd1d6b4f	-0.038432416
182	0xbc2c6362	-0.010521742
183	0x3c14ea0b	0.009089003
184	0x3b89adcb	0.004201626
185	0xbd2fe02d	-0.0429384
186	0x3d24c595	0.04022749
187	0xbca0a763	-0.019611066
188	0x3ccdeb68	0.025136665
189	0x3d940999	0.07228393
190	0xbbd59a03	-0.006518604
191	0x3c588955	0.013216336
192	0x3d0df9c1	0.034662012
193	0xbafbe64f	-0.0019218418
194	0x3cb012ff	0.021493433
195	0x3bea1983	0.0071441545
196	0x3cd59c97	0.026075644
197	0xbc9f513d	-0.019447917
198	0x3ca48194	0.020081319
199	0x3d1f627c	0.03891228
200	0xbc05a3ce	-0.00815673
201	0xbd003493	-0.03130014
202	0xbb50fd58	-0.0031889286
203	0x3cc0ebe3	0.02354998
204	0xbce1ba76	-0.027554732
205	0x3ac9a699	0.0015384733
206	0x3d8ad749	0.06779344
207	0xbb9a5cda	-0.004710776
208	0x3ca2c258	0.019868061
209	0x3c8aded3	0.016951954
210	0x3cb05e63	0.021529382
211	0xbc5a166a	-0.013311008
212	0xbd0c717f	-0.034287926
213	0x3d09f229	0.033678208
214	0x3c2b1abe	0.010443388
215	0xbd058755	-0.032599766
216	0xbd3933be	-0.04521536
217	0x3d32191b	0.043480974
218	0xbd2d3f80	-0.042296886
219	0x3d00acba	0.031414725
220	0x3c0f7919	0.008756899
221	0x3b8ac383	0.0042347326
222	0x3cac0e51	0.02100292
223	0x3c22e915	0.009943266
224	0x3cbdbcad	0.023161257
225	0x3ce97a5c	0.028500728
226	0xbc045ff1	-0.008079515
227	0x3c0ca70c	0.008584749
228	0x3b854615	0.0040671923
229	0x3c92ef6b	0.017936429
230	0x3bf386dd	0.0074318484
231	0xbcd0d6ca	-0.025493044
232	0xbc299d49	-0.010352441
233	0xbcffb850	-0.031215817
234	0x3d10f260	0.035387397
235	0x3d3443d7	0.04401001
236	0x3c398fab	0.011325757
237	0xbd238a41	-0.03992677
238	0xbb2de6ba	-0.0026535229
239	0xbd5137de	-0.05107867
240	0xbc86caec	-0.016454183
241	0xbc7a3361	-0.015271039
242	0xbc195831	-0.009359405
243	0xbc6b32db	-0.014355387
244	0xbcd6f2bb	-0.02623879
245	0x3c41b296	0.011822363
246	0x3c759181	0.014988304
247	0x3d34ffed	0.044189382
248	0x3cc28d24	0.023748942
249	0x3ae659a8	0.0017574327
250	0x3ca19a32	0.019726846
251	0x3ca2c241	0.019868018
252	0x3b8cbb26	0.004294771
253	0xbd0b26ce	-0.033972554
254	0xbcb747b9	-0.022373067
255	0xbc802d98	-0.01564674

l3.weight f4 [3, 256]
0	0x3cde85cb	0.027163407
1	0xbd36b524	-0.044606343
2	0x3d6c4adf	0.05768859
3	0x3d5d2ae4	0.05399598
4	0x3dbefa57	0.09325092
5	0x3e13a4da	0.14418355
6	0x3d3797e5	0.044822592
7	0xbc3da8dc	-0.011575904
8	0x3d9489b7	0.072528295
9	0xbc9c431e	-0.019074973
10	0x3d5594f6	0.052144013
11	0xbd33f8ae	-0.04393833
12	0x3c1d818c	0.009613406
13	0x3b09cf3a	0.0021028058
14	0x3db628f2	0.088945284
15	0xbc289743	-0.01028997
16	0x3da3df04	0.08001521
17	0xbcaa1f13	-0.02076677
18	0x3d167637	0.036733832
19	0xbd61e7a5	-0.055152554
20	0x3d6f3a1d	0.05840503
21	0xbca47ecc	-0.020079993
22	0xbd296318	-0.04135427
23	0x3cd71fba	0.026260246
24	0x3d4cb85f	0.049980517
25	0xbd66ccb0	-0.05634755
26	0xbd713be5	-0.05889501
27	0x3dff2a66	0.12459259
28	0xbcbe34fc	-0.023218624
29	0x3d4742d0	0.0486477
30	0x3d44210a	0.04788307
31	0x3d56738f	0.0523563
32	0x3cb08761	0.021548929
33	0x3d0d0e3f	0.034437414
34	0xbcdf1744	-0.027232774
35	0xbd365010	-0.044509947
36	0xbd409733	-0.047019195
37	0x3de7bcc0	0.11315298
38	0x3d95ca74	0.073140055
39	0xbbf4b7e3	-0.00746821
40	0xbb9f0926	-0.0048533855
41	0x3bbb43ec	0.005714884
42	0xbc7a29db	-0.015268768
43	0xbd5f970a	-0.0545874
44	0xbca4b45b	-0.020105531
45	0xbd09c4f4	-0.033635095
46	0xbd318bae	-0.0433461
47	0xbc571ccf	-0.013129427
48	0x3ca2cf6b	0.019874295
49	0x3c99115c	0.018685035
50	0xbb8fb3ea	-0.004385461
51	0xbb8c0eaf	-0.0042742114
52	0x3d29e5ff	0.041479107
53	0xbcf3302e	-0.02968606
54	0x3bb777dd	0.0055990056
55	0xbd4e55ae	-0.05037468
56	0x3cf1e40f	0.029527692
57	0x3dbb0c5b	0.09133216
58	0xbbb1285a	-0.0054064216
59	0x3d0cb54e	0.034352593
60	0xbc816aed	-0.015798056
61	0x3d852d8b	0.06502827
62	0x3d9c1061	0.076203115
63	0x3d87d345	0.06632093
64	0xbd70e916	-0.058816038
65	0x3d143ceb	0.03619091
66	0x3de41ae3	0.11137941
67	0x3d678720	0.05652535
68	0x3c80b71f	0.015712319
69	0x3cec94f9	0.02887963
70	0x3d0da5c2	0.034581907
71	0x3993de6e	0.00028203748
72	0x3c1dab5c	0.009623375
73	0xbbbd4ef0	-0.0057772323
74	0x3c8ed383	0.017434841
75	0x3be32d97	0.006932925
76	0x3d6d7dec	0.057981417
77	0xbd581266	-0.05275192
78	0x3d7edb5b	0.062220912
79	0x3c808b98	0.015691563
80	0xbd173909	-0.036919627
81	0x3bbc2491	0.0057416637
82	0x3e2065fa	0.15663901
83	0xbcd92144	-0.02650512
84	0x3c6c7dee	0.014434321
85	0x3c7d0b65	0.015444611
86	0x3d7d889d	0.061897863
87	0x3c58526a	0.013203243
88	0xbd1124bf	-0.035435434
89	0x3cb557e9	0.022136645
90	0x3d9460a1	0.07244993
91	0x3d210525	0.039311547
92	0xbcfbf7b6	-0.030757766
93	0x3dfd188c	0.123581976
94	0x3cb65332	0.022256467
95	0x3c641b72	0.013922559
96	0x3d323ffa	0.043518044
97	0x3c690fc2	0.014224948
98	0xba8f1500	-0.0010916293
99	0xbbf5d55b	-0.0075022406
100	0x3d31c0fa	0.043396927
101	0xbd196531	-0.03745002
102	0x3d215518	0.039387792
103	0x3d7db47a	0.061939694
104	0x3d80272d	0.06257472
105	0x3d827935	0.06370775
106	0x3d43dd63	0.047818553
107	0xbb2e14e0	-0.0026562735
108	0x3d69ab05	0.057047863
109	0x3c9f3d18	0.019438311
110	0x3d5537f6	0.05205532
111	0xbc285e51	-0.010276393
112	0x3d17d640	0.03706956
113	0xbd4cabfb	-0.0499687
114	0x3d253a1c	0.04033862
115	0xbd35eaa1	-0.044413213
116	0xbc3e37d7	-0.011609993
117	0xbd495f4b	-0.049163144
118	0xbbfb94d3	-0.0076776533
119	0xbd0ecdef	-0.034864362
120	0xbc325a24	-0.010885749
121	0xbcd90f8d	-0.026496673
122	0xbc543bfa	-0.012953753
123	0xbb6ecfd6	-0.0036439798
124	0x3d414fb7	0.047195163
125	0x3ce06428	0.027391508
126	0xbd182f74	-0.03715463
127	0xbd638be6	-0.05555334
128	0x3ebec92c	0.37262857
129	0x3db542b0	0.0885061
130	0x3ca6b01a	0.020347644
131	0x3d0c2c97	0.03422221
132	0xbd978807	-0.07398992
133	0xbd9b77a6	-0.075911805
134	0xbcad5ad1	-0.021161469
135	0x3ca2690e	0.019825485
136	0xbb2eb8cc	-0.002666044
137	0x3cb047c5	0.021518597
138	0x3d2c348a	0.042042293
139	0xbd1ffb6f	-0.039058145
140	0xbd3b8de5	-0.045789618
141	0x3d570588	0.05249551
142	0x3bfe54ec	0.0077615883
143	0x3d5d6144	0.054047838
144	0x3dba947f	0.09110355
145	0x3d43ffad	0.047851253
146	0x3e72ab97	0.23698269
147	0xbd2a42e3	-0.041567694
148	0xbc389ec2	-0.01126832
149	0xbc1dce7e	-0.009631751
150	0xbd0a3462	-0.033741362
151	0xbe05f7d0	-0.13082814
152	0xbcecb099	-0.028892802
153	0x3dfcb891	0.12339891
154	0xbd0995fa	-0.033590294
155	0x3d3e1007	0.046402004
156	0x3f6a375e	0.91490734
157	0x3d91f65a	0.07127066
158	0xbc2b40d1	-0.010452465
159	0xbd876ae6	-0.06612186
160	0x3d59c705	0.053168315
161	0xbd398df8	-0.045301408
162	0x3d370e48	0.044691354
163	0x3e008cc9	0.12553705
164	0x3d2f7a11	0.04284102
165	0xbd3c0ce0	-0.045910716
166	0x3c863a73	0.016385293
167	0xbd1726cf	-0.036902245
168	0xbd1aae0b	-0.037763637
169	0xbd3ad563	-0.045613658
170	0x3c1cf01a	0.009578729
171	0xbd55c763	-0.052192103
172	0x3caf1f8d	0.02137735
173	0x3f0795d4	0.52962995
174	0x3d2ae53e	0.04172253
175	0x3d3b7b80	0.045772076
176	0xbd085eb7	-0.033293452
177	0x3d196914	0.037453726
178	0x3bfa1598	0.0076319687
179	0x3d1c6571	0.03818268
180	0xbd6e7770	-0.058219373
181	0xbc9ee84f	-0.019397883
182	0x3d244d7b	0.040112954
183	0x3d7d3a42	0.061823137
184	0x3d84bef5	0.06481735
185	0x3c3f110d	0.01166178
186	0x3d79ca17	0.060983744
187	0xbd33e021	-0.043914918
188	0x3a863ac9	0.0010240908
189	0x3e04546a	0.12922826
190	0xbcb0a7df	-0.021564422
191	0x3d23a2f8	0.03995034
192	0x3d47f630	0.048818767
193	0xbc88beca	-0.016692538
194	0x3dedaa95	0.116048016
195	0xbd274eca	-0.040846623
196	0x3ceda547	0.029009474
197	0x3d339b01	0.043848995
198	0xbb982e15	-0.0046441653
199	0x3cdfa82a	0.027301867
200	0xbaed0d57	-0.0018085641
201	0x3d0727b6	0.032996856
202	0x3b013580	0.0019715726
203	0x3d987474	0.07444087
204	0xbae52461	-0.0017482155
205	0xbc5e8487	-0.013581402
206	0x3d716c27	0.058941033
207	0xbd35dee4	-0.04440202
208	0x3cbac71b	0.022800019
209	0x3d2f3e76	0.042784177
210	0xbd3f925f	-0.04677045
211	0xbd249c17	-0.04018792
212	0x3d0e164b	0.03468923
213	0x3d82d489	0.06388194
214	0x3aea341c	0.0017868313
215	0xbd17acfa	-0.037030198
216	0x3d2c9976	0.04213854
217	0x3df79bf4	0.120902926
218	0x3d261b0f	0.04055315
219	0x3c443df1	0.011977659
220	0xbd115b7e	-0.035487644
221	0xbd12dcc2	-0.035855062
222	0x3ad0f393	0.0015941731
223	0x3d72de63	0.059294116
224	0x3d73c578	0.059514493
225	0x3ce58634	0.028018095
226	0xbd7fd156	-0.062455498
227	0xbc71aae8	-0.01475022
228	0xbd598c52	-0.053112336
229	0x3d1e34b2	0.038624473
230	0x3c56dda0	0.013114363
231	0xbc28bffd	-0.01029968
232	0x3d50f420	0.051014066
233	0xbcf5bcfd	-0.029997343
234	0x3d945b0a	0.07243927
235	0xbb21d25d	-0.0024692037
236	0xbe019d5c	-0.12657684
237	0xbd3fd9bf	-0.04683852
238	0x3d289024	0.04115309
239	0xbd5c7631	-0.053823654
240	0xbceeef70	-0.029166907
241	0x3d747fae	0.059692077
242	0xbd30f067	-0.043198016
243	0x3d582c67	0.05277672
244	0x3d930a79	0.07179732
245	0xbd2ed6ce	-0.042685322
246	0xbcf905b4	-0.030398227
247	0x3d19c3b2	0.037540145
248	0xbd52be6a	-0.051451124
249	0x3d683f5b	0.056701045
250	0xbaea38f1	-0.0017869753
251	0x3b8494c7	0.004046056
252	0xbc9e9859	-0.019359754
253	0xbacf76f4	-0.0015828297
254	0xbcb5db60	-0.022199333
255	0x3d401c9c	0.046902284

l3.bias f4 [3]
0	0xbd20103e	-0.03907799
1	0xbc88a7b6	-0.016681533
2	0x3d1c6f43	0.038192045
