saves/Dobot-v3/her/seed_0/model/critic.pth (torch, 610135 bytes, 5 tensors)

l1.weight f4 [512, 39]
000000 19 b6 3b 3e c3 b6 6c 3f 76 da 9e 3f e0 54 2b 3f
       0.18331183 0.9246637 1.2410419 0.66926384
000010 0c 6e 6d bd b7 3a 7d bf 1b f3 e2 bf b7 2e 31 c0
       -0.057966277 -0.98917717 -1.773044 -2.7684762
000020 b6 9f 62 3f ba 1a ee 3e a5 b1 b5 bf 14 f7 83 3f
       0.8852495 0.46504766 -1.4194838 1.0309777
000030 29 6f 47 3f 03 3a 61 41 4c b8 8b bd 2c fc 13 3e
       0.7790399 14.076663 -0.06822261 0.14451665
000040 62 39 bb be db d4 e5 be b1 b8 87 3e fa f5 48 be
       -0.36567217 -0.44888958 0.26508096 -0.19625083
000050 62 fa 0e be 5b 25 34 3e 44 7e 2d be c8 1d 76 be
       -0.13962701 0.17592375 -0.16942698 -0.24034798
000060 42 1b f6 c0 2f be 0a 41 01 20 47 41 59 e4 cd bd
       -7.6908274 8.671432 12.445313 -0.100533195
000070 24 59 e4 3e a2 ce 72 be cc 5a 9b be b4 33 be 3e
       0.4459926 -0.23711637 -0.3034271 0.3714882
000080 e6 7f c9 be 69 a2 0c be 2a b6 9e 3e 10 5c eb be
       -0.3935539 -0.1373383 0.30998355 -0.45968676
000090 82 56 d3 3e 77 28 35 3d 1d 2b c4 be 26 2a ff 3e
       0.41276938 0.044228043 -0.38314143 0.49836844
0000a0 d6 b3 09 c0 15 71 9d 3e 22 48 4a bf 5a 41 82 3f
       -2.1516013 0.30750337 -0.79016316 1.0176194
0000b0 e6 71 81 bf 28 7f 39 bf 8e fc 97 bf 4d 80 ea bd
       -1.0112884 -0.7245965 -1.1873949 -0.11450253
0000c0 e2 9b 62 bf a7 c1 31 bf 2c ac 8f be 44 d1 09 c0
       -0.8851911 -0.69436115 -0.28061044 -2.1533976
0000d0 67 cc d1 bf 4b 09 65 3f 6c ff 1e 3f 2a f8 67 be
       -1.6390504 0.89467305 0.6210849 -0.22653261
0000e0 ed 09 43 3f 1c 30 59 3f 0d 01 28 40 83 7f 30 3f
       0.7618702 0.84839034 2.6250641 0.6894457
0000f0 f4 08 5c be 30 a0 eb 3f 17 2b cd bd 2a cb a6 bf
       -0.2148779 1.840826 -0.10017984 -1.3030751
000100 87 91 83 bf 8e cc 30 40 55 25 9b 3f d6 c8 1b 3f
       -1.0278786 2.762485 1.2120768 0.60853326
000110 1b 10 aa 3f a5 5f 6c 40 7c cb 5a 3f cf 7b 9c 3f
       1.3286165 3.6933377 0.8546674 1.2225283
000120 23 6f 2a 3e f4 49 3a 3f db 25 cf bb 8b 4d 9e bc
       0.16643958 0.72769094 -0.0063216514 -0.019324085
000130 3e 0d 47 3d 66 17 11 3d ea 37 44 bf d4 3b d4 3e
       0.048596613 0.035422705 -0.7664782 0.41451895
000140 95 3e 93 3e 95 7e de 3d 44 34 cc 3e c1 24 af bd
       0.28758684 0.10863987 0.39883626 -0.08551932
000150 ac fc b7 bf 60 a1 4c 40 00 67 b7 3e 1c 9a c4 3d
       -1.4373984 3.1973495 0.3582077 0.095997065
000160 b7 23 9f 3f 9d cd 8f 3e 35 fc 45 be 3c fc da 40
       1.2432774 0.28086558 -0.1933449 6.8432903
000170 f2 33 8a be 6d 52 fc 3d 93 a7 1d 3b 65 8d 73 be
       -0.26992756 0.12320409 0.002405618 -0.23784406
000180 4c 70 56 3d 61 4d db 3d 75 3d 99 be 1f f1 96 3b
       0.05235319 0.10708118 -0.299297 0.0046063806
000190 a7 23 45 3e ff fd 5f be d4 1a 75 bf e8 c7 0f 40
       0.19251882 -0.21874236 -0.9574406 2.2465763
0001a0 a3 c6 8c 3f af 50 33 be 80 e1 41 be f5 ea 1d 3e
       1.0998119 -0.17511247 -0.18933678 0.1542166
0001b0 63 2b ff bd 6e 80 9b be 28 c0 3a 3e 7d 2e 01 be
       -0.12459447 -0.30371422 0.18237364 -0.1261539
0001c0 d9 bc 99 be 0c e3 00 3f 36 c0 6c 3d 10 cc 20 bd
       -0.30026892 0.50346446 0.057800494 -0.03925711
0001d0 04 7a 2d bd d9 00 a9 bd 13 10 fe 3e f5 63 f5 bd
       -0.04235269 -0.08252115 0.4962164 -0.11981956
0001e0 14 9e 4a bd 84 7c d6 3d 46 86 54 3f aa e4 7b bc
       -0.04946716 0.10472968 0.83017385 -0.015374342
0001f0 82 dd 35 3f b0 76 16 3e 8b 71 e2 be 73 be c6 3e
       0.7104112 0.14693713 -0.4422725 0.38817176
000200 92 df 67 3c e3 49 83 bf 19 eb 3b 41 20 44 2a 3f
       0.014152424 -1.0256923 11.744897 0.665102
000210 98 8c 20 be c4 13 41 3d 94 42 bc be 29 b9 24 3d
       -0.15678632 0.04713799 -0.36769545 0.040215645
000220 e0 7a 80 bb 78 a2 40 be d3 cb 93 bd 2f d4 5d 3e
       -0.003920898 -0.18811977 -0.07216611 0.21662973
000230 5a df fb be 07 f6 15 c0 dd 0c 00 40 df 5c 7b 40
       -0.4919384 -2.3431413 2.000785 3.9275434
000240 e3 13 10 3e af 3a 70 be 86 4d 00 3e f0 74 03 3c
       0.14070086 -0.23459886 0.12529573 0.008023486
000250 06 1f 1c be 71 46 1d be 5d 21 89 bc ec 46 90 be
       -0.1524621 -0.15358903 -0.016739542 -0.2817911
000260 47 69 dd 3d 44 f9 ab bf 5f 48 27 be 5a 84 78 bf
       0.10811096 -1.3435445 -0.16336201 -0.9707695
000270 97 9e 65 3f b1 87 09 3f 2a f4 4d 3f 93 7f de 3e
       0.89695114 0.53722674 0.8045069 0.43456706
000280 46 e7 22 3f ca 19 53 bf 55 0d b8 bf b8 df f8 bf
       0.63634145 -0.82461226 -1.4379069 -1.9443274
000290 db c2 19 3f dc 89 66 3e c3 54 01 c0 ad d4 6e 3f
       0.6006295 0.22513527 -2.0207984 0.9329327
0002a0 8a 98 23 3f b6 6e 84 41 9b 7c 05 3e 31 76 5f 3e
       0.6390463 16.554058 0.13035814 0.2182243
0002b0 e5 55 eb bd 54 14 18 be 28 b9 bd 3e 0e fd 57 be
       -0.114909925 -0.14851505 0.37055326 -0.21092626
0002c0 9e 31 c7 bd 13 33 f5 3d 78 45 46 be fd 5a 20 be
       -0.097262606 0.11972632 -0.19362438 -0.1565971
0002d0 59 c3 c9 bf b0 13 a8 40 3d ab 49 41 74 7a a5 be
       -1.576274 5.2524033 12.604306 -0.32319987
0002e0 2f 42 a5 3e 61 e4 a4 be f9 f8 83 be e6 16 b6 3e
       0.32277057 -0.3220549 -0.2577589 0.35564345
0002f0 9a d0 44 be f8 46 c8 be 8c 4d 3f 3e 47 d5 b2 be
       -0.192202 -0.39116645 0.18681926 -0.34928343
000300 d4 23 a8 3e da 48 db bd cf c3 db be 63 82 4e bf
       0.32839835 -0.10707255 -0.42922828 -0.80667704
000310 6d c3 cf 3e 8a 5d d1 3e 27 d2 2c 3e 1c 7a bc 3e
       0.40578786 0.40891677 0.16877042 0.36811912
000320 47 88 a5 3c e2 ac a5 bf ab 55 57 40 e5 7f cc 3e
       0.020206584 -1.2943385 3.3646038 0.39941326
000330 89 f3 a5 bd 54 7c 90 3f 0b 3a 6f 3e 8e 6a 8d be
       -0.08103091 1.1287942 0.23361985 -0.27620357
000340 1a 69 d4 40 cf 12 04 be 6d 55 00 3e c7 a6 eb 3d
       6.63783 -0.128978 0.12532587 0.1150642
000350 d1 55 f5 bd 33 b7 83 bc d5 f9 23 3d cf 9f 84 be
       -0.11979259 -0.016078567 0.04003318 -0.25903174
000360 95 81 95 3d 62 1f 96 3d 5f ca 3f be f5 b4 04 bf
       0.073001064 0.073302045 -0.18729542 -0.5183862
000370 e6 c3 14 40 f5 84 a2 3f 2b 52 1b be d5 c7 a7 be
       2.3244567 1.2696825 -0.15168063 -0.32769647
000380 a0 1c 61 3e 72 f4 c4 bd 24 6b 8f be 93 78 34 3d
       0.21983576 -0.09616937 -0.2801143 0.0440603
000390 32 99 93 be 13 cd 1d be 0c 04 ba 3e bb 93 21 3d
       -0.28827816 -0.15410261 0.36331213 0.039447527
0003a0 b8 73 70 3c 36 99 d4 bd 49 73 9c c0 7a e0 c9 3d
       0.014676027 -0.10380785 -4.889073 0.09857269
0003b0 92 db 9b be 71 c4 8a be 59 1c ca 3e be e2 26 3f
       -0.30440956 -0.27102998 0.39474753 0.6518973
0003c0 9b 46 15 bf e8 48 db 40 82 1a 65 3e ea 65 dd be
       -0.5831086 6.8526497 0.22373393 -0.43241817
0003d0 a5 3d d8 40 05 b4 ba be 36 ac 80 bf 5c a1 b4 3f
       6.757525 -0.3646547 -1.0052555 1.4111743
0003e0 9e 61 04 bf 0b 4f 17 3f 44 6c c7 be f3 8a 25 bd
       -0.5171145 0.59104985 -0.38949788 -0.040415715
0003f0 65 4c d8 be 36 0e 4e bf 25 fa 78 be df 1c 39 bf
       -0.42245784 -0.80490434 -0.24314173 -0.7230968

l1.bias f4 [512]
000000 5d 71 86 3f ea 05 11 3f 90 7f 21 3f a5 70 bd bc
       1.0503346 0.5664965 0.6308527 -0.023125002
000010 ca f8 78 3f 79 fb ee 3e a4 60 90 3e 4c 50 41 3f
       0.9725462 0.46676233 0.2819873 0.7551315
000020 21 a2 1d 3f d6 73 13 3f 43 98 21 3f 5f 18 bc 3d
       0.61575514 0.57598627 0.6312296 0.09184336
000030 fa c7 45 3f 25 35 03 be 61 ca fc be 3a 9d aa be
       0.77258265 -0.12813242 -0.49373153 -0.3332308
000040 87 4f cf bd 21 05 41 3f 97 fe 45 3f 70 80 37 3f
       -0.101225905 0.7539845 0.773416 0.71680355
000050 98 85 48 3f 6d 78 2c 3f 25 c3 6f be 91 bc 1f 3f
       0.7832885 0.67371255 -0.23414285 0.62397105
000060 f1 7a 6d 3e b2 99 c0 be 89 d0 c3 3e fc 6e a4 bd
       0.2319143 -0.3761726 0.38245037 -0.08028981
000070 a3 94 c1 3e b4 be be be b7 e3 cb 3e 3a 8d 0a 3f
       0.37808713 -0.3725487 0.3982217 0.54121745
000080 cd 54 f5 3c 09 41 6a bd 8b a4 47 3f f8 28 02 bd
       0.029947663 -0.05719093 0.7798545 -0.031777352
000090 a9 de 37 3f f7 a5 15 3f 1d 25 93 3e f8 b4 24 3f
       0.7182413 0.5845637 0.28739253 0.64338636
0000a0 c1 95 2d be 2f 82 1f 3f 5d c4 07 be bc dd d6 3e
       -0.16951658 0.6230802 -0.132585 0.41966045
0000b0 34 f3 37 3f 99 09 1a bf 9a 7f 5f 3e 81 60 19 3f
       0.71855474 -0.60170895 0.2182602 0.5991288
0000c0 0a 02 13 3f af 27 1f 3f 12 05 0e 3f d2 60 11 3f
       0.57424986 0.6216993 0.55476487 0.5678836
0000d0 c4 e2 8b 3e f4 a2 92 bd 09 2c 38 3f 80 c2 21 3f
       0.27321446 -0.07159987 0.7194219 0.6318741
0000e0 c1 e2 29 3f 54 6f b5 3e 3f bb 48 3e 1f 34 24 3f
       0.66361624 0.354365 0.19602679 0.6414203
0000f0 d2 6e 2d 3f 4c e7 b2 bd 5a bc 2d 3f 7c 5b 66 3f
       0.67747223 -0.08735523 0.67865527 0.89983344
000100 c3 d4 2d 3f e0 fa e2 3e 63 a8 35 3f 54 2c 0b 3f
       0.67902774 0.44332027 0.7096006 0.54364514
000110 6f fd 30 3f d5 a4 2e 3f 82 98 1e 3f 02 e9 1d 3f
       0.6913671 0.68220264 0.6195146 0.61683667
000120 b5 4a 53 bd af 67 06 3f 10 6b 44 bf 4e 82 5f 3f
       -0.051584918 0.5250196 -0.76725864 0.87308204
000130 95 73 4d 3f f3 86 8d 3e 7c 4e 92 be 14 12 3f be
       0.8025449 0.2764202 -0.28575504 -0.1865924
000140 32 38 f1 3e 2e 0d 13 3f 1d 0f 05 3f c2 cd f4 bc
       0.47113186 0.57441986 0.51976186 -0.02988327
000150 e0 18 40 3f c0 b9 bb be dd 75 39 3f 57 41 bb 3e
       0.75037956 -0.36665154 0.7244547 0.36573288
000160 73 3c 3b 3f cc f2 e7 bd 3d 61 18 3f 2c 41 90 3e
       0.73139113 -0.11325607 0.59523374 0.28174722
000170 3c 82 ed 3d d7 45 06 3f 38 91 94 bb 4e 45 3f 3f
       0.11597106 0.5245032 -0.004533913 0.74715126
000180 06 f9 13 be c2 cc a1 3e d3 39 7a be dc 25 1f 3f
       -0.14450464 0.3160153 -0.2443612 0.62167144
000190 ed 32 03 be f3 8f 09 3f b8 cc 02 3f 26 43 3b bf
       -0.12812395 0.53735274 0.51093626 -0.73149335
0001a0 d7 f7 1a 3f 2a 77 0f bf ca 31 e8 3e 92 9c 24 3f
       0.60534424 -0.56041205 0.45350486 0.6430141
0001b0 99 99 d3 3e a9 5c db be e1 69 0a 3f cf eb 08 be
       0.41328123 -0.42844132 0.5406781 -0.13371204
0001c0 2f 5c 25 3f fb f5 5d 3f 8f 9e 20 3f b4 60 39 bf
       0.64593786 0.8670346 0.6274194 -0.7241318
0001d0 42 b1 b8 3d a0 e1 08 3e 33 58 0d 3f c3 f3 bc 3e
       0.09018184 0.13367319 0.55212706 0.36904725
0001e0 a0 65 83 3f 1c 63 81 bb df a0 37 3f 18 5e 25 3f
       1.0265388 -0.0039485823 0.71729845 0.645967
0001f0 44 b0 98 bd 98 ae 56 3f 9f 4a 00 3f 77 65 9f 3e
       -0.07455495 0.8386016 0.5011386 0.311321
000200 f5 a1 97 3f 55 2d c3 3e 52 15 d7 3e 19 6e de bd
       1.18463 0.38120523 0.42008454 -0.10860843
000210 35 f4 22 be 90 c6 48 3f 00 cf 15 be c6 39 de 3e
       -0.1591347 0.7842798 -0.14629745 0.43403453
000220 f0 1b 05 3f 6e 78 b7 3e ad cd 84 bd 14 94 44 3f
       0.51995754 0.35834068 -0.06484542 0.7678845
000230 bf db ab 3e 9e ef ed 3e 64 a0 ee be ac a6 70 3e
       0.3356609 0.46471876 -0.46606743 0.2350108
000240 01 a5 d7 be 86 25 ae 3e 90 65 30 3f 9a c4 49 3f
       -0.42118075 0.34013003 0.6890497 0.78815615
000250 72 6a 17 3f a3 0c 86 3f 78 9b 5a be ee 3a 42 3f
       0.591468 1.0472606 -0.21348369 0.7587117
000260 17 82 f2 bd 08 15 e4 3e 7a 11 24 3f c0 a8 11 3f
       -0.11841219 0.44547296 0.6408917 0.5689812
000270 f7 91 cf 3e ac 01 82 bd 04 c0 0d 3f 12 5d 40 3e
       0.4054105 -0.06347975 0.5537112 0.18785504
000280 39 42 56 3f f3 36 e2 3e cd ab 0e bf 36 01 d0 3e
       0.836948 0.44182548 -0.557309 0.40625924
000290 cf 1d 6c 3f 66 99 ee 3e 07 0f d7 3e 30 e2 98 bd
       0.92232984 0.4660141 0.42003652 -0.07465017
0002a0 da 18 cd 3e 8a c8 01 3f 8a 2b 48 3f 9f 53 c4 3e
       0.40058023 0.50696623 0.78191435 0.38345048
0002b0 c9 7a 18 3f 0f c3 ff 3e 50 fd d5 3e 6a 0f 9a 3e
       0.59562355 0.49953505 0.41794825 0.30089885
0002c0 ff 8e ec 3e 05 f5 dd 3e d2 8b df 3d 0d 73 15 bf
       0.46202847 0.43350998 0.109153405 -0.5837868
0002d0 e8 5d 51 3f 62 46 34 3f ac 48 12 3f dd 0a 41 3f
       0.81783915 0.70419896 0.5714214 0.754072
0002e0 ea f0 17 3f 71 49 52 3f a6 d9 bd bc d4 4a 09 3f
       0.5935198 0.8214331 -0.023175072 0.53629804
0002f0 b0 37 ce 3e 6a 96 1f 3f 9e e3 1e 3f 95 a7 c0 be
       0.4027686 0.6233889 0.62066066 -0.37627855
000300 c1 8e 95 be 7a 3a 0a bf a3 de 0a 3e 3b 95 26 3f
       -0.29210475 -0.5399548 0.13561492 0.6507146
000310 ea 07 d1 3e 95 84 2c 3f 59 26 a9 3e 37 b4 cc be
       0.4082635 0.67389804 0.3303707 -0.39981243
000320 4b f2 0d 3f 5a f1 22 3f ac 8d 2f 3f 4a 20 35 3f
       0.55447835 0.63649523 0.6857555 0.70752394
000330 14 8e 12 3f d6 60 65 3e 77 06 10 3f b2 33 19 3f
       0.57248044 0.22400221 0.56259865 0.59844506
000340 e5 d6 7e 3f dc 2c 57 be 44 99 d6 3e f0 f2 35 3f
       0.99546653 -0.21013206 0.41913807 0.7107382
000350 76 a8 a0 3d 3b 43 eb 3e 59 f0 82 3f f0 7a 52 3f
       0.078446314 0.4594973 1.0229598 0.8221884
000360 36 3f c2 be 2a 94 39 3f f0 da 12 3f ae 27 9a 3e
       -0.3793885 0.72491705 0.5736532 0.30108398
000370 ad d1 aa bc 7a 35 4d be 40 2b 27 3f 92 a7 38 bf
       -0.020851934 -0.20039931 0.6530037 -0.7213069
000380 55 0e 2a 3f 72 1b e9 3e b9 6c 41 3f 85 ad 84 be
       0.6642812 0.45528752 0.7555652 -0.25913635
000390 45 49 24 3f 2e 11 12 3f 06 92 0f 3f 07 90 37 be
       0.641743 0.57057464 0.5608219 -0.17926036
0003a0 02 e9 03 3f 53 3c 16 3f 29 91 3a 3f 6d 1d f2 3c
       0.51527417 0.586858 0.72877747 0.029555047
0003b0 12 d1 5b 3f a9 09 3e 3f 97 45 2f 3f 1b 7f 2f 3f
       0.8586589 0.7423349 0.6846556 0.6855332
0003c0 ee 61 39 3f 8b fd d4 be 0b 47 00 3f e1 66 c8 be
       0.72415054 -0.41599688 0.501084 -0.3914099
0003d0 1a ab 62 be 44 60 3a 3f 82 63 5e be 38 46 2f bb
       -0.22135583 0.7280314 -0.21717647 -0.0026744734
0003e0 83 20 a2 be b4 b0 2e be 12 ea 24 3f 79 ab 3b 3f
       -0.3166543 -0.17059594 0.6441966 0.7330852
0003f0 c3 59 27 3f ad 17 0b bd b0 b7 34 bf 0c 3e eb 3e
       0.6537134 -0.033958126 -0.70592785 0.45945776

l2.weight f4 [256, 512]
000000 f0 67 83 bc 2c f5 4c 3c 68 03 80 bd d0 d7 9b bd
       -0.016040772 0.012509625 -0.0625065 -0.07609522
000010 db 79 4a bd a0 f3 ce bb 02 77 16 3d 52 5f bb bc
       -0.049432617 -0.0063156635 0.03673459 -0.0228726
000020 f7 3b 6b 3b ec 19 68 3a 9d e1 96 bd 56 35 4d bd
       0.0035893896 0.00088539603 -0.07367251 -0.050099693
000030 ef ed 81 bd 50 2f 4e bc 2d 4d be bc a3 60 e9 3b
       -0.0634421 -0.012584522 -0.02323016 0.0071221157
000040 29 cb ee 3c e3 38 29 bd 34 2f 38 bd 6b 16 8d bc
       0.029149609 -0.041314017 -0.04496689 -0.017222604
000050 a0 48 99 bc f0 96 80 ba 83 f5 43 3b 02 d3 ad bc
       -0.018711388 -0.0009810608 0.0029900975 -0.02121878
000060 2b ae 74 bd 0c 94 90 bc 60 6b db 3c 49 07 06 bd
       -0.059736412 -0.01764872 0.026784599 -0.03272179
000070 ea 01 96 bd a6 9a 25 3c 27 b9 91 bc 30 b2 c2 bb
       -0.07324584 0.010107672 -0.017788483 -0.0059416518
000080 ea b2 a0 3a c3 04 c6 bb 9a 18 f7 bc 12 30 40 bc
       0.0012260352 -0.006043048 -0.030163098 -0.011730211
000090 30 90 88 bd d0 ad 11 bd 73 a2 e1 3c 1e 77 69 bd
       -0.066681266 -0.03556615 0.027543282 -0.056998365
0000a0 03 0d 2f 3d b8 36 20 bd 49 81 37 bc 59 23 05 bd
       0.04273702 -0.039114684 -0.011200258 -0.032504413
0000b0 e3 64 ae bc af 68 04 3c 2d 62 00 ba 14 7a 08 bd
       -0.02128834 0.008081599 -0.0004897442 -0.033319548
0000c0 30 87 72 bd ac 24 c5 3b 22 89 e4 3b d7 14 39 bd
       -0.059210956 0.0060163345 0.0069743553 -0.04518589
0000d0 2d 0a 53 3b 5f 36 8a bd f3 c6 74 bd 06 57 48 bd
       0.003220211 -0.06748652 -0.059760045 -0.048911117
0000e0 23 26 22 bd 60 01 28 bd e9 b4 04 3d 90 79 f8 bc
       -0.03958715 -0.041016936 0.032399092 -0.030331403
0000f0 f1 49 58 3b 30 d5 bc 3c ae c1 b0 bc f1 58 f7 bc
       0.0033003057 0.023050874 -0.021576729 -0.030193778
000100 12 e3 67 bc 59 a7 51 bb ba 57 5a bd 6b 3a 2b bc
       -0.014153259 -0.0031990616 -0.05330632 -0.01045094
000110 dd 56 ef bc 54 60 81 bd c1 57 42 bd 49 de 6f bb
       -0.029216224 -0.06317201 -0.04744697 -0.0036600998
000120 a9 b5 63 bc a8 6b 3c bd ad 01 8f bd eb db fe bb
       -0.013898292 -0.046001107 -0.069827415 -0.007777681
000130 47 d0 24 3a a1 aa 5f 3b 38 bf 97 3c 5a 8f 85 3b
       0.0006287139 0.0034128802 0.018523797 0.0040759267
000140 b4 81 06 bc 1f 1d 0e bd cf 12 2e bd 44 37 9c bc
       -0.008209635 -0.03469574 -0.042498406 -0.019069321
000150 67 d4 1a bd 80 3a a3 3b 5a e6 ff 3b 46 cf 51 bc
       -0.03780022 0.004981339 0.0078094425 -0.0128057655
000160 19 07 37 bd 80 bf 8a bb 16 d8 b7 3b 2b 36 ed bc
       -0.044684503 -0.0042342544 0.0056104762 -0.028956493
000170 5c 3e af bb d8 17 26 bd 72 33 9d bc da e9 90 bd
       -0.00534801 -0.040550083 -0.01918957 -0.07075854
000180 c4 c9 7d bd 8e e0 3a 3c 20 d3 26 bd 7c ff 5a bc
       -0.061959997 0.011406077 -0.04072869 -0.013366576
000190 6c c4 a2 3c 7b 1b 46 3a b7 87 1d 3a 7e 45 31 3c
       0.019869052 0.00075571955 0.0006009298 0.010819791
0001a0 5c 7a 6e bd 02 a7 20 3d 68 b3 60 bd a7 40 29 bd
       -0.05822216 0.03922177 -0.054858595 -0.041321423
0001b0 b8 8a ef bc b0 bf 1a bd a9 46 ab bb 04 33 11 3b
       -0.029240951 -0.037780464 -0.005226929 0.0022155652
0001c0 8d 4e b6 3c 40 7a 2e bd 53 f8 3b bd e2 1b 31 bd
       0.022254253 -0.042597055 -0.045891117 -0.04323948
0001d0 4e 47 21 bd 0f 5f 43 3c d5 8d 84 bd 64 c8 3e bd
       -0.039374642 0.011924519 -0.06472365 -0.046577826
0001e0 95 1f 7c bd aa 28 3f 3c 28 fc 9e bb c8 86 9c bd
       -0.061553556 0.01166741 -0.0048518367 -0.07642895
0001f0 6e f1 6c 3c 4d 3f 69 3c 19 6b 86 3c 2f f3 64 bb
       0.014461858 0.0142362835 0.01640849 -0.0034934988
000200 98 59 06 bc 73 1a 8f bb 62 58 9b bc 0b 49 8c 3c
       -0.008200072 -0.0043671667 -0.018963043 0.017124673
000210 f6 00 6e bc 33 75 65 bd 55 01 b4 bc 47 d5 2a bd
       -0.014526596 -0.056019973 -0.021973291 -0.041707303
000220 bc 9a bf 3a a8 54 1c bd fc 33 e9 bc b1 5f 0c bd
       0.0014618258 -0.038166672 -0.02846717 -0.034270946
000230 8b a2 55 bc 8c d0 a1 3c 08 d6 0c bd 1a 09 a9 bc
       -0.013039242 0.019752763 -0.034383804 -0.020634223
000240 c5 b0 ba bb 89 a5 3d bd 76 04 3a 3c 50 b0 0d bd
       -0.005697342 -0.046300445 0.011353603 -0.034591973
000250 88 90 ac bc 84 7c 45 bd 20 a8 3a 3c fb 2d 69 bd
       -0.021065012 -0.04821445 0.011392623 -0.056928616
000260 8c a0 98 bb 42 cd 42 bd 8d da d3 bc ce 6a 7a 3c
       -0.0046578106 -0.04755903 -0.02586105 0.015284253
000270 49 d6 93 bc 34 42 80 bc 65 71 2e bc 99 67 5e bd
       -0.018046515 -0.015656568 -0.010647153 -0.054298017
000280 0a f2 8f 3c 7b e5 67 bc e7 94 f3 bc af 53 e0 3c
       0.017571468 -0.0141538335 -0.029734088 0.027383653
000290 1a a8 77 bd b0 9a 07 bc 46 d8 51 bd 52 02 f2 3c
       -0.06046305 -0.0082766265 -0.051231645 0.029542122
0002a0 02 6b b8 3b b5 f2 5c bd 59 5b 50 bd 28 a5 63 bc
       0.0056279907 -0.0539424 -0.050868366 -0.013894357
0002b0 88 7a 79 bd a9 3b 39 3d a2 b6 f9 3b 03 45 27 bd
       -0.06090787 0.045222912 0.0076206485 -0.0408373
0002c0 83 e8 6d bd 75 da 5a bd a9 fd ab bc f8 1b 7d bd
       -0.05808307 -0.053430993 -0.020994978 -0.06179425
0002d0 3c 5f 45 3c fc 39 62 bd c5 24 fe 3c f1 85 99 bc
       0.012046631 -0.05523108 0.031023392 -0.018740626
0002e0 89 0c 06 bb 3e 26 f3 bc 08 1c 11 3c c5 73 b0 3c
       -0.002045425 -0.029681321 0.008856781 0.021539578
0002f0 aa b5 32 bd 39 f3 28 bd 20 3a 18 bd a7 c7 c2 bc
       -0.04363028 -0.04124758 -0.037164807 -0.023776842
000300 6f 5f 98 bc 51 ee 9a bc 2f c6 5d 3b dd fe 8c bd
       -0.018600194 -0.018912466 0.003384005 -0.06884549
000310 69 23 6f bd df 95 ad 3c 42 27 6f bd 44 66 da bc
       -0.05838338 0.021189628 -0.05838705 -0.026660092
000320 41 90 b7 3b 4a 7d ac 3a 4b ea ef bb dc d6 76 39
       0.005601913 0.0013159898 -0.007321631 0.0002354043
000330 c4 23 ac bc f0 65 16 3c 73 71 c6 bc 50 9d 39 bc
       -0.021013148 0.009179577 -0.024224019 -0.01132901
000340 88 d1 c0 3b 3f ee be bc 73 00 26 bc 33 0f 87 bd
       0.005884353 -0.023306964 -0.010131943 -0.06594696
000350 c3 4b 95 3c 6d ff 39 3c f2 a9 91 bd 10 d9 8b bd
       0.018224603 0.011352402 -0.071124926 -0.06828511
000360 3d a2 bd bb f9 89 f3 b9 c9 2b 2c bd 7b 6b 8e bc
       -0.0057871626 -0.0004645137 -0.042033944 -0.017385235
000370 68 ad 2f bd c5 b2 6c bd 3d 5d 67 3c 8c d8 d2 bc
       -0.042889982 -0.057787675 0.014121351 -0.025738023
000380 43 32 83 bb b8 70 4f bd ba 4d 40 bd a9 b3 00 bc
       -0.0040037944 -0.050644606 -0.046949126 -0.007855334
000390 2c 91 08 bd 18 4b 18 bd de 82 1d bd 73 4d 07 bb
       -0.03334157 -0.03718099 -0.038454883 -0.0020645529
0003a0 6f 9f 8a bc da 8b 03 bd 68 17 05 bd f1 35 c5 bc
       -0.016921727 -0.032115795 -0.032493025 -0.024073573
0003b0 5c 67 82 3c aa 18 8a bd b4 c3 38 bd c0 f7 67 3c
       0.015918426 -0.067429855 -0.045108512 0.014158189
0003c0 d5 ee 4d bc ae 7a 28 3b 39 11 50 3c e9 69 be bc
       -0.012569149 0.0025707888 0.012699419 -0.023243861
0003d0 a6 2d 21 bd 3f a4 2b bc 7e f2 e6 bb 42 68 15 bd
       -0.039350174 -0.010476171 -0.0070479503 -0.03647638
0003e0 e7 2a 90 3c 3a b7 99 bd e9 f9 b4 bb 7f 03 f6 bb
       0.017598582 -0.07505651 -0.0055229557 -0.007507741
0003f0 59 74 17 bd db 5f 58 bd d7 7c 89 bd f5 ec 3b bd
       -0.036976192 -0.05282579 -0.067132644 -0.045880277

l2.bias f4 [256]
000000 65 c4 ed bc e3 ac 55 bd 69 20 ab 3e b6 1d 82 3e
       -0.029024312 -0.05216683 0.33423164 0.25413293
000010 5d dc 30 3e c4 56 44 3f cc b5 0e 3d f6 8f 28 ba
       0.17271562 0.76694894 0.034841344 -0.0006430143
000020 69 26 ff 3e 90 a6 8f 3e 6f 37 5a 3e 49 5b 29 3e
       0.49833992 0.28056765 0.21310209 0.16538729
000030 c0 db d7 3c 82 16 af 3e 0d c0 ad 3c 03 c5 5e bd
       0.026349902 0.3419686 0.021209741 -0.054387104
000040 c1 46 be 3c 7c 1e 9f 3c 6c 9d 50 3e 33 ad 31 bd
       0.023227097 0.019423716 0.20372552 -0.043378066
000050 85 4d 5d bd 7c 49 3c 3e 90 be 53 3e ce 58 9e 3e
       -0.054029007 0.18387407 0.20678163 0.30927128
000060 af 2c 59 3f 6b 1a 6f 3a 47 ba 90 3e 03 93 f1 bc
       0.84833807 0.0009121063 0.28267118 -0.029489046
000070 c3 cd 44 bd fa db f8 3c d2 e7 7e 3e 94 4b 56 3f
       -0.048047792 0.03037833 0.2489312 0.83709073
000080 da 95 a1 3e 87 92 68 bd b5 d6 94 3e f4 34 3f bc
       0.3155964 -0.056780364 0.29070058 -0.01167034
000090 8c d2 49 3e 5e 7d 7a bd 44 37 b0 bb 10 2a 65 3e
       0.19709224 -0.061154716 -0.005377682 0.22379327
0000a0 8e 42 4b bd 5e 33 26 3e 37 0b aa bc 60 33 03 bd
       -0.04962402 0.16230533 -0.0207573 -0.032031417
0000b0 b4 a3 8a 3e 02 f2 28 bd 0e bb 47 3e 6d 9b 8a 3e
       0.2707802 -0.04124642 0.1950495 0.27071705
0000c0 47 d5 db 3e a1 b2 25 3e b1 65 84 bd c7 5b 1f 3d
       0.42936155 0.16181423 -0.064647086 0.038905885
0000d0 ab e3 54 3e 0d 41 5b 3f a7 23 28 bd 96 b1 03 3f
       0.20789973 0.85646135 -0.041049626 0.5144285
0000e0 88 de 4f 3e 2b 16 6f 3e ee 46 f3 3e 58 7c 15 bc
       0.20299733 0.233483 0.47515053 -0.009123884
0000f0 2c 87 6a 3e 20 48 84 3c 10 f4 c7 bc 79 0c 3a 3d
       0.22903126 0.016147673 -0.02440837 0.04542205
000100 f6 d0 71 3e 53 58 d6 3c a1 5b 64 3e aa 94 51 bc
       0.23614869 0.026165163 0.22300579 -0.012791792
000110 b3 ce f6 bc 58 3d 5b bd 5d 9f 3e 3e d1 89 7b 3e
       -0.030127859 -0.0535253 0.1861548 0.24564292
000120 60 3d 18 3e 57 69 ba bc b0 c1 be 3e 22 03 9f 3e
       0.14867163 -0.022755308 0.37257147 0.31057078
000130 87 d3 a4 3c fd 28 ba 3e 8f 52 20 3e 7a 6c 91 bd
       0.020120395 0.36359397 0.15656494 -0.071007684
000140 6e 0d 72 3f 0e ec c8 3e 69 b8 45 3e a1 57 24 3e
       0.9455174 0.39242595 0.19308628 0.16049053
000150 76 e8 af bc 6c 00 6f 3e fb 44 25 3e 76 40 1f bd
       -0.02147315 0.23340005 0.16139595 -0.038879834
000160 db c9 6e 3e 70 4c a0 3e 7d 38 00 3f 48 6f 5f bd
       0.23319189 0.31308317 0.50086194 -0.054549485
000170 ab 85 50 ba 56 fa bd 3e b0 04 a5 bc a8 d6 ba bb
       -0.00079544884 0.37105054 -0.020143837 -0.0057018586
000180 9d e4 40 bb b1 c5 31 3e 72 66 5d 3f db a3 bb 3e
       -0.002943314 0.1736057 0.86484444 0.3664845
000190 2f f7 37 3f cc 42 09 bd b8 48 f2 bc 4d 80 26 bd
       0.7186155 -0.033510968 -0.02957569 -0.0406497
0001a0 2b 82 d0 3c 3e 26 64 3e 3a 7c 98 3e 00 a5 0e bd
       0.025452694 0.22280213 0.29782277 -0.034825325
0001b0 4e 0c c9 3e 36 2e 85 3e ea af fc 3e 95 bd 13 3e
       0.392672 0.2601182 0.49352962 0.14427789
0001c0 61 5c a7 3e 6f 60 72 bc 56 35 92 3c 4b c4 85 3e
       0.32687667 -0.014793499 0.017847698 0.26126322
0001d0 08 47 c0 3d f2 a9 9b 3e 6a bf 18 3d a1 c1 d6 3b
       0.09388548 0.30403095 0.03729192 0.006553844
0001e0 94 70 2e bb 28 f3 be 3d 64 7b 89 bd d4 fa ca bc
       -0.0026617395 0.09323722 -0.06712988 -0.024777807
0001f0 4a e9 5c 3f b6 80 d3 b9 90 c1 08 bd 0c 6c 02 bd
       0.8629347 -0.00040340953 -0.03338772 -0.031841323
000200 30 4d d6 3b 33 31 6d 3b 39 54 9f 3b be 52 d7 bc
       0.006539963 0.0036192655 0.004862335 -0.026284572
000210 54 e2 a0 3e a2 22 cd 3c 9a b4 d3 bc 99 0a 81 3d
       0.31422675 0.025040928 -0.025842953 0.063008495
000220 84 a3 91 3e a2 c6 ba 3e e1 ef c3 3c f2 f1 64 3f
       0.28445065 0.3647967 0.023918094 0.8943168
000230 a1 8b 5b 3e e0 9e b7 3a d2 61 07 3f f5 5c 85 3e
       0.21439983 0.001400914 0.52883637 0.26047483
000240 16 e6 c8 3e 71 33 96 3e e8 28 8a 3b c4 b2 54 3e
       0.39238042 0.29336122 0.004216302 0.20771319
000250 3a 8d 18 3e da da 1b bd 5f 8e 9f 3e 24 6d 07 3e
       0.14897624 -0.03805051 0.31163308 0.13225228
000260 4d da 86 3e 2a 6a 9a bc 1e 78 89 bd 92 18 97 bc
       0.26338425 -0.018849451 -0.06712364 -0.018444333
000270 9e d0 cb 3e 92 f1 0a bc f6 ae c0 3c a3 96 b5 ba
       0.398076 -0.008480446 0.023520928 -0.0013854097
000280 d2 c1 3f 3c da ad ab 3e 2d ed 5d 3e 23 0e b6 3d
       0.011703925 0.33531076 0.21672507 0.08889415
000290 67 d3 c1 bc 20 cc 32 bd 16 f0 9b 3e de 00 56 3a
       -0.023660375 -0.0436517 0.3045661 0.00081635814
0002a0 7e 4e 30 3e 8f df ae 3e 11 50 ca 3e 7f ff 3f 3e
       0.17217442 0.34154937 0.3951421 0.18749808
0002b0 c9 f7 af bc 2f b2 3f bc b9 fb ae 3e 0f a6 3b 3e
       -0.021480458 -0.011700197 0.34176424 0.18325065
0002c0 e7 1f a4 3b b4 b3 6e 3e e3 f9 41 bd 6c f9 c0 3e
       0.005008686 0.23310739 -0.04735745 0.37690294
0002d0 23 4f 07 3f 53 8a bb bc cf 56 e9 bc 52 6d 60 3f
       0.5285513 -0.022893107 -0.028483776 0.8766681
0002e0 bd 37 1e bd 57 aa 2f 3f 55 70 e8 3c a7 9d 39 3e
       -0.038627375 0.6861929 0.028373877 0.18126546
0002f0 4c 22 a1 3e c8 7d b5 3e 80 6d 7a bd d6 f2 b5 3e
       0.3147148 0.35447526 -0.061139584 0.35536832
000300 80 25 e0 bb 6a 3e 3f 3f db 11 45 3f 24 22 fa 3c
       -0.006840408 0.7470461 0.7698037 0.030533858
000310 9d 02 2c bd 39 0f e6 3c b9 07 8e 3e 45 d4 82 3e
       -0.04199468 0.02808343 0.27740267 0.25552574
000320 30 f1 fb 3e 02 ce 72 bd 1c b4 cd 3e b1 f8 a8 bb
       0.4920745 -0.059278496 0.40176475 -0.0051565995
000330 2c 1c 39 bc 66 05 a8 3e a9 0b cf bc 22 b9 05 3d
       -0.011298221 0.3281662 -0.025274115 0.03264726
000340 87 04 c0 3b 79 52 d9 3e 0b 87 c0 bc ec 27 08 bd
       0.0058599147 0.42445734 -0.023501894 -0.033241197
000350 aa b0 4c 3e 12 be 0d bd a4 f4 18 3d 27 2f 45 bd
       0.19989267 -0.034605093 0.037342682 -0.04814067
000360 f4 f5 7e ba e3 09 b8 bc cc 61 53 3e 3d 52 56 3e
       -0.0009725981 -0.022465652 0.20642775 0.20929809
000370 64 e1 91 3e e7 d8 b9 3e 77 d9 33 3e 24 90 5d 3e
       0.28492272 0.36298296 0.17563425 0.21637017
000380 72 e1 b4 3c 1c 48 03 bc 30 86 cf 3e 15 98 41 3e
       0.022080157 -0.008012798 0.40532064 0.18905671
000390 29 70 da 3e 65 00 a5 3e fa a0 99 bd 19 65 ec bb
       0.42663696 0.32226864 -0.07501407 -0.0072142
0003a0 36 96 d3 3d 53 ab 39 3e d5 64 91 bc c4 f5 61 3f
       0.10331385 0.18131761 -0.017748276 0.88265634
0003b0 18 16 a0 3e e6 d9 2e bd 73 e6 a9 3e dd 7a e1 3b
       0.31266856 -0.042688273 0.3318363 0.0068811015
0003c0 76 a5 76 bd 5f e4 8e ba 1d 18 32 3f 6f de bb 3e
       -0.06021639 -0.00109018 0.69568044 0.3669314
0003d0 2a 0f bf 3d 6b c3 69 bc 2f 4e a1 bd ec 3b a2 bc
       0.09329064 -0.014267783 -0.078762405 -0.019803964
0003e0 b5 e1 b7 bb f8 a1 10 bd 65 0e bf bc 6b 02 e3 3d
       -0.005611623 -0.035310715 -0.023322294 0.110844456
0003f0 99 93 41 bd bc c2 39 3e 29 b0 27 3b e9 00 3e 3c
       -0.0472599 0.18140692 0.0025587177 0.011596897

l3.weight f4 [1, 256]
000000 80 4c 9e bc 25 6a 84 3c 48 95 70 3f f7 1a 44 bf
       -0.019323587 0.016163895 0.93977785 -0.76603645
000010 42 c9 b2 3a 26 e7 98 3f 29 fc 3b bc fb 4c b3 3b
       0.0013640302 1.1945541 -0.011473694 0.0054718233
000020 bb dc 62 3d 43 b0 28 3d d0 90 30 bf 31 76 2e bf
       0.055386286 0.04118372 -0.68970966 -0.68149096
000030 0b 78 da be 9e 3b ae b7 f3 34 a2 bb 63 6f 4d 3c
       -0.4266971 -2.0770178e-05 -0.0049501597 0.012538764
000040 ce 55 31 3d 5b 38 09 bd a6 1f ec 3e 21 17 9a bc
       0.04329472 -0.03350101 0.46117896 -0.018809857
000050 ef 77 0f 3d 03 33 d8 bc 34 42 34 bf 49 e2 ce 3c
       0.035026487 -0.026391512 -0.7041352 0.025254386
000060 93 00 8a 3f 90 a3 56 bc e9 c3 89 3c 9a a5 11 bd
       1.0781425 -0.01310052 0.01681705 -0.03555832
000070 69 b8 dc bc 4e db 26 bd e4 80 46 bf e3 8b 8a 3f
       -0.026943402 -0.04073649 -0.7754042 1.082394
000080 5e 4c 7b bb 7e 72 70 bc 44 4f df bc c1 10 c6 3c
       -0.003834508 -0.014675735 -0.027259476 0.02417791
000090 97 61 3c bf 36 80 91 bc 97 0d d0 3c f9 62 af 3c
       -0.7358641 -0.017761331 0.025397105 0.021409499
0000a0 20 ac ab bc 36 b6 29 bf 7a a0 a1 bc 76 02 40 3c
       -0.020956099 -0.66293657 -0.019729842 0.011719337
0000b0 89 24 b6 bf e6 59 38 3c 29 65 3a bf cf 1e 8a bc
       -1.42299 0.011251902 -0.7281061 -0.016860394
0000c0 e5 ef 14 3c 0d 33 45 bf ad cb b6 3c 16 e1 f2 be
       0.009090398 -0.7703102 0.022313917 -0.47437352
0000d0 2c 31 44 bf 6b 8d 8b 3f bb a0 a2 bc de 26 cb 3d
       -0.7663753 1.0902532 -0.019852033 0.09919523
0000e0 3a 2e 25 bf 52 ec 6f bc 62 80 11 3d 56 b2 3b bd
       -0.6452366 -0.0146437455 0.035522826 -0.04582437
0000f0 00 2b b0 bf a0 99 3f b8 2b 5b 3e bd 25 bf bb be
       -1.3763123 -4.5681023e-05 -0.046473663 -0.3666927
000100 47 6c 91 bc 3f 35 40 bd 3b 4a 41 bf dd 77 3c 3c
       -0.017751826 -0.04692578 -0.7550389 0.011503187
000110 7e 59 5c 3c e5 ad f2 bc 30 62 31 bb 4d f7 77 3a
       0.013449071 -0.029623935 -0.002706658 0.0009459153
000120 1d 80 22 bf d3 1a 1e bd 44 69 4d 3b d8 b5 39 3f
       -0.63476735 -0.0385998 0.003134326 0.72543097
000130 d8 39 1e 3d 10 00 15 bb a8 a9 3a bf 94 e3 e2 bc
       0.038629383 -0.0022735633 -0.72915125 -0.027696408
000140 bd af 8a 3f 3a f6 98 bf 94 32 22 bf 3f d9 41 bf
       1.0834881 -1.1950142 -0.63358426 -0.75722116
000150 ef f4 3e bd e9 ad d1 3c e4 0d 2d bf d4 92 df bc
       -0.046620306 0.025595622 -0.6759932 -0.027291693
000160 8d b8 ac bc 3c 6e 17 3c 9d d8 ba 3c 5f 35 90 3b
       -0.021084094 0.0092425905 0.022808367 0.0044008936
000170 0d e9 ed 3c e5 f2 82 bf 0a d0 dd ba 56 3f 7f bc
       0.029041791 -1.0230376 -0.0016922962 -0.015579065
000180 04 8b 8d bc a5 b3 23 bf 9f 81 8a 3f 95 f5 06 3b
       -0.017278202 -0.6394599 1.0820807 0.0020593156
000190 f0 ea ec 3f 0e c3 48 bd 9d bc a6 bc 84 9b 80 bc
       1.8509197 -0.049014144 -0.02035361 -0.015699156
0001a0 8c aa 7e 3c 06 82 8e 3c e6 d5 2b 3f 4a ae d0 3c
       0.015543591 0.017395984 0.6712326 0.025473733
0001b0 39 75 11 3c 79 b9 46 3f 79 79 bd 3c e6 33 06 bf
       0.008878046 0.7762676 0.023129212 -0.5242294
0001c0 8c ee 66 bf 40 12 d7 bc 6c 5c 30 bd d5 44 09 bb
       -0.90207744 -0.02625382 -0.04305689 -0.0020945568
0001d0 51 8b f1 be 9b 4b 01 3d cc fe 28 3f 3a 24 b6 3c
       -0.47176602 0.031566244 0.6601379 0.022234071
0001e0 31 dd cd bc 81 a0 00 bf 48 a5 84 ba 7f e8 1d 3d
       -0.025129886 -0.5024491 -0.0010120058 0.038551804
0001f0 0c 1f 84 3f 8e fc f1 bc 2b 90 de 3b 7f a9 e7 bc
       1.0321975 -0.029539373 0.0067920885 -0.028279064
000200 d8 58 05 3c 3b 47 96 3b ae bd e6 3c 38 8f df bc
       0.008138858 0.004586128 0.028166618 -0.027289972
000210 10 9a 8d bc 43 0e 3a 3d d8 f3 13 3d 6f 8b f6 be
       -0.017285377 0.045423757 0.03612122 -0.48153254
000220 34 7e ed ba 70 ee e3 bc 63 73 3b bd 36 d5 8b 3f
       -0.0018119277 -0.027823657 -0.04576434 1.0924442
000230 9f 38 1b 3f 02 9f 6c 3c ed d0 13 3e 39 ba de 37
       0.6063327 0.014442207 0.14435168 2.6551179e-05
000240 4c 9f 1d bc 98 e5 64 ba 26 72 dc 3c 7a fb fe bc
       -0.009620499 -0.0008731722 0.026909899 -0.031125773
000250 67 b3 00 3f 07 02 49 bd 54 48 16 3c 23 64 13 bf
       0.50273746 -0.0490742 0.009172518 -0.5757467
000260 6d 38 9f bc e4 b3 f9 3c bf ea a4 3c b3 37 c5 3c
       -0.019436086 0.030481286 0.020131467 0.024074411
000270 a7 e2 9d 39 4f 97 35 bd 25 1f a8 bc 75 bb 05 bb
       0.00030114243 -0.044333752 -0.020522663 -0.0020405923
000280 b0 21 3d bb fc 70 19 3b 91 5b 7e 3a ab 11 fc 3c
       -0.002885919 0.0023413291 0.00097029755 0.030770143
000290 04 73 2f bc aa 7c 9c 3c 87 c8 e7 bb ff 50 05 3c
       -0.010708574 0.019102413 -0.0070734653 0.008136987
0002a0 f5 a9 40 3c 91 34 02 bc cd ac 79 3c 9f a5 3e bf
       0.011759271 -0.007947103 0.015238953 -0.7447147
0002b0 31 3c 81 3c 02 df 91 bc 1d 70 97 bc 65 4c 3b bf
       0.015775772 -0.017806534 -0.018486077 -0.73163444
0002c0 07 50 3c bd f9 f1 60 bb 7f 3d 95 3c f7 4f ad bc
       -0.045974758 -0.0034323914 0.0182178 -0.021156294
0002d0 ca 4b 27 3e b2 a6 0b bc 6f 6f ce bc 81 33 8e 3f
       0.16337505 -0.00852363 -0.02519962 1.1109468
0002e0 d2 8b e0 bc e4 46 79 3f 7c de b9 bb f4 d0 3a bf
       -0.027410422 0.97373796 -0.005672274 -0.7297509
0002f0 1a c2 63 39 a2 a5 d0 3c 1e 37 ea be 81 25 83 39
       0.00021720715 0.025469605 -0.45745176 0.0002501421
000300 3e 8b 99 bc 06 63 8f 3f cd 07 9e 3f 58 96 97 bc
       -0.018743154 1.1202095 1.2346131 -0.018504307
000310 53 2b 97 3b 6b 1e 4a bc e0 68 92 bb 6c b1 4c bf
       0.004613319 -0.012336354 -0.0044680685 -0.79958224
000320 15 8d ad bb df 27 eb 3c bc 03 51 bb 79 85 2d bc
       -0.0052963593 0.028705535 -0.0031893095 -0.010590904
000330 82 8a e7 3c 9a cf ce 3c f2 16 d1 3b 66 21 11 bd
       0.028264288 0.025245477 0.006380909 -0.03543224
000340 cf bf 8d bb 55 db 99 3f 25 9b c7 bc 42 35 0e 3b
       -0.004325844 1.202006 -0.02436597 0.0021699225
000350 fb 17 50 bf 0f aa 34 3c 5d b0 28 3d 20 b7 04 bc
       -0.8128659 0.011026873 0.041183818 -0.008100301
000360 e6 19 99 3b 3a b3 05 3d 18 08 77 bc 2a 24 79 bb
       0.004672277 0.032641627 -0.015077613 -0.003801594
000370 60 d7 4e 3f 93 03 82 bf 70 31 40 3f 8a 86 47 bf
       0.80797386 -1.0157341 0.75075436 -0.77939665
000380 da ce 06 3c 07 ac b8 3b 7c f8 80 bb 08 3f f0 bc
       0.008228028 0.0056357416 -0.0039358716 -0.02932693
000390 1e d1 26 3d 9f e6 56 3f 30 db 8c 3c c7 e1 ee bc
       0.040726773 0.8394565 0.01719436 -0.029160393
0003a0 16 b1 80 3c 1c 64 b9 3b 9a 2b 2b 3c 06 cb 8b 3f
       0.015709441 0.005657686 0.010447407 1.0921333
0003b0 c9 29 93 bf 33 2d d7 bc 43 22 70 3f af 11 03 bd
       -1.1497127 -0.02626667 0.9380228 -0.031999286
0003c0 06 99 28 3d 72 54 ff 3c 78 10 e5 3f 4e 34 6c 3b
       0.04116156 0.031168196 1.7895651 0.0036041918
0003d0 15 13 e9 be fc 9b fd bb 23 72 ad bc fc 8e 52 3d
       -0.4552237 -0.007739542 -0.021172589 0.05140589
0003e0 21 c0 ca bb 9d 2d 02 bd e1 8c 2f bd b7 17 3e 3f
       -0.0061874543 -0.03178178 -0.042858962 0.74254936
0003f0 7c fc 20 bb fc 4f 3b bf 7f ba a2 3c a0 ad e4 bc
       -0.0024564555 -0.7316892 0.019864319 -0.027914822
