saves/Dobot-v3/none/seed_0/model/actor.pth (torch, 606565 bytes, 6 tensors)

l1.weight f4 [512, 36]
00000000: 676c 213e 014a 063f fe1e dbbd dafe 9dbe
00000010: 6f03 a5be edbd 27be dce3 7c3e 24eb 64be
00000020: b623 233d 3ffd 95be 10e2 923d aaa2 be3c
00000030: e7aa 91be fda9 ae3d a505 5ebe 8b09 93bc
00000040: a815 ba3f d312 0c3e 2e37 36bf 66d3 843f
00000050: 985b 0cbd d5f1 99be 2c8e b33f 1b11 0b3f
00000060: f6f1 d43d ed5d b03e 3950 24be 2ad6 97bd
00000070: 6a49 aa3f 7545 c43e 01ec 10bf 3b74 963f
00000080: 6559 bcbd c677 36be 6f8f bf3f 8f45 803f
00000090: 177c f4bd 6cd2 e0be 65fa 39bc e3d1 c5be
000000a0: 4783 973e ea47 7a3f 7f0a 8dbe 8dc1 c4be
000000b0: 6231 33be d86f 07be 7dc5 3cbe ede4 34bf
000000c0: 81e7 323d ea75 483e 122f 983e 16f4 b5be
000000d0: 2e13 5e3f 0b53 043f b9ef 033f cf12 29bf
000000e0: b8df 4c3f 1b47 a53d 8fed a6be ed37 c0be
000000f0: 8395 673e 5b8f 943e c711 853f 5804 adbe
00000100: c9c3 683f 3942 ca3f 8622 183f b371 d3be
00000110: 8969 2540 e755 fd3d 55e2 533e 9593 58be
00000120: 000d 7d3d bd25 06be a373 fdbd 568c 59bd
00000130: 286c 1cbe 9c17 4dbd 90e8 e0bc 0c46 983d
00000140: 9e5f 993c 05cf 03be fa6a a73c 68c9 86bd
00000150: 9529 3d3d 9883 033e 3c64 bdbd 2549 03bd
00000160: 9d30 283d 7545 f83d 32c1 7fbd cc24 273e
00000170: 0468 05be dbf7 ff3d 9414 003c ef03 0c3e
00000180: e5ca 133e 849e 7abd c9c7 7fbd 253f b73d
00000190: 2752 ccbd 0443 953c e56e 3aba 28ac edbd
000001a0: c12f efbd db3d e03d 477b 713d 178d 1b3c
000001b0: 3516 cbbe 194a 0fbe f4bf 55bd 5242 bc3e
000001c0: bbc8 30bd 176e 99be 1434 433f ac4d 5cbe
000001d0: 9452 11bd 7f60 3c3f 3522 ad3e 5c2f 1ebc
000001e0: 2678 07bf de46 3f3e 4f37 743c 63c7 f63e
000001f0: 7297 a73f 0b9b 00bd c533 7abf e7f2 433e
00000200: 953d 2f3f c688 293e d396 26bf c362 0f3e
00000210: 5786 40bf 3ac9 c6be 9229 103e fc65 ad3c
00000220: b840 603f efda c63d ff13 59bf f76f e6be
00000230: 66ae d33f 3fa9 183d e0bb a3bf 2d2e 873e
00000240: 1f34 24be f751 b4bf 3771 d2bd 36b4 54be
00000250: 4499 083e 057a 07bf 970c ccbe c4ca e5bd
00000260: 0d16 66be 129b d2be b5e8 063e 4037 e7be
00000270: f463 f33d 037b fcbc bf1e d03e 9c8e c8be
00000280: c9e9 9a3f ec12 d83c c6e9 36be fe43 0d3f
00000290: 5182 213f b98d 973f 2e17 2e3f fe10 483f
000002a0: 2a2d 2c3e 0543 8ebd e624 033f 9a15 493e
000002b0: d570 423f 5249 afbd 2fea c43d 73c1 753e
000002c0: ce6a 753f 95ec 8f3f e17b 073e 0b15 963f
000002d0: ad7b b23e b4f1 08bf 9d98 903d fc6b f6be
000002e0: 4868 ea3e bc2c bdbd 15db 7fbe ed03 94be
000002f0: f4a0 89bd 60a3 90be e665 b0be 9868 f6bd
00000300: c905 433e 3eec ac3e 7719 203e d1a5 863e
00000310: dc4f a8be 8949 a53e eccb 3d3e 0222 383f
00000320: 9c83 e7bc 3614 5fbe c9ef 9cbe cbb1 cdbe
00000330: a5ef b43e a420 193f 3b63 3b3e bdb4 743e
00000340: 1e69 5f3e 2743 413f 692c 293e 1d2d 7e3f
00000350: a76f 97bd 2a5f c9bd f8d9 a63d d6a5 28bf
00000360: ded7 dfbe 7953 df3e 044c 80be a88c a93e
00000370: f79e 2bbf b4a1 3e3f 3966 7fbe b414 b0bd
00000380: 9487 043d f49d adbd 1403 0b3f 1e18 323d
00000390: ec2b 81bd c1e7 233d a368 37bd 1b0e bebe
000003a0: 2bd8 863e 7e06 8cbd a572 bcbe 81f5 253e
000003b0: 2acc 283e 711f 81bc c7f1 0d3f 05af a9bd
000003c0: 4837 9b3d b0de c3bd f4ed d93b d2b2 b8be
000003d0: aaf1 d83d 8ba8 1ebe 3a6f 1fbf ddcf 03be
000003e0: 5a00 b83e 5798 37be b826 ff3e bf7b 0a3e
000003f0: 71d1 91be a01a a6be 6df1 aebe 4cba a2bd
0.15764008 0.5245667 -0.10699271 -0.308585 -0.32229182 -0.16381045 0.24696296 -0.22355324
0.03982898 -0.29294774 0.07172024 0.023270924 -0.284507 0.085285164 -0.2168184 -0.017948886
1.4537859 0.13679056 -0.7117795 1.0377014 -0.034267038 -0.30067316 1.4027762 0.54322976
0.10397713 0.3444666 -0.16046228 -0.074138954 1.3303654 0.38334242 -0.56610113 1.1754221
-0.09196738 -0.17819127 1.4965647 1.0021228 -0.11937731 -0.4391054 -0.011351203 -0.38636693
0.29592344 0.9776598 -0.2754707 -0.38428918 -0.17499307 -0.13226259 -0.18434711 -0.70661813
0.04367781 0.1957623 0.29723412 -0.35537785 0.86748016 0.51689214 0.5153766 -0.66044325
0.8002887 0.08070203 -0.32603118 -0.37542668 0.22615628 0.29015622 1.039605 -0.33792377
0.90923744 1.580146 0.5942768 -0.41297683 2.5845664 0.123699 0.20691808 -0.21150048
0.061779976 -0.13100334 -0.123755716 -0.05311235 -0.15275633 -0.050071344 -0.027454644 0.074352354
0.018722352 -0.1287194 0.020436753 -0.06581384 0.046182234 0.12843168 -0.09247634 -0.032052178
0.041061986 0.12122623 -0.062440105 0.1632263 -0.1302796 0.124984466 0.007817406 0.13673376
0.14432867 -0.06118633 -0.06244639 0.08947591 -0.09976607 0.018220432 -0.00071118615 -0.11605102
-0.1167903 0.10949298 0.058955457 0.009494088 -0.3966538 -0.1399311 -0.052185014 0.36769348
-0.04316018 -0.29966804 0.7625134 -0.21514004 -0.035479143 0.7358474 0.3381516 -0.009654846
-0.52917707 0.18679377 0.014905765 0.48198995 1.3093092 -0.03139786 -0.97735244 0.19135629
0.6845334 0.16556081 -0.6507389 0.14002518 -0.75204986 -0.388254 0.14078358 0.021166794
0.8759875 0.09709727 -0.84796137 -0.45007297 1.6537597 0.03727078 -1.279171 0.26402417
-0.16035508 -1.4087514 -0.102755 -0.2077187 0.13339716 -0.5292056 -0.39853355 -0.11220315
-0.22469349 -0.41133934 0.13174708 -0.4515934 0.11884299 -0.030820375 0.40648457 -0.39171302
1.2102596 0.02637621 -0.17862615 0.5518187 0.6308947 1.1840125 0.6800412 0.7815093
0.16814104 -0.06946377 0.5122818 0.19637147 0.7595342 -0.085589066 0.096149795 0.23999576
0.95866096 1.1244074 0.1323085 1.1725172 0.34859982 -0.5349381 0.07060359 -0.4812926
0.45782685 -0.09237048 -0.24985917 -0.28909245 -0.067201525 -0.28249645 -0.34452742 -0.120316684
0.19045176 0.33773988 0.15634714 0.26298383 -0.32873428 0.32282665 0.18534821 0.7192689
-0.028260998 -0.21785054 -0.30651692 -0.40174708 0.35339084 0.5981543 0.18299572 0.23897071
0.21817443 0.7549309 0.16520847 0.9928759 -0.07394343 -0.09832604 0.08147043 -0.65878046
-0.4371938 0.43618372 -0.25057995 0.33115125 -0.67039436 0.7446549 -0.24941339 -0.08597699
0.03235586 -0.08477393 0.5430157 0.04348003 -0.063072056 0.04001594 -0.044777524 -0.37120137
0.26336798 -0.06837176 -0.36806217 0.16206934 0.16484132 -0.015762063 0.5544705 -0.082853355
0.075789034 -0.09563959 0.0066506807 -0.3607393 0.10592969 -0.15493982 -0.62279093 -0.12872262
0.35937768 -0.17929207 0.49834228 0.13523768 -0.28480104 -0.32442188 -0.34168568 -0.079456896

l1.bias f4 [512]
00000000: e97f 91bd 22b7 4f3d d159 06be 5933 bc3d
00000010: 7533 833d 54b6 b13d 96ed c0bc 893e ce3d
00000020: b32a 65bd 95e6 48be c436 2dbe 13d7 323d
00000030: 14f3 a0bd a61a 8b3c 9490 313e 3a63 303d
00000040: 3a15 84be 1ec9 92bd bb94 be3d cce7 0b3e
00000050: d8f1 043c f0c4 77be aa82 283b 8920 ae3d
00000060: 0919 35be 3644 64be a6b9 bb3d bd01 a8bd
00000070: 0e71 b3be d975 a33d abfd 20be d428 7bbd
00000080: 06bc 503e 7469 16be e280 ff3d 3380 2a3e
00000090: ea58 91be 0124 2ebb 5152 a2be 2091 bcbe
000000a0: de93 0bbe 688f 1ebd e9e1 123d c808 bbbd
000000b0: b515 49be c5b7 53be b907 fdbd 7576 8abe
000000c0: e4a2 2ebe a2ee 06be 613c ccbd 83fa 43be
000000d0: fefa f13d 3156 28bc 4227 be3d 14e5 7e3d
000000e0: 692a c2bc b679 3e3e 57c7 0fbe 6c6c 523e
000000f0: 20de 12be d2cd 1ebe 134e 7c3d 6d42 a1bd
00000100: 9180 a7be c46e 99bc 94d6 cfbd d42c b4bd
00000110: e9b3 6d3e a53d 9cbd c7e9 adbd 66b9 773e
00000120: d09e 0f3e aae8 63be e271 e9bd 286a ebbd
00000130: 1592 a73e 3244 ba3d 0c6a 243d e250 24be
00000140: a7d6 543d 03e9 46be 407c aabc 9ae0 0ebe
00000150: e499 28be 0218 90be 3327 99bd cfc4 d7bd
00000160: ba8a 9cbc a0be bbbe 265d 383e 086f 8bbd
00000170: a6f1 c3be 81f6 74be bf45 65be 74e7 e4bd
00000180: abcf d93b 1b5d 17be 3b3c 19be 4c52 09be
00000190: 02e8 23be c966 6fbe ce38 6ebd 6439 a93d
000001a0: e2f4 b43c b44b 8fbd d22d d0be 18a6 64bb
000001b0: fc42 0d3e b511 62be 81e5 babe 97e3 01be
000001c0: 1ad4 1abe ab05 373d c136 b7bd edd5 1b3e
000001d0: 3568 d4bd edfe dd3d 286e aabe a364 b3be
000001e0: 1a88 bf3d 4228 9fbe 6be6 41be ebc0 8fbe
000001f0: 3a2a 523e 6a7e 8dbe bdb3 c93d 9888 00be
00000200: 38df cfbe 7fc8 8d3c 763f 08be 92a1 4bbd
00000210: 2f6c 25be af43 4f3e 4fe0 a4bd efc6 c43c
00000220: 7c6c 2bbe 159d 20be 5e2e 21bd daef 78be
00000230: 41b1 91bc 4ac2 32be 5573 33bd 5a22 513d
00000240: c26b 5dbd 7f20 253d d3f4 87be 35d0 1a3d
00000250: feec 7abd 6286 0c3d 7360 8abe 1b4a 0bbe
00000260: ba87 1dbe eee9 553d c4e6 5cbe 7dca 36be
00000270: d4d1 77be 8adb 36be 99d4 cbbd e5a1 debc
00000280: 64e5 adbd 553a 5e3d 5086 0fbe 6351 b3be
00000290: 56c2 09bd 4c9e 533e fc51 2fbe 56f9 8ebe
000002a0: 299d cfbe fb62 1bbe a630 c2bd 12ad 00be
000002b0: 7e27 383e 9245 c83d 9d5d 89be 3353 b6be
000002c0: ff12 b23d 784d 4dbe a318 3abe ca9b 7b3d
000002d0: f33d 3e3c d406 a63d 4d76 35be e768 29be
000002e0: 5db1 a7be 07b4 3cbe 4bb5 12be 5050 21be
000002f0: c07f 88bd 55f2 a93e d46b 59be 7b03 60be
00000300: 788c d5bd 9830 383e d801 85be 5718 8cbe
00000310: 7618 02be 4ce9 53be bf06 88be 97ad 18be
00000320: 12d1 1f3d 8338 753e e455 6dbd 5c62 883d
00000330: 07fe 70be eadd c2bd 70ec 62bd 4367 003e
00000340: 0e9a b33d ea9f 21be ca27 1cbe 9a6c f7bd
00000350: b166 9bbe 60b6 bfbc 5b0e ac3d 2d6d 1b3d
00000360: 1399 98bd cc2f 9ebe 93b4 14be aea5 863e
00000370: 0c8e 75be 20b1 46be a4be 8cbe c7ff b3be
00000380: 98d9 ee3b c43a 623d 851c c3be 87dc 4f3d
00000390: 8249 20be 4317 94be 8d60 1cbe 8f3b 49be
000003a0: a0fe f2bd 9400 763d 2869 d9bd a65d 59bc
000003b0: b02c 26bd 9417 0d3c 9965 fe3c 829e e0bd
000003c0: 9b73 2abe b788 10be 628a 97bd f997 0bbe
000003d0: 13af 02bf a45e 2fbe 64a0 4bbe 95cb 4fbd
000003e0: 07d7 cdbd ec0b 94bd 7a8d c93c 30b8 083e
000003f0: 9f88 203d 3789 15bd 4c41 70be d864 52bd
-0.07104475 0.05071176 -0.131202 0.09189481 0.06406299 0.086773545 -0.02355079 0.100705214
-0.055948924 -0.1961921 -0.16915423 0.043662142 -0.078588635 0.01698048 0.17340308 0.04306338
-0.25797445 -0.07167266 0.09305712 0.13662642 0.008114301 -0.2419622 0.0025712647 0.08502299
-0.17685331 -0.22291645 0.09166269 -0.082034566 -0.3504719 0.07981462 -0.15721767 -0.061318234
0.20384225 -0.14688665 0.12475754 0.16650467 -0.2838815 -0.0026571753 -0.31703427 -0.36829472
-0.13630626 -0.03871098 0.035859976 -0.09132534 -0.19637187 -0.20675571 -0.123549886 -0.270435
-0.17054325 -0.13176969 -0.09972454 -0.19138531 0.11815451 -0.010274456 0.092848316 0.062230185
-0.023701863 0.18601117 -0.14040886 0.20549172 -0.14342546 -0.15508202 0.061597895 -0.07873998
-0.32715276 -0.018729575 -0.101483494 -0.08797613 0.23213162 -0.07628945 -0.08491855 0.24191818
0.14025426 -0.22256723 -0.113986745 -0.11494857 0.3272864 0.090950385 0.040140197 -0.1604648
0.05196252 -0.19424824 -0.0208112 -0.13952866 -0.16464955 -0.28143317 -0.0747818 -0.10535585
-0.019109119 -0.36668873 0.18004283 -0.06808287 -0.382703 -0.23922159 -0.22389887 -0.11176959
0.0066470704 -0.1478161 -0.14964382 -0.134103 -0.16006473 -0.23379053 -0.058159642 0.082628995
0.022089425 -0.06996861 -0.40659958 -0.0034889039 0.13795084 -0.22077067 -0.36503223 -0.12684475
-0.15119973 0.04468314 -0.0894599 0.15218325 -0.103714384 0.10839639 -0.33287168 -0.35037717
0.09352131 -0.31085402 -0.18935554 -0.28076872 0.2052392 -0.2763551 0.098487355 -0.12552106
-0.4059999 0.017307518 -0.13305458 -0.049714632 -0.1615455 0.20240663 -0.08050596 0.02402064
-0.16740602 -0.15684922 -0.03935086 -0.24310246 -0.017784717 -0.17456928 -0.04381116 0.05105815
-0.054057844 0.040314194 -0.26553974 0.037796218 -0.06126117 0.034307845 -0.2702671 -0.13602488
-0.15383807 0.052225046 -0.21572405 -0.1785068 -0.24201137 -0.17857185 -0.09952659 -0.027176807
-0.084910184 0.05425485 -0.1401608 -0.3502303 -0.0336326 0.20665854 -0.17121118 -0.27924603
-0.4054959 -0.15174477 -0.09481935 -0.12566021 0.17983815 0.097788945 -0.26829234 -0.3561035
0.086950295 -0.20049083 -0.1817346 0.06142787 0.0116114495 0.08106771 -0.1772091 -0.16543923
-0.32752505 -0.1842805 -0.1432697 -0.15753293 -0.066649914 0.33192697 -0.2123254 -0.21876328
-0.10427183 0.17987287 -0.2597797 -0.2736232 -0.12704644 -0.20694464 -0.26567647 -0.1490997
0.039017744 0.23947339 -0.05794324 0.066593856 -0.23534404 -0.09514983 -0.055401266 0.12539391
0.08769618 -0.15783659 -0.15249553 -0.12081261 -0.30351785 -0.023402393 0.084011756 0.037945915
-0.074510716 -0.3089584 -0.14522009 0.2629828 -0.23979968 -0.19403505 -0.27489197 -0.3515608
0.007289123 0.055231825 -0.38107696 0.05074742 -0.15653041 -0.28923997 -0.15271206 -0.19651626
-0.11864972 0.060059145 -0.1061576 -0.013266956 -0.04056996 0.0086115785 0.031054305 -0.10967733
-0.16645662 -0.14114653 -0.07399441 -0.13632192 -0.5104839 -0.17125946 -0.19885403 -0.05073126
-0.10050779 -0.072288364 0.024603594 0.13351512 0.039192792 -0.03650781 -0.23462409 -0.051365703

l2.weight f4 [256, 512]
00000000: b757 cbbd d130 8fbf 63e3 553c c679 9c3f
00000010: 818f c5bf db61 3abe e9ef b53c 6c82 b43e
00000020: c8a5 eabd 162e 21bf 7492 ccbf d104 afbe
00000030: 8624 c4be 9210 c23d d0c9 76bf c1f5 043e
00000040: 200b 2b3d fbf6 483d d2f4 763f 8f72 243f
00000050: d404 89bb ebff d03f 56c1 a7bc f46d dcbb
00000060: 37b3 56bf 3052 76bf e0f2 acbe 6b44 d83d
00000070: ba5b 8b3d 083d 953e 7044 a0ba 588a 063d
00000080: 3a32 233e 01b0 3a3e 4910 58bf a4df 21bf
00000090: cc79 503f 14e5 8f3d 3a4f 8b3f 5af4 fd3b
000000a0: c3dd 18bd 4e3b 88be fbc4 0ac0 b91f 1b3e
000000b0: 8b7a 1abe d39d d03e 3273 a1be 5ac7 f43d
000000c0: 2bf0 143f 9d8d 5e3f b80c 92bf f7dd a5bf
000000d0: 4637 c43c 7b01 203f 353b b63f d25b d03e
000000e0: 1feb 4abd c990 883e 9a2c 2b3d e99c 9a3c
000000f0: d623 9b3d d4e0 13be 5f01 dc3e 4d37 6a3c
00000100: b199 c5bf 9efc 4e3e 91de 23bf 86bd 8d3c
00000110: 7530 423f 1f8d b03c eabd 9d3e 3ac4 f1be
00000120: b878 5abd 3eaf 843d 91af 93be 5169 413f
00000130: 41a0 2bbd a2d3 9abf 24b3 cd3e eef9 4f3f
00000140: 8137 d73d afc5 d7be 9bf0 b93e 8c31 cd3a
00000150: 75d2 38bb 1d0b 333f 2349 c0bc 2bc0 dabd
00000160: 9406 043d d95b db3e 8070 1a3f 6a83 b2be
00000170: 0792 663f e5bb b7be f8e6 563d 18fd 17bf
00000180: ace1 5bbf b887 5fbc d50e 28bf d9e6 053e
00000190: 731a 14bf 6f03 83bf 508e db3e 17ae c13d
000001a0: cbe2 553f 7aed 3d3f 8f75 14bf 8655 bb3c
000001b0: 96ee 3bbf 6c44 02bf 6ab8 ff3d 2b21 e23d
000001c0: 0880 c8be 7daf 253f 082c 263e 233b 89bf
000001d0: c528 06bf 6bd8 bd3e 6116 dd3d bdbe f7be
000001e0: 9e81 2fbf 0f0b 25bf 0227 cc3c f6fe 17be
000001f0: 8fdc fb3e 06a6 1b3e f448 553f fe46 8dbe
00000200: 1906 76bb 2a22 7bbe e95b 3bbe ead8 473f
00000210: a0b7 433d d53b 3a3f 1313 66bb cf9d 363f
00000220: dc0c d53d 49f0 0abc dd4d ce3e 34ee dcbd
00000230: 1f86 fe3e 6a6a 333b 4b87 2e3f ac0c 443e
00000240: 70d3 c4be 027f 29bd 7d74 bbbe 11c6 393e
00000250: 472b 0ebe dfad 943f 91d2 0dbf 0636 bebc
00000260: 3c37 5b3f f350 d0be 199d bb3e d8d8 a8be
00000270: 623e 763e 4d9a 29bd eea7 c93e f804 c23c
00000280: f49f 5fbe 8e5c 99bf 216a bfbf 6d85 d63c
00000290: 3995 b5be 14cc 933f f5e8 eebd 2715 1abf
000002a0: c9ae 2d3e fcde 0fbe ae66 29bf ad67 2fbe
000002b0: bda0 80be a5d1 7fbf 4885 e13e 8850 3f3d
000002c0: 67c0 9a3d 770a 7c3f c14c 633e f66c 083e
000002d0: b405 67bd 28a2 e53e 36e1 dd3d d634 b83e
000002e0: 7922 abbe 0a9d e93e 79f3 94bf 4ab9 da3c
000002f0: 2a75 bbbf 94e2 473e 6912 55bf 52d4 07be
00000300: 2879 36bf 2558 5fbc 9b6e 8b3e c9d0 5d3f
00000310: 461e 9abd 7eef 16be ecb8 37bf c832 a13e
00000320: 937a 0ebe ac58 17bf 1d4c f2b9 32a3 92bd
00000330: 0dda 203f 6699 c7be b1de 923c e85a 1bbe
00000340: b374 09bf 61e5 d3bd 69cf 093d 858b a23c
00000350: 9aae 813f 56e5 fabb 8bfa 173f f6cd f43e
00000360: ecb8 0bbd ca91 d9be bb3a 63be e1ec 5ebf
00000370: ffeb 22bf 4e69 b73f 357c 15be 8335 f53e
00000380: 49ef 573e dcc6 b13e 8d27 1b3f a428 d93e
00000390: 7bba 933e 7832 573e 32af 54be 8404 20be
000003a0: 3cc1 a0be c584 9fbf 3f50 f8bf ae1a 733f
000003b0: 2555 9b3c 602d b8be 0c02 15be 51ae b73e
000003c0: 0f20 8abf e8de e9be 4ff8 7c3c b2d8 d53d
000003d0: 6952 ae3e 8d63 663f 256a 76b9 c5f7 81bf
000003e0: 9fda f5be 4506 363f ce7d 3c3f b795 e1be
000003f0: 02d2 593f 3c51 6e3d 64fc c6be 305f 263e
-0.0992884 -1.1186773 0.0130547015 1.2224662 -1.5434419 -0.18201391 0.022209125 0.35255754
-0.114574015 -0.62960947 -1.5982194 -0.34183362 -0.38309115 0.09475817 -0.9640169 0.12984373
0.041758657 0.049063664 0.96467316 0.642373 -0.0041814838 1.63281 -0.020477932 -0.0067269746
-0.8386721 -0.9621916 -0.3377905 0.10559925 0.06804605 0.29148126 -0.0012227427 0.03284678
0.15937129 0.18231203 -0.8439985 -0.63231874 0.8143585 0.07026115 1.0883553 0.0077500762
-0.037320863 -0.26607746 -2.1682727 0.1514882 -0.15085809 0.4074541 -0.315332 0.11952086
0.5817897 0.86934835 -1.1410131 -1.2958363 0.023952138 0.6250226 1.4236819 0.40695053
-0.049540635 0.26672962 0.041790582 0.018873649 0.075751945 -0.14441234 0.42969796 0.014295411
-1.5437528 0.20213553 -0.64011484 0.017302286 0.7585519 0.021551667 0.30808955 -0.4722002
-0.053337783 0.06478737 -0.28844884 0.75551325 -0.041900877 -1.2095835 0.40175736 0.8124074
0.105086334 -0.42143008 0.3631638 0.0015655025 -0.0028201614 0.6993883 -0.023472374 -0.106811844
0.032232836 0.42843512 0.6032791 -0.34865886 0.9006657 -0.3588554 0.052466363 -0.59370565
-0.8589122 -0.013643198 -0.6564763 0.13076343 -0.5785286 -1.0235423 0.42882013 0.09457033
0.83549184 0.74190485 -0.5799188 0.02286793 -0.7341093 -0.50885653 0.12486346 0.110414825
-0.3916018 0.647209 0.16227734 -1.0721172 -0.5240596 0.37079176 0.10795284 -0.4838771
-0.68557155 -0.6447 0.024920944 -0.14843354 0.4919171 0.15200052 0.8331444 -0.27593225
-0.0037540256 -0.24524751 -0.1829678 0.7806536 0.04778254 0.72747546 -0.0035106584 0.71334547
0.10402843 -0.00848014 0.4029378 -0.10787621 0.497117 0.002737666 0.6817519 0.19145459
-0.38442564 -0.04138089 -0.3661231 0.18141963 -0.13883696 1.1615561 -0.55399424 -0.02321912
0.85631156 -0.4068676 0.36643293 -0.3297794 0.24047235 -0.04140692 0.39385933 0.02368401
-0.21838361 -1.198137 -1.4954263 0.02618667 -0.3546541 1.1546655 -0.11665527 -0.60188526
0.16961206 -0.14049906 -0.661723 -0.17129393 -0.25122634 -0.9992927 0.44046998 0.04670766
0.07556229 0.9845347 0.22197248 0.13322815 -0.056401923 0.44850278 0.10833971 0.3597781
-0.33424738 0.45627624 -1.1636802 0.02669968 -1.4645131 0.19520026 -0.83231217 -0.13264588
-0.7127862 -0.013631855 0.27232823 0.86646706 -0.075253054 -0.14739797 -0.71766543 0.31484056
-0.13913946 -0.5911968 -0.00046214546 -0.07160033 0.6283272 -0.3898422 0.017928453 -0.15171397
-0.53693694 -0.10346485 0.033645067 0.019841919 1.0131409 -0.0076567335 0.59366673 0.47813386
-0.034111902 -0.4249404 -0.22190373 -0.870802 -0.6364135 1.4329011 -0.14598162 0.4789239
0.21087374 0.3472203 0.60607225 0.4241382 0.2885321 0.21015346 -0.20769957 -0.15626723
-0.31397426 -1.2462393 -1.9399489 0.94962585 0.018961499 -0.35972118 -0.14551562 0.3587518
-1.0791034 -0.45677876 0.015440061 0.10441722 0.3404725 0.8999565 -0.0002349993 -1.0153738
-0.48018357 0.71103317 0.7362946 -0.44059536 0.8508607 0.05818294 -0.38864434 0.16247249

l2.bias f4 [256]
00000000: f451 d03d 42c4 31be 430f ca3e 0856 35bd
00000010: 0d9f 6dbd de79 c53e 264f 063e e23a 8d3e
00000020: 9afb d4bb 556e 653e 91ab 27bd 9aa8 193e
00000030: 8a8c 01be cae0 583d b04e 7bbd 184a f7bc
00000040: 371c ff3e 8b45 97bd 2fca d13e c967 003f
00000050: 73d0 b1bd c3da f43e b1a1 223f 5654 8c3e
00000060: dfae ab3e 7493 67be 1921 8cbd 2b7e 913e
00000070: 326d b63e e7cd 033f 1244 79bd a964 17bd
00000080: 111e 083f 7f1c 803e 8deb ab3e 9bd3 953b
00000090: 23f5 84bc f6e4 9bbb f0b1 b93d 142a cc3e
000000a0: 6cae ccbc 863a 243d 6eed 8bbd da41 153e
000000b0: 2045 b83e 53cb 2c3f 168a d43e f095 a7bd
000000c0: 7daf 983e 6ed2 0d3f 0036 db3d 4e95 d9bd
000000d0: 71dc 4abe 1b27 fe3c ce9a 733d fb03 bdbd
000000e0: b895 42be 86f5 cdbe 456d 23bd 4ef3 17be
000000f0: 8c51 f8be 29c8 c5bb e515 31be 380c 873d
00000100: 78ee 3cbd 3a6c 70bc 3c3d b1bd ed14 6f3e
00000110: 0a62 97bc 5dbc 4fbc 849d 00be 93ad e53c
00000120: 4317 063e 2cba 993e fd1b c53e bd1b 9dbe
00000130: a5db e3bd e583 563c 0450 4dbe 2d57 303e
00000140: a77e 303c 4dc9 a8bc 4885 34be 9bee 21bd
00000150: 86ae 2a3e 6db7 27bd bc92 0b3e afe3 ca3e
00000160: d76c 49bd 8b63 3b3e b04b 763d 85cf 653c
00000170: 904f 1cbd 18f8 1bbe d101 b53e 8e4d 25bc
00000180: 8b3a c0be 7563 163d 9b02 56bd bbaf 24bd
00000190: 6051 40be 0b94 0bbd ec93 8bbe ef38 683d
000001a0: 369e 98bc e23b 09bd 129d e43d d7b4 44be
000001b0: 2a8f 773e 3df1 d73d 37c0 c4bc 4538 1a3e
000001c0: 0eb7 3bbc 2947 f13c e7c2 9a3e 1e38 e33e
000001d0: 2c61 673d c8fe 983e 3f61 36bd fcce 0e3e
000001e0: 60bd 84bd 16f4 8cbd 9649 f1bc 0d1e 193e
000001f0: 995e cc3d 8a63 1c3f ed58 a03b 2f14 abbe
00000200: ef9d 16bf ed13 b03e 8dd4 5fbc 346b c83d
00000210: a088 cdbe b026 a83e 9387 833e dd26 4bbe
00000220: 7127 f53b a51b 59bd 1f9a 91bd ab02 803e
00000230: 003a 6a3e d4eb 99be 7d4d 6f3e d7e5 ce3e
00000240: e6ed 5ebd 17aa 8fbe 9cc3 a23e ab84 81bd
00000250: ee72 1abd 90fb 5cbe 6ae0 53bc fdd3 e2bc
00000260: d75e 1b3c d830 0ebd a806 993e 13da 103e
00000270: 3b0c 2ebd d4b3 07be 80be 5dbd 56f1 fbbc
00000280: b044 8cbd 8be3 3f3e 6e32 ec3d de56 893b
00000290: 7719 d13e a344 95bc daa7 08bf d95c 36bd
000002a0: 790e 203d cae4 143e 5235 adbb bf39 c83e
000002b0: 5827 8abe 72f3 ab3d da3f e43c f6d8 383e
000002c0: 577b c53c fefb 22bd 6cb3 b13e 9947 943e
000002d0: 8bb3 3abd 2962 103e ae1d 1a3e db91 7abd
000002e0: e927 f9bc f932 5ebd 2c39 92bd f299 27be
000002f0: 6b69 dbbe 7e95 753e 3f37 e43d 2b3e 0bbe
00000300: e7df b33b 1804 3ebe c135 ae3e 2eea 86bd
00000310: d558 cbbe 7856 123e 5424 b2bc 9ba5 e13d
00000320: e53c 27be 07c2 023e 09d7 dd3c e441 9d3e
00000330: 5cb5 953e d119 e53d 0591 d43d 47aa b63e
00000340: 85eb 78bd fa8c 963d b26a 5bbd 0015 62bc
00000350: 9592 e8ba 4f84 d93d 5890 cdbc 843a 1cbe
00000360: d9c8 6cbe 81af aebb 908e c43e c443 f43e
00000370: 8277 fb3c bca3 243d 1c7d 153e 5f0b 593d
00000380: d7c2 87be e55a 24be fdef c4bc d914 cabd
00000390: 2d6b aebe 8c6b c33d 64f8 a4bd fee4 4d3e
000003a0: 94a5 133e 8622 97bd f421 4b3e e05c 28bd
000003b0: 3982 91bd 8420 a13d 8fae 763e 78d9 cebd
000003c0: 72c2 2d3d 98be 21bd f644 52bc 21c9 203e
000003d0: 09ba 9ebe 9139 573e bfb6 1c3d 3737 f63d
000003e0: 9a1a 1ebd aa34 90bc 69a1 71bc 9bce 5dbd
000003f0: 9520 723e 636d 563a 1327 8b3e 2ac7 d6bd
0.10171881 -0.17360023 0.3946477 -0.0442715 -0.05801301 0.3856954 0.1311613 0.27583987
-0.00649972 0.2240537 -0.040935103 0.15005723 -0.12651268 0.05294875 -0.06135434 -0.030186698
0.49826214 -0.07386311 0.40974566 0.50158364 -0.08682337 0.47823152 0.6352797 0.27408093
0.33531854 -0.22614843 -0.068422504 0.2841657 0.35630184 0.5148606 -0.060855933 -0.03696123
0.5317088 0.2502174 0.33578148 0.0045723445 -0.016230172 -0.004757519 0.09067142 0.39875853
-0.024985515 0.040094875 -0.068323955 0.14575902 0.35990238 0.6749775 0.415116 -0.08182895
0.29821387 0.55399215 0.10703659 -0.10624181 -0.19810654 0.031024506 0.059473805 -0.09229275
-0.19002426 -0.40226382 -0.03989913 -0.14838907 -0.48499715 -0.006035824 -0.17293508 0.065941274
-0.04612586 -0.014674241 -0.08654258 0.23347826 -0.018479366 -0.012679187 -0.12560087 0.028036868
0.13094811 0.3002485 0.38497916 -0.30685225 -0.11125878 0.01309297 -0.20050055 0.17220755
0.010772384 -0.0206038 -0.17628968 -0.039534193 0.16668138 -0.040946413 0.13630193 0.39626834
-0.049176063 0.18299691 0.060130775 0.014026527 -0.038161814 -0.15231359 0.35352948 -0.010089291
-0.37544665 0.036715943 -0.05224858 -0.040206652 -0.18781042 -0.03407673 -0.27261293 0.05669492
-0.018630128 -0.033504374 0.11162771 -0.1920961 0.24175707 0.105440594 -0.024017436 0.15060528
-0.011457218 0.029452877 0.30226824 0.44378752 0.056489155 0.29881883 -0.044526335 0.13946146
-0.06481433 -0.06882493 -0.029454034 0.1495287 0.099789806 0.61089385 0.0048934133 -0.33413836
-0.5883474 0.34390202 -0.013661516 0.097860724 -0.401433 0.32842016 0.25689372 -0.19839044
0.0074815084 -0.05300488 -0.071094744 0.25002035 0.22873688 -0.30062735 0.23369403 0.4040973
-0.054426096 -0.28059456 0.31789863 -0.063241325 -0.03770726 -0.21580338 -0.012931922 -0.027688975
0.009483061 -0.03471455 0.2988789 0.14145689 -0.042492133 -0.13252193 -0.054136753 -0.030754726
-0.068490386 0.18739145 0.11533056 0.0041912636 0.4083974 -0.018221205 -0.5338112 -0.04452214
0.039076302 0.14540401 -0.0052858973 0.39106557 -0.26983142 0.08396043 0.027862478 0.18051514
0.024106665 -0.0397911 0.347072 0.28960875 -0.04558138 0.14099945 0.15050384 -0.061174255
-0.030414538 -0.05424783 -0.07139811 -0.16367319 -0.42853865 0.23982808 0.1114335 -0.13597934
0.0054893377 -0.18556249 0.34025386 -0.06587635 -0.3971621 0.14290798 -0.021745838 0.11017915
-0.16331823 0.12769328 0.027080076 0.30714333 0.2923993 0.11186565 0.10379223 0.35676786
-0.060771484 0.07351108 -0.05356855 -0.013798952 -0.001774388 0.10620939 -0.025093243 -0.15256697
-0.23123492 -0.0053309803 0.38390017 0.4770795 0.030696634 0.04019521 0.14598507 0.05298936
-0.26515839 -0.16050299 -0.024040217 -0.098672576 -0.34066144 0.09541997 -0.08055189 0.20106885
0.14418632 -0.07379632 0.19837171 -0.041104198 -0.07104916 0.0786753 0.24090026 -0.101000726
0.042421766 -0.039488405 -0.012833824 0.15701725 -0.3100131 0.21018054 0.038260218 0.1202225
-0.038599588 -0.017603237 -0.014747956 -0.054152112 0.23645242 0.0008179752 0.2717825 -0.10487206

l3.weight f4 [3, 256]
00000000: d1de 7fbf 73a4 bd3f 7b67 ce3f 41a2 de3c
00000010: 072b 3b3d 63dd f13e b287 1dbf f9d4 c13f
00000020: d187 a0bc de1b 7e3f 0071 2cbd 7493 28be
00000030: ad88 a4be 7fbd 083e 1d0b f9ba f781 c33d
00000040: 0303 cb3e e76e 803f 6871 1040 174b 6b3e
00000050: 29d3 d03c 056b 2540 f9ed bebf 1137 06bf
00000060: 6867 0a40 1c11 ba3f 8e92 663c 46ed fb3f
00000070: a000 cbbf e044 f83e 4a64 3ebf 9c8d fcbc
00000080: 9e4f ad3d 8a5c 92bd bae4 ecbf 47d2 7ebc
00000090: dd3b 5bbb 9f4f 473f b322 6240 ecf7 ffbf
000000a0: 19c5 a63c dc9a 2cc0 b11d b33b 2c18 51c0
000000b0: 1591 55c0 db09 c3bf 001d 28c0 9f06 dcbf
000000c0: fc8d 203d 3e6c 523e fef2 433f f342 fa3c
000000d0: 5f07 3840 761c 9a3f 682f 413f 021e 04be
000000e0: 40e8 0a3f d243 683f 7a47 75bd d8be 5b3e
000000f0: 1f0c cdbe fd86 733b f14d c0be b445 c0be
00000100: 12a6 89bc 4b5f 3e3c c6e9 2bbc 9ab6 2abe
00000110: 8b00 903c 2132 2c3f 8128 5fbf 3326 0a3f
00000120: 9256 fcbf f67a 8d40 8d5d 823f 7f20 c23c
00000130: 4f05 41c0 c28a 0bbd 6457 1abf 799f 7d3f
00000140: a163 2fbd 468e 683d f879 2b3e 54b2 24bd
00000150: 30fc 47c0 92c4 cd3c 8947 01c0 7162 0640
00000160: 3dab 34bc e150 0740 b49b 2d40 e695 12bc
00000170: 93df 533c 78fe 673f 0855 843f d35f c83c
00000180: 1542 4cbd 2b27 ac3f 3877 f03c 311a 59bd
00000190: cacf 5240 2cab e83c 5923 20be f7fb 22c0
000001a0: 41b1 84be 0ed0 ecbb 0d76 3ac0 9608 25bf
000001b0: 27f0 eebf ae06 22bf 85b4 803f 8b48 12bf
000001c0: 1a3a b13f 85cc 26c0 8fd6 83bf 2e39 06bd
000001d0: e1b7 d53f fcd0 8dbe 1e00 143c 6a6a 0d3f
000001e0: 7e33 b0bc 8439 ddbf 6ef2 eabb 48c2 913e
000001f0: 3a58 2740 1014 8d3e 632d d2bc 7a5d 1c40
00000200: 35df b43d 33b1 9abf c866 3fbd e785 1fbe
00000210: 636e 85c0 16ee 9bbf 519e 63bf e910 523f
00000220: e11a a93c 727d a33c 0c7b 42bc 8b69 1ec0
00000230: 008b 6d3f 0fc6 81bd 132c c33f 4092 dbbf
00000240: 4ab7 3ebd 91cd 31bf bd97 d8bf d399 643f
00000250: e9c2 92bf 5ce0 e3bf f14f d13e 2c96 0cbe
00000260: 8f83 e8bc 7a11 56bf 29f8 863f e394 193f
00000270: 6940 2ebc 0cd1 bbbf 7cc1 4e3b 1321 8fbc
00000280: c9b8 3b3d 6a63 9bbf 8e42 373f 9567 183f
00000290: 3cee 663f d5a4 fabc 5f99 943f fe2f 893a
000002a0: f7ad 9cbf 60ec a4bf 3380 633c 8d60 6840
000002b0: 4eac e83f 3a5d 443f 48a0 963e b045 04c0
000002c0: 42c6 2040 3fd4 50bd 3ad9 473d 0e1a dbbf
000002d0: a412 dcbc 5873 a1be d7cb 063e a0ea 513c
000002e0: 0fdb 053d c252 623d e363 c1bd 2880 b6be
000002f0: 0255 00bf ede1 2b3f 79c6 283f 4f6e 01c0
00000300: 2d53 883a ac86 19c0 1d81 c5bf 50f0 72c0
00000310: 8ca3 4f3f 2c40 c53f 241d d4ba 494b 973e
00000320: 83d5 a63d 420c 9c3e 8ada b7be 7e80 08c0
00000330: 240d 57bf 3b18 4f40 3b8c c43f e07b 333f
00000340: f288 a63b 84f5 6bbf 7415 86bf d1c5 733d
00000350: a252 6bbb 090b 91bf 8932 60bd 29d9 6ac0
00000360: 2b0f 71bf 14e0 b8bc eece 7740 a896 3dc0
00000370: dc26 233f f54d 61c0 e6d0 763f 4ea3 a4bf
00000380: 1b13 5fbf b8e1 653f c544 823a 5fa3 e0ba
00000390: cf1e 66be 1e09 cabe bc75 203e bdc6 86bf
000003a0: c9d1 f03f 4144 3fc0 1b79 8abf a454 e0bc
000003b0: c158 d93c c5cf 95bf cdd7 b03f 3073 253d
000003c0: d734 80bf bd61 8fbd 110a 0cbd d983 bbbf
000003d0: 22a9 033e 3da9 883f 9c06 2cbf 0a4d e9bf
000003e0: 44a2 1a3d 277f fcbc d50c 9ebc 384a 5abc
000003f0: 5a3d a63f cba5 35c0 8346 cb3f 9c03 2e3d
-0.99949366 1.4815811 1.612533 0.027176978 0.04569533 0.47239217 -0.6153518 1.5143119
-0.019596012 0.9926127 -0.042099953 -0.16462499 -0.32135525 0.13353537 -0.0019000504 0.09546273
0.39650735 1.0033845 2.2569218 0.22977863 0.025491314 2.584657 -1.4916373 -0.52427775
2.1625614 1.4536471 0.014073027 1.9681785 -1.5859566 0.48490047 -0.7437178 -0.030829243
0.084624514 -0.07146557 -1.8507302 -0.015553064 -0.003345243 0.7785587 3.5333679 -1.9997535
0.020357655 -2.6969519 0.005466186 -3.2671003 -3.33698 -1.5237383 -2.62677 -1.7189521
0.039197907 0.20549104 0.7654265 0.030549502 2.87545 1.2039936 0.7546296 -0.12902072
0.54260635 0.90728486 -0.05988262 0.2145952 -0.4004831 0.0037159317 -0.37559465 -0.3755318
-0.016802821 0.011619399 -0.010492748 -0.1667122 0.017578384 0.6726399 -0.8717118 0.5396454
-1.9713919 4.42126 1.01848 0.023697136 -3.015949 -0.034067877 -0.602896 0.9907146
-0.042819623 0.056776308 0.16745746 -0.04020913 -3.1247673 0.025118146 -2.0199912 2.0997584
-0.0110271545 2.1143115 2.7126284 -0.008946871 0.012931722 0.90622663 1.033845 0.024459755
-0.04986771 1.3449453 0.029353723 -0.053003494 3.2939324 0.028401934 -0.15638484 -2.5466287
-0.25916484 -0.0072269505 -2.9134552 -0.64466226 -1.8667039 -0.6329144 1.005509 -0.5714194
1.3845856 -2.606233 -1.0299853 -0.032769375 1.669674 -0.27698505 0.009033231 0.552405
-0.021508928 -1.7283177 -0.007170013 0.28468537 2.61476 0.2755437 -0.025656408 2.4432054
0.08831636 -1.2085327 -0.04672888 -0.15578423 -4.169725 -1.2182033 -0.88913447 0.8205705
0.0206427 0.019957278 -0.011870157 -2.4751918 0.9279022 -0.06336605 1.5247825 -1.7154007
-0.046561517 -0.69454294 -1.6921307 0.8929722 -1.1465732 -1.7802844 0.40881303 -0.13729161
-0.028383045 -0.8362042 1.0544482 0.5999281 -0.010635474 -1.4673171 0.003154843 -0.017471826
0.04583052 -1.2139714 0.7158593 0.59533054 0.90207267 -0.030596176 1.1609305 0.0010466573
-1.224059 -1.2884636 0.013885546 3.630893 1.8177583 0.7670475 0.2941916 -2.0667534
2.5121007 -0.050983664 0.048791148 -1.7117326 -0.026864357 -0.31533313 0.13163696 0.012812287
0.032679614 0.055254705 -0.0944288 -0.3564465 -0.5012971 0.6714161 0.65927845 -2.0223577
0.0010400765 -2.3988447 -1.5430027 -3.7959175 0.8110893 1.5410209 -0.0016183001 0.29549626
0.08146193 0.30478102 -0.3590892 -2.1328425 -0.84004426 3.235854 1.5355295 0.70110893
0.005082243 -0.921715 -1.0475297 0.059514824 -0.0035907407 -1.1331493 -0.054735694 -3.6695044
-0.9416377 -0.022567786 3.872005 -2.9623203 0.6373117 -3.5203831 0.96412504 -1.2862337
-0.8713853 0.89797544 0.0009938708 -0.0017138532 -0.2247269 -0.3946008 0.15669912 -1.05294
1.8814021 -2.988541 -1.0818208 -0.02738411 0.026531579 -1.1704031 1.3815857 0.040393054
-1.0016125 -0.07001064 -0.034189288 -1.4649612 0.12857488 1.0676647 -0.67197585 -1.8226635
0.037752405 -0.03082235 -0.019293228 -0.013323359 1.2987473 -2.8382442 1.5880893 0.04248391

l3.bias f4 [3]
00000000: 664e 0b3e e95e 5dbd ad3b 973e
0.13604125 -0.05404559 0.29537717
