saves/Dobot-v3/none/seed_0/model/critic.pth (torch, 610661 bytes, 5 tensors)

l1.weight f4 [512, 39]
0	0x3e39b1c7	0.18134223
1	0x3e8ec579	0.27885035
2	0xbe5dd98f	-0.21665023
3	0x3dafb6b4	0.0857977
4	0x3ed0e3cd	0.40798798
5	0xbee75e6f	-0.45189235
6	0xbe6d0ab4	-0.23148614
7	0xbf3fefb4	-0.7497513
8	0x3de06f6f	0.10958754
9	0x3e5fa1fd	0.21839137
10	0xbea33778	-0.31878257
11	0x3bb8b43a	0.005636719
12	0xbd651b28	-0.0559341
13	0x3f092ca3	0.53583735
14	0x3e15a578	0.14613903
15	0x4030de14	2.7635546
16	0x3fc77f53	1.5585731
17	0x3ec5927f	0.3858833
18	0xbf816021	-1.0107461
19	0x40175ae1	2.3649218
20	0x3d54be0d	0.05193906
21	0xbfa8f904	-1.3200994
22	0xbda25bd4	-0.07927671
23	0x3f7488fd	0.9552153
24	0x3b594651	0.0033153484
25	0x3fbc9c09	1.4735118
26	0xbb1e530e	-0.0024158391
27	0x400095f2	2.009152
28	0x3fbe25d2	1.4855292
29	0x3f15aa2e	0.584628
30	0xbf0f27dd	-0.559202
31	0x40539857	3.306173
32	0xbed597be	-0.41717333
33	0xbfc1c6b4	-1.5138764
34	0x3f017d57	0.5058188
35	0x3fd48fc7	1.6606377
36	0x3cdd166e	0.026988234
37	0xb99b89c4	-0.00029666547
38	0xbae70ed9	-0.0017628326
39	0xbeb7691d	-0.35822383
40	0xbe6ba8bd	-0.23013587
41	0xbe87faa2	-0.26558405
42	0x3d3a4e8b	0.04548506
43	0x3d5cc5e4	0.05389966
44	0xbeef3772	-0.4672199
45	0x3cef3c3c	0.029203527
46	0x3e84229e	0.2580766
47	0xbe92aa3f	-0.28645512
48	0xbe1f5df9	-0.15563191
49	0x3f09cdf8	0.5382991
50	0xbd8a0832	-0.067398444
51	0xbe285313	-0.1643794
52	0x3d24eec6	0.040266775
53	0x3e29e5fb	0.16591637
54	0xbdd5416e	-0.1041287
55	0x3d8f463f	0.0699582
56	0x3e566832	0.20938185
57	0x3e76d7f3	0.24105816
58	0x3d3aea09	0.04563335
59	0x3d8bb8b0	0.06822336
60	0x3e5880e0	0.21142912
61	0x3e531003	0.20611577
62	0x3dae9126	0.085237786
63	0x3d943d18	0.07238215
64	0xbc89e5de	-0.016833242
65	0x3e3dc425	0.18531854
66	0xbd739f76	-0.059478246
67	0x3e8c65f6	0.2742154
68	0x3e99a90e	0.3001179
69	0x3db2df95	0.08734051
70	0xbe3197a0	-0.17342997
71	0xbe133e7e	-0.14379308
72	0x3db7b19f	0.089694254
73	0xbe05ccb3	-0.13066368
74	0xbd06e62f	-0.032934364
75	0xbb95e9da	-0.0045749964
76	0xbd6a57e9	-0.057212744
77	0x3df47860	0.11937022
78	0xbb2a13f3	-0.0025951832
79	0xbf757db2	-0.9589492
80	0xbe83af6e	-0.2571978
81	0x3e369d3e	0.1783342
82	0x3a3737e2	0.0006989223
83	0x3e5a9e8a	0.2134954
84	0xbc5b9254	-0.013401587
85	0x3d824588	0.06360918
86	0xbebd0d00	-0.3692398
87	0x3ce6656a	0.02812453
88	0x3d4b96d7	0.0497044
89	0xbfac577f	-1.3464202
90	0xbddbfc4b	-0.107414804
91	0x3ee8e71a	0.45488816
92	0x3f0c1813	0.54724234
93	0x3e4e64d2	0.20155647
94	0x3f591f0e	0.8481301
95	0x3f0094fa	0.5022732
96	0x3d5cec20	0.053936124
97	0x3f8b0aa8	1.0862627
98	0x3e875d10	0.2643819
99	0x3e0ebd0c	0.13939303
100	0x3f07e52a	0.5308405
101	0x3efa36d8	0.48869967
102	0xbebe4816	-0.37164372
103	0x3e659907	0.22421657
104	0x3f7842e0	0.96977043
105	0x3dc11aa4	0.094289094
106	0x3e8cf68a	0.27531844
107	0x3ee09abc	0.43868053
108	0x3d9c39e7	0.076282315
109	0x3e8f6cd6	0.28012723
110	0x3e971c1d	0.29513636
111	0xbd1a6d2d	-0.037701774
112	0x3e6abd06	0.22923669
113	0x3f579aad	0.8422039
114	0xbc93f369	-0.018060403
115	0x3d0bd12e	0.034135036
116	0x3d134f7e	0.03596448
117	0xbd1ba554	-0.037999466
118	0x3e7a60c1	0.24450971
119	0x3d42ff52	0.047606774
120	0x3e816728	0.25274014
121	0xbeb18707	-0.3467333
122	0x3da2180a	0.07914741
123	0xbec60cad	-0.38681546
124	0xbdae12ef	-0.08499705
125	0xbe91096a	-0.28327495
126	0xbde4467e	-0.11146258
127	0xbe13edef	-0.14446233
128	0xbe9af01d	-0.30261317
129	0xbf318d14	-0.69355893
130	0x3f6360ad	0.8881939
131	0x3ea49f2d	0.3215269
132	0x3e1bda03	0.15219884
133	0x401562ba	2.3341508
134	0x3f23807b	0.6386792
135	0xc00abcde	-2.1677775
136	0xbed45762	-0.41472918
137	0xbf2e4355	-0.6807149
138	0xc0367275	-2.850736
139	0x40233e7a	2.5506883
140	0x3f7aa802	0.9791261
141	0xbf46fdd9	-0.7773109
142	0x3fa75162	1.3071711
143	0xbe07eb76	-0.13273415
144	0x3d272773	0.040809106
145	0x400da45d	2.213157
146	0x3f752b22	0.9576894
147	0xbff2e43a	-1.8975899
148	0xbd8f7804	-0.07005313
149	0xc026fa3c	-2.609023
150	0xc0211935	-2.5171635
151	0x4060a7ac	3.5102339
152	0x4004f30d	2.0773346
153	0x3ca73f75	0.020416
154	0x3c8e688f	0.017383842
155	0x3c5df06a	0.013546089
156	0x3c2dffa2	0.01062003
157	0xbdb50ac8	-0.08839947
158	0x3d3389a4	0.043832436
159	0xbdcca976	-0.099932596
160	0xbe377aeb	-0.17917983
161	0xbdc357f2	-0.095382586
162	0xbcc365b9	-0.023852216
163	0x3e19aaeb	0.15006606
164	0xbe16803b	-0.14697354
165	0x3dc24ae8	0.094869435
166	0xbd1ed674	-0.038778737
167	0x3de4d9cd	0.11174355
168	0x3d6215e2	0.05519665
169	0x3e09e59a	0.13466492
170	0xbdc792b4	-0.09744778
171	0x3e09114d	0.13385506
172	0x3dd4e877	0.10395902
173	0x3c615049	0.013752052
174	0xbdc780b6	-0.097413465
175	0x3d889b6b	0.066702686
176	0x3e0d3a91	0.13791873
177	0xbc6724b9	-0.014107876
178	0x3e367fec	0.17822236
179	0xba109c70	-0.0005516475
180	0xbde1120f	-0.109897725
181	0x3dcaf1ee	0.09909426
182	0x3e21e506	0.15810022
183	0xbd5d797b	-0.05407093
184	0xbd8b0a2d	-0.0678905
185	0xbd28c8a2	-0.041206963
186	0x3db4c3c3	0.08826401
187	0x3c959f94	0.01826457
188	0x3d18b361	0.037280444
189	0x3e0a3a1f	0.13498734
190	0x3dbee6a0	0.09321332
191	0x3db54892	0.08851732
192	0xbcb00b74	-0.021489836
193	0x3d0a7587	0.03380349
194	0x3cada2c9	0.021195786
195	0xbbc9d4a5	-0.0061593824
196	0xbda7fc7f	-0.08202457
197	0xbdf324e0	-0.11872268
198	0x3e1b876d	0.1518838
199	0xbe3cbc38	-0.18431175
200	0x3def66dd	0.116895415
201	0xbd58a565	-0.052892108
202	0xbda726a5	-0.08161668
203	0xbc15d63b	-0.009145315
204	0x3e45c946	0.19315061
205	0x3dd03398	0.10166091
206	0xbe0c4664	-0.13698727
207	0xbe3868b7	-0.18008696
208	0x3e3f8b00	0.18705368
209	0x3e6d1bcc	0.23155135
210	0xbd184777	-0.03717753
211	0x3e3c83f2	0.18409708
212	0x3da033f6	0.07822411
213	0xbde8ea63	-0.11372831
214	0x3e62c7b3	0.22146492
215	0x3dcbce2b	0.09951433
216	0x3ddfa0fc	0.10919377
217	0x3e9fd292	0.3121534
218	0x3dab193d	0.08354423
219	0xbe0c8804	-0.13723761
220	0x3e207a22	0.1567159
221	0x3e60418c	0.21900004
222	0x3deba393	0.11505809
223	0x3e093abf	0.13401316
224	0x3d80a07a	0.062806085
225	0xbd06125f	-0.032732364
226	0x3edf16d3	0.435721
227	0x3e43aaa2	0.1910806
228	0xbd00443b	-0.03131507
229	0x3ed18e03	0.4092866
230	0x3d28b282	0.041185863
231	0xbd9d11ab	-0.076693855
232	0xbd735666	-0.059408568
233	0xbcbae5d8	-0.022814676
234	0xbfc74869	-1.5568973
235	0xbe07af90	-0.13250566
236	0x3f23ea79	0.6402965
237	0x3f8f6a1e	1.1204259
238	0x3f2fdec4	0.6869929
239	0xbf980585	-1.1876684
240	0x3f9423ca	1.1573422
241	0x3f260f33	0.6486694
242	0x3dad9835	0.08476297
243	0x3f8d4c90	1.103899
244	0x3f8e1005	1.1098639
245	0x3f0e2190	0.5551996
246	0xbf99eeef	-1.2026042
247	0x3d5580db	0.05212484
248	0xbc427f6c	-0.0118712
249	0x3fb2ad72	1.3959181
250	0x3f3a0501	0.72663885
251	0x3f810eeb	1.0082678
252	0xbf0352c6	-0.5129818
253	0x3f13d408	0.5774541
254	0x3fa8bbd8	1.3182325
255	0x401a3f72	2.4101224

l1.bias f4 [512]
0	0x3d799137	0.060929503
1	0x3c6eadf9	0.0145678455
2	0xbe6110d0	-0.2197907
3	0xbed771f5	-0.4207913
4	0xbe18bc1d	-0.1491551
5	0xbe8592fe	-0.2608871
6	0xbdd8dc39	-0.10588879
7	0xbf02c909	-0.51088005
8	0xbef4fe78	-0.47850394
9	0xbdda9cc7	-0.10674434
10	0xbe365806	-0.17807016
11	0xbdd50275	-0.10400859
12	0xbda683d3	-0.08130612
13	0xbef96da2	-0.48716456
14	0xbdf482a5	-0.11938981
15	0xba8eeada	-0.0010903731
16	0xbe1cf660	-0.1532836
17	0xbf490cae	-0.7853497
18	0xbe1b6a7d	-0.15177341
19	0xbd29472c	-0.04132764
20	0xbe455ea1	-0.1927438
21	0xbe48db5d	-0.1961493
22	0xbe63dbe0	-0.22251844
23	0xbef43864	-0.47699273
24	0xbef06953	-0.46955356
25	0x3d3a5e1f	0.045499917
26	0xbeb137e5	-0.34612957
27	0xbde4f723	-0.1117995
28	0xbe605e6b	-0.21911018
29	0xbee4c6a3	-0.44682798
30	0xbee74566	-0.45170134
31	0xbee82213	-0.45338497
32	0xbcaf59ee	-0.021405187
33	0xbd3be681	-0.045874123
34	0xbe3fff5a	-0.18749753
35	0xbe9c08c6	-0.30475444
36	0xbeccac61	-0.39975265
37	0xbf0be1ba	-0.54641306
38	0xbe1e0ceb	-0.15434615
39	0xbe37c407	-0.17945872
40	0xbe5d1382	-0.21589473
41	0xbe7295fa	-0.23690024
42	0xbf3c2e73	-0.73508376
43	0xbf02f66b	-0.51157254
44	0xbf0916fd	-0.535507
45	0xbf0f0933	-0.5587341
46	0x3d7e8ded	0.06214707
47	0xbe55004c	-0.20800894
48	0xbde618b2	-0.11235179
49	0x3e4e5479	0.20149411
50	0xbed2af71	-0.41149476
51	0xbefa8842	-0.4893208
52	0xbf2daa99	-0.67838436
53	0xbf5b329a	-0.85624087
54	0xbe86a939	-0.26300982
55	0xbe1c33eb	-0.1525418
56	0xbe950ffa	-0.29113752
57	0xbed20661	-0.41020492
58	0xbdaf0156	-0.08545177
59	0xbf09cafd	-0.5382536
60	0x3d633d6b	0.055478495
61	0xbe3038d4	-0.17209178
62	0xbe262bfd	-0.16227718
63	0xbeb6bc8b	-0.35690722
64	0xbf47862b	-0.779391
65	0xbeb5db40	-0.35518837
66	0xbe16200c	-0.14660662
67	0xbf1b4caf	-0.60663885
68	0xbf3722ce	-0.7153748
69	0xbf0fe10e	-0.5620278
70	0x3e2bbb59	0.16770686
71	0xbea19e5f	-0.3156614
72	0xbe54fcb6	-0.20799527
73	0xbf4c8955	-0.7989705
74	0x3d2a5214	0.041582182
75	0xbe8ecbeb	-0.27889952
76	0xbe254113	-0.16138105
77	0xbe645038	-0.22296226
78	0xbed65d5c	-0.41868103
79	0xbe0d988e	-0.13827726
80	0xbe0bf264	-0.13666683
81	0xbf2f9992	-0.68593705
82	0xbd720f1f	-0.05909645
83	0xbf3063ab	-0.6890208
84	0xbf017947	-0.5057568
85	0xbc5bfec0	-0.013427436
86	0xbea72a00	-0.3264923
87	0xbef26eda	-0.47350198
88	0xbeca28bd	-0.39484206
89	0xbea86ae8	-0.32894063
90	0x3d78bcaf	0.060726818
91	0xbe4c02ba	-0.19922915
92	0x3c7236e2	0.014783593
93	0xbea0ca03	-0.31404123
94	0xbe542201	-0.20716096
95	0xbf35e59e	-0.71053493
96	0xbd9ee21e	-0.07757972
97	0xbd9620ef	-0.073305
98	0xbdedd7be	-0.11613415
99	0xbd8c949a	-0.06864281
100	0xbe5e151c	-0.2168774
101	0xbf19d946	-0.6009716
102	0xbe2cf834	-0.16891557
103	0xbed0ce47	-0.40782377
104	0xbf391af3	-0.72306746
105	0xbf72ce04	-0.94845605
106	0xbe52aed6	-0.20574507
107	0xbf0731a3	-0.52810115
108	0xbf1f6cfc	-0.6227567
109	0xbe29ffc0	-0.16601467
110	0xbf5e0b74	-0.86736226
111	0xbe701790	-0.23446488
112	0xbe5a713d	-0.2133226
113	0xbf19aba9	-0.6002756
114	0xbe552e9e	-0.20818564
115	0x3e80154b	0.25016245
116	0xbf7671a7	-0.9626717
117	0xbf2a5dff	-0.66549677
118	0xbeebb3e7	-0.46035692
119	0x3e96b736	0.29436654
120	0xbd3ad5ea	-0.04561416
121	0xbe7e12ba	-0.24811831
122	0xbf8b4da6	-1.0883071
123	0xbdb61af4	-0.0889186
124	0xbd8a0bd5	-0.06740538
125	0x3eb9d82a	0.36297733
126	0xbe7442e2	-0.23853639
127	0xbe8c22bd	-0.27370253
128	0xbf02c895	-0.51087314
129	0xbd80b233	-0.06283989
130	0xbf093267	-0.5359253
131	0xbf802b1b	-1.0013155
132	0xbe5783b9	-0.21046342
133	0xbed9b17c	-0.42518222
134	0xbf9e663c	-1.237495
135	0xbf27393f	-0.65321726
136	0xbe383125	-0.17987497
137	0xbe4c062f	-0.19924234
138	0xbe049c82	-0.12950328
139	0xbe3a66b1	-0.18203236
140	0x3e0dc7fa	0.13845816
141	0x3d209fc7	0.039214876
142	0xbf2f6ae9	-0.68522507
143	0xbea1a454	-0.31570685
144	0xbf0f87cc	-0.56066585
145	0xbf3e3601	-0.74301153
146	0xbefa5ef9	-0.48900583
147	0xbe80adb5	-0.25132528
148	0xbd3d6dfa	-0.04624746
149	0xbf021420	-0.5081196
150	0xbbfcec54	-0.007718602
151	0x3eaec896	0.3413741
152	0xbdc9b4ec	-0.09848961
153	0xbebb24ec	-0.36551607
154	0xbe930dc9	-0.28721455
155	0xbe5d3a78	-0.21604335
156	0xbdcff8cb	-0.10154875
157	0xbe385914	-0.1800273
158	0xbe80cb74	-0.25155222
159	0xbe1b3e81	-0.15160562
160	0xbf70b305	-0.9402316
161	0x3e06e840	0.13174534
162	0xbe0b8046	-0.13623151
163	0xbe23f2d9	-0.16010608
164	0xbe572bdd	-0.21012826
165	0xbedb9dee	-0.42893928
166	0xbe30455b	-0.17213957
167	0xbe4995e6	-0.19686088
168	0xbedf6cc8	-0.4363768
169	0xbedb0123	-0.42774305
170	0xbd955510	-0.07291615
171	0xbc525c59	-0.0128394
172	0xbbb944af	-0.0056539397
173	0xbd9183d4	-0.07105222
174	0xbf4947df	-0.7862529
175	0xbcd99463	-0.026560014
176	0xbdcb504c	-0.09927425
177	0xbeeac330	-0.4585204
178	0xbe88cb7a	-0.2671774
179	0xbe289ee0	-0.16466856
180	0xbf378cb3	-0.71699065
181	0xbee18f85	-0.4405481
182	0xbe07e3ad	-0.13270445
183	0x3e7efb82	0.2490063
184	0xbd4c5b93	-0.04989202
185	0x3d8af34f	0.06784689
186	0xbf0d5bc8	-0.5521817
187	0xbd390bb1	-0.045177165
188	0xbef5f964	-0.48041832
189	0xbf2902cc	-0.6601989
190	0xbd335e6f	-0.04379123
191	0xbf0c45bc	-0.54793906
192	0xbea88d43	-0.32920274
193	0xbd8ab16f	-0.06772124
194	0xbe7f2757	-0.2491735
195	0x3da4d16a	0.08047755
196	0xbe81fd7c	-0.25388706
197	0xbf2982eb	-0.6621539
198	0xbdccbf9a	-0.099974826
199	0xbd96cfdd	-0.073638655
200	0xbf6f052e	-0.9336728
201	0xbdea8076	-0.11450283
202	0xbec39550	-0.38199854
203	0xbe648797	-0.22317348
204	0xbdcdfb16	-0.100576565
205	0xbf059d5e	-0.5219325
206	0xbe19157b	-0.149496
207	0xbdd40701	-0.103528984
208	0xbe462dca	-0.19353405
209	0xbe8e8dec	-0.27842653
210	0xbe3655d9	-0.17806186
211	0xbe62a360	-0.22132635
212	0xbf282c7c	-0.6569288
213	0xbd2bf7f8	-0.04198453
214	0xbe6c85eb	-0.2309796
215	0xbec6cb31	-0.38826898
216	0xbcd35f42	-0.025802258
217	0xbd19ef90	-0.03758198
218	0xbf4a755f	-0.79085344
219	0xbecebcf2	-0.4037853
220	0xbed30060	-0.41211224
221	0xbe5015ab	-0.20320766
222	0xbe0f306e	-0.13983318
223	0xbda2aa84	-0.079426795
224	0xbebaead8	-0.36507297
225	0xbcc400ff	-0.023926256
226	0xbcf37154	-0.029717125
227	0xbe6be7ff	-0.23037718
228	0xbeaf4ccf	-0.34238288
229	0xbe06325a	-0.13105145
230	0xbe1805b6	-0.14845929
231	0xbe806b21	-0.25081733
232	0xbda90203	-0.08252337
233	0xbc156ead	-0.009120625
234	0xbd37fa36	-0.044916354
235	0xbe8a9813	-0.27069148
236	0xbe9f1816	-0.31073064
237	0xbeed1daa	-0.46311694
238	0xbf1303fa	-0.5742794
239	0xbeae8f03	-0.34093484
240	0xbe680961	-0.22659828
241	0x3daaef94	0.08346477
242	0xbf26c222	-0.65139973
243	0xbf269b5f	-0.6508083
244	0xbe083399	-0.13300933
245	0xbf18cf45	-0.5969127
246	0xbe4342e6	-0.19068488
247	0xbe9410b3	-0.2891899
248	0xbea2e527	-0.31815454
249	0xbe763180	-0.2404232
250	0xbe9cbe3f	-0.30613896
251	0xbf21f8ea	-0.6327044
252	0xbf93495c	-1.1506763
253	0xbf3dd6ec	-0.7415607
254	0xbd9c74df	-0.07639479
255	0xbe94c8ac	-0.2905935

l2.weight f4 [256, 512]
0	0xbd56a6fe	-0.05240535
1	0xbbae7a35	-0.005324627
2	0x3bee5b78	0.0072740875
3	0x3cb15e66	0.021651458
4	0xbc3f9d03	-0.011695149
5	0xbcfb200b	-0.030654928
6	0x3b88ee5d	0.0041788057
7	0xbd7e4123	-0.062073838
8	0xbd14e518	-0.036351293
9	0xbda4ac91	-0.08040727
10	0x3cceae05	0.025229463
11	0xbd1a90b2	-0.03773565
12	0xbd09aa7a	-0.033609845
13	0x3c5876a2	0.013211878
14	0xbb3cef75	-0.002882925
15	0x3d152161	0.036408786
16	0xbc7ed9d0	-0.01555486
17	0xbd5a72bd	-0.05333208
18	0xb8a99684	-8.086584e-05
19	0xbd3dc008	-0.046325713
20	0x3cd94e39	0.026526557
21	0xbda0ba8e	-0.078480825
22	0x3c9acb8f	0.018895892
23	0xbce346bd	-0.027743692
24	0x3c9c5ef9	0.019088255
25	0xbda3ff89	-0.08007724
26	0x3cd7497d	0.02628016
27	0xbd40c290	-0.04706055
28	0xbcb02ff2	-0.021507237
29	0x3ccd6234	0.025071241
30	0x3c908ac2	0.01764429
31	0x3cc251ee	0.023720708
32	0x3cbeb544	0.023279794
33	0xbd27723c	-0.040880427
34	0x3b8fcb95	0.0043882825
35	0x3cfc4905	0.030796537
36	0x3c9b57bd	0.018962735
37	0x3c033057	0.008007131
38	0x3b9fe0c3	0.0048790886
39	0xbd93f0ef	-0.07223689
40	0x3b6bee25	0.00360001
41	0xbbd896a1	-0.0066097532
42	0x3a9b9e13	0.0011872671
43	0xbc2d3844	-0.010572497
44	0xbd11b751	-0.035575215
45	0x3b180ddf	0.0023201627
46	0x3cba287a	0.022724379
47	0x3c9a0254	0.018799938
48	0xbc47ad42	-0.012187304
49	0x3b9343fc	0.0044941884
50	0xbd38584c	-0.04500608
51	0xbb463a1c	-0.0030247038
52	0xbc73a141	-0.014869989
53	0xbb035c9e	-0.0020044218
54	0x3b0468e0	0.0020204112
55	0xbd3992a7	-0.045305874
56	0x3cee3329	0.02907713
57	0x3cdd684b	0.02702727
58	0xbcc54873	-0.024082398
59	0xbd1d2053	-0.038360905
60	0xbc30d4e7	-0.010792947
61	0xbb7bb523	-0.0038407526
62	0x3cf08481	0.029360058
63	0xbd706a72	-0.058695264
64	0x3ce4f4b9	0.027948724
65	0xbd5650e3	-0.052323233
66	0xbcb68bf5	-0.022283534
67	0xbc1e2fcd	-0.009654951
68	0xbd6c9627	-0.057760384
69	0xbd1f1db4	-0.038846686
70	0xbd9e9b92	-0.077445164
71	0xbd3fd9c0	-0.046838522
72	0xbd0d9d22	-0.03457368
73	0xbbdf9f9a	-0.006824446
74	0xbcf93418	-0.030420348
75	0xbc64d24f	-0.013966157
76	0xbd0d2057	-0.03445467
77	0xbd644385	-0.055728454
78	0xbcc859c8	-0.024456874
79	0x3c427342	0.0118683
80	0xbd4b0838	-0.049568385
81	0xbcece024	-0.028915472
82	0xba23be2f	-0.0006246296
83	0x3cb3f3fa	0.021966923
84	0xbbf3118b	-0.007417863
85	0xbd09dfba	-0.033660628
86	0xbd07aac1	-0.033121828
87	0xbd3d9f2c	-0.046294376
88	0xbcd333f8	-0.025781617
89	0xbc441911	-0.011968867
90	0xbb99eae5	-0.004697191
91	0xbc734c20	-0.014849693
92	0x3d34d234	0.044145778
93	0xbceb4155	-0.028717676
94	0xbc436049	-0.011924812
95	0xbd09a7bb	-0.033607226
96	0xbcdc19f0	-0.026867837
97	0xbd8c3526	-0.06846075
98	0xbc765be0	-0.015036553
99	0xbc75ea92	-0.015009539
100	0xbbb36612	-0.005474814
101	0x3cbef49a	0.023309994
102	0xbced39e7	-0.028958274
103	0xbc64f1fe	-0.013973711
104	0xbd4a98af	-0.049462017
105	0xbd8bf904	-0.06834605
106	0x3cc0991c	0.023510508
107	0x3c1eab9e	0.009684471
108	0x3c9a6bd8	0.018850252
109	0xbd234c03	-0.039867412
110	0xbc5702e8	-0.0131232515
111	0x3d0750b1	0.033035938
112	0xbd13a07d	-0.036041725
113	0x3c9be05e	0.019027885
114	0x3d0a4dc8	0.033765584
115	0xbc0dc8d4	-0.008653838
116	0x3c9bc64a	0.01901545
117	0x3ccda61b	0.02510362
118	0xbce76cda	-0.028250147
119	0xbccfb9cf	-0.025357155
120	0x3d0ee4f5	0.03488632
121	0xbc3f1dac	-0.011664789
122	0xbc20fddd	-0.009826151
123	0xbd30da6b	-0.04317705
124	0x3d34cd9e	0.044141404
125	0xbd85064f	-0.06495344
126	0x3d20807e	0.03918504
127	0xbc9a825f	-0.018860994
128	0x3cadede9	0.021231608
129	0xb997107c	-0.00028813246
130	0x3c9eb657	0.019374056
131	0xbc3734f9	-0.011182063
132	0x3a2b257e	0.0006528719
133	0xbcdc4434	-0.02688799
134	0xbd0bf3a8	-0.034167916
135	0xbd541782	-0.05178023
136	0x3d008176	0.031373464
137	0xbccb2afa	-0.024800766
138	0xbc456264	-0.012047384
139	0x3c5cbb7b	0.013472433
140	0x3bc5e357	0.006039064
141	0xbd54e6bc	-0.051977858
142	0xbccafd95	-0.02477912
143	0x3c08b68d	0.008344305
144	0xbd274c37	-0.04084417
145	0xbc1eba09	-0.009687909
146	0xbca20ec2	-0.019782428
147	0xbd5a05d2	-0.053228207
148	0xbd2e8232	-0.042604633
149	0xbcf6df2b	-0.030135712
150	0xbd85d406	-0.06534581
151	0xbac6aae6	-0.0015157133
152	0x3b40bca1	0.0029409307
153	0x3c8e2aad	0.017354334
154	0x3ce1689b	0.0275157
155	0xb9e51d18	-0.0004369996
156	0xbcaf59f3	-0.021405196
157	0xbafd7eb2	-0.0019340126
158	0xbd5848b7	-0.05280372
159	0xbce3b4ac	-0.027796112
160	0xbcfe7c1e	-0.031065043
161	0xbd0091e9	-0.03138915
162	0xbb0b7b36	-0.0021283156
163	0x3b26cb4e	0.002545077
164	0xbb6ac665	-0.0035823819
165	0xbd5c812c	-0.053834125
166	0xbd2941e3	-0.0413226
167	0x3cfbda2b	0.030743679
168	0xb8cdb140	-9.808177e-05
169	0x3ce39241	0.0277797
170	0xbd292187	-0.04129174
171	0xbd1a48b3	-0.037666988
172	0xbcbc959b	-0.023020556
173	0xbaf3559f	-0.0018564946
174	0xbd122680	-0.035681248
175	0x3c04e339	0.008110815
176	0xbb2f9ea5	-0.002679744
177	0xbd114819	-0.03546915
178	0xbcdd5a00	-0.027020454
179	0xbd3042bb	-0.04303239
180	0xbd61813b	-0.055054884
181	0x3c46579a	0.012105847
182	0x3ce44b8d	0.027868057
183	0xbda6e095	-0.081483044
184	0x3b7f4cc3	0.0038955666
185	0xbd079953	-0.033105206
186	0xbcc1f0d4	-0.023674406
187	0xbc925898	-0.01786451
188	0x3ca87a16	0.020566028
189	0x3ce7c801	0.028293611
190	0xbd4f75b0	-0.050649345
191	0x3c806466	0.015672874
192	0xbcb41724	-0.02198369
193	0xbd2a29f1	-0.041543905
194	0xbd39b12d	-0.045334984
195	0xbc4673ae	-0.012112541
196	0x3c182347	0.0092857545
197	0xbc5773c7	-0.013150162
198	0xbcd04b4d	-0.025426531
199	0xbcfcc67d	-0.030856365
200	0x3b07fdfb	0.002075075
201	0xbd24dd8d	-0.04025035
202	0x3c38cdc4	0.011279527
203	0xbcc9ae19	-0.024619149
204	0x3c88c890	0.016697198
205	0xbca09fa6	-0.019607376
206	0xbc065097	-0.008197925
207	0x3a8269c3	0.0009949732
208	0xbd0b766c	-0.034048483
209	0x3d09b63a	0.03362105
210	0xbce1313a	-0.027489293
211	0xbc8c71b9	-0.017144071
212	0xbcff7793	-0.031184947
213	0xb9828d77	-0.00024900932
214	0xbae91b64	-0.0017784652
215	0xbd21fc07	-0.039546993
216	0xbcc59f2c	-0.02412375
217	0x3c77df96	0.015128991
218	0x3c40571f	0.011739521
219	0xbd4b0d6e	-0.049573354
220	0x3c210ebc	0.009830173
221	0x3cbd214e	0.02308717
222	0x3d321dd9	0.043485496
223	0x39a6e8d8	0.0003183547
224	0x3d064e2d	0.032789398
225	0xbb584226	-0.0032998412
226	0x3cd0099d	0.025395209
227	0xbcfcf644	-0.030879147
228	0x3b958b1d	0.0045637027
229	0x3b9221cf	0.0044595967
230	0x3d118e57	0.035536136
231	0x3c9c2034	0.019058324
232	0xbb5e960d	-0.003396395
233	0x3bd19873	0.006396347
234	0xbcbd1dbe	-0.023085471
235	0x3c932b43	0.017964965
236	0xbcc8c7f2	-0.024509404
237	0xbc8c822f	-0.01715192
238	0xbb993ec5	-0.004676672
239	0x3d165453	0.03670151
240	0x3c3fbd6e	0.011702878
241	0xbd24eb88	-0.040263683
242	0xb92231df	-0.00015468102
243	0x3c9005b6	0.017580848
244	0xbba09703	-0.0049008145
245	0x3d0d3e63	0.034483325
246	0xbc6da882	-0.014505507
247	0x3b3149a6	0.0027051955
248	0xbd1efc90	-0.03881508
249	0xbcc6a0b3	-0.02424655
250	0xbd914abd	-0.07094333
251	0xbd075c28	-0.03304687
252	0xbb1e8e9e	-0.0024193893
253	0xbd4ed6c3	-0.05049778
254	0x3cc62a42	0.024190072
255	0x3c852e64	0.016257472

l2.bias f4 [256]
0	0xba57c2b3	-0.00082306116
1	0xbd3b1ab7	-0.045679774
2	0xbd3a2fe9	-0.045455847
3	0x3a98bdb3	0.0011653214
4	0x3b4acd33	0.0030945062
5	0xbce4610c	-0.027878307
6	0xbcb2867f	-0.021792648
7	0xbd6d9f20	-0.05801308
8	0x3f3204af	0.69538397
9	0xbd932faa	-0.071868256
10	0xbd1a4f99	-0.037673566
11	0x3a44061a	0.0007477716
12	0x3fc1543a	1.5103829
13	0xbd4b7d5b	-0.049680095
14	0xbd087aae	-0.03332012
15	0xbd0021c8	-0.031282216
16	0xbcf21a55	-0.029553572
17	0xbb9d342a	-0.004797478
18	0xbd99342b	-0.074806534
19	0x3c50b715	0.012738963
20	0xbd8b78c4	-0.068101436
21	0x3da1fff5	0.07910148
22	0xbd0293f0	-0.031879365
23	0xbcc280a3	-0.02374298
24	0x3c9cc3df	0.019136367
25	0xbd1d4b74	-0.038402036
26	0x3d020a07	0.031747844
27	0xbd3a7162	-0.045518287
28	0xbd0f894a	-0.03504304
29	0x3c18ccf6	0.00932621
30	0xbcb9b5f1	-0.022669764
31	0x3fbc3977	1.4705037
32	0xbc926599	-0.017870711
33	0xbd250b5d	-0.04029404
34	0xbc3046b3	-0.0107590435
35	0xbd533d45	-0.051572103
36	0xbcbffaa6	-0.023434948
37	0xbd4935fd	-0.049123753
38	0x3bd751a5	0.006571012
39	0xbd84be80	-0.064816475
40	0xbda0a4d5	-0.07843939
41	0xbd9c4d77	-0.07631963
42	0xbcd57828	-0.026058272
43	0xbd0613c7	-0.032733705
44	0xbdcb52f0	-0.099279284
45	0xbd945655	-0.07243029
46	0xbd60f6be	-0.05492281
47	0x3c900425	0.017580101
48	0xbcc1968c	-0.023631357
49	0xbe9b4286	-0.3032419
50	0x3fc238ff	1.5173644
51	0xbd08e981	-0.03342581
52	0xbd5ac198	-0.05340728
53	0xbc9d4ab8	-0.019200668
54	0xbc823be5	-0.0158977
55	0xbd359516	-0.044331633
56	0xbd244043	-0.040100347
57	0xbd2722e8	-0.040804774
58	0xbce3011d	-0.027710492
59	0xbd87c865	-0.06630019
60	0xbd162ccc	-0.036663815
61	0xbc3593f5	-0.011082639
62	0xbcc97077	-0.02458976
63	0x3f1bd3a2	0.608698
64	0xbdd44129	-0.10363991
65	0x3d68b81b	0.0568162
66	0xbd77f864	-0.060539618
67	0xbcb6db1b	-0.022321275
68	0xbd79cc04	-0.06098558
69	0xbd4978de	-0.049187534
70	0xbd4328c4	-0.0476463
71	0xbf4c5a72	-0.7982551
72	0x3a923861	0.0011155718
73	0xbd719dc6	-0.058988355
74	0x3f8f1611	1.1178609
75	0xbdbccb79	-0.09218497
76	0xbc872e87	-0.016501678
77	0x3ecb502f	0.39709613
78	0xbd3c52cb	-0.045977395
79	0xbd1cd879	-0.038292382
80	0xbd46e231	-0.048555557
81	0xbd08414d	-0.0332654
82	0xbd2f27f4	-0.04276271
83	0xbd6f71c9	-0.058458123
84	0xbe20fa69	-0.15720524
85	0xbd586aae	-0.052836113
86	0xbdaab20d	-0.08334742
87	0x3fb95f0a	1.4482129
88	0xbd4d792c	-0.050164387
89	0xbd71a68d	-0.058996726
90	0xbd57179d	-0.052512754
91	0x3f1912ba	0.597942
92	0x3c9136c2	0.017726306
93	0x3d7ea3a9	0.062167797
94	0xbca0a057	-0.019607706
95	0xbd8df228	-0.06930953
96	0xbccdd732	-0.025127027
97	0x3b3a79b6	0.0028453893
98	0xbd351e11	-0.044218127
99	0xbcbb6d92	-0.022879396
100	0x3b1e9d0e	0.0024202499
101	0xbd230d99	-0.03980789
102	0xbd8467e6	-0.064651296
103	0xbd10fadb	-0.035395484
104	0xbd362b29	-0.044474754
105	0xbdf11ea9	-0.11773426
106	0xbc9ec5e2	-0.019381467
107	0xbd345679	-0.04402778
108	0xbf423920	-0.75868416
109	0xbc919b10	-0.017774135
110	0xbd79c3af	-0.060977634
111	0x3afcd3bf	0.001928918
112	0xbd3e19ab	-0.046411198
113	0xbc828cf4	-0.015936352
114	0xbd5f9acb	-0.05459098
115	0xbd88bd3a	-0.06676717
116	0xbd1123f2	-0.03543467
117	0x3c8c8fcc	0.017158411
118	0x3d03f4e7	0.03221598
119	0xbd5f4276	-0.05450674
120	0xbc524cc9	-0.01283569
121	0xbda5abfe	-0.080894455
122	0x3fc94c3d	1.5726391
123	0xbd78c39a	-0.060733415
124	0xbe1929e6	-0.14957389
125	0x3b647952	0.0034862352
126	0x3ee9713d	0.45594206
127	0xbd256344	-0.04037787
128	0xbc188159	-0.009308183
129	0xbad719b4	-0.0016410858
130	0xbda1bec4	-0.07897714
131	0xbc07ac53	-0.008280831
132	0xbd823efa	-0.06359668
133	0x3c9f8d08	0.019476429
134	0xbd0d0716	-0.034430586
135	0xbd10e151	-0.03537113
136	0xbd1909c5	-0.037362833
137	0xbcbba515	-0.022905866
138	0x3fc1bd23	1.5135845
139	0xbd86ac9c	-0.065758914
140	0x3f3f6cd6	0.74775445
141	0x3ea5840a	0.323273
142	0x3c3684d5	0.011140068
143	0xbe06f1dd	-0.13178201
144	0xbd4f8360	-0.0506624
145	0xbd646d3f	-0.055768248
146	0x3ccccee4	0.025000997
147	0xbd919b88	-0.07109743
148	0x3f1ab5ed	0.60433847
149	0xbc87b170	-0.016564101
150	0xbbc247ca	-0.005928968
151	0x3cedd6b9	0.029033052
152	0xbd8ac092	-0.06775011
153	0xbd74e876	-0.059792005
154	0xbd847b56	-0.06468837
155	0xbcfac892	-0.030613218
156	0xbc375e49	-0.011191913
157	0xbd945158	-0.072420776
158	0xbd4c1a78	-0.04982993
159	0xbd37d0a4	-0.04487671
160	0xbda0e96f	-0.07857024
161	0x3cbf1dd3	0.023329651
162	0x3fc5d411	1.5455343
163	0x3d133654	0.035940483
164	0xbd35e0ba	-0.04440377
165	0xbd83514c	-0.064119905
166	0xbd371cd5	-0.04470523
167	0xbcb3a82b	-0.021930775
168	0xbd116e4e	-0.035505585
169	0xbd7f0973	-0.06226487
170	0xbdbff4d4	-0.09372869
171	0xbd3979cb	-0.045282166
172	0x3ba06c54	0.004895726
173	0xbc37b8fc	-0.011213537
174	0xbcb1a169	-0.021683412
175	0xb9dd5e89	-0.0004222284
176	0x3ca3bee6	0.019988488
177	0xbd92a236	-0.071598455
178	0xbb93185c	-0.004488988
179	0xbd43300f	-0.047653254
180	0xbca9b9fe	-0.02071857
181	0x3b917876	0.004439409
182	0xbd9401ad	-0.07226882
183	0xbce53b8d	-0.027982498
184	0xbd477e68	-0.048704535
185	0xbc69b0f1	-0.0142633775
186	0x3d8eba65	0.06969146
187	0x3e622923	0.22086005
188	0xbcc8faf6	-0.02453373
189	0xbd594d7b	-0.053052407
190	0x3fc81224	1.5630536
191	0xbd676350	-0.056491196
192	0xbd8b839d	-0.068122126
193	0xbcb7d393	-0.022439754
194	0xbd078f54	-0.033095673
195	0xbd02ece8	-0.031964213
196	0xbcc17fc9	-0.023620503
197	0xbd81dcd7	-0.0634095
198	0x3fc407ea	1.5314915
199	0xba8fa983	-0.0010960553
200	0xbcbeeafa	-0.023305405
201	0xbe65ec40	-0.22453403
202	0xbe1d530c	-0.15363711
203	0xbd6086a5	-0.054815907
204	0xbd8ba19c	-0.06817934
205	0xbcb12091	-0.021621974
206	0xbd957b20	-0.07298875
207	0xbd51b902	-0.051201828
208	0xbd4c0e3d	-0.049818266
209	0xbca3d965	-0.020001123
210	0xbd498ff6	-0.049209557
211	0xbd256fe2	-0.040389903
212	0xbd304a1e	-0.043039434
213	0x3cd4d79d	0.025981719
214	0x3e4e917e	0.20172688
215	0xbdafed51	-0.085901864
216	0x3c5943ac	0.013260763
217	0xbd37ab19	-0.044840906
218	0x3fc9f590	1.5778065
219	0x3fbb93e1	1.4654504
220	0xbca8143f	-0.020517467
221	0xbd31fb45	-0.04345252
222	0xbd980d92	-0.07424463
223	0xbd437aba	-0.047724463
224	0xbd2988ec	-0.041390345
225	0xbda6b9c3	-0.081409
226	0xbc977c6d	-0.018491948
227	0xbbbb85f6	-0.0057227565
228	0x3d2427dd	0.04007708
229	0x3c949f9d	0.018142516
230	0xbd2f44a7	-0.04279008
231	0xbc1ee3bf	-0.009697854
232	0xbdc96416	-0.09833543
233	0xbd4e2d4f	-0.05033618
234	0xbc947b17	-0.0181251
235	0x3fb65868	1.424573
236	0xbcf9b4c9	-0.030481713
237	0xbd96884d	-0.07350216
238	0xbd794d6e	-0.06086486
239	0xbc347f72	-0.011016713
240	0xbd55cd9b	-0.052198034
241	0xbc6ae90d	-0.01433779
242	0xbd1d1eff	-0.03835964
243	0x3f6cbe3e	0.92477787
244	0x3e4e7327	0.20161115
245	0xbd55dc31	-0.052211944
246	0xbdc8b04b	-0.0979925
247	0xbd7c26d9	-0.061560486
248	0xbd3c469f	-0.045965787
249	0xbcdbcdf3	-0.026831603
250	0xbd4c146d	-0.049824167
251	0xbbd240e6	-0.006416428
252	0xbd8d76c6	-0.0690742
253	0xbbd7b806	-0.0065832166
254	0x3ccea548	0.025225297
255	0xbd191f96	-0.03738364

l3.weight f4 [1, 256]
0	0x3bbc9a55	0.0057557025
1	0xbd054f0f	-0.0325461
2	0x3d00d750	0.031455338
3	0x3c1ebef0	0.009689078
4	0xbbdc1532	-0.006716394
5	0x3c5faee0	0.013652533
6	0x3afd4cb8	0.0019325232
7	0xbc017130	-0.007900521
8	0xc0a5e997	-5.1847644
9	0x3cba20fb	0.022720804
10	0x3cae8b84	0.02130676
11	0xbc47de1f	-0.012198954
12	0xbea7980b	-0.32733187
13	0xbca685a5	-0.020327399
14	0x3cadd70d	0.021220708
15	0xbce5755e	-0.028010067
16	0x3c1dd028	0.009632148
17	0x3ccc388c	0.024929307
18	0x3cc07d6b	0.023497304
19	0xbcf44ef3	-0.029822802
20	0x3cc2185b	0.023693254
21	0xbe194fc6	-0.14971837
22	0x3c72e8f5	0.014826049
23	0x3cd9d18f	0.026589183
24	0x3c8a50e8	0.016884282
25	0xbcd3bde0	-0.025847375
26	0x3c6ad06e	0.01433192
27	0x3b8cffcd	0.0043029548
28	0x3bfc62ad	0.0077021928
29	0xbc73d62b	-0.014882605
30	0x3c553a17	0.013014338
31	0xbe7235da	-0.23653355
32	0xbc71358c	-0.014722239
33	0x3d1c4b32	0.03815765
34	0x3cc225e5	0.02369971
35	0x3c439db5	0.011939456
36	0xbce58dd3	-0.028021729
37	0x3d1c8663	0.0382141
38	0x3ce24b5c	0.027623825
39	0x3be8093a	0.007081178
40	0x3bb6d782	0.0055798898
41	0xbbf4bc37	-0.007468726
42	0xb8eba64d	-0.00011236649
43	0x3caeac2f	0.021322338
44	0xbbb5f8d3	-0.005553344
45	0x3b2db061	0.0026502835
46	0xbb2912ee	-0.0025798636
47	0xbcbaa5f6	-0.022784214
48	0x3cba4b3a	0.022740949
49	0x40097be0	2.1481857
50	0xbe799464	-0.24373013
51	0x3a7d9c02	0.0009674431
52	0xbd41124f	-0.0471366
53	0xbb51d850	-0.0032019801
54	0x3c029670	0.007970437
55	0x3ca87b97	0.020566745
56	0x3d45da5e	0.048303954
57	0x3c7ac941	0.015306772
58	0x3ce4fdbe	0.027953025
59	0x3cbd4172	0.023102496
60	0xbcc6ba2a	-0.024258692
61	0xbc50e3bf	-0.012749611
62	0xbcabe5fa	-0.020983685
63	0xc002e71a	-2.0453553
64	0xc0fef6ba	-7.967618
65	0xc0ee6775	-7.450129
66	0xbc9b0ca6	-0.01892693
67	0xbf35bce0	-0.70991325
68	0xbc9b8fec	-0.018989526
69	0x3b989247	0.0046561095
70	0xbcac6fcf	-0.021049408
71	0x3fe77e33	1.8085388
72	0x3c3dabfe	0.011576651
73	0x3c87d753	0.016582167
74	0xc0c7db07	-6.2454867
75	0xb9e23110	-0.00043142634
76	0x3a1eaece	0.00060532696
77	0xc0226710	-2.5375404
78	0x3a94d0a8	0.0011353688
79	0xbcb0a403	-0.021562582
80	0x39ebb2ef	0.0004495601
81	0x3cfdd15c	0.03098362
82	0x3a70b345	0.00091819867
83	0xbc5dfa3c	-0.01354843
84	0xc0e956b5	-7.2918344
85	0x3cb80e5d	0.022467786
86	0xbd8c92bb	-0.06863924
87	0xbe61b4d0	-0.2204163
88	0xbc004e73	-0.007831204
89	0xbcb02588	-0.021502271
90	0x3b7e8ccc	0.0038841246
91	0xc1061f19	-8.382592
92	0xbc503b41	-0.01270944
93	0xbcf6454d	-0.030062342
94	0x39db6655	0.00041847178
95	0x3bbdcb08	0.0057920255
96	0x3c866e67	0.016410066
97	0x3d22e9c3	0.039773714
98	0x3cfe3f2c	0.031035982
99	0x3caf9327	0.021432472
100	0x3c4f85c3	0.012666169
101	0xbcede9f5	-0.029042223
102	0x3cca3cdd	0.024687225
103	0xbc978e1d	-0.018500382
104	0x3b2b52e5	0.0026141938
105	0xbcd77bb4	-0.026304103
106	0xbc925bb5	-0.017865995
107	0xbca6336e	-0.020288195
108	0x3f9044a5	1.1270949
109	0xbcf97aa9	-0.030453997
110	0x3c39e684	0.011346463
111	0x3cfbc80f	0.030735044
112	0xbc7aa26e	-0.015297515
113	0x3d2cabae	0.042155914
114	0xbc4a96f8	-0.012365095
115	0xbcd6273a	-0.026141752
116	0x3ca4faa7	0.020139052
117	0x3d44d437	0.048053946
118	0x3a582e70	0.0008246666
119	0xbcda54ff	-0.026651857
120	0xbe5a1aed	-0.21299334
121	0xbc063c7e	-0.008193133
122	0xbed0ca44	-0.40779316
123	0xbc96fdd7	-0.018431587
124	0x3da667eb	0.081252895
125	0x3c80bae0	0.015714109
126	0xc100f1e3	-8.059054
127	0x3cc79fc4	0.024368174
128	0xbe76c2ad	-0.240977
129	0xbd01dd6b	-0.0317053
130	0xbc656828	-0.014001884
131	0x3b2a86ff	0.0026020405
132	0x3b166e58	0.0022953954
133	0xbf29e234	-0.66360784
134	0xbb10dc16	-0.0022103838
135	0x3bdd0e77	0.006746109
136	0x3bd499c9	0.006488059
137	0x3cfc18b8	0.030773506
138	0xbe9662d7	-0.29372284
139	0x3bd14ec0	0.0063875616
140	0xbf84d5fc	-1.0377803
141	0xc05ec293	-3.4806259
142	0xbcb95991	-0.022625716
143	0x3f63dcb7	0.8900866
144	0xbc252c7a	-0.010081405
145	0x3cc2c13b	0.02377378
146	0xbbacfd7d	-0.0052792416
147	0xbc153f72	-0.009109365
148	0xc00741fc	-2.1134024
149	0x3ca6ddad	0.020369375
150	0x3c77f83d	0.015134868
151	0x3a0570ed	0.00050903746
152	0xbd06bfda	-0.032897808
153	0x3c62e74a	0.013849089
154	0xbc1bf0e2	-0.00951788
155	0xbce90ba1	-0.028447928
156	0x3caae292	0.02085999
157	0x3c7f9713	0.015599984
158	0x3c7f37c4	0.01557726
159	0x3c3d2196	0.011543652
160	0x3cef3031	0.029197784
161	0xbcc0c0e9	-0.023529487
162	0xbebee373	-0.37282905
163	0x3c39f24f	0.011349275
164	0x3c9c176e	0.01905414
165	0x3ac73e22	0.0015201012
166	0x3b952518	0.004551541
167	0x3c7d19e0	0.015448064
168	0xbc7a2f0a	-0.015270004
169	0xbbc6d2f1	-0.0060676266
170	0xbce5f533	-0.028071022
171	0xbb173fc9	-0.002307879
172	0xbcb28613	-0.021792447
173	0xbc84865c	-0.016177349
174	0xbcf8306d	-0.030296529
175	0x3bdd577e	0.0067548146
176	0x3bf22141	0.007389218
177	0x3b2903d8	0.0025789645
178	0x3b4382db	0.0029832635
179	0xbca46c9f	-0.020071326
180	0xbddd635e	-0.108099684
181	0xbbc7197c	-0.006076036
182	0xbe306c14	-0.17228729
183	0x3c906e98	0.01763086
184	0x3b06801b	0.0020523134
185	0xbc8f49d8	-0.017491266
186	0xbdc6fcdb	-0.09716197
187	0xc0a7db85	-5.245547
188	0x3c5b42ca	0.013382623
189	0xbd01e2ed	-0.031710554
190	0xbedcbf61	-0.4311476
191	0xbc268888	-0.0101643875
192	0xbc4afbb9	-0.012389117
193	0xbcb3b242	-0.021935586
194	0xbccafb5d	-0.024778062
195	0x3af1c45c	0.001844536
196	0xbc8739fb	-0.01650714
197	0xbd3f0c09	-0.046642337
198	0xbeb155b9	-0.34635714
199	0xbca97f80	-0.02069068
200	0xbbacb2af	-0.005270324
201	0xc049b137	-3.1514413
202	0xc05ce436	-3.451429
203	0xbb5f1aac	-0.0034042997
204	0x3cc4628f	0.023972778
205	0xbb9fde51	-0.004878797
206	0x3cb7dcdf	0.022444187
207	0x3c831b7b	0.016004315
208	0xbc3629eb	-0.011118392
209	0x3c906bad	0.017629469
210	0xbbde3e98	-0.006782364
211	0xbcf3857c	-0.029726736
212	0x3c9dfd84	0.019285925
213	0xbc353aca	-0.01106138
214	0xc0bbfe0b	-5.874761
215	0xbcd4d0e8	-0.02597852
216	0x3c9135c7	0.017725838
217	0x3b361772	0.002778497
218	0xbec5f2af	-0.38661715
219	0xbe8f72bc	-0.28017223
220	0xbdc56b52	-0.0963961
221	0x3c5ebf84	0.013595466
222	0xbcbb654d	-0.022875452
223	0xba5a899a	-0.0008336544
224	0xbd086130	-0.03329581
225	0xbcd9bceb	-0.02657934
226	0xbc9e4806	-0.019321453
227	0xbc3bd7c3	-0.011465016
228	0xbbeefd71	-0.007293396
229	0x3ccb6024	0.024826117
230	0xbcfeccaf	-0.03110346
231	0x3cb781f9	0.022400843
232	0xbd3cf4c9	-0.046131883
233	0x3c1efe7e	0.00970423
234	0x3c709059	0.014682853
235	0xbe63663d	-0.2220697
236	0xbcbe94d2	-0.023264322
237	0x3ab4793e	0.0013769043
238	0xbc08c9e7	-0.0083489185
239	0xbc3f0c04	-0.01166058
240	0x3c8689f7	0.016423209
241	0xbca24d8d	-0.01981237
242	0x3c08245c	0.00830945
243	0xc0373b23	-2.8629844
244	0xc0f0d333	-7.525781
245	0x3bc9ef01	0.0061625247
246	0x3c130505	0.008973365
247	0xbcf15557	-0.029459639
248	0x3ab33dd2	0.001367504
249	0x3beeb3d5	0.0072846212
250	0x3ce57d36	0.028013807
251	0x3cc05596	0.02347831
252	0xbc41f252	-0.011837559
253	0xbc492bb5	-0.012278487
254	0x3ce15cbf	0.027510045
255	0xbbd65bd1	-0.006541707
