saves/Dobot-v2/her/seed_0/model/actor.pth (torch, 581463 bytes, 6 tensors)

l1.weight f4 [512, 24]
000000 4f 9a 11 ba 52 ab be 3d 41 59 1f be 20 f9 4a be
       -0.0005554305 0.093100205 -0.15561391 -0.19821596
000010 48 32 8f bc 3e 6b 70 3d 2e 1e a3 bd ad 21 17 3e
       -0.01748003 0.058696024 -0.07964741 0.1475894
000020 59 93 ab bc 8d 52 6d 3b da 69 6d bd eb ac 8a bd
       -0.020944284 0.0036212534 -0.057962276 -0.06771263
000030 70 49 83 be d3 b6 fd bd 69 8e 98 bd d3 ac 72 3b
       -0.25641966 -0.123883866 -0.074490376 0.003702928
000040 55 0d 9d 3d 76 91 32 3e ee 26 a5 bd db 56 b5 bd
       0.076685585 0.17438301 -0.08064066 -0.08854457
000050 b0 6d aa 3d 4d 24 74 3e 85 bb 2f bd fc eb 27 3e
       0.083217025 0.23841973 -0.042903442 0.16398615
000060 c5 d0 9a bd 72 d1 88 ba d5 bc 0a 3e af b5 26 be
       -0.07559351 -0.0010438396 0.13548596 -0.16280244
000070 fa ba 3d be 12 67 89 bd 10 72 78 bd 5b 32 6b 3e
       -0.18528357 -0.06709112 -0.060655653 0.22968428
000080 4f 09 2a be 6e 0d 86 bd 36 54 db bd 96 e6 46 be
       -0.16605113 -0.0654553 -0.10709421 -0.19423899
000090 1f f0 20 be da 36 57 3e 8c 36 e7 3d 37 7d 30 3d
       -0.15716599 0.21017018 0.11289701 0.043088164
0000a0 84 e8 21 bc 12 4b 0c be 97 17 1a 3c 6f dd 20 be
       -0.009882096 -0.13700512 0.009405038 -0.1570947
0000b0 d5 91 f2 bd e3 ed f6 bd 47 ee 18 3e 48 67 b2 3d
       -0.118442215 -0.12057092 0.14934646 0.087111056
0000c0 c6 24 98 bc 8c df 53 3d 7c 58 58 3e a2 c8 46 3e
       -0.018572222 0.051726863 0.21127504 0.19412473
0000d0 00 03 15 3e d5 58 cb 3d 35 7b 24 3e b9 e6 54 be
       0.14551926 0.09929053 0.16062625 -0.20791139
0000e0 0e 7a e0 3d c7 fe 2b be bb a6 53 be f2 fd 8b bd
       0.1096078 -0.16796409 -0.20669071 -0.068355456
0000f0 57 3e 93 3d fd 00 5e 3c 7d 76 47 be c1 cb 6d 3d
       0.07189625 0.01355004 -0.19478793 0.058055643
000100 cb 86 a1 3d f0 6a 89 bd 6e ea 05 bd 8d cb dd bc
       0.07887038 -0.0670985 -0.032694273 -0.0270746
000110 8a a5 7c 3d d7 82 3a 3e f1 dd 68 be a5 cd 48 bd
       0.061681308 0.18213974 -0.22740914 -0.049024243
000120 1b ce f8 3d 84 cc 65 3e dc 09 62 3e a6 d5 74 3e
       0.121486865 0.22441298 0.22074074 0.23909625
000130 52 b6 81 3d 06 f4 e0 bd b7 44 fd 3d 69 95 2b be
       0.06333603 -0.10984044 0.12366622 -0.16756214
000140 bf 5f 0a be e7 18 78 3e 94 d7 e8 3d d0 d2 23 be
       -0.13513087 0.2422825 0.11369243 -0.15998387
000150 c9 91 7b bd 47 d5 9b bd 60 0d d3 bd ee 47 47 be
       -0.06141833 -0.07609039 -0.103052855 -0.19461033
000160 8c b8 b6 3c e5 7d 4b be a0 78 bc bb d7 3a 3c 3d
       0.022304796 -0.19872244 -0.0057516843 0.04595455
000170 12 28 ba 3d 7b 36 6e 3c 5c 81 88 be 98 bf 02 be
       0.09089674 0.014539356 -0.26661193 -0.127684
000180 8f ad 26 bd cf 20 2a 3d cf 69 29 be d8 63 0c be
       -0.040692862 0.041535195 -0.16544269 -0.13709962
000190 0b 47 81 3e 6f 6f 13 3e a7 65 1d be ca cb 50 bd
       0.25249514 0.14397977 -0.15370809 -0.0509756
0001a0 21 4d 41 be 21 54 ea bc 64 ce 1d bd 40 9a 2b be
       -0.18877079 -0.028604569 -0.038526908 -0.1675806
0001b0 c0 3e 9a bd 84 3d 7f 3d 48 ae ad bd 73 68 b2 3d
       -0.075315 0.062314525 -0.08480507 0.08711328
0001c0 27 c5 e5 bd d3 b9 70 3e c2 bb 25 3e 43 8c 3c be
       -0.112192445 0.23508386 0.16184905 -0.1841288
0001d0 ea a3 54 bd ea 2e 16 3d 82 f3 18 3c 26 a6 8d 3d
       -0.051914133 0.036665834 0.009335401 0.06916456
0001e0 9d 0d a4 3d 0d 54 48 3c 0f fa cb bd 9d d0 c5 3d
       0.08010409 0.0122270705 -0.09959804 0.096589305
0001f0 55 81 48 be 60 c7 f7 bd 86 4c 51 bd cc a2 cb bd
       -0.19580586 -0.12098575 -0.05109837 -0.099431604
000200 1d 3f 92 bd e4 51 2b be 7c d9 31 bd 5d b8 32 3d
       -0.07140944 -0.16730458 -0.0434203 0.043632854
000210 e2 2b 08 be 85 a1 2b bc 1f a1 15 3e ab e6 ab bc
       -0.1329799 -0.010475521 0.14612244 -0.020984014
000220 19 e5 b9 3b f0 41 90 bc a5 35 29 3d b8 e7 04 3e
       0.0056730625 -0.017609566 0.041310925 0.12979019
000230 12 ff 45 3e cb bd 04 3e 0b 73 46 3e d1 de 71 bc
       0.19335583 0.12963025 0.19379823 -0.014762596
000240 1d c5 3b be d4 57 e1 bd bc a9 00 3e 14 ea 44 3c
       -0.18336911 -0.1100308 0.12564749 0.012018699
000250 c8 1c eb bd 8e 8d 12 be 13 01 36 be d0 6a 30 be
       -0.11480099 -0.14311811 -0.17773847 -0.17228246
000260 77 0b 60 bd a3 46 00 3e 53 03 e2 3d 3b 2c 57 be
       -0.054698434 0.12526946 0.1103579 -0.21012966
000270 f7 02 10 3e 87 f7 15 be 7b e5 f4 bc ab 0f c4 bd
       0.14063631 -0.14645205 -0.029894581 -0.09573301
000280 b5 52 d5 bc 07 a4 dc bc 67 1b 49 be 86 d4 26 be
       -0.026040414 -0.026933683 -0.1963936 -0.16292009
000290 bb 05 9a bc 51 fd 2e bc 79 9c a2 bd ff 6b 83 3d
       -0.01880156 -0.0106805125 -0.07940001 0.06417083
0002a0 0d 39 52 be ad 55 81 bc b8 20 42 3e 62 69 17 be
       -0.20529576 -0.015787924 0.18957794 -0.14786294
0002b0 e5 76 50 3e 1c 76 9e 3d 4e 92 68 be db ea 11 3e
       0.20357855 0.07737371 -0.22712061 0.14249747
0002c0 56 cc 94 bc 53 17 21 be 59 14 35 3e 1f 46 1b be
       -0.018163841 -0.15731554 0.17683543 -0.15163468
0002d0 84 af 0f bd 9c 2c 45 bd ab 90 0c 3e a2 2e 60 3d
       -0.035079494 -0.048138246 0.13727061 0.054731973
0002e0 8c 07 74 3d f4 a5 e6 3c 06 42 0d bd a4 8d 5e bd
       0.05957751 0.028155304 -0.034486793 -0.054334298
0002f0 09 0f 2d be 78 48 38 3e 06 0b 12 3e 81 21 d3 3d
       -0.16900267 0.17996395 0.14262018 0.10309125
000300 b6 6f a4 be 84 c3 ca 3c 4d ae 2a be b1 06 04 be
       -0.3211648 0.024751432 -0.16668053 -0.12893178
000310 8d b8 ca bd d4 e3 9a 3d 01 80 13 be 0c 02 b3 3c
       -0.098984815 0.07562986 -0.14404298 0.021851562
000320 0b c8 68 3c 00 cc fe 3d 24 26 d7 3a ec f1 e6 bd
       0.01420785 0.12441254 0.0016414565 -0.11276612
000330 8f a8 16 be ad 12 28 3e 27 c4 9b bd a1 d9 1a 3e
       -0.14712738 0.16413374 -0.076057725 0.15122081
000340 06 12 a4 3d 81 c1 16 3d 93 17 64 bd ff e1 36 bd
       0.0801125 0.036805633 -0.055686545 -0.04464912
000350 ce 36 78 3c 10 cc 50 bd 10 0c 30 bc a1 f9 02 3d
       0.015149785 -0.05097586 -0.010745063 0.031976346
000360 2b c8 97 be 6a 99 c0 bd 78 67 1e 3e bc 0d 40 be
       -0.29644904 -0.094042614 0.15469158 -0.18755239
000370 c5 d5 03 3c 27 31 5a 3e 9f 34 59 3d 3b f2 53 bd
       0.008046572 0.21307813 0.0530287 -0.05174468
000380 ff 98 2b be c2 14 b5 3d 5b 1a 12 bd c1 55 1e bd
       -0.16757582 0.0884185 -0.035669666 -0.038656
000390 79 bb e8 bd 3c cd 40 bb 04 17 52 ba ae ea 11 3e
       -0.113638826 -0.0029419204 -0.0008014294 0.1424968
0003a0 46 d9 ec 3c 44 c9 4f 3e 0b 8d bf 3d c5 b8 0b be
       0.028912198 0.2029162 0.09353074 -0.13644703
0003b0 35 ab a3 3d e5 dd 07 be 39 3f d7 bd 03 d7 94 3d
       0.079916395 -0.1326824 -0.10510106 0.07267573
0003c0 20 dd 1b 3e 3c 96 3f 3e dd 32 5b bc 5e ab 8d 3b
       0.15221071 0.18709654 -0.013378826 0.004323407
0003d0 85 58 20 3e 04 a8 22 be 7a 20 53 3e 68 71 82 be
       0.15658768 -0.15884405 0.20617858 -0.25477147
0003e0 ce 2d 1a 3d 68 f4 ef bc d8 98 43 be 14 87 90 3d
       0.03764134 -0.029291347 -0.19101274 0.07057014
0003f0 d7 77 4a 3e 9d d5 f4 bd ce 4a 24 be 71 e5 79 bd
       0.19772278 -0.11954806 -0.1604416 -0.061009828

l1.bias f4 [512]
000000 0a f8 b1 3c 5e c5 36 bc 48 6c 91 3d c5 4e d1 bd
       0.02172472 -0.011155454 0.07100731 -0.10220102
000010 d0 7a 51 bd 8a 88 3d 3d 24 70 dc bd 27 5f 50 3e
       -0.051142514 0.046272792 -0.107635766 0.20348798
000020 11 f4 01 bd e9 4a 26 bd af 7a 9b bd b6 07 0b 3e
       -0.0317269 -0.040598784 -0.075917594 0.1357716
000030 6c 9d 63 3e b1 58 7c 3e 7f 89 0f be e4 e4 01 bd
       0.2222802 0.24643208 -0.14017294 -0.031712428
000040 a6 3a 4c bc 7d 7f f1 bd 66 ea 20 be 63 b6 47 3e
       -0.012465155 -0.117918946 -0.15714416 0.19503169
000050 01 02 82 3e 11 4c 37 bd e7 a7 3a 3e fd 10 d0 3b
       0.25392154 -0.044750277 0.18228112 0.0063496814
000060 e7 2f 6e 3e b5 ba c5 bb 16 d1 49 3d b6 af 14 bc
       0.23260461 -0.00603422 0.049271666 -0.009075096
000070 50 1b 1d bd d4 66 41 be 3f e2 21 be 23 d3 4c 3e
       -0.038356125 -0.18886882 -0.15808962 0.20002417
000080 d0 7f 07 3e 2d ea 64 3e fe 05 43 3e 10 8a 25 be
       0.1323235 0.22354956 0.19045255 -0.16165948
000090 cd 97 05 be 76 63 cd 3d d5 a9 00 be 6a cb 45 ba
       -0.13046189 0.10028736 -0.12564786 -0.00075452647
0000a0 b3 32 8a 3d 41 e1 bf bd 60 87 7f 3d fd a5 69 3c
       0.06747951 -0.09369136 0.062384963 0.014260766
0000b0 9c 04 54 bd 5d 95 05 3d f1 4d ea 3c 96 e1 2e be
       -0.05176221 0.032613147 0.028601618 -0.17078242
0000c0 27 f6 0e 3e a2 43 62 3e 25 87 3c be b1 09 50 3d
       0.13961087 0.22096112 -0.18410929 0.050790492
0000d0 af 06 c6 3d 10 49 33 3b fd da 38 bd 51 5a 19 3d
       0.096692435 0.002735678 -0.04513072 0.037439648
0000e0 02 2e 72 3d 67 9d 9b 3d ae 6a a5 3d 9a df 51 3d
       0.059125908 0.075983815 0.08076988 0.051238634
0000f0 d3 54 5c 3d 66 bd 95 bc 9f 05 45 bd 21 14 be 3d
       0.053791832 -0.018278789 -0.048101064 0.09281183
000100 a8 4c 3f 3e 34 fe ba bc 4c 1d 22 be 49 27 07 3d
       0.18681586 -0.022826292 -0.15831488 0.03299645
000110 8d 37 14 be 96 32 be 3d 4c fd 18 3e 94 69 0d be
       -0.14474316 0.09286992 0.14940375 -0.13809806
000120 86 c1 af 3c 76 7b 5c 3e 53 2e da 3d e9 37 78 3e
       0.021454584 0.21531472 0.10653367 0.24240078
000130 32 6e 47 3c 0d 74 ab 3c 79 09 0e be 92 cb e2 bd
       0.012172269 0.02092936 -0.13870801 -0.11073984
000140 de 66 c9 3c 1a 27 61 3e 26 a0 35 3e 37 38 d3 3c
       0.024585184 0.21987572 0.17736873 0.025783641
000150 f5 78 1d 3e bf d5 39 bd 7b c5 43 be 4b 1e 02 3e
       0.15378173 -0.04536986 -0.19118302 0.12706868
000160 f6 45 40 3e cb 89 6f 3e 47 0e 1f be c2 6a 5c bd
       0.18776688 0.23392408 -0.1553279 -0.05381275
000170 f3 09 2a 3e dc 18 4d 3e a8 31 ad 3d 12 9a bd bd
       0.16605358 0.20029014 0.08456737 -0.09257902
000180 47 3e e6 3d 22 19 12 3e 9e e4 0d 3e 86 a4 00 3e
       0.11242347 0.142674 0.13856742 0.1256276
000190 92 96 60 3b 38 f1 62 be 85 33 2f 3e 2b 6d 23 3d
       0.0034269434 -0.2216233 0.17109497 0.039899033
0001a0 4f f7 aa 3d 3a fa a0 3d c9 a7 9d bd d1 47 14 be
       0.083479516 0.07860227 -0.07698018 -0.14480521
0001b0 08 70 06 3e d6 a3 c9 bc 75 f1 46 be df b8 d8 bc
       0.13128674 -0.024614256 -0.19428046 -0.02645534
0001c0 a7 4d 9c 3c 90 9b 18 be bf 7b 25 be 32 13 66 bd
       0.019079996 -0.14903092 -0.16160487 -0.05617065
0001d0 9a a3 2d be 5e 80 1b 3e d5 5d 02 be 78 88 0a 3b
       -0.1695694 0.15185687 -0.12731107 0.002113847
0001e0 b3 dc 00 be 98 32 cb bd 35 8d 41 be 54 1d da 3b
       -0.1258419 -0.09921759 -0.18901522 0.006656328
0001f0 c7 75 37 bd 8d 78 50 3e e8 3a 05 be bb de 1d 3e
       -0.044790056 0.20358486 -0.13010752 0.15416996
000200 4b 62 43 3e ed 2a bb 3d a6 c5 16 3d ed ad f7 bd
       0.19080465 0.09139047 0.036809586 -0.120937206
000210 f6 cc b9 bd 3d 2f b1 bd 81 0b bf 3d 5a 1b 8f 3e
       -0.09072296 -0.08651588 0.09328366 0.27950555
000220 58 fb 58 bd 2c d1 78 3c bf 52 04 3d e7 f6 49 be
       -0.052974075 0.015186589 0.032305475 -0.19723092
000230 e3 d9 03 bd c6 c5 27 be 59 3b 20 be f8 4e 80 3c
       -0.032190215 -0.16384038 -0.1564764 0.015662655
000240 89 b2 0e 3e 69 03 f2 3d e3 5b 9d 3d 63 20 3f 3e
       0.13935293 0.11817057 0.076835416 0.18664698
000250 30 31 9f 3d cb 3d 72 3d 2b 95 25 3e 8f c0 e6 bc
       0.07773054 0.05914096 0.16170184 -0.028167991
000260 64 7b ab 3d 13 c2 0f 3d 90 1d 8f 3d 1a 56 33 be
       0.08373144 0.035097193 0.069880605 -0.17513314
000270 72 99 71 bc d3 46 de 3d f2 77 be 3d 9a f1 47 3d
       -0.014746057 0.108533524 0.093002215 0.048814394
000280 56 01 aa bd 71 bb 46 3e ef aa 93 bc 0d df e2 bd
       -0.08301036 0.1940744 -0.018025843 -0.110777
000290 51 33 07 be 8a 26 a1 3c 63 58 35 be e6 93 17 3e
       -0.1320317 0.019671697 -0.17709498 0.14802513
0002a0 ae 7a 9f 3c 97 88 59 3d 84 e6 5a 3e f0 69 14 3d
       0.019467678 0.053108778 0.21376997 0.036233842
0002b0 99 c6 c5 3c 39 08 42 3e 23 e5 9e 3d 2b 08 0d bc
       0.02414255 0.18948449 0.07758548 -0.008607904
0002c0 e0 d5 4d 3e b2 ff 31 be 97 a3 b3 3d f4 c0 55 3c
       0.20101118 -0.17382696 0.08771437 0.013046492
0002d0 b6 15 87 3b 51 68 9d 3d 02 f9 88 3c 31 25 e9 bd
       0.004122461 0.076859124 0.016720299 -0.11384047
0002e0 9a cb 04 be 47 1f 82 bd 06 a2 1f 3e b6 ff 51 3e
       -0.12968293 -0.06353622 0.15589151 0.20507702
0002f0 04 51 8b bd d2 6c a2 3d f9 94 f4 3d 07 57 58 3e
       -0.06802562 0.07930912 0.11942477 0.21126948
000300 49 ee 00 3e b2 2f 36 3e 44 61 b3 3c 3c 6e 81 3d
       0.12590899 0.17791632 0.021896966 0.06319854
000310 18 11 01 be ca 8f 2e be eb 45 9b 3b ef b8 f8 bd
       -0.12604177 -0.17047039 0.0047385595 -0.12144648
000320 5a 20 84 3d b9 b2 0b 3e 7b 64 19 3e 4b 3f 0d be
       0.06451483 0.13642396 0.14979737 -0.13793676
000330 a7 65 7c 3d 6c 9f 7b 3e 66 f6 83 bb fd a1 11 be
       0.06162038 0.24572533 -0.0040271757 -0.1422195
000340 a4 7f 72 bc a3 23 22 3e 55 04 b1 bd d5 bc 7e bd
       -0.01480094 0.15833907 -0.086434044 -0.062191803
000350 9c f3 2b 3e 98 2e ea 3d bf 58 64 3d ec 94 36 3e
       0.16792148 0.11434668 0.055748697 0.17830247
000360 76 6b 14 be a9 0b 36 3e 75 6e b8 bd 59 99 7f bd
       -0.14494118 0.17777885 -0.09005443 -0.062402103
000370 5a a2 0c 3e f5 19 0b be 56 30 1c be d5 c7 d3 3b
       0.13733807 -0.1358412 -0.15252814 0.006463031
000380 0e 9c 29 3e 62 a8 99 bd c6 d2 2c be 91 87 a3 3d
       0.16563436 -0.075028196 -0.16877279 0.079848416
000390 df 7e 21 3e 86 3a b9 bd e7 a7 ac bd 75 22 02 3e
       0.15771054 -0.090443656 -0.08430462 0.12708457
0003a0 ff a8 e2 3d ba 4d 47 be dd ef cb bc 59 5f 82 3d
       0.1106739 -0.19463244 -0.02489465 0.06365842
0003b0 f1 0d 00 3d bc 61 2d 3e 41 cc ec 3d e3 bf b9 bc
       0.031263296 0.16931814 0.11562396 -0.022674507
0003c0 2f 7b 21 3e 3f ca 37 be f9 0a 6f 3d e9 42 c7 3d
       0.15769647 -0.17948245 0.058360074 0.09729559
0003d0 f4 e8 8c bd 9a 55 13 bd cf 98 37 bd dc f3 c7 bd
       -0.0688037 -0.035970308 -0.044823464 -0.09763309
0003e0 32 91 ab 3c 73 6f 4f 3e 1a b2 0c be 6c b4 13 3d
       0.020943258 0.20257358 -0.13739815 0.036060736
0003f0 07 46 52 3c de 7d e9 bd 4b 37 1c 3e 1d 20 48 be
       0.012834079 -0.114009604 0.15255468 -0.195435

l2.weight f4 [256, 512]
000000 03 6b ad bc 36 37 49 bd c2 97 32 3c 5b a9 c4 bc
       -0.021169191 -0.04912492 0.01090044 -0.024006536
000010 29 32 48 3c 9a db a0 3b 49 11 0a bd 1f 87 82 bd
       0.01221899 0.004908991 -0.03370789 -0.063734286
000020 b6 0b 38 bc b2 05 f4 3c b7 6b a5 3c 24 bb 77 bc
       -0.011233261 0.029787872 0.020192964 -0.015120301
000030 9a ac 8d 3c be 40 62 bb df ef 40 3c df 21 d4 3c
       0.017294217 -0.0034523453 0.01177594 0.025895057
000040 40 34 54 3c 2e 47 03 bb 1f c6 85 3e bb 18 6b bc
       0.0129519105 -0.002003144 0.26127717 -0.014349158
000050 9a 0c f4 bd 66 aa 66 bc fa 9c 4b 3c 87 f0 21 bd
       -0.11916466 -0.014078712 0.012427563 -0.039536025
000060 76 9d 99 bd 53 f1 23 3d cc ba a6 3b 37 c4 87 3e
       -0.075007364 0.040025067 0.005088186 0.26516888
000070 05 3d 4a 3c 32 32 c1 3c 88 27 05 bd dd 33 45 bd
       0.01234365 0.023583505 -0.032508403 -0.048145164
000080 b3 1e 48 bd dc 7c 34 bd 61 e8 61 3c c8 10 5c 3d
       -0.048857402 -0.044064388 0.013788314 0.05372694
000090 b8 73 4b bb d5 18 9a bd 9c 5d 6b 3c 67 c3 3f bc
       -0.0031044316 -0.075242676 0.01436558 -0.011704302
0000a0 09 9c 9a bc 6e e6 3c bd aa d2 9a 3c bb e4 c1 3b
       -0.018873231 -0.046118192 0.01889928 0.0059171594
0000b0 97 df 78 bd bd 01 85 bc 3e de 95 bc 0e 58 f9 bc
       -0.060760107 -0.01623618 -0.01829445 -0.030437496
0000c0 34 c1 61 bd 6b 44 12 bd 39 ab c3 bc d7 16 96 bd
       -0.055115893 -0.03570978 -0.023885356 -0.07328575
0000d0 c1 f5 dc 3b 5f 8f f7 bc be 7e 36 bd b3 d2 9d bc
       0.0067431633 -0.030219732 -0.044554465 -0.019265508
0000e0 96 a2 92 bd 1f 32 c9 3c 2a ef 76 bd dd 04 1c 3e
       -0.07159917 0.024560032 -0.06028668 0.1523623
0000f0 0c 37 33 bc b6 a2 80 3d 98 65 2e bd 62 35 1a bd
       -0.010938417 0.06281035 -0.042577356 -0.037648566
000100 2d 45 51 bd a0 5d 14 3c 86 99 c9 3c b7 ea 61 bd
       -0.05109136 0.009055525 0.024609338 -0.055155482
000110 c1 14 57 bc b2 19 af bc 56 6f 2d 3d ed a5 31 bc
       -0.013127507 -0.021374557 0.042342506 -0.010842782
000120 a3 20 1b bd 13 c9 c8 bc f7 69 8a bd 4c f8 df bc
       -0.03787292 -0.024509942 -0.067584924 -0.027340077
000130 68 8b 81 bd 16 ab db bb c9 07 a1 3e fe ba ab 3c
       -0.06325418 -0.0067037446 0.31451252 0.020963188
000140 78 d0 63 3c f9 32 a0 3b c1 fe 97 bc ec 35 f5 bd
       0.013904683 0.004888889 -0.018554093 -0.119731754
000150 21 f3 3e 3c 46 58 15 bd c3 c0 31 bd 71 bc 15 3e
       0.011654646 -0.036461137 -0.043396723 0.14622666
000160 80 a6 17 3d b2 fc a1 bb c7 91 12 3d 36 9c c1 bc
       0.03702402 -0.0049434537 0.035783555 -0.023634057
000170 95 77 74 3c a6 4c 17 bd 54 0a e1 be 00 08 7a 3e
       0.014921089 -0.036938332 -0.43953192 0.24417114
000180 1d 5e 79 bc 20 ed d7 3c 68 76 f3 bc 0a 50 93 bd
       -0.015220192 0.026358187 -0.029719546 -0.071930006
000190 75 43 45 3c d7 46 5c 3e ef 93 19 bb 52 aa 70 3d
       0.012040009 0.21511398 -0.0023434123 0.05875618
0001a0 ae 73 88 bd 2d 02 a8 3c bb 84 b6 3b e4 e9 4e 3e
       -0.06662689 0.02050885 0.005570022 0.2020641
0001b0 aa 3a 4a 3c 8d e8 74 3c 53 cf 44 3e f0 2d 49 bd
       0.012343088 0.014948023 0.19219713 -0.049116075
0001c0 3a 94 98 bc 07 0c 98 3c ee 4e 0f bd ae f7 c1 bc
       -0.018625367 0.018560423 -0.034987383 -0.023677673
0001d0 f2 41 0f bd 13 4f 3f bd 0f cc 45 bd 48 7c 4d 38
       -0.034975 -0.04670627 -0.04829031 4.8991555e-05
0001e0 de 96 31 bd 69 5b 1f 3c 93 f6 65 3c 13 af ab bc
       -0.04335677 0.009726384 0.014035839 -0.020957505
0001f0 64 b2 43 bd 3c 51 2e bd 93 46 d1 bc 18 03 38 bd
       -0.04777755 -0.04255794 -0.025546348 -0.044924825
000200 08 b4 42 bc d1 05 2a 3d ab 74 d4 bc d0 2b 3a 3c
       -0.011883743 0.041509453 -0.025934538 0.011362985
000210 52 2e 0e bd fe aa 3f ba f6 00 40 bc 1d 16 b4 bc
       -0.034712143 -0.00073115516 -0.011718979 -0.0219832
000220 ce 2a 40 bd 05 03 6c bd bb 05 84 bd 93 75 83 3e
       -0.04691582 -0.057620067 -0.064464055 0.2567564
000230 d3 b9 dd 3e bf 60 47 3c 8d f3 a6 3c ce 55 61 bd
       0.43305835 0.012169062 0.020379806 -0.05501347
000240 87 3f 4a 3c cf bf 83 3c 5c 07 a9 bc 1d b1 82 bd
       0.012344248 0.016082672 -0.020633392 -0.06381438
000250 a9 d2 c2 bc e8 f1 5e bd f4 8c d7 bd 4e c9 09 3d
       -0.023782091 -0.05442992 -0.105249316 0.033639245
000260 56 00 7b 3c 2e 4e 3f 3b 43 96 ae bb da d1 bb bc
       0.015319904 0.0029190886 -0.005327971 -0.022927213
000270 44 57 62 3e 4a 8c 08 bc aa 1a 4f bd af e0 4e bd
       0.22103602 -0.008334229 -0.05056254 -0.050507244
000280 40 3e 1a 3d 0e b7 88 bd a4 ee 3a bd cd 65 46 3c
       0.037657022 -0.0667554 -0.04563774 0.012109232
000290 15 fe f8 bc f1 4d 99 bc 6c 2f 23 bd 89 61 88 bc
       -0.030394593 -0.018713923 -0.039840147 -0.01664807
0002a0 ac bc 15 3d f9 a6 3b bd 71 0b 69 bb cc 8a f5 3c
       0.036556885 -0.045813534 -0.0035559798 0.02997341
0002b0 e3 79 12 3d 3f 80 34 3c c1 48 2a bd d7 a6 94 3b
       0.03576077 0.011016904 -0.04157329 0.0045364904
0002c0 5b 49 3a 3a 70 18 93 3b 0b 3f 32 3d 36 4d 1a bd
       0.0007106268 0.004488997 0.043517154 -0.03767129
0002d0 5b ce 7a bd c7 25 07 3d 1c 67 23 3c 21 3a 2c bb
       -0.061231952 0.03299501 0.009973314 -0.0026279765
0002e0 b8 ba d6 3c 07 0f 62 bd 47 5d 3b 3c 35 9b b5 bd
       0.026212081 -0.055190112 0.011435813 -0.08867494
0002f0 98 b6 c8 bc 9a 92 d3 3c fa bb 1f bd ed b4 ae bc
       -0.02450113 0.025826741 -0.038997628 -0.021326507
000300 96 a2 fe bc 69 99 36 3b 6f 93 ae bd a2 ff 37 bd
       -0.031083386 0.0027862436 -0.085242145 -0.044921525
000310 b3 7e 48 bd 1f 61 c9 3b 14 be 37 bd 64 49 03 bd
       -0.048948955 0.006145611 -0.044859007 -0.032052413
000320 58 2a 3c bd 5c a3 9e 3c b2 a2 05 be 7a 9b 72 bd
       -0.04593882 0.019365005 -0.13050345 -0.059230305
000330 ea cd 9d bc ca 0d 9a bd 56 6d 8a bc b6 92 b4 3d
       -0.019263227 -0.07522161 -0.016897839 0.088170454
000340 30 22 03 3d 81 8f aa bc 3d 73 8b 3e 52 a9 9f 3a
       0.032015026 -0.020820381 0.27236357 0.0012181199
000350 68 42 6c bc 34 b3 4e bd f3 18 10 bd ea 4f 2d 3d
       -0.014420129 -0.05046387 -0.035180043 0.04231254
000360 11 1d 90 3d 39 ce e8 bc 6e 68 ed bd a1 60 70 bc
       0.07036794 -0.028418647 -0.11592184 -0.014671476
000370 da 26 76 bd 8b 2a 80 3c 46 1f 29 3d 53 bf b1 bb
       -0.060095645 0.015645286 0.04128959 -0.005424419
000380 f7 90 33 bd 0f cf 33 3d 14 cf e9 39 4c a8 d0 bc
       -0.04383942 0.04389864 0.00044595508 -0.025470875
000390 7a 05 64 bd 1c f9 1d 3c 9b 0e e8 b9 f6 cf 87 bd
       -0.055669285 0.009641912 -0.0004426137 -0.06631462
0003a0 49 fb a2 3c 9c f1 02 3c 51 42 43 3d cc 63 be 3c
       0.019895213 0.0079921745 0.047670666 0.023240946
0003b0 43 13 62 3b ce f1 32 bd 35 aa 3f bd 0d 74 98 bb
       0.0034496344 -0.043687634 -0.04679318 -0.004652506
0003c0 34 4c 27 bb f4 ed b0 3e 68 a0 0c bd 78 38 6b bd
       -0.0025527598 0.34556544 -0.034332663 -0.0574269
0003d0 01 f3 fb bc 7f 21 09 3d ee c2 6f 3e 6e 61 97 bc
       -0.030755522 0.03347921 0.23414204 -0.018479075
0003e0 15 07 4c 3e e4 f3 33 bc af 8c bb bb 64 1d 6f bd
       0.19924577 -0.010983441 -0.005723558 -0.05837764
0003f0 4e a6 6b bd a6 f2 8b 3c 3a 2e 38 3c bd e8 ca bc
       -0.057531647 0.017083477 0.01124149 -0.024769181

l2.bias f4 [256]
000000 29 84 59 3c 3b 58 9d 3c f0 02 75 3d 4c bf 5e bd
       0.013276138 0.01920711 0.059817255 -0.054381654
000010 68 9a aa 3c 8a 81 86 3d 10 09 46 bd 84 3a 43 3d
       0.02082558 0.06567676 -0.048348486 0.047663227
000020 38 68 03 3d 05 b7 f5 3c ee d7 00 bd d6 4b 29 b9
       0.032081813 0.029994497 -0.031455927 -0.00016145347
000030 4a 9b 05 3d 80 b4 27 3d a5 52 f7 3c d5 98 56 3d
       0.0326188 0.040943623 0.030190775 0.052391846
000040 12 a5 dc 3c f7 9d eb bc 9e da 9b 3b e0 d9 ac bc
       0.02693418 -0.028761847 0.004756286 -0.021099985
000050 b7 fb 0d 39 eb e5 27 bc 0c c6 d8 bc a2 b3 d2 bc
       0.00013540579 -0.010247688 -0.026461624 -0.025720421
000060 cb e3 d7 bc 9f a5 dd 3c fe b6 14 bd ed a4 e5 bc
       -0.026353737 0.027056513 -0.036307327 -0.028032744
000070 ee 6e c5 3d ab 0a be 3c 62 2a 9f bb ca c7 21 3d
       0.09640299 0.023198446 -0.0048573473 0.039497174
000080 ab 03 21 bd c2 7b e2 3c 72 a4 e8 3c 0a 1e 2d 3c
       -0.03931014 0.027646903 0.028398726 0.010566244
000090 c2 e6 09 3d 7d da 6a 3a 79 05 a5 3c 20 4b 74 3c
       0.033667333 0.0008958949 0.020144211 0.014910489
0000a0 04 16 f3 3c 44 d4 16 bc c3 03 49 3c de ac ee 3b
       0.029673584 -0.0092058815 0.012268963 0.007283791
0000b0 26 36 5f bc ed ec 8f 3c b6 d2 5e 3d c1 fe a3 3d
       -0.01362375 0.01756903 0.05440017 0.08007575
0000c0 b1 e6 8d 3c 0e 49 fa bc 08 d4 0b 3c 3f c2 f7 bc
       0.017321916 -0.030552413 0.008534439 -0.030243991
0000d0 33 d7 82 bd 8d a8 8d bc d6 e9 5c 3d 24 09 2a bd
       -0.06388702 -0.017292285 0.05393394 -0.041512623
0000e0 10 e9 e7 bc df b9 38 bd 08 7b ed bb 0d 45 87 3c
       -0.028309375 -0.045099135 -0.0072473325 0.016512418
0000f0 95 38 47 bd 52 69 cd 3c f7 e9 73 3d 06 c4 00 3b
       -0.048637945 0.025074635 0.0595493 0.001964809
000100 67 f2 3d 3b 51 e9 d0 bc 2a 56 f3 bb 75 ae b6 3b
       0.0028983594 -0.025501879 -0.007426043 0.005574996
000110 81 de 97 3b 90 04 76 3c d9 b2 c7 bc a8 b2 6c 3c
       0.004634679 0.015015736 -0.024377273 0.014446892
000120 0f 94 2c 3c 9d 1c a6 bc 41 3a 16 3b 85 b2 f1 3c
       0.010533347 -0.020277316 0.0022922906 0.02950407
000130 c9 88 32 bd b5 5b a3 3d bb ef 6b 3d c6 12 52 ba
       -0.04358748 0.07976476 0.05760167 -0.0008013662
000140 4b 8f f6 bc 58 ad 05 bd 9a dc 15 3c 8f 6b 0b bc
       -0.030097624 -0.032636017 0.009146834 -0.008509531
000150 1c 82 d3 3a fd f6 0d 3d b8 2c 3a 3b 99 49 e9 3c
       0.0016136798 0.034659375 0.0028408002 0.028477477
000160 a9 c7 b4 3c ea 5e 87 3c 3f 52 9d 3c c9 8e 1d 3c
       0.022067862 0.01652475 0.019204257 0.009616562
000170 a1 70 52 bc c9 2a 0d 3d 31 de 8a 3d 64 ec f0 3c
       -0.012844236 0.03446463 0.06780661 0.029409595
000180 df b5 92 3c ee c9 49 3b 5f 48 5a bc e3 d1 de bc
       0.017908989 0.0030790525 -0.013322919 -0.027199691
000190 21 47 cd 3c 6d 91 a7 3b 93 ae 58 bb 81 45 57 bc
       0.025058331 0.0051137717 -0.0033063039 -0.01313913
0001a0 a7 26 59 3c 60 a7 fb bb c2 e2 cd 3c 5e 6d 31 bd
       0.013253844 -0.0076798648 0.02513254 -0.04331719
0001b0 8d 51 6f bc 8b 22 c5 bc 14 a6 f9 ba d2 8b cb 3c
       -0.014606846 -0.024064323 -0.0019046688 0.024846945
0001c0 99 4d 06 bd c7 ff fe 3c 7a 1b a8 3c 92 c8 8f bc
       -0.032788847 0.031127824 0.020520914 -0.017551694
0001d0 33 90 fb 39 b5 71 3d bd 42 d0 62 bc 55 39 c4 3b
       0.00047981887 -0.046251018 -0.013843598 0.00598828
0001e0 4e 7b 9c 3b ca 20 98 3b c1 5b 62 bd 3d 5a f1 3d
       0.0047754413 0.0046425806 -0.055263285 0.1178479
0001f0 2e a1 0b 3d 46 75 2d bc e4 9e b4 3c 59 6b 9e 3c
       0.03408926 -0.010587042 0.022048421 0.019338297
000200 08 56 22 3d d7 c5 0a bd 2e bd 95 3c f8 56 ca 3c
       0.039632827 -0.03388008 0.018278684 0.024699673
000210 67 0d 10 bd 9f 4f ac 3c d4 f5 45 bd b4 30 be 3a
       -0.03516903 0.02103406 -0.048330143 0.0014510364
000220 9d 0d 84 3c 38 10 99 bb e8 6c e7 3b a7 b8 83 3d
       0.016119773 -0.004671123 0.007062543 0.06431704
000230 48 e1 01 bd 14 c0 06 3d 9a 99 9f bc 7e 35 ba bc
       -0.031708986 0.032898024 -0.019482423 -0.022730585
000240 9d 96 30 bd ca 2f 1d bd b9 59 36 bd 25 3b 66 3d
       -0.043112386 -0.038375653 -0.04451916 0.05620875
000250 82 80 01 bd e3 dd e1 3c da 5c 79 bd 5d a0 43 3d
       -0.031616695 0.027571624 -0.060879566 0.047760356
000260 9c 1f 02 bd 5e 75 87 3c fe 3c 67 bd 8f c0 cd 3a
       -0.031768426 0.016535457 -0.05645465 0.0015697646
000270 9e 75 b3 bc a3 a1 96 bc ea f4 98 3c 84 2f b0 bc
       -0.02190667 -0.018387621 0.018671472 -0.021507032
000280 35 bc 97 bc 78 a4 aa 3c ea 4e 96 3c 2e f4 d2 3c
       -0.018522361 0.020830378 0.018348176 0.0257512
000290 2a e0 17 3c 38 a2 eb 3c db 82 11 bd 9c a3 22 bd
       0.0092697535 0.028763875 -0.035525184 -0.03970681
0002a0 60 61 ae 3d e2 15 e9 3c bb d1 4b 3d f1 31 f3 3c
       0.085146666 0.028452817 0.04976056 0.0296869
0002b0 a8 3c 48 bd b3 4f 44 bc 83 45 f4 3c 1e 32 91 3c
       -0.04888597 -0.011981892 0.029818302 0.017724093
0002c0 15 f0 31 bd 50 a2 19 3d 4a 05 86 3c 0b 40 a5 3b
       -0.04344185 0.03750831 0.016359944 0.005043035
0002d0 93 5e 5d 3d 46 76 9f 3c 5e 35 dd bc 0b 84 fe bb
       0.05404527 0.019465577 -0.027002987 -0.0077672056
0002e0 07 fd a4 bc 28 6b 0c 3d 84 ec e6 3c 7b 90 97 bc
       -0.020140184 0.03428188 0.028188951 -0.01850151
0002f0 46 57 f9 3c 11 dd a2 bc 6d 48 f0 3c f3 da b4 3c
       0.030437123 -0.019880803 0.02933141 0.02207706
000300 7c 3e 97 3c a3 c3 00 3d 7f e2 67 bc 47 1b df 3c
       0.018462412 0.031436574 -0.014153122 0.027234687
000310 06 b2 cb 3c af a7 0a 3d 94 8b ee bb 1b ca 49 bd
       0.024865162 0.03385132 -0.0072798226 -0.04926501
000320 b5 0b 45 bd 53 2b 0b bd ed c2 70 3c 7d 02 6f bc
       -0.048106868 -0.033976864 0.014694911 -0.014587996
000330 aa 31 ac 3c 7f 55 94 bd 9d 58 20 bd 27 98 42 3b
       0.021019775 -0.072428696 -0.03914701 0.002969274
000340 6d b5 0b bd cf 71 d9 3c 8f b1 d4 bc 38 c7 bd 3c
       -0.034108568 0.026543526 -0.025963573 0.023166284
000350 50 69 40 bc c8 dc 1c 3c d3 c8 f6 3c 39 78 96 bc
       -0.011743858 0.009574123 0.030125057 -0.018367874
000360 a0 75 a1 3d ad d3 e2 bc 2c 89 0a bd d0 59 5c 3c
       0.07883763 -0.027688826 -0.033822224 0.013449147
000370 92 fa e7 bb d7 23 59 3d 78 3d b7 3c e5 cc 82 3d
       -0.007079431 0.053012695 0.022368178 0.06386737
000380 e6 c2 04 3d 8a 71 aa bb 81 29 9a bc 41 ce e1 bc
       0.032412432 -0.005201523 -0.018818619 -0.02756417
000390 4e c1 cf bc 8b 5e b9 3c 5f cf 13 3b 68 d8 62 bd
       -0.02536073 0.02262809 0.0022554023 -0.055382162
0003a0 d2 30 54 bd 5f 88 0a bd a0 a3 af 3d 95 7b 0e bb
       -0.05180437 -0.03382146 0.08576131 -0.002174114
0003b0 45 89 1d bd 7a 60 93 bb b9 93 fa 3c 04 52 77 3c
       -0.03846099 -0.004497585 0.030588018 0.015095238
0003c0 cf 7a 8c 3d 60 c8 c4 bc 8b fb 95 3c 3f a1 02 3c
       0.068593614 -0.024021327 0.018308422 0.007973014
0003d0 0e 81 f3 3c ae 79 78 bc e2 64 9d 3b fa a8 00 3a
       0.029724624 -0.015165729 0.004803286 0.0004907992
0003e0 2d 6b fc 3c 9e 40 14 3c 65 7a bd 3a 0d a4 f1 bc
       0.030812824 0.009048609 0.0014456032 -0.02949717
0003f0 c6 15 02 3d 90 b4 af 3b ab 11 f2 bb 74 67 79 3c
       0.031759046 0.005362101 -0.00738736 0.015222419

l3.weight f4 [3, 256]
000000 3b 74 7e bd 6e a4 6f bd 9e 4b 01 be 7d 5c 62 3c
       -0.062122565 -0.05850642 -0.12626502 0.013815996
000010 b4 05 53 bd 83 07 79 bd ca 6c 45 bd 63 34 09 bd
       -0.05151911 -0.06079818 -0.048199452 -0.033497225
000020 d5 d0 da 3c 65 82 e7 3c 40 8b a8 bb d0 5d 8f 3b
       0.026710907 0.02826042 -0.005143553 0.004375197
000030 f8 c6 3e 3d 1a 45 45 3d d3 2d 5d bd e2 c7 d4 bd
       0.04657647 0.048161604 -0.05399878 -0.10389687
000040 aa f2 0e bd eb c1 53 bc 97 ae 65 bd f7 2b 0a bd
       -0.03489939 -0.012924652 -0.056074705 -0.033733334
000050 16 18 d7 3b 7b 4c 75 bc 48 e4 63 3d b2 90 44 bd
       0.0065641506 -0.014971848 0.055637628 -0.047989555
000060 b8 1d 47 bd 91 97 52 bd 47 16 89 3c 66 af b5 bc
       -0.048612326 -0.051414076 0.016734255 -0.022178363
000070 42 30 bc 3d a8 2f 08 3d 83 9b 1f bd c1 12 23 bb
       0.09188892 0.033248574 -0.038966667 -0.0024883004
000080 62 99 b2 3c 93 1b a0 bd 8b d1 0c 3d ea b3 65 bb
       0.021801654 -0.07817759 0.034379523 -0.0035049864
000090 1d 2f 5c bb 8c 1d 2d bd 68 1f 53 bc 48 1e 0c 3d
       -0.0033597418 -0.042264506 -0.012885906 0.034208566
0000a0 6e 6f ad 3b 92 e7 80 bd f8 c5 2f 3c 94 e0 7e bd
       0.0052928245 -0.062941685 0.010728352 -0.062225893
0000b0 ef dc 1d 3d 9d 0b 8a 3c ee 46 67 3c 62 d2 fc bd
       0.038540777 0.01685124 0.014116032 -0.12344815
0000c0 03 c5 56 3c de 24 52 3d 24 1b be bc 60 35 af bc
       0.013108495 0.05130469 -0.023206301 -0.021387756
0000d0 db 55 5b bd 77 78 c5 bd c2 7d f1 bb b2 27 e5 bd
       -0.053548675 -0.096421175 -0.007369728 -0.11189212
0000e0 bf 56 4b bd 51 60 76 3c a9 fa f2 3c b0 96 15 3d
       -0.049643274 0.015037612 0.02966054 0.03652066
0000f0 ac 44 59 3b 2e 46 17 3d 2f 5e 19 be 3f ed 18 3d
       0.0033152504 0.036932163 -0.14977334 0.03733563
000100 77 7e 0e 3d 20 90 06 bc 1b c7 10 bd 79 86 8a 3c
       0.034788575 -0.008213073 -0.03534613 0.016909825
000110 f9 a4 84 3c 26 0b 2d bd cc 38 16 3d 70 25 1a 3c
       0.016191946 -0.04224696 0.03667526 0.00940834
000120 4a a2 9f 3c 73 d0 30 3d c0 ad e8 3c 17 5f b5 bd
       0.019486565 0.043167543 0.028403163 -0.088560276
000130 ef 3a 80 3d b5 a3 0f be 77 a4 28 be d5 0e 9d bd
       0.06261241 -0.14027293 -0.16468988 -0.076688446
000140 f0 f0 03 3c 9b dc 83 3c 9c 31 51 bd b7 79 3d 3d
       0.008053049 0.016096404 -0.0510727 0.046258654
000150 d2 55 27 3c 87 3f 24 bb 43 34 4c 3d c3 04 97 3c
       0.010213332 -0.002506228 0.04985453 0.018434888
000160 70 62 60 bd 28 26 7a 3c 3b cf 85 bd cc 69 45 3d
       -0.054781377 0.015267886 -0.06533667 0.0481966
000170 69 3a d0 bc 44 ad 2b be 99 71 66 bd 28 95 2d bd
       -0.025418477 -0.16765314 -0.05626068 -0.042378575
000180 61 e2 7d bb 53 66 34 3d 10 6a ab bc ab e6 70 3b
       -0.0038739669 0.044042896 -0.020924598 0.0036758583
000190 74 2f 84 bd 40 0a 3d bd 59 f8 61 bd 40 cf c7 bc
       -0.064543635 -0.046152353 -0.055168483 -0.024390817
0001a0 04 56 3a 3d 18 94 69 3d ae 54 c5 bc f0 b6 b7 bc
       0.045492187 0.057026 -0.02408823 -0.022426099
0001b0 cc d7 1e bd 4a 0c ca 3c 08 6c c0 3c 38 eb a7 3a
       -0.03878002 0.024664063 0.023489013 0.001281119
0001c0 e4 95 34 bc ef fb 16 bc 79 0e 24 3d 32 5a 10 3d
       -0.011022065 -0.009215339 0.040052865 0.035242267
0001d0 e6 94 84 3c 34 44 57 bd b3 57 b3 bc 6b 29 56 bd
       0.016184282 -0.052555278 -0.021892404 -0.052285593
0001e0 37 12 65 bd 3a c7 30 3d aa a8 79 3b bc 3d 1b be
       -0.055925574 0.043158747 0.0038094916 -0.15160269
0001f0 4a 64 08 3c 65 d4 27 3d cc 67 4a bd 26 ea 5e 3c
       0.008324692 0.04097404 -0.049415395 0.01360563
000200 8c aa e5 3c 57 71 ed bb 1e 12 ad 3c 22 d4 01 3d
       0.028035425 -0.007246177 0.021126803 0.031696446
000210 f9 92 30 3d a6 46 00 3d 32 68 eb 3c 03 35 97 3a
       0.043108914 0.031317376 0.028736208 0.0011536184
000220 63 68 bb bd 84 19 73 3b 0b c0 ba 3c cd 8c e7 bd
       -0.091507696 0.0037094066 0.022796651 -0.113061525
000230 05 54 4f 3d 73 7f 6d 3d 8a 11 b9 3c 43 ed 2a 3d
       0.050617237 0.057982873 0.022591371 0.041730177
000240 56 9f d5 3c f5 aa 5d 3c ff a6 03 bd 3e fd b7 3d
       0.026076954 0.013529529 -0.03214168 0.08983849
000250 21 97 50 3c 1d a5 9b bd 79 d4 33 be 1a 0b 94 3d
       0.012731344 -0.07599852 -0.1756152 0.0722868
000260 bd 69 9f bb 66 a8 00 bd a7 83 3b 3d 53 d8 b9 3c
       -0.0048649 -0.031410597 0.04577985 0.02268616
000270 53 f1 ab bc d5 5b 34 bb 79 be f8 3c ec fa 86 bc
       -0.020989096 -0.0027520556 0.030364262 -0.01647707
000280 e8 a9 90 bd 47 2d 51 bd 73 1b 85 bd 15 55 2f bd
       -0.07063657 -0.05106857 -0.06499376 -0.04280575
000290 97 66 99 3b 6e b6 13 bd bc 0e 31 bd a3 3f 11 3d
       0.004681419 -0.03606265 -0.043226942 0.03546108
0002a0 21 05 e0 bd 53 e7 2a bd 1f 20 2c bd 2e 20 4d 3d
       -0.10938478 -0.041724514 -0.04202282 0.050079517
0002b0 8e 09 7a 3c 90 54 d2 3c 8e 77 50 bd 47 ac fe 3c
       0.015261067 0.025675088 -0.050895266 0.031088008
0002c0 b4 4e a2 3c da a6 c6 3d 4a 4f d8 3c af ff 48 bd
       0.01981292 0.09699793 0.026404995 -0.049071964
0002d0 56 5d c5 bd 48 53 47 bd 7a f5 f2 bd e8 c6 36 3d
       -0.09636943 -0.048663408 -0.11863227 0.044623286
0002e0 fc b6 62 bc 15 8d d5 bc cc a9 b9 3c 6e 76 fb bc
       -0.013837572 -0.02606825 0.022663973 -0.03069612
0002f0 cc 15 76 3c df 82 2b 3d 55 9b 3d 3c b9 03 80 bd
       0.015019845 0.041872855 0.011572679 -0.0625071
000300 1e 7d 4c 3d 3c ba e9 bc 10 20 48 bc 85 fe be 3b
       0.04992401 -0.028531186 -0.012214676 0.005828681
000310 27 19 2d bd 46 6f 61 bd 49 4a 8f bc 86 41 2d 3c
       -0.042260315 -0.05503776 -0.017491477 0.010574704
000320 0e 97 d8 3b a8 58 6a bd f9 46 28 bd 64 5f 52 bd
       0.006609804 -0.057213455 -0.04108331 -0.051360503
000330 86 37 de bc 1f 64 59 bc 0c 8e 14 3d 64 4b 09 bd
       -0.027126085 -0.0132685 0.03626828 -0.033519164
000340 46 54 bd bb 58 76 03 3b ef a4 ad 3b e0 7e e4 3c
       -0.0057778684 0.0020059552 0.0052992026 0.02789253
000350 04 ce ee 3c f9 90 d8 3b ba f3 18 3b cd b0 c6 bd
       0.02915097 0.006609079 0.0023338632 -0.09701691
000360 e8 8b 43 3c 82 29 45 3d 29 85 37 bd 3b c0 e5 bd
       0.011935212 0.048135288 -0.044804726 -0.11218306
000370 4c d7 15 3d 8d 9d 1d bc 78 30 79 3d ec 58 85 bd
       0.036582276 -0.009620083 0.06083724 -0.06511101
000380 06 6c 2a 3c ca e9 51 bc 5a b3 88 3c a1 31 8c 3c
       0.010401731 -0.012812087 0.016687084 0.017113509
000390 55 05 55 bd b9 75 e5 bc 5d 71 55 3c f3 b7 b1 bc
       -0.05200704 -0.028010236 0.013027516 -0.02169416
0003a0 e2 b2 5b bc c8 8f a8 3c 13 78 dc bc 88 cb ed 3c
       -0.013409348 0.020576373 -0.026912725 0.029027715
0003b0 a8 1f 14 bc 08 33 d3 bc da dd ba 3c ba a2 0a 3d
       -0.009040751 -0.02578117 0.022810865 0.033846594
0003c0 f4 2c 97 be 80 85 7e 3a 4c 50 bb 3c 26 11 aa bb
       -0.29526484 0.0009709224 0.022865437 -0.0051900325
0003d0 30 53 19 bd f7 01 99 3c c7 5d da bc a4 e7 20 bc
       -0.03743285 0.018677695 -0.026656045 -0.009820852
0003e0 93 27 22 bc bd 88 87 bd 0e 51 82 bd 0e 01 1d 3d
       -0.009897131 -0.06617878 -0.06363116 0.038331084
0003f0 90 42 5d bd d2 bc 0f 3d 6f 9e 6b 3d 08 f4 be 3c
       -0.054018557 0.035092182 0.05752414 0.023309723

l3.bias f4 [3]
000000 7b bd 02 bc a7 ab 86 3d b9 0d 67 bc
       -0.007979746 0.06575709 -0.014102393
