saves/Dobot-v2/mfrs/seed_0/model/actor.pth (torch, 581989 bytes, 6 tensors)

l1.weight f4 [512, 24]
000000 80 fc b6 bd 64 0f 6b be 41 bd 1b bd 03 cb 19 3e
       -0.08934879 -0.2295509 -0.038022283 0.15018849
000010 47 41 5a be 7d a4 09 be 69 b2 8e bd fc 5f fb 3d
       -0.21313964 -0.13441654 -0.06967623 0.12274167
000020 c1 8d 3a be 7b 46 73 3e 07 fd 83 3e 8b b2 92 bd
       -0.18218137 0.23757355 0.25778982 -0.071629606
000030 64 6e 2f be 9f b2 3d be 88 b2 84 3d 0a d0 b5 bd
       -0.17131954 -0.1852517 0.06479365 -0.08877571
000040 78 81 8b bd 7d fe 15 be b3 52 85 3d ef 2a 88 bc
       -0.068118036 -0.14647861 0.06509914 -0.016622035
000050 9a 0f 8a 3e 39 24 1a be 33 a5 68 3e d8 ce e0 3d
       0.26965028 -0.1505288 0.22719269 0.10976952
000060 9f 50 db be 0b de 43 3e 34 fc 31 3e c3 7a 19 3f
       -0.42834947 0.19127671 0.17381364 0.59952945
000070 27 f7 d7 bd 61 f7 db 3d 70 db 88 3f 31 88 e6 3e
       -0.105451874 0.10740543 1.0691967 0.4502578
000080 a6 30 ff 3d 76 ce 29 3f 86 44 08 3f 2e 8e 91 3d
       0.12460451 0.6633066 0.5322956 0.07107197
000090 01 98 db be b8 d8 86 3f 01 49 08 bd e3 b1 e2 bf
       -0.42889407 1.0534887 -0.033272747 -1.7710537
0000a0 b4 d6 b5 3f a5 e2 f1 3e df 45 bf be 37 80 0a 3e
       1.4206147 0.4724323 -0.37357995 0.13525473
0000b0 f7 df 71 3d 66 16 7f bf 6f 98 71 be a7 48 45 3e
       0.05905148 -0.9964355 -0.23593305 0.19265996
0000c0 c2 2e 10 3f a7 76 32 be 7b 66 1d bf cb d3 87 3e
       0.56321347 -0.17428075 -0.614845 0.26528773
0000d0 f2 2c 1c bd 29 6f e5 bd 50 6a c1 3d 79 88 c5 be
       -0.0381288 -0.11202843 0.094441056 -0.38580683
0000e0 69 a7 5b be 6f 85 d4 3d 87 fb 03 be 0d b6 12 bd
       -0.2145058 0.10377013 -0.12888919 -0.03581815
0000f0 fd 47 d6 be 2f 73 3f be 6c 30 47 3e f0 15 16 bf
       -0.41851798 -0.18696283 0.19452065 -0.58627224
000100 3c 78 36 3e 00 06 c3 bd 0d 65 ce be 8e 15 2e 3e
       0.17819303 -0.09522629 -0.4031147 0.1700041
000110 87 0c cf 3d ae 67 4d bd 20 50 e1 3e 6d 31 ca be
       0.10109811 -0.050147705 0.44006443 -0.39490834
000120 d0 2a 71 bc 51 10 7a be bb ff b7 bd 66 80 a5 3e
       -0.01471968 -0.24420287 -0.089843236 0.32324523
000130 82 73 a1 be 43 11 cd be 5d bb 3b 3f 40 56 83 3e
       -0.31533438 -0.40052232 0.7333277 0.2565174
000140 6b 08 a2 3d 06 fd 15 3d c7 41 8a 3d ba df 9c bd
       0.07911762 0.036618255 0.06750827 -0.0765986
000150 60 d9 9b 3c 5a 39 d2 3d 76 4d 69 3e 01 dd be 3d
       0.01902455 0.10264845 0.22783455 0.09319497
000160 df 9b a9 3e 9f 15 54 3e c4 37 ac be 9c a1 56 bd
       0.33126733 0.20711373 -0.33636296 -0.052400216
000170 03 25 59 3e e4 47 df be 04 3a b6 bd 6d a2 ed bd
       0.21205525 -0.43609536 -0.08897784 -0.11603246
000180 46 34 d8 be cc 34 aa 3e 4d 80 ec 3e c0 46 13 3f
       -0.4222738 0.33243406 0.46191636 0.5752983
000190 19 eb ac be 55 ca 1d bf de c4 45 3f 11 5a 4f bf
       -0.33773115 -0.6163686 0.7725352 -0.80996805
0001a0 74 7f 3d 3e 8c f6 db 3e 9c 81 05 3e e1 0b 9f 3e
       0.18505651 0.42961538 0.13037723 0.3106375
0001b0 2b 1e b3 3c 94 79 e6 3f d9 6e a4 be 78 6f 88 be
       0.021864971 1.8005853 -0.3211582 -0.26647544
0001c0 b5 57 e8 3f 1c 1b 09 bf 7b fa ff 3b c1 9f ce be
       1.8151766 -0.5355699 0.007811842 -0.40356258
0001d0 2e 73 9a be fe a3 d7 be d1 11 ec be 34 44 a5 be
       -0.30166 -0.42117304 -0.46107343 -0.32278597
0001e0 a3 ee b1 bc 5d b3 40 be 52 37 ff bc 3f 2e 03 be
       -0.021720236 -0.18818422 -0.031154308 -0.1281061
0001f0 9a 4f 56 be a9 a0 66 bf 96 d8 2f 3c 26 79 0a 3e
       -0.20928803 -0.900889 0.01073279 0.13522777
000200 c7 c6 e6 bd 54 e8 d4 3d 34 a7 b2 bd d6 e1 44 bd
       -0.112683825 0.103958756 -0.08723298 -0.048066936
000210 fb 18 11 bf a7 d8 2e 3f b3 6b 07 3f 2a 18 99 be
       -0.5667874 0.68299335 0.5289871 -0.29901248
000220 16 c7 34 3f d1 16 39 3e fa b1 cc bd 12 ae 30 3e
       0.7061628 0.1807511 -0.09994884 0.17253903
000230 6a 5f 05 3e b7 7c 8e bc e5 84 d7 3e 31 cb 06 bf
       0.13024679 -0.017393453 0.42093578 -0.52653795
000240 4d 00 92 3d 25 2b 57 be 23 7a 46 3c 07 d8 2b bc
       0.071289636 -0.21012552 0.012114081 -0.010488517
000250 08 f8 af 3e ec 15 c0 bd 3c 81 b6 be 81 9e b4 be
       0.3436892 -0.09379181 -0.35645473 -0.3527718
000260 20 b8 81 be c6 26 0a 3e 55 dc fa 3c 34 f9 06 3e
       -0.2533579 0.13491353 0.03062264 0.13181001
000270 89 33 95 bf 09 2a 8f bf da b1 c3 3e cc 03 03 c0
       -1.1656352 -1.1184703 0.38221627 -2.0471067
000280 a8 53 e2 bf 0b 8c 48 3f bd f0 09 be 9b 96 e5 bd
       -1.768178 0.7833869 -0.1347074 -0.11210366
000290 9c e8 1f 3e 7d 84 a6 be 3a fa b8 3d c5 c7 4b be
       0.15616077 -0.32522956 0.09032102 -0.19900425
0002a0 a7 23 47 3e 6d 5c f1 be 2b 7c 2a bd 24 b8 b4 3c
       0.19447194 -0.47140828 -0.041622322 0.022060461
0002b0 64 d8 49 3d 9b d4 e5 3d aa 36 84 3c 0a c3 8c 3c
       0.04927863 0.11222192 0.016139347 0.017182846
0002c0 53 be be be 0c 04 06 3e 05 32 08 3e 64 86 02 bf
       -0.3725458 0.13087481 0.13300331 -0.50986314
0002d0 9a bd 95 3e e4 47 02 3e 81 d0 b3 3d 06 93 a3 3d
       0.29246217 0.12722737 0.08780003 0.07987027
0002e0 9c 91 9a 3c fd ba d1 3d d9 f1 85 be fa f6 8b 3e
       0.01886826 0.10240743 -0.26161078 0.27336866
0002f0 6f 7a f6 3e ed 01 6c bd dd 49 8d 3e 07 23 08 3f
       0.48140284 -0.057619024 0.27595416 0.5317845
000300 60 d7 5e 3d 5a 34 f2 be 83 09 f1 be 43 27 2f 3e
       0.054404616 -0.47305566 -0.4707757 0.17104821
000310 4e be 64 3d 39 0d 91 3e e8 10 0b 3e 00 1e 0c be
       0.05584555 0.283304 0.13580668 -0.13683319
000320 7c 8b 14 be 6f b6 c2 3e 78 e7 07 3e 83 c1 9c bf
       -0.14506334 0.3802981 0.13271892 -1.2246555
000330 b0 a0 ee 3d 5f af 75 3e 16 7d 52 3d 05 0e 5a 3d
       0.116517425 0.2399268 0.051388822 0.053236026
000340 fa 63 e7 ba 6a 78 f3 3e 03 d5 53 be ce 44 92 3e
       -0.0017653697 0.47552806 -0.20686726 0.2856812
000350 f2 b7 1f 3e 52 69 94 3d 16 be 97 3e 79 ea e5 3e
       0.15597513 0.07246651 0.29637212 0.4490545
000360 ad 87 b5 bd 16 31 fc be 67 90 73 be 81 0e b0 bd
       -0.08863769 -0.492562 -0.23785554 -0.085965164
000370 77 2c 81 3e d9 28 9a 3e cd 0f e2 be a2 22 6c 3d
       0.25229236 0.3010929 -0.4415268 0.057650216
000380 c8 dd 58 be 62 4a 4c be 71 41 62 3e 01 e5 a9 c0
       -0.21178353 -0.1995025 0.22095276 -5.3092046
000390 d0 28 24 bf fc 71 89 3e 56 ef 24 be 66 dd 80 bf
       -0.64124775 0.26844776 -0.16106924 -1.0067565
0003a0 15 9e 56 3f 28 51 19 3e f1 b0 a5 3e 8a e0 25 3e
       0.83834964 0.14972365 0.32361558 0.16198936
0003b0 bb f8 0c 3f c8 80 7e 3c f0 cf 83 3e d1 03 17 3f
       0.5506703 0.0155336335 0.2574458 0.589902
0003c0 9f bd e5 be fa 17 2b be b5 fe 91 be f5 28 aa bd
       -0.44871232 -0.16708365 -0.2851464 -0.08308593
0003d0 2d ff 7f bc 47 fd 07 3e a4 5a 03 be b8 eb 80 3e
       -0.0156248035 0.13280211 -0.12827545 0.2517984
0003e0 07 7e 09 be 88 5d 84 3e 7d 32 e1 3e 5a 30 19 be
       -0.13426982 0.2585261 0.43983832 -0.14959851
0003f0 d6 4b a5 3d 50 92 3f 3e 26 55 af bd d4 b3 0f 3e
       0.08071105 0.18708158 -0.08561163 0.14033443

l1.bias f4 [512]
000000 fb bd 89 3b de 66 28 3e 35 e1 85 be 57 c8 3d be
       0.0042035556 0.1644549 -0.26148382 -0.18533455
000010 c3 4d 58 3e 8f 28 d1 bd 39 31 8d bd 5d 19 e9 bd
       0.21123414 -0.10212814 -0.06894154 -0.11381791
000020 a7 a0 d5 bb 17 0e a7 3c dd f4 e9 bd 5a ce 12 bd
       -0.0065193954 0.02039246 -0.11423657 -0.035841323
000030 c6 2b 4b 3e f3 47 a7 be 60 b4 a5 3c 5a 80 c7 3d
       0.19840917 -0.3267208 0.020227611 0.09741278
000040 03 8a c9 bd 5f 62 31 be d8 79 55 bd 95 fa 9f be
       -0.09840777 -0.17322682 -0.052118152 -0.31245866
000050 5d e9 f1 3c cb 77 9f be 7f c5 74 be d2 75 e9 bd
       0.029530222 -0.31146082 -0.23903464 -0.113994256
000060 10 03 19 be 2d 97 13 bd 90 ca 00 be 0f de c0 bc
       -0.14942575 -0.036032844 -0.12577271 -0.023543386
000070 27 20 1a be 6c 06 36 be d8 b3 80 be 9f 34 16 be
       -0.15051328 -0.17775887 -0.2513721 -0.14668511
000080 17 06 a9 be 38 9f 8c be 41 21 3f be f9 b9 82 3d
       -0.3301246 -0.27465224 -0.18665029 0.06383128
000090 e2 ab e2 be 5a 2d 1f 3c d5 d7 6b 3d 76 83 98 bd
       -0.4427176 0.0097154025 0.05757888 -0.07446949
0000a0 93 43 ea bd e9 d3 2f be 76 06 a4 bb 94 35 61 bd
       -0.1143867 -0.17170681 -0.005005653 -0.054982737
0000b0 f9 d3 18 be df 4c 8c bd 8a 0a 87 be a5 fc 11 3e
       -0.14924611 -0.068505995 -0.26375228 0.14256532
0000c0 fd 49 ca 3c 87 48 38 be 21 05 f9 3d b9 bf 27 be
       0.024693483 -0.17996417 0.121591814 -0.1638173
0000d0 97 3b 02 3d 3b 51 03 3e 51 56 74 be a3 2e 14 bd
       0.03179511 0.12823956 -0.23861052 -0.03617729
0000e0 90 7e 94 3e 8d 9d 91 bb f1 14 2b 3e b4 3f a2 bd
       0.2900281 -0.0044438303 0.16707207 -0.07922307
0000f0 38 ef a8 3b 4b ca 84 3e f9 66 21 be 42 99 c0 3c
       0.00515547 0.25935587 -0.15761937 0.023510579
000100 dd 19 3b be 04 15 d8 3d 43 f3 1b 3e 1c f1 48 3e
       -0.18271585 0.105508834 0.15229516 0.19623226
000110 e6 39 85 bd 09 5d 22 bd d9 63 5f 3e 9e be 80 be
       -0.06505184 -0.039639506 0.21815433 -0.2514543
000120 e0 87 15 be 21 52 f9 bc 7e 20 ce bd 51 83 a3 be
       -0.14602613 -0.03043467 -0.10064791 -0.31936124
000130 97 fe 2f 3d b1 c5 a1 bd 5c 71 16 be ad 45 26 be
       0.042967405 -0.07899035 -0.1469168 -0.16237517
000140 99 4b bb 3d 7b 54 f6 bd 90 0f 3e bd e8 fc d5 3d
       0.091452785 -0.12027832 -0.04640156 0.10448629
000150 51 7c 9e be 55 90 c1 bd 40 e8 a6 bd cb 94 b7 bd
       -0.3095422 -0.09451357 -0.08149767 -0.08963927
000160 ad aa 56 bd e9 ff 08 3d cc 3c b1 bd bf 36 ae bd
       -0.052408863 0.03344718 -0.08654174 -0.08506536
000170 7d 68 3e 3e 2c 07 b2 be 08 18 e6 3d ca 19 55 3e
       0.18594547 -0.34771097 0.11235052 0.20810619
000180 dd 40 e8 bd 60 5f 71 be d4 7a 23 3e 7a a8 c0 3d
       -0.11340497 -0.23571539 0.15964824 0.09407134
000190 22 45 64 bd 1b 3c 4a 3d 0d 4b 94 bd be 56 ae 3c
       -0.055729993 0.049373727 -0.07240877 0.021281596
0001a0 5e 41 18 be 5d 9d 1c 3e 50 3c 91 3d 71 ea 85 be
       -0.14868686 0.15294404 0.07091582 -0.26155427
0001b0 ad 20 ee bd 97 e6 39 3d e0 75 25 3e 06 e7 0d be
       -0.11627326 0.045385923 0.16158247 -0.1385766
0001c0 78 74 38 bc c3 0a 49 3e 94 b3 bd bd af da 7e be
       -0.011258237 0.19633012 -0.092627674 -0.24888109
0001d0 90 50 8c bd bb ce a6 be 4c d2 1a be 4d 0e 38 be
       -0.068513036 -0.32579598 -0.15119284 -0.17974205
0001e0 61 4d a4 3d c9 69 a9 3d 85 93 26 be 3d f3 8e 3c
       0.08022571 0.0827213 -0.16267212 0.01744997
0001f0 cd 63 18 bb 02 05 c1 bc c9 86 aa 3d 8a c4 81 be
       -0.0023252845 -0.023561958 0.083264895 -0.2534526
000200 9a a3 72 be 28 8b 08 3c 43 f5 8f bd 89 fb 05 be
       -0.23695222 0.008333959 -0.07029202 -0.13084234
000210 ed dc 44 3e ce a7 30 be 69 0c ba bd aa 72 e3 bd
       0.19224901 -0.17251512 -0.09084398 -0.11105855
000220 70 9e 08 be 3e fc c3 3d b5 2e 18 be a0 1c 1c be
       -0.13341689 0.09569596 -0.14861567 -0.15245295
000230 3c 94 b5 3e 6a e1 1b be 46 1a 06 be 20 20 17 3e
       0.35464656 -0.15222707 -0.1309596 0.14758348
000240 e2 0c 1f 3e 51 6d 42 bd 62 a8 4c be 79 22 b0 bd
       0.15532258 -0.047467533 -0.19986108 -0.08600325
000250 cd d4 2f bc 68 17 4a bd 9f e6 45 bd d6 f9 04 be
       -0.010731888 -0.04933873 -0.04831564 -0.1298593
000260 5e a4 76 bc 8a 6e 96 be 40 3d 4e 3e 2b 0a f7 bc
       -0.015053837 -0.2938121 0.20140553 -0.030156216
000270 84 0f cf bc d0 64 62 bd d7 93 5e be f6 58 b1 be
       -0.025275953 -0.055271924 -0.21736084 -0.34638184
000280 e6 57 ce bc 6a eb 2b be a7 85 0a be 57 fe a2 be
       -0.025188398 -0.16789022 -0.13527547 -0.3183467
000290 00 b8 81 3e 8f ba 47 3b d3 51 d3 bc db d0 29 be
       0.25335693 0.0030476188 -0.025795853 -0.16583578
0002a0 1c 7c 34 be 39 a7 8f be 41 cc 1b be c5 51 0c 3d
       -0.17625469 -0.28057268 -0.15214635 0.03425767
0002b0 76 f5 f2 bd 77 97 1a 3e 0d d9 60 3d 71 40 d0 bc
       -0.11863224 0.15096842 0.054894496 -0.025421353
0002c0 67 39 8f 3c f9 fa 89 be c9 63 88 be db 4c 31 3e
       0.017483426 -0.2694929 -0.2663863 0.17314474
0002d0 17 9c 94 be 56 b4 5f be 22 28 d3 bd 47 55 c9 3c
       -0.29025337 -0.21846136 -0.10310389 0.024576796
0002e0 5d 5e 41 be ce 8b ba 3d c0 9d d7 bd e4 62 21 be
       -0.18883653 0.09108697 -0.10528135 -0.1576038
0002f0 84 69 72 bb a5 90 9c bd 01 51 44 be 2c 13 99 ba
       -0.0036989162 -0.07644776 -0.19171526 -0.0011678687
000300 73 cb b4 bd 67 46 8d bd 03 02 a4 bd f4 45 d8 bc
       -0.08827867 -0.06898194 -0.08008196 -0.026400544
000310 cc 89 8e be 10 99 4f be 1a ea f9 bd 6b aa 71 3d
       -0.27839506 -0.20273232 -0.122028545 0.059000414
000320 c9 d8 70 bd 8e 13 94 be 82 e2 e4 bc b0 bf 65 3d
       -0.058800492 -0.2892117 -0.027940039 0.05609101
000330 06 88 ff bd 4e fb 81 3e d1 b5 59 be 9c 41 62 3e
       -0.12477116 0.25387043 -0.21260764 0.2209534
000340 14 01 62 bd c4 d8 44 be eb 68 de 3d af 96 f6 bd
       -0.05517681 -0.19223315 0.10859855 -0.12040459
000350 10 70 38 be f4 b6 30 3e d3 b7 95 be 45 fc 03 be
       -0.18011498 0.17257291 -0.2924181 -0.12889202
000360 b6 89 b0 be e0 2f 1d be c8 7c 8c be 44 ff 3b 3e
       -0.34480065 -0.15350294 -0.2743895 0.18359095
000370 1f 8e 0d be c3 d2 3c be 1d b4 f2 bd c5 fc 5a 3c
       -0.13823746 -0.18439774 -0.1185076 0.013365929
000380 2b 96 30 bd 63 06 d6 3e 00 0c 3a be 12 7e 12 be
       -0.04311196 0.41801748 -0.1816864 -0.14305905
000390 cf 7c 82 3d 7b 58 13 bd 46 60 98 be 54 66 5c 3e
       0.063714616 -0.035973053 -0.2976095 0.2152341
0003a0 67 88 25 be da 09 b2 be 49 b7 09 bd 90 07 75 be
       -0.16165315 -0.3477314 -0.03362206 -0.23928666
0003b0 53 d6 61 3e 01 8f da bd 86 cb ab 3c c1 4e 00 bf
       0.22054414 -0.10671807 0.020971071 -0.5012017
0003c0 46 1d 65 bd 2a 31 f5 bd 18 66 01 bc 38 56 98 be
       -0.05593612 -0.11972268 -0.007897876 -0.2975328
0003d0 44 1b 13 bd 02 b8 f2 bd 39 b1 39 be 89 24 0f be
       -0.035914674 -0.11851503 -0.18134011 -0.13978781
0003e0 0a 44 f5 3c 8b fb 2b bd c7 81 86 bd 5e 9c 11 3c
       0.02993967 -0.041987937 -0.06567722 0.0088873785
0003f0 16 d3 0e bd 7f e0 41 be 85 b2 7b 3d 6b b4 33 be
       -0.034869276 -0.18933295 0.061449546 -0.17549293

l2.weight f4 [256, 512]
000000 cf ff 81 3d 72 c0 e9 be 49 eb 1a 3e d1 14 02 3e
       0.0634762 -0.45654637 0.15128817 0.12703253
000010 a0 ba b6 bf fa 3f 10 bf 2b 2c 85 bd aa 05 cb 3d
       -1.4275703 -0.5634762 -0.06502565 0.0991319
000020 d4 42 d0 be 11 b2 8e bd 72 fe 8b 3e 41 f1 82 3f
       -0.40675986 -0.06967557 0.27342564 1.0229875
000030 b9 a9 1d bf 70 22 e2 3e 07 cc 65 bf 6a 51 0b 3f
       -0.615871 0.441669 -0.89764446 0.54421103
000040 fd 89 c3 be 97 0e 91 3d 57 63 7e bd c9 88 55 3e
       -0.38191214 0.07082861 -0.062106457 0.2085296
000050 5b 17 18 bf bc 6c 90 bd 2d b0 35 3e 20 11 a8 3d
       -0.5941064 -0.070519894 0.17742987 0.08206391
000060 ec 93 81 3e 90 2c 32 3d 65 31 17 3e 62 61 8d 3c
       0.25308168 0.04349953 0.14764936 0.01725835
000070 60 0d c9 3b bf 7c ea 3d e1 1c c1 bc 99 90 67 3d
       0.0061356276 0.11449575 -0.02357334 0.056534383
000080 25 07 ba be be 53 17 bf f3 fe 83 be 73 a1 3b be
       -0.36333576 -0.59112155 -0.25780448 -0.18323307
000090 b0 4b 82 be bc ce 9a bf c2 6c df 3c 1d 08 6f be
       -0.2544837 -1.209434 0.02727354 -0.23342939
0000a0 c2 8b 65 bd a8 c4 ce 3d 29 6c 21 be a7 95 17 bd
       -0.056041487 0.10096103 -0.15763916 -0.037007954
0000b0 d4 96 9d bc e5 d6 cd be 8f e9 59 bd 9f 7f 28 bf
       -0.01923696 -0.40203014 -0.053201254 -0.65819734
0000c0 bd 81 9e 3e 20 f7 fe be c6 c1 33 bf 7b 58 26 3e
       0.30958357 -0.49797916 -0.7021755 0.1624469
0000d0 26 66 0d bf 40 a5 59 bf 47 45 a4 3e 5a 88 d3 bd
       -0.5523399 -0.85017776 0.32084104 -0.10328741
0000e0 30 2c d3 3e 36 d6 c7 be e4 7e 1e bf f1 29 42 3d
       0.4124465 -0.39030617 -0.6191237 0.04740328
0000f0 6d 1d 68 3e 0a a6 40 bf 70 72 11 bf 0f dd 3e 3e
       0.22667475 -0.75253356 -0.5681524 0.18639015
000100 c3 36 a6 bf 51 ce 7a bf 54 88 62 be 6c d7 b0 bf
       -1.2985462 -0.97971064 -0.22122318 -1.3815742
000110 ef d5 32 bf c7 9b 20 3d 5b 1c 86 3e 6b df aa 3d
       -0.69857687 0.03921106 0.26193509 0.08343395
000120 40 b6 c5 3b 57 2c 82 bc 0c e9 db bc 1d 36 26 bd
       0.006033689 -0.015890284 -0.026844524 -0.04057895
000130 d6 36 8f bc e2 56 cf 3b 79 b2 98 3e 70 dd 32 bf
       -0.017482203 0.006327496 0.29823664 -0.69869137
000140 13 59 e6 3d 55 bb 53 3e d7 d0 61 3e 01 fd 03 bf
       0.11247458 0.2067693 0.22052322 -0.5155793
000150 66 fb 7d 3f 4b 51 ce bd 87 c3 f7 ba 73 37 b5 be
       0.9921173 -0.10074099 -0.0018902876 -0.35393867
000160 4e a7 83 3f 0e 09 1a 3f ea d9 01 bf 3c 8b 04 be
       1.0285432 0.60170066 -0.50723135 -0.12943739
000170 ae 74 f8 be 70 bd a2 bf c3 6c c3 3e b3 7c 1b be
       -0.4852652 -1.2714062 0.38168916 -0.15184288
000180 80 74 9b ba b8 32 48 bd 02 7f 0d 3d 04 f9 9a 3e
       -0.0011860281 -0.048876494 0.034544952 0.3026811
000190 b3 f7 01 3d 3a a2 00 3e 0a 20 c0 bd 76 e2 44 be
       0.031730365 0.12561885 -0.09381111 -0.19227013
0001a0 31 f7 05 bd 53 a1 d9 3d 35 ed a1 3e de 68 48 be
       -0.032706443 0.10626473 0.31626287 -0.19571254
0001b0 3d 9f b0 bd f3 16 41 bf cf 5e 00 3d b8 ca 9c bc
       -0.08624122 -0.7542564 0.031340417 -0.019139633
0001c0 b4 92 c8 3e 41 f7 fc be 27 8a ae be 12 fd 11 3d
       0.39174426 -0.4940739 -0.34089777 0.035641737
0001d0 e0 46 e4 be 83 cf e9 be fc e5 02 bd 33 cf d4 3b
       -0.44585323 -0.4566613 -0.03195761 0.0064944266
0001e0 95 98 56 bd cd bf 9b 3f 3b 27 3d be c5 5f 8b bf
       -0.052391607 1.2167908 -0.18471996 -1.0888602
0001f0 35 a2 57 bf da 98 90 be b8 b7 af 3e 48 46 0d bf
       -0.84231883 -0.28241616 0.34319854 -0.55185366
000200 d1 f5 de bf af ea 28 3f 63 3f 9d 3b 93 56 34 bf
       -1.7418767 0.659831 0.004798816 -0.704446
000210 e4 26 22 be 80 a3 d8 3e b3 ab bf be af ce 02 bf
       -0.15835148 0.4231224 -0.37435684 -0.51096624
000220 82 24 23 3f c4 c3 18 3f ff d0 b3 be a1 44 26 bf
       0.6372758 0.59673715 -0.3512039 -0.6494847
000230 83 c6 0c be ac cc 15 3d e3 1c 47 bf 63 3c 3f bf
       -0.13747601 0.036572143 -0.7777845 -0.7470152
000240 4b 9b e5 bd af 12 3c 3b 89 30 b4 3e 44 97 9a 3e
       -0.112112604 0.002869766 0.3519328 0.30193532
000250 27 6b ce be 5d 7c bd bd db 3f ef be 6b a0 a4 3d
       -0.40316126 -0.09252236 -0.46728405 0.0803841
000260 1f 25 80 3f c2 7c 93 3e 79 20 7a 3e 2b c3 09 be
       1.0011328 0.2880612 0.2442645 -0.13453357
000270 7b bc b0 be 79 f2 92 be 16 ab 3e 3b 96 28 1e 3f
       -0.345188 -0.28700617 0.0029093674 0.6178068
000280 0b 42 04 bf ea f2 6b bf 62 79 c7 be ff 68 1e 3f
       -0.51663274 -0.9216753 -0.38959795 0.6187896
000290 94 be 5f 3d aa ff 20 3e c8 2f 0b 3e 7f c9 b6 b8
       0.05462511 0.15722528 0.13592446 -8.715968e-05
0002a0 ae dd 04 3f a6 a4 7a 3c 8f 7e 18 bf e7 46 2b 3f
       0.51900756 0.015298044 -0.59568113 0.66905063
0002b0 57 b5 2a bd 47 29 9c be ff d8 80 3c 43 42 b4 3e
       -0.041676845 -0.30500242 0.015728472 0.35206804
0002c0 98 54 7a be ad 63 38 be f1 cb 2e bf 24 6a ea be
       -0.24446332 -0.18006773 -0.6827994 -0.45784104
0002d0 c3 27 0a 3f 5d 34 fa 3d a2 dc bb be 7c 45 74 3f
       0.5396692 0.12217019 -0.36691767 0.95418525
0002e0 4b 12 35 3f fd 02 54 bf bb 8b 3d be ae 07 4c 3e
       0.7073104 -0.8281706 -0.18510334 0.19924805
0002f0 91 4a 02 be c4 e6 ae be fe 32 11 3d c8 2d 53 3f
       -0.12723757 -0.34160435 0.03544902 0.8249173
000300 66 a4 43 be fc d9 36 3d 4f 28 19 bf d1 7d 1c be
       -0.19105682 0.04464148 -0.5982713 -0.1528237
000310 c8 13 97 be d1 20 24 3d 9b b8 a1 3e 6d b9 e9 3d
       -0.2950728 0.04007036 0.31586155 0.1141232
000320 e9 a6 2c bd 63 be a7 bf 37 73 52 bc af bd e7 3d
       -0.042151365 -1.3104976 -0.012844852 0.11315476
000330 f3 89 bb bd 94 22 02 bf 78 a5 a2 bf f7 e6 e2 bf
       -0.09157171 -0.5083401 -1.2706747 -1.7726735
000340 b7 a8 52 3c 77 8c b8 3c 0f 94 ef be 9a 57 21 bf
       0.012857608 0.022527916 -0.46792647 -0.63024294
000350 4c 39 a0 be cd 99 e5 3e 2a d5 3d 3f bf 60 09 bf
       -0.31293714 0.44843903 0.7415339 -0.5366325
000360 02 be eb be f2 89 a8 3c 90 28 80 be e7 86 84 bf
       -0.46043402 0.02057359 -0.25030947 -1.0353669
000370 0b 0b 07 3d 8b 15 96 3c 43 94 25 3d c9 88 65 bc
       0.032969516 0.01832082 0.040424597 -0.014009663
000380 7d 2f a5 bd 5f 20 b7 3e 0e ab f6 3e 55 10 17 3c
       -0.08065698 0.35766885 0.4817738 0.009220202
000390 f5 91 85 bc f9 a7 a4 3e a2 01 b6 bf 69 1d e9 be
       -0.01630495 0.32159403 -1.4219248 -0.4553025
0003a0 46 64 b6 bc f1 38 24 3d 28 34 11 bc b5 3e b0 bd
       -0.022264611 0.040093366 -0.008862533 -0.086057104
0003b0 51 a4 0d be a8 ca 9f 3a 9e 4b 1c 3e 94 8d cf 3e
       -0.13832213 0.0012191134 0.1526322 0.40537703
0003c0 16 46 c0 be 94 69 13 3f 07 4e 88 be 1e bd 7d 3e
       -0.3755347 0.57582974 -0.2662203 0.24779174
0003d0 34 2f b6 3e e6 7d 19 be 7b 17 f8 bc e2 2c 80 3c
       0.35582888 -0.14989433 -0.030284634 0.015646402
0003e0 c9 80 d5 bd a4 e0 b1 3e 0c 4f ba 3e de 0a af bd
       -0.104249544 0.347417 0.36388433 -0.085469946
0003f0 f8 2c bf be 2b e9 8d 3d db 63 4f bc 09 da a8 bc
       -0.37338996 0.06929239 -0.012658085 -0.02061178

l2.bias f4 [256]
000000 07 45 8a be 38 b3 08 be fe 70 09 bd 58 95 07 be
       -0.2700579 -0.13349617 -0.033555023 -0.13240564
000010 83 cf 79 bc f5 e5 45 bd 42 20 ab bc 0a e0 8b be
       -0.015247229 -0.048315007 -0.020889405 -0.27319366
000020 7f e1 50 3e 90 72 0f bd 61 c7 1c be 87 db 81 bd
       0.2039852 -0.035021365 -0.15310432 -0.063407
000030 fc 30 7f be 83 2e 7f bd 6d f5 57 3e 59 d3 17 bd
       -0.2492103 -0.062300216 0.21089716 -0.03706679
000040 34 f8 53 bd 6e 54 99 3e df 2a e7 3e ba 21 9e 3e
       -0.051750377 0.29947227 0.45149896 0.30885106
000050 d3 a1 58 3e 5f 71 75 be 52 62 5b be 6c 5e b7 3d
       0.21155481 -0.23969029 -0.21424225 0.089535564
000060 b4 7e 52 bc 75 ae ae bd b3 ad 89 3e 0d 30 7a bd
       -0.012847591 -0.08529369 0.26890334 -0.06108098
000070 4f 7a 74 bd d3 32 26 3c 74 21 29 3d df f9 09 3f
       -0.059686955 0.010143953 0.04129167 0.538969
000080 7e 30 26 3e 37 f1 eb bc 17 1f 42 bd c8 df ea bc
       0.16229436 -0.028801544 -0.04739293 -0.02867116
000090 f5 e0 53 be a9 76 a8 3d 67 26 33 3f 0c 45 8d bd
       -0.20691283 0.08225758 0.6998047 -0.06897935
0000a0 ee 9f 1e bd 0d 00 01 bd 0f de 0c be b7 81 c5 3d
       -0.03872674 -0.03149419 -0.13756584 0.09643882
0000b0 94 18 0c 3e f8 c3 ed bc 49 2e 18 bd 1f b0 1b 3d
       0.13681251 -0.02902411 -0.037153516 0.03800976
0000c0 de 18 5d 3e 85 b0 4a be d3 5a 30 be 1e e3 89 bd
       0.21591517 -0.197939 -0.17222147 -0.06732772
0000d0 1b 71 9b 3e 4d a7 00 be f7 5e 61 be ac ef cc bd
       0.3035973 -0.1256382 -0.22008882 -0.10006651
0000e0 87 09 dd 3e d9 0c 68 ba 77 a2 7b be 79 0a 87 bc
       0.4317133 -0.0008852012 -0.24573694 -0.016484486
0000f0 c0 03 ae 3e ff ac ce 3e e0 bd 35 bd dd 36 64 3e
       0.33987236 0.4036636 -0.044370532 0.22286554
000100 ff 6d 2f bd 95 33 c9 3e 8b 3b 31 3b 46 bf f0 3c
       -0.04282951 0.39297166 0.0027043547 0.029388081
000110 49 ce 13 3e 36 ad 4c 3c 95 1a 1e be 9e 2d b8 3b
       0.1443416 0.012492469 -0.15439828 0.0056206724
000120 eb 41 83 be fd 12 f8 bd 03 de fa be 9f 68 5f 3e
       -0.2563623 -0.12112997 -0.48997506 0.21817254
000130 0c 15 c0 3d 7d 25 8e 3d ce 9d c2 bc ec 30 6b bd
       0.093790144 0.06940744 -0.023756888 -0.057419702
000140 c2 ce 26 be bf 6e 01 bd 8a 41 2e 3e c8 63 f9 bc
       -0.1628981 -0.031599756 0.17017189 -0.030443087
000150 89 a0 9a bd 94 c7 1f be c0 5f 50 3e 85 5c 95 bc
       -0.07550151 -0.15603477 0.20349026 -0.018232593
000160 e1 2b 2f be 65 39 95 3e e4 71 1c be aa 04 60 3c
       -0.17106582 0.2914535 -0.15277821 0.013672987
000170 0d db ef 3e 71 38 b3 3e ce 93 11 bd 8f 2c ff bb
       0.4684681 0.35004 -0.03554135 -0.007787294
000180 61 35 2d bc 82 a9 23 3c 3e 19 55 3e 48 bf 12 3e
       -0.010571809 0.009989144 0.2081041 0.1433078
000190 3a c0 84 bd d8 b3 ef 3c 07 85 1c bd 7b 99 9c bd
       -0.06481977 0.02926056 -0.038212802 -0.076464616
0001a0 00 48 bd 3d 56 91 4d bd e8 c9 8b be 98 21 c6 bd
       0.092422485 -0.05018743 -0.2730248 -0.09674376
0001b0 c4 06 a0 bc 94 f4 11 3f 9e 42 8d 3c d4 6b 2d be
       -0.019534476 0.5701382 0.01724368 -0.16935664
0001c0 3d c6 97 bd 1a b6 e5 bd 56 de 9f 3c ad 6f a9 3e
       -0.07410858 -0.11216374 0.019515198 0.33093014
0001d0 fe 55 68 be f0 77 ad bc 58 92 eb 3b ff 8d b5 bc
       -0.22689053 -0.021175355 0.0071890764 -0.022162436
0001e0 3e 2d 07 3e 33 ed 43 3c 04 9e 70 bb 5f f7 07 3e
       0.13200852 0.011958408 -0.0036715278 0.13277958
0001f0 17 81 91 3e 5c 3c 08 be 9a f7 a0 bc a8 5e 80 bd
       0.284188 -0.13304275 -0.019649316 -0.06268054
000200 2b cf 2f be 71 ba 48 3c b1 38 13 bd e7 64 89 bc
       -0.17168872 0.012251482 -0.035942737 -0.016771747
000210 29 57 23 bd 70 e0 5c 39 9e d9 b4 3b 03 aa 2e 3e
       -0.039878044 0.00021064444 0.005519106 0.17057042
000220 61 7d 6f bb 42 e2 13 be 66 ce db bc 65 25 24 bd
       -0.0036543238 -0.1444178 -0.026831817 -0.040074725
000230 c4 7c 44 3b 73 7c 05 be 53 73 9c 3e 18 ca 25 bd
       0.0029981593 -0.13035755 0.30556735 -0.040475935
000240 b2 a7 73 be b9 89 ac 3d 1b e5 40 3c 3f f4 4c 3e
       -0.2379444 0.08424706 0.011773373 0.20015047
000250 58 f7 82 bd dc ad 44 be a4 dc 2f bd 88 cc 8b 3e
       -0.06394833 -0.19206947 -0.04293503 0.27304482
000260 6c eb f7 3e c3 0a 1a bd 48 9c f9 bc 8b 6d 79 bc
       0.484218 -0.03760792 -0.030470029 -0.015223871
000270 e2 04 44 be b0 56 97 be 2a dc 95 3e 8b 47 87 3c
       -0.19142488 -0.29558325 0.29269534 0.016513607
000280 1d f7 57 bc 5c 92 80 3e 37 26 dc be 24 c5 aa bd
       -0.013181475 0.25111663 -0.42997906 -0.08338383
000290 c4 f9 9d 3e a3 59 cb bc 0f 0a 59 be 68 86 0b 3e
       0.3085462 -0.024823016 -0.21195243 0.1362549
0002a0 67 ce 70 3e 97 2f a6 bc 66 4b 09 bd d4 3b bf bd
       0.23516236 -0.020286364 -0.03351917 -0.09337583
0002b0 42 1e 57 3e 04 ea fb 3d 5c 34 4d 3b ac a3 b1 be
       0.21007636 0.12300494 0.0031311726 -0.34695184
0002c0 da 96 b8 3d c4 bd 36 bd 9c 36 63 bc 86 08 88 3c
       0.09013148 -0.04461457 -0.013868 0.016605627
0002d0 a7 c9 4a be ec b8 58 be 4f 97 3a 3d 94 92 63 3e
       -0.19803487 -0.21164292 0.045554455 0.22223884
0002e0 8f 32 88 bd e8 65 ef 3b 07 46 81 bd 63 1e 2b be
       -0.06650268 0.0073058493 -0.06312185 -0.1671081
0002f0 65 c9 a5 3d e2 45 60 bd 08 2a 40 be 1e 52 39 3e
       0.080950536 -0.054754145 -0.18766034 0.18097731
000300 99 a3 e6 bc b0 14 83 ba 49 24 bc 3e 47 0c e5 be
       -0.028154181 -0.0010000672 0.36746433 -0.4473593
000310 3d c0 31 bc eb 33 b3 3e 6c 90 2e be 7c 3f a5 3d
       -0.010849056 0.35000548 -0.1704728 0.08068749
000320 cf 56 a0 bb 16 36 68 3e 2f fc b0 3e 2a a4 57 bd
       -0.004893161 0.22676882 0.345674 -0.052646793
000330 a2 9e 7d 3e a8 ec d8 bb 6d aa a6 3e 65 aa 0c bc
       0.24767545 -0.0066200085 0.325519 -0.008585547
000340 9f 47 06 3e 20 0d 67 bd f3 d8 d7 3e fc 24 49 3e
       0.13113259 -0.056409 0.42157707 0.19643015
000350 49 c0 5b bd 8e 9a f6 3d 8d ce d1 3e bb 43 03 3f
       -0.053650174 0.12041198 0.40977898 0.51275223
000360 ea ab e3 bc 3b 42 22 bd c0 11 e2 bc 3c 9b 52 3e
       -0.027791936 -0.039613944 -0.027596354 0.2056703
000370 89 5e 5a bd a7 d1 b8 3d 4a 3b a8 3d dc 56 97 bd
       -0.053312812 0.09024363 0.082144335 -0.07389614
000380 a8 5b 85 3b 6d 41 3c bd b5 f8 37 3e f5 0e 1e bd
       0.004069764 -0.045960832 0.17965968 -0.038588483
000390 a3 4d 4c 3c 06 5e 34 be 15 83 d3 3c 84 fd 33 bd
       0.012469682 -0.17613992 0.02581934 -0.043942943
0003a0 fe d6 c1 bd 1b f5 9e bd fb c3 b1 3e 20 66 17 bd
       -0.09464835 -0.07761594 0.34719834 -0.03696263
0003b0 4a 45 66 bd a4 de 21 bd 48 c5 6f 3e aa b5 15 be
       -0.056218423 -0.039518967 0.234151 -0.1462008
0003c0 b4 59 09 3e 1c 44 51 bc ff 44 80 3d 6a 7f 0b 3c
       0.13413125 -0.012772586 0.0626316 0.008514265
0003d0 80 c6 00 be c8 cd 6b 3e ca d8 6c 3c 9d 71 b6 bd
       -0.12575722 0.23027718 0.014455983 -0.08908389
0003e0 c5 27 b2 bc 3f 89 88 bc 14 18 71 bd ee bc bd 39
       -0.02174748 -0.016667007 -0.058860853 0.00036189653
0003f0 4b bc 8f be 10 5e 44 bd 85 5f 25 be 27 70 12 bd
       -0.28073344 -0.047941267 -0.16149719 -0.035751488

l3.weight f4 [3, 256]
000000 1f 18 54 40 5a 13 16 c0 a7 56 19 39 fe 5f 86 bf
       3.3139722 -2.3449311 0.00014623498 -1.0498044
000010 f5 8c c4 3b fa 59 9b 3c 08 14 f9 3b 39 9e 24 be
       0.0059982487 0.018963803 0.007601265 -0.16075982
000020 ff 8f 0b bf d2 bd b2 ba 2c 7f fe 3d 33 f8 b5 3f
       -0.54516596 -0.0013636893 0.124266 1.4216369
000030 3b 34 47 c0 43 03 3c bc ee ff c7 3e ae 1a c2 bc
       -3.112563 -0.011475387 0.39062446 -0.023694362
000040 60 1e 28 3d f5 4b 89 3f cc 8a 2d 3f 55 0c 2e 3d
       0.041044593 1.0726305 0.6778991 0.04249223
000050 f6 61 ef 3e 9a c7 8d 3d 3a 02 81 bf ea 18 d7 bf
       0.46754426 0.069228366 -1.0078804 -1.6804478
000060 bc c7 84 bd 67 86 fc bc 3a 12 96 3f 54 f8 2d c0
       -0.06483409 -0.030825807 1.1724312 -2.7182817
000070 3a c4 0c bc 17 dc 1d c1 b3 19 06 bf 21 78 de 3f
       -0.008591706 -9.866233 -0.52382964 1.738041
000080 d4 a7 88 3f 43 49 b3 3c b0 81 3b 3d f7 ae 87 bd
       1.0676217 0.02188552 0.045777977 -0.06625169
000090 06 a3 99 bf b0 5a 01 c0 55 3e 39 3f d9 7b 00 c0
       -1.2002876 -2.0211601 0.72360736 -2.007559
0000a0 79 4e 2e c0 b1 37 fa bc 3b 5a a7 3f 74 a4 cc be
       -2.7235396 -0.030544134 1.3074411 -0.39969218
0000b0 f0 9f 02 c0 b6 00 49 3d 8c 76 0e bc dc 51 bb c0
       -2.0410118 0.049072944 -0.008695256 -5.8537426
0000c0 b0 80 5e c0 13 31 74 3e 2d 71 96 bf a1 6e a9 bd
       -3.4766045 0.23846845 -1.1753289 -0.08273054
0000d0 24 f8 0c bf 12 09 88 3b 83 ae 04 3f 7d 2a 53 3e
       -0.5506613 0.004151472 0.51828784 0.20621677
0000e0 58 fe f7 3e 7a 64 0a bd 07 ea cc bf 53 b7 95 c0
       0.48436236 -0.03378723 -1.600892 -4.6786284
0000f0 42 49 39 3f 7c 6b 24 3f 67 67 ce bd bd f7 96 bd
       0.7237741 0.6422651 -0.10078316 -0.07371471
000100 9e e7 03 3c e0 78 69 bf 3c ff 73 bc fe 2b 8d c0
       0.008050827 -0.91200066 -0.014892396 -4.41162
000110 f7 80 f5 3f 4b 89 df bb 79 35 1b c0 78 23 ff 3c
       1.9179982 -0.0068217865 -2.4251387 0.031144843
000120 c0 7e f0 3f 2c d2 3a bd 3d 83 42 bf da ae 78 3f
       1.8788681 -0.04561059 -0.75981504 0.971418
000130 c6 1a d3 bf 31 f7 26 bf 8e 47 af be 61 a9 40 3d
       -1.6492546 -0.65220934 -0.3423428 0.047036532
000140 37 55 41 3e 10 f5 8e 3c 9b ac 28 3f ae 60 08 bd
       0.18880163 0.01745084 0.65888375 -0.033295326
000150 43 eb 22 bc 2b d4 88 40 19 bf ee bb 6d 51 b9 bc
       -0.009943786 4.2758994 -0.007285964 -0.022621835
000160 b5 e3 b4 be 8c f8 2f be 9d c1 f5 be d7 5a 5a bc
       -0.35329977 -0.17184657 -0.47999278 -0.013327322
000170 9c 2d b3 3f fb 16 e4 bf 93 49 35 bb 11 75 f3 3c
       1.3998294 -1.7819513 -0.0027662262 0.029718908
000180 be 2d 90 bd 32 95 4d bc 71 31 fb be ba 23 2e 3f
       -0.07039975 -0.012547778 -0.49061158 0.68023264
000190 a7 3f fb bc 94 a5 8e 3e cf f7 8f bc a1 75 11 be
       -0.03067 0.278607 -0.017574219 -0.14205028
0001a0 8d c6 e2 3e 92 f9 ab 3c df 51 74 bf 34 f0 d2 bf
       0.44292107 0.020993028 -0.95437425 -1.6479554
0001b0 5b 95 a8 bd de d8 9c 3f f2 4e 50 40 c3 0f d7 be
       -0.08231612 1.2253683 3.2548184 -0.42004213
0001c0 d8 b1 17 3f 5d 47 9f 3f 2a af b0 3e 4d da 5e 3e
       0.59255743 1.2443653 0.3450864 0.21762963
0001d0 ea d1 f0 3d 82 ae ca 3b 41 95 f3 3b b6 cf 1f bd
       0.11758788 0.0061853537 0.007433564 -0.039016448
0001e0 7e 70 e0 3e c1 33 15 3d d8 ef 2b c0 a2 60 89 3f
       0.43835825 0.03642631 -2.686514 1.0732615
0001f0 07 22 e6 3c d9 e1 87 bf 1e c7 8c bb 89 fd 2d c0
       0.028092397 -1.0615798 -0.0042961976 -2.7185996
000200 b6 fa 98 bf 9b 04 88 3c 36 be 36 bd 62 86 19 3d
       -1.1951511 0.016603759 -0.044614993 0.037481673
000210 ff c3 93 bc ed c5 a8 bc 1b e5 8a 3b e8 7c 17 3e
       -0.018037794 -0.02060219 0.0042387373 0.14793742
000220 79 68 0c bc dc bf 98 3f c2 b5 b4 3f 1e 23 ad bf
       -0.00856983 1.1933551 1.4117968 -1.3526342
000230 7f 38 12 3d 96 40 95 be 21 cf 45 40 06 a6 89 3c
       0.03569841 -0.29150838 3.0907671 0.016802799
000240 ea 38 5e bf 03 15 22 3e c3 d4 d0 3f 8a c8 eb 3c
       -0.86805594 0.15828328 1.631493 0.028782148
000250 3e 5a cc bc df ae ff bf 9b da 8c bc 71 cd 27 3f
       -0.024945375 -1.9975241 -0.017194083 0.65547854
000260 8f ed 12 3f d6 a8 94 bc 9b f4 7b bf 00 d4 92 3c
       0.57393736 -0.018146913 -0.98420113 0.017923355
000270 4e 58 32 c0 f5 34 cd 3f 85 e1 2d bf 93 fb b3 bf
       -2.7866397 1.6031786 -0.6792224 -1.4061149
000280 81 a7 11 3b 3c a5 8e c0 05 1e bb 3e da 76 a7 3c
       0.0022225084 -4.45767 0.3654634 0.020442415
000290 02 3c 2d be 63 dc 68 bd eb 3b 20 c0 86 b1 28 c0
       -0.16917422 -0.056850802 -2.503657 -2.6358352
0002a0 00 03 e2 be 03 8f c8 bc 3d 55 42 bf e0 7c 78 3f
       -0.44142914 -0.024482256 -0.75911313 0.97065544
0002b0 10 bd 51 3f 18 5c 92 3f db 21 0a 3d 6d e2 8c c0
       0.8192911 1.1434355 0.033723693 -4.40264
0002c0 9e 1d 80 be 48 d2 a1 3b 4e 97 48 3d 5e f3 14 40
       -0.25022596 0.0049383976 0.04897242 2.327354
0002d0 a8 2b a1 be d6 e5 c2 3d 11 b7 89 be bc 14 9a 40
       -0.3147862 0.09516494 -0.2689748 4.815031
0002e0 8a 2b c2 bb e3 c5 43 3d 17 d6 3e bd 79 39 5d 3f
       -0.0059256004 0.04779614 -0.04659089 0.8641582
0002f0 1b 28 15 40 67 29 31 3d 25 f1 c3 bf 39 45 52 3f
       2.3305728 0.043252375 -1.5307966 0.82136875
000300 e9 12 8c bc a5 b7 8a bf 78 31 49 3f c8 f8 6d bf
       -0.01709886 -1.0837294 0.7859111 -0.92957735
000310 a9 86 e0 3e 28 d2 45 3f c6 a7 0f be a1 fd cd be
       0.43852738 0.772738 -0.14028844 -0.40232566
000320 d5 f3 65 3d f3 3c e2 3f cf 6e 8b 3f 49 2a cb bc
       0.05614074 1.767485 1.0893191 -0.024800437
000330 5a 03 ba bc 96 f2 d1 3c 47 6a 8f c0 c5 2f 36 ba
       -0.022706676 0.02562837 -4.4817233 -0.0006949867
000340 ab ac ee bf 33 22 fc bc 2e 7e 04 3f 2d a7 37 bf
       -1.8646444 -0.030778026 0.51755035 -0.71739465
000350 66 5c c6 bc df 9d 8d bf 68 63 ec 3f 02 c6 a1 3f
       -0.02421398 -1.1063803 1.8467836 1.2638552
000360 9f b9 a7 bd 2e cb ed bb bd 0a 6d 3d 42 3c 10 40
       -0.08189701 -0.007256887 0.05787157 2.2536778
000370 49 7b dd 3a c0 c9 23 bf 26 33 98 bf dd 2d 1c 3f
       0.0016897704 -0.6397972 -1.1890609 0.6100748
000380 84 4f cf bc ea f7 81 3d 0c e4 36 40 2f 6b 0a bd
       -0.02530647 0.06346114 2.8576689 -0.033793624
000390 e1 06 77 bc 22 f4 fd bf ad 79 16 c0 30 f8 0f bc
       -0.015077324 -1.9840128 -2.3511765 -0.0087872
0003a0 5c bb 24 bf e2 5a 8e 3f c4 10 05 bf 7a ea 78 3d
       -0.6434839 1.1121485 -0.5197871 0.06077049
0003b0 7a db fe 3c 04 f3 19 bc 79 ad 26 c0 94 b8 1c c0
       0.031110514 -0.009396318 -2.604338 -2.4487658
0003c0 3e 75 1d c0 6a 0d a5 3c 95 88 e7 bf f6 e7 11 c1
       -2.460281 0.020147998 -1.8088557 -9.119131
0003d0 2a 0b ef 3e 54 48 b5 bf 05 8f 01 bd 72 44 d8 3c
       0.46688205 -1.4162698 -0.031630535 0.026399825
0003e0 83 35 dd 3e bf c9 9c 3c db 74 d9 bb e4 b7 90 3f
       0.4320489 0.019139169 -0.0066362447 1.1306119
0003f0 83 05 a3 3d e2 5d ce 3c fe fb 8e bf b7 88 3b 3d
       0.07960036 0.025191251 -1.1170652 0.04578468

l3.bias f4 [3]
000000 69 b6 77 3e 65 75 03 bd 8a 81 80 3e
       0.24190678 -0.032094378 0.2509883
