saves/Dobot-v2/mfrs/seed_0/model/critic.pth (torch, 586085 bytes, 5 tensors)

l1.weight f4 [512, 27]
000000 29 a1 ad bf 72 26 2d 3f a5 f9 78 3d 0a f0 af bf
       -1.3564807 0.6763679 0.060784955 -1.3745129
000010 38 83 30 c0 5b 93 6a c0 ce dc f8 3f ab 1a 40 40
       -2.758009 -3.6652439 1.9442384 3.0016277
000020 8d a2 56 3e f6 47 a3 bf f3 0b 95 3f 31 1a 72 3f
       0.20960446 -1.2756336 1.1644272 0.94571215
000030 f6 1f 04 be 69 99 31 bf 01 cf 18 3f d6 a2 9b 3f
       -0.12902817 -0.6937471 0.5969086 1.2159069
000040 aa 20 b2 bf ef 71 f1 be a8 3d 68 bf 90 87 e0 3e
       -1.3916218 -0.47157237 -0.9071908 0.43853426
000050 4b 9a 11 bf 9e 59 f8 3e e6 7c f6 3e d5 49 30 c0
       -0.5687606 0.48505872 0.48142165 -2.7545063
000060 de 08 f2 bc d9 5b 8b bd 61 c3 cb 3b 70 04 54 be
       -0.029545244 -0.06804628 0.0062183593 -0.20704818
000070 56 20 30 bf de d2 a7 bd ea 41 b5 bd d0 92 63 bf
       -0.6879934 -0.081945166 -0.08850463 -0.88895893
000080 47 22 52 be 98 de e9 3e f1 2c bb bf 19 53 44 bf
       -0.20520888 0.45677638 -1.462309 -0.76689297
000090 fc 53 94 3d a7 ed 35 be 7a 03 07 bd 1f da ad bf
       0.07242581 -0.17766438 -0.0329623 -1.358219
0000a0 d4 22 4f be c7 4d b5 3f 7f 59 8f 3f a2 1b 19 c0
       -0.2022813 1.4164361 1.1199187 -2.3923116
0000b0 2a b5 a0 3f 2e 65 41 bf 76 b1 55 3f 2f be 3a 3f
       1.2555287 -0.7554501 0.8347391 0.7294645
0000c0 9d 53 38 be 9b 32 05 3f 20 c5 9a be be 61 68 be
       -0.18000646 0.5203034 -0.3022852 -0.22693536
0000d0 e7 f6 3b 3f 1e c1 36 bf fc a8 23 bd 6d 62 d8 3c
       0.7342362 -0.71388423 -0.039956078 0.02641412
0000e0 ed 9a 3a be 51 6f 36 bc 83 15 d1 bd d7 8e a7 3d
       -0.18223162 -0.011134938 -0.10209181 0.081815414
0000f0 a8 89 bf 3e ca d4 79 3c 67 f8 f5 bc 20 e8 45 3e
       0.3740971 0.015248487 -0.030025674 0.1932683
000100 d3 60 20 3e 9a 82 6f be 67 ed 1b be fb 9a f4 3e
       0.15661936 -0.23389664 -0.1522728 0.4777449
000110 ca d9 e7 3d 29 5a 09 3e af 75 18 3f f8 9c 4c 3d
       0.11320837 0.134133 0.5955457 0.049954385
000120 d4 1c 8b bd a1 a8 99 3d 06 fe 60 3e 2e d6 1e be
       -0.06792608 0.075028665 0.21971902 -0.1551139
000130 9a 02 81 3e 78 ba 43 3e 55 46 97 bc db 73 e2 3c
       0.25197297 0.19114101 -0.018466154 0.027643135
000140 04 b6 93 bd 96 ca 0b bd e5 5b 13 bf 1d 8b 9d be
       -0.07212451 -0.034128748 -0.57562095 -0.30770198
000150 20 ef 32 3e 19 78 07 3e ee c6 83 3d fd 61 71 be
       0.17474031 0.13229407 0.06434427 -0.23572536
000160 02 fa a2 bc fe b3 7f be 54 13 91 3b e9 7e c6 3d
       -0.019894604 -0.24971005 0.004427353 0.09692175
000170 2e 37 46 bf 01 db 0d bd 5b 75 bf 3d 51 71 9e 3e
       -0.7742795 -0.034632687 0.09348556 0.3094583
000180 58 21 b4 3d 73 05 db 3d f8 cc 00 3f 7f 14 ba 3c
       0.08795422 0.10694399 0.5031276 0.022714851
000190 91 ae 78 3e d2 e1 c6 3e ef 32 5c bd fb a5 06 bc
       0.24285342 0.38844162 -0.05375951 -0.008218284
0001a0 e0 26 06 3e 81 18 17 3c 1c 83 b1 3c 2f 5d 11 be
       0.13100767 0.009222151 0.021668963 -0.14195703
0001b0 5f 67 01 bf 66 ec b5 3e 9e 73 1f bf 31 79 8d be
       -0.50548357 0.3553192 -0.6228579 -0.27631524
0001c0 af f3 0d 3e 87 9d 63 3e 43 2d 6b bf 06 44 01 bf
       0.13862489 0.2222806 -0.9186594 -0.5049442
0001d0 77 01 a8 be 44 30 43 be 0d 0b 6b 3e 2b b2 51 bf
       -0.32813618 -0.1906138 0.22953434 -0.8191249
0001e0 a6 ac 5c 3e 32 e5 22 3e 5c 51 3d 3e d0 2f 44 3f
       0.21550235 0.15907744 0.18488067 0.76635456
0001f0 bb 32 9c bf f6 7e d8 3f 4b 81 e7 3d f4 f7 f8 3e
       -1.2202982 1.6913745 0.113039576 0.48626673
000200 9b 75 87 3d cf ba 2a bd 11 1a ed 3e e8 f6 bb be
       0.06614228 -0.04168206 0.4630895 -0.36711812
000210 74 d0 1d bf eb 10 99 3e 4f b8 24 3e 57 c3 74 bd
       -0.616462 0.2989572 0.16085933 -0.059756603
000220 a3 2f 86 be 95 8c 4c bd 70 51 ee 3d ca f4 37 3d
       -0.2620822 -0.049938757 0.11636627 0.044911183
000230 da b5 20 3e dd 7f 71 3d 83 01 9f be 39 bc 20 be
       0.15694371 0.05895983 -0.3105584 -0.15696801
000240 a9 1c 51 3c 73 f8 80 3d 28 15 a6 bd 69 6f c7 bd
       0.012763181 0.06297388 -0.08109504 -0.09738047
000250 1d 61 3a 3f 5f 38 83 3d 02 6a 13 bf 08 9e 8b 3f
       0.72804433 0.06407236 -0.5758363 1.0907602
000260 50 ba 6e be 22 57 f9 bd ff 01 a0 3e 4c fd 4f 3e
       -0.2331326 -0.121748224 0.31251523 0.20311469
000270 d6 b6 b9 bd 2d a9 91 3e a4 b0 c2 bd 6e a6 34 be
       -0.09068076 0.28449383 -0.09506348 -0.17641613
000280 63 32 13 3b b7 15 25 3d 99 ba 65 3d 59 e3 af 3f
       0.0022460453 0.040303912 0.056086157 1.3741256
000290 58 89 02 be f3 01 8f be 2f d8 2a bf 65 4d 05 3f
       -0.12747705 -0.27931175 -0.6673612 0.5207122
0002a0 2f 36 a0 bd 8f 5c e4 3e 45 0d f9 3e ad 75 e2 3d
       -0.07822835 0.44601867 0.48642936 0.11057601
0002b0 96 bb 9c 3e 82 df 9d 3f 8b 4b d4 be 10 c9 4b 40
       0.30611867 1.2333834 -0.41463885 3.184147
0002c0 cb b9 c3 3f 84 3a 1a c0 19 dc c7 40 93 77 32 41
       1.5291075 -2.4098215 6.2456174 11.154193
0002d0 ce 9c c6 bd a4 19 be bd 70 a1 9c bf 0a f6 27 be
       -0.09697877 -0.09282234 -1.2236767 -0.1640245
0002e0 c4 ee 8b be ed 0c 94 bf 19 70 52 bb 09 af f2 ba
       -0.273306 -1.1566445 -0.0032110272 -0.0018515299
0002f0 64 7e 35 3a 1d 93 3b c0 fb d8 3e be 29 03 fc be
       0.0006923436 -2.930854 -0.18637459 -0.4922116
000300 85 f5 b3 3e 29 b2 91 bf 4a 1d f4 bf 50 f9 82 bf
       0.35148254 -1.1382495 -1.9071438 -1.0232334
000310 8f fd 34 3e 58 80 f8 be 4f 40 86 3e fd a7 1b 40
       0.1767485 -0.4853542 0.2622094 2.4321282
000320 41 44 8e 3c 86 bd 99 bf 8d 37 31 40 77 d0 5b be
       0.01736653 -1.2010963 2.7690156 -0.21466242
000330 c5 63 08 c0 a4 5a e8 3f 48 21 91 bf 9e cc d5 bd
       -2.1310894 1.8152661 -1.1338282 -0.10439418
000340 19 c9 5f 3e 4d 37 91 3e a6 49 77 be ee 49 08 bd
       0.21854056 0.28362504 -0.24149188 -0.03327363
000350 93 aa 78 bf 54 e8 07 bd 52 5a 27 be 38 ad 6f 3e
       -0.97135276 -0.03318055 -0.16343048 0.23405921
000360 96 91 07 c0 87 8a 13 c0 53 97 a2 3d 1f 39 77 bf
       -2.1182609 -2.30533 0.07939019 -0.96571535
000370 7e 98 95 bd 53 47 53 3f 39 9c a7 bf ed 45 b2 3f
       -0.07304476 0.8253071 -1.309455 1.392759
000380 c6 f9 6c bf 0d 24 c7 bf 30 92 00 40 ce a6 3e c0
       -0.92568624 -1.5557877 2.0089226 -2.978931
000390 5a 28 3e 3e f9 25 9e 40 7c 6a 59 3f f3 f4 88 3f
       0.1857008 4.9421353 0.8492811 1.0699753
0003a0 f7 d6 59 40 1a bc 28 40 b8 5c 19 3f 41 aa 02 3f
       3.4037454 2.6364808 0.599071 0.51041037
0003b0 97 22 ad 3f 2f c0 9a 3f 55 e0 3e bd f5 c9 9e 3f
       1.3526181 1.20899 -0.04660066 1.2405382
0003c0 58 8a 87 bc 32 78 2b 3d 84 44 cc 3c 01 b7 d8 bf
       -0.01654546 0.041862674 0.024935015 -1.6930848
0003d0 89 db 25 3f d0 ef a1 3e 20 6f f3 be 1b 58 6e bf
       0.6478811 0.31628275 -0.4754572 -0.9310319
0003e0 9c f0 c1 bf 6d 29 57 3f 3e bb 76 c0 75 d4 9e be
       -1.5151553 0.84047586 -3.8551784 -0.31021467
0003f0 6d 1f c7 be 62 96 b1 3f 3e 04 6b 3f 51 d3 a1 bf
       -0.38891163 1.3874018 0.9180335 -1.2642614

l1.bias f4 [512]
000000 b9 60 8b be a7 f4 56 bf 5a 85 35 be a5 04 16 be
       -0.2722223 -0.8396706 -0.17726651 -0.14650209
000010 dc d9 37 bf b5 84 b8 be 42 1b ed 3d a2 df 07 bf
       -0.718168 -0.36038747 0.11577465 -0.5307561
000020 65 21 12 bf d6 05 ff be 0e 98 13 3d 9e 5a 52 bf
       -0.57082206 -0.4980914 0.036033683 -0.8216952
000030 cb 70 b1 be 73 0a a4 bc 7f 0d ed bd 58 5d 6e be
       -0.34656367 -0.020024514 -0.1157484 -0.23277795
000040 4f 14 bc be 28 8c 65 be 08 3f 47 bf bd 15 13 be
       -0.36734244 -0.22416747 -0.77830553 -0.14363761
000050 cd 7f 05 bf df d1 06 bf 9a 05 5e be a3 1e 6e bf
       -0.52148134 -0.5266399 -0.21681824 -0.930155
000060 9e 3c 00 3f 19 41 24 be 1c b4 38 bf d2 9a 0c be
       0.50092494 -0.16040458 -0.72149825 -0.13730934
000070 cd e6 22 bf ed 69 1b be 22 35 a5 be d0 ff 0c bf
       -0.63633424 -0.15177126 -0.322671 -0.5507784
000080 f3 17 33 bf 70 f9 88 be f3 be 1f bd 12 8c 88 bf
       -0.6995842 -0.26752806 -0.039000463 -1.0667746
000090 e0 57 44 be 73 be 59 bf 5c eb be 3e 49 3b 8f be
       -0.19174147 -0.8505623 0.3728894 -0.27974918
0000a0 4f 89 3f be b7 a7 f6 be 8e f4 af be 9b 24 a7 be
       -0.18704723 -0.4817483 -0.34366268 -0.32645115
0000b0 0f 52 77 bd 01 f5 e6 be d2 27 6a bf a6 1e 3e bf
       -0.06038099 -0.45108798 -0.9146701 -0.74265516
0000c0 f0 ba 09 3e 9c d8 50 bf 90 33 11 bf 03 ed 1e bd
       0.13450217 -0.8158052 -0.56719303 -0.03880025
0000d0 4b 88 83 be c5 a6 b2 be 44 30 29 be 83 2a fb bd
       -0.2568992 -0.3489286 -0.16522318 -0.12263968
0000e0 01 d5 10 bf 9a 84 8b be 8e 19 aa be 04 a9 87 be
       -0.5657502 -0.27249604 -0.33222622 -0.26496136
0000f0 d2 49 3d be d9 8c e3 be 85 d4 68 bf 5b 5f 24 bf
       -0.18485191 -0.44443396 -0.9094928 -0.64208
000100 b2 1c 4e 3e 23 80 07 bf 48 84 a2 bd dc 5e c3 3d
       0.20128134 -0.52929896 -0.07935387 0.09539577
000110 bf 86 26 be 4c f3 b7 be dd 11 8e be 67 f2 ab be
       -0.16262339 -0.35927808 -0.27748004 -0.33583376
000120 75 97 cf be 45 d0 84 be 19 1c 07 be 07 8b 8a be
       -0.4054524 -0.25940147 -0.13194312 -0.27059194
000130 5f 13 10 bf b3 16 37 bf 80 ed a7 be b6 34 f6 be
       -0.5627956 -0.7151901 -0.32798386 -0.4808709
000140 88 0b 03 bf 72 45 da be ad ef aa be ac 02 21 bf
       -0.5118947 -0.42631108 -0.33385983 -0.628947
000150 b1 84 0c bf f6 9e 84 be 3e 32 15 3e d8 a1 74 be
       -0.5488997 -0.25902528 0.14569947 -0.23889863
000160 09 af fc be e9 1e 09 bf 45 5a ea be 86 38 ab be
       -0.4935229 -0.5356279 -0.45771995 -0.3344156
000170 1f a3 c8 bd f3 50 b8 be 46 bf 22 bf b0 86 09 3e
       -0.09796738 -0.3599926 -0.6357311 0.13430285
000180 a9 bd 14 3d df 64 2d be c6 d4 84 be fd 19 c8 be
       0.036313687 -0.1693301 -0.25943583 -0.39082327
000190 76 bf 3c bf 93 e0 fa be ee 9c c5 be 85 e4 c5 bd
       -0.73729646 -0.48999462 -0.3859629 -0.09662727
0001a0 59 f5 fa be 13 c5 05 be 3e 46 9a be 32 58 08 bd
       -0.4901531 -0.13063459 -0.30131716 -0.033287235
0001b0 88 ef 6c be 48 07 f2 3c d8 eb 97 be 2f 64 06 bf
       -0.23138249 0.029544488 -0.29672122 -0.5249662
0001c0 b4 ab 55 be be 7c e5 be 6d 2e 2e bf 9e ab 69 be
       -0.20866281 -0.44821733 -0.6803959 -0.22819373
0001d0 3c b6 12 be 05 ba c1 be c3 67 82 be 8e b5 08 be
       -0.1432733 -0.37837234 -0.2546979 -0.13350508
0001e0 aa c2 d6 be 34 a0 67 be f9 9e f9 3d 13 39 27 be
       -0.41945392 -0.22619706 0.12188525 -0.16330366
0001f0 81 42 0a bf a4 76 d0 be 41 cd 26 bf a8 1e 33 bc
       -0.54007727 -0.40715516 -0.6515694 -0.010932602
000200 d5 c8 c2 be 76 91 6b be e7 fc b7 bd 74 bd 87 be
       -0.38043848 -0.23004708 -0.08983784 -0.2651173
000210 60 25 92 bd 65 e4 aa be b4 0e 14 bf a7 61 6e be
       -0.07136035 -0.33377376 -0.57834935 -0.23279439
000220 ef a6 14 be 50 d8 6a bf 67 cf 85 be c2 1e 5b be
       -0.14516805 -0.91736317 -0.26134798 -0.21398452
000230 24 d3 5a be e4 73 38 be 53 bd 18 be 49 7d a9 bd
       -0.21369606 -0.18012959 -0.14915971 -0.08275849
000240 8e eb c2 be 8c 9b f8 bd a4 0f e7 be 1a 04 ba be
       -0.3807034 -0.12139043 -0.4512912 -0.36331254
000250 c0 c9 63 bf c5 00 4e be 38 9f 5d be 43 9b 6c be
       -0.8897972 -0.20117481 -0.21642768 -0.23106103
000260 06 c6 9e be ae 2e 5d be 13 f8 38 bc 8f c6 3a bd
       -0.31010455 -0.21599838 -0.011289614 -0.045599516
000270 84 f3 95 be 73 be 7b bc b1 52 c6 be 8b d2 01 bf
       -0.2928735 -0.015365231 -0.38734964 -0.5071189
000280 6b 5f fc ba 02 e8 05 be b8 7f 5c 3d 5f 9b bf be
       -0.0019254511 -0.13076785 0.05383274 -0.37423226
000290 98 2a fb be be 11 64 be a8 39 2b 3e 19 ed 4c be
       -0.49055934 -0.22272393 0.16721213 -0.2001232
0002a0 36 50 ef be bd a6 24 bf e9 3a 22 bf 5c c2 8a bd
       -0.46740884 -0.6431692 -0.6337114 -0.06775352
0002b0 bf 6f b5 bd 1e 9c 38 be cc 7e 3a be da be 50 be
       -0.088592045 -0.18028304 -0.18212432 -0.20385304
0002c0 c4 5e 55 bf 40 0c 96 be 1f 43 d1 be 87 19 95 be
       -0.83347726 -0.2930622 -0.40871522 -0.29121038
0002d0 23 52 15 be 0f 59 32 bf b6 f1 33 be 52 88 7f bc
       -0.14582114 -0.6966714 -0.17572674 -0.015596466
0002e0 b5 a4 a7 be 4c 52 b8 bd 0b 22 2f be d3 b0 39 be
       -0.3274285 -0.09000072 -0.1710283 -0.1813386
0002f0 22 ca ce 3e 1d 53 72 bd d9 f0 d3 bd a5 f3 cc be
       0.4038859 -0.059161294 -0.103486724 -0.40029636
000300 fb 44 40 bd 21 07 b1 be 3d 57 6d be f9 87 81 be
       -0.046940785 -0.3457575 -0.2317781 -0.2529905
000310 84 91 55 3e 15 a3 1d bf 32 0d 5f bf 85 f1 af be
       0.20856291 -0.6157697 -0.8712951 -0.34363952
000320 07 82 43 be 4a 7d bd bd 24 c9 94 be fe ac 88 be
       -0.1909257 -0.092524126 -0.29059708 -0.26694483
000330 32 02 e5 be ee bb 94 3b 4e e1 1b bf bf ca ee be
       -0.44728237 0.0045390045 -0.6089066 -0.46639058
000340 05 fd 94 be 3d c3 4e bf 07 5f 1f bf 56 53 b2 be
       -0.2909929 -0.8076666 -0.62254375 -0.34829205
000350 ca ca 8b 3c 9c e2 56 bd d9 8f 9b be cf 9f 98 be
       0.01706447 -0.052462205 -0.30383185 -0.29809424
000360 a7 6d b5 be a6 9a 80 be 81 86 64 bd 1e 73 1b bf
       -0.3543522 -0.25117987 -0.055792335 -0.6072253
000370 d8 05 12 bf 68 f5 fe be 8b 31 f8 be 87 35 88 be
       -0.57040167 -0.49796605 -0.48475298 -0.26603338
000380 67 ae 1f bf e2 df 3e be 5c d6 34 be 4a 6e 12 3e
       -0.6237549 -0.18640092 -0.17659897 0.14299884
000390 c6 55 1b bf 19 ae 1e bf c8 5b d5 be ff 7f aa be
       -0.60677755 -0.619844 -0.41671586 -0.33300778
0003a0 4f 86 82 bd 10 45 ef bd ab 31 d8 be a8 2a 85 be
       -0.063732736 -0.116830945 -0.42225394 -0.26009107
0003b0 b3 88 1e bc 6a 10 34 bf 35 23 42 be c7 88 41 3e
       -0.009676146 -0.70337546 -0.18958743 0.18899833
0003c0 df 5e 5d be 6f 56 4a 3d 15 4b 8e be d4 98 02 bf
       -0.21618222 0.049398836 -0.27791658 -0.5101445
0003d0 f3 fd 22 bf d8 14 7f be d6 30 87 bf d7 53 cf be
       -0.63668746 -0.24910295 -1.0561779 -0.40493652
0003e0 d8 91 78 be d9 46 38 bf 09 85 b4 be 28 65 26 3c
       -0.24274385 -0.71983105 -0.35257748 0.0101559535
0003f0 96 01 67 3d 5e 62 87 bd 7d 7a a1 be ec 4e 10 bf
       0.056397997 -0.06610559 -0.31538764 -0.56370425

l2.weight f4 [256, 512]
000000 df 67 0b be 00 c5 0d bf 92 c0 71 bd 3b d1 c0 bc
       -0.13613842 -0.55378723 -0.05902154 -0.023537269
000010 bc bd 51 be 0c 3e 05 3f 47 28 61 bf 85 2d ed be
       -0.20482534 0.520478 -0.87952083 -0.4632379
000020 20 b5 ad 3e 87 ad 13 3e 76 d0 4f 3f fa 48 21 bf
       0.3392725 0.14421664 0.8117746 -0.6300198
000030 36 f7 27 3e 55 86 d8 3d 26 6a 36 be 71 17 69 bc
       0.16402897 0.10572497 -0.1781393 -0.01422678
000040 85 55 3f 3f 99 8d 50 bd 65 ca 60 bf b9 33 36 be
       0.7473987 -0.050916288 -0.8780883 -0.17793168
000050 71 e8 52 3f 01 c4 20 3f 73 c6 06 be 37 ae 65 3e
       0.8238593 0.6279908 -0.1316164 0.22429739
000060 13 21 be 3d d1 92 7b bf 44 ca cb bd 64 06 e2 3d
       0.09283652 -0.982709 -0.099506885 0.11036375
000070 91 14 13 bf 85 5e c9 be 88 8d f0 3e 9b 55 ba bd
       -0.57453257 -0.39329925 0.4698298 -0.09098359
000080 3b e1 3e 3e 4a be 85 be 90 7d 4e bf ff 99 ca bf
       0.18640606 -0.26121742 -0.80660343 -1.5828246
000090 c7 53 6e bf ec 19 e7 be a9 98 b3 3e 5b 00 20 bf
       -0.93096584 -0.45136964 0.35077408 -0.6250054
0000a0 1e 51 dd 3c bb 01 1a bf 42 63 ea be 6f 44 a9 bf
       0.027016219 -0.6015889 -0.45778853 -1.3224009
0000b0 54 d6 0c bd b9 9c de bf 59 b4 20 bf 6e 1c fe bf
       -0.034384087 -1.7391578 -0.6277519 -1.9852426
0000c0 69 4c f6 3e a3 45 1b 3f e9 28 aa 3f 09 b1 18 be
       0.4810517 0.6065313 1.3293735 -0.14911284
0000d0 0e 37 b7 bf 3b 59 d5 3f 02 25 60 3d b4 72 9a 3e
       -1.4313676 1.6667856 0.054722793 0.30165637
0000e0 cf 76 96 bf df 3e f0 3e fd e4 85 bd 37 09 74 be
       -1.1755008 0.46922967 -0.06537817 -0.2383164
0000f0 6f b4 ce bd 6d dd 7f 3e e0 eb bf bf 22 a3 90 3f
       -0.10093009 0.24986811 -1.4993858 1.1299784
000100 b9 4f 8c 3f a1 08 ab 3f 97 0e d7 3e 15 3d 3e 3f
       1.096183 1.3362008 0.4200332 0.74311954
000110 02 a5 e2 be d2 88 46 bf 6f 43 a0 3f 97 06 f0 3e
       -0.44266516 -0.7755252 1.2520579 0.46880028
000120 31 d6 c9 3e d8 12 2b be 9d 00 a7 bd 0f d9 90 bd
       0.39421228 -0.16706407 -0.08154414 -0.07072651
000130 48 e3 a0 bf 31 aa 14 3f 83 1e cc 3d 22 0a f9 be
       -1.2569361 0.5807219 0.09966757 -0.48640543
000140 dd 50 93 3a d0 c6 0a bf 0a 96 17 3f b6 13 46 3d
       0.0011239309 -0.54209614 0.59213316 0.04835864
000150 b7 2b 2a bd da d8 da 3d 55 0a 96 3e 23 f3 f8 3d
       -0.041545596 0.106858924 0.29304758 0.1215575
000160 8c ba 79 3c 3e 84 0c bf 11 c6 4a be 5e 85 9a be
       0.01524223 -0.54889286 -0.19802119 -0.30179876
000170 8e 17 6b bc ba 70 31 be fd 54 06 3f e5 9a 0c 3f
       -0.014348878 -0.17328158 0.5247343 0.5492385
000180 fd c0 e6 3e d8 a8 10 3e 5f d0 2c 3e 79 55 99 3d
       0.45069113 0.14126909 0.16876362 0.07487006
000190 87 2b 80 3d c3 db 0f 3e cd 3c 06 bf b5 6a 1c bf
       0.06258302 0.14048676 -0.52436525 -0.6110032
0001a0 7d 37 8c 3f b3 5f 29 bd f7 91 c2 bd 22 f6 e4 bd
       1.0954434 -0.04135103 -0.09500497 -0.111797586
0001b0 06 68 81 3e 37 40 1e bf ae ad 21 3d de 51 66 3f
       0.25274676 -0.61816734 0.039472274 0.8996867
0001c0 5e c5 cf bc 6c eb e1 3d 0e 9c 3f 3e ed a1 8e 3a
       -0.025362667 0.11031231 0.18711874 0.0010881998
0001d0 fe 14 d7 3e cf c3 52 be ca 02 84 3f 10 7d 0f 3e
       0.42008203 -0.20582508 1.0313351 0.14012551
0001e0 2e 1f b8 bd 6a c4 5c bc d1 f1 90 3e 06 b6 a1 bf
       -0.08990322 -0.013474563 0.2830949 -1.2633674
0001f0 53 97 32 c0 c5 6d 1b be 40 d0 3d 3f 42 68 19 3d
       -2.790486 -0.15178593 0.7414589 0.037452944
000200 28 1d eb 3d 36 ec 0e be 52 1a 3d 3d 31 1a 59 bd
       0.114801705 -0.13957295 0.04616768 -0.053003494
000210 b4 22 20 bf 31 47 06 3e 03 1a f9 3e da 94 21 40
       -0.6255295 0.13113095 0.48652658 2.5247102
000220 22 28 be bd 90 7a 27 3f 8c 78 a8 3c 07 53 eb 3c
       -0.092849985 0.6542139 0.020565294 0.028726114
000230 98 f8 07 be 12 37 2e bd 83 be c1 bc d6 27 95 bf
       -0.13278425 -0.042532988 -0.023650413 -1.1652782
000240 fc 25 d4 bf 30 ea 0e 3c d8 73 2a be d6 fa 08 3f
       -1.6574092 0.008722827 -0.16645753 0.53507745
000250 ed f0 02 bf 23 db e6 3e d8 e0 ff 3d 19 5e e7 3f
       -0.51148874 0.45089063 0.124940574 1.8075591
000260 55 dc 0f bd ae 7d d2 bc 23 db 7c bd 27 18 0c bd
       -0.035122234 -0.025694694 -0.061732423 -0.03420272
000270 2a ad e1 3c 7a ec 33 3f 05 f9 68 3d dc 1a 02 c0
       0.027548391 0.7028271 0.05687811 -2.0328894
000280 d4 db 3c 3d 89 a9 a5 3d 08 5f 5a bf e5 7b ff bd
       0.046108082 0.08088977 -0.85301256 -0.12474803
000290 52 10 01 bf f2 da 71 3e 91 c5 33 3e 4a 63 2e 3d
       -0.5041553 0.23618677 0.17555834 0.04257516
0002a0 df be 0b 3f ee b8 37 40 ff 46 9e 3f a0 d4 3e 3f
       0.5458812 2.8706622 1.2365416 0.7454319
0002b0 88 2a 30 bd 8f dd 50 3c 84 22 02 bd de e7 92 bd
       -0.04300931 0.012748136 -0.031771198 -0.071731314
0002c0 c2 b6 d7 3d 3a 8f 7f be c0 03 86 3e 69 0e 75 bd
       0.10532905 -0.2495698 0.26174736 -0.059828196
0002d0 ab b5 46 bd 93 0b 42 3f 5e 29 51 3d 0e ea f9 3c
       -0.048513096 0.7579891 0.05106484 0.030507114
0002e0 7b c4 ed 3d 99 87 99 3e 8a 72 52 bd ce 51 eb be
       0.11609741 0.29986265 -0.051378764 -0.4596085
0002f0 e5 8f 3a 3f 92 70 c6 3d d4 14 8b bd d9 b6 48 3e
       0.72875816 0.0968944 -0.06791082 0.19601001
000300 ce a1 b1 3a 4d af 8b 3f 1f d9 ac 3f c5 52 9b bf
       0.001355225 1.0912873 1.350376 -1.2134634
000310 c8 e0 1e bf 0a 89 86 3e 9c 54 d7 3e f6 7c a7 be
       -0.6206174 0.26276428 0.4205674 -0.32712525
000320 0b 90 01 bd 2a a8 cd bd 9e db 49 bd d6 db 85 bc
       -0.03163151 -0.100418404 -0.04928171 -0.016340178
000330 a6 df 93 bf a8 e5 83 3a f1 ad fb 3e 71 42 2b 3f
       -1.1552627 0.001006295 0.49156144 0.66898257
000340 da e6 ea 3d aa 96 6d be f8 41 fc be c1 e7 0b 3f
       0.11469813 -0.23202005 -0.4926908 0.54650503
000350 f5 76 87 bd 03 b9 a3 be a9 d0 95 be 05 53 f0 3e
       -0.06614486 -0.3197709 -0.29260758 0.4693834
000360 fe fd e9 3c 92 c6 9b bd 36 7e 90 bd 9d e1 5c bf
       0.028563496 -0.07606234 -0.07055323 -0.8628176
000370 1f 1c 37 bd c2 4c 8c bf 22 29 42 3e 25 a9 13 3f
       -0.044704553 -1.0960925 0.18961003 0.5767997
000380 7c d2 b4 be 50 d6 2c be b8 2f 9e 3b b6 4b 1f 3e
       -0.35316837 -0.16878629 0.004827466 0.15556225
000390 db a4 31 bf d8 10 12 bf 12 95 c1 3e 80 e9 3f 3e
       -0.69392174 -0.5705695 0.37809044 0.18741417
0003a0 24 00 1e 3d ae f1 8f bd a8 5e 27 3f 31 d8 1d bd
       0.038574353 -0.070285186 0.6537881 -0.038536254
0003b0 4e 37 37 3e f0 a3 b8 3f 8c 7e 1d bf 5d c0 ca 3e
       0.17892191 1.442503 -0.6152122 0.39599887
0003c0 54 08 06 3e 14 0e fe bc dd 05 24 bf a2 8b cd be
       0.13089114 -0.031012572 -0.64071447 -0.40145594
0003d0 04 75 c1 bf 3a 36 96 bf ee ce 48 3e a1 93 8e be
       -1.5113835 -1.1735299 0.19610187 -0.27847007
0003e0 1b 6b e3 bb e4 00 bd be c9 44 89 bd a6 9b 6b bc
       -0.006940258 -0.36914742 -0.06702573 -0.014380371
0003f0 a0 1c fb bd df e7 65 bf 1e f5 07 c0 65 62 f7 3e
       -0.12261319 -0.8980693 -2.1243358 0.48317257

l2.bias f4 [256]
000000 31 99 8c 3f 0a 18 10 bf cb 74 bc bc 2d df 2a bf
       1.098425 -0.5628668 -0.02300491 -0.6674679
000010 19 4e 81 3b c0 04 29 bf f3 9d e3 3e 5b 99 22 be
       0.0039460775 -0.6602287 0.44456443 -0.15878813
000020 d9 cb 0d 3e 56 d2 26 3f 64 db 09 bf 00 3c 5a bd
       0.13847293 0.651647 -0.5385039 -0.053279877
000030 f2 ae 2e bd f0 67 67 bc 1f e3 49 bc 3b ff 48 3f
       -0.04264731 -0.014123902 -0.012322216 0.7851445
000040 60 6c 13 bf 1a 91 53 3f af f6 af bd 20 be d6 3b
       -0.5758724 0.8264328 -0.08591973 0.0065534264
000050 5e 5f 46 bc 9d 85 89 bd 02 08 9f bc 2f 48 ee be
       -0.012107698 -0.06714938 -0.019412998 -0.46539447
000060 9a 69 b9 bd 28 24 54 bd c1 f2 36 3f be e3 b3 bc
       -0.09053345 -0.051792294 0.71464163 -0.021959182
000070 d8 14 9b bc c3 4a 84 be 7c 4e b9 be d3 46 d6 bc
       -0.018930838 -0.2583829 -0.3619269 -0.026156818
000080 d0 16 af bd 22 9b 4a bd d8 d7 05 be 03 b4 89 bf
       -0.08549273 -0.049464352 -0.13070619 -1.075806
000090 c1 8d 56 3e ff f0 56 bd 4a c3 9c bc c6 6c 82 3f
       0.20952512 -0.052475926 -0.01913609 1.0189445
0000a0 2d d5 63 bf db e1 06 bf fa da 1e 3f 44 72 0b be
       -0.88997155 -0.5268838 0.6205288 -0.13617808
0000b0 1f d6 40 be 88 61 0d bf 11 11 b1 bd 9e 1c d2 bc
       -0.1883168 -0.55226946 -0.08645833 -0.025648411
0000c0 a1 9f 29 bd 78 3c 81 bd a7 0a 8e bd fc 53 f2 3e
       -0.041412 -0.063103616 -0.069356255 0.473297
0000d0 45 72 ae 3f 21 fa ed be 68 0c 21 bd f7 88 69 bd
       1.3628622 -0.46479896 -0.039318472 -0.057015385
0000e0 63 41 97 be 2c d4 54 3f cf 63 1d 3f 96 d8 83 bd
       -0.29542074 0.8313625 0.6148042 -0.06437795
0000f0 ee f9 94 bd 9e af 83 bd 16 50 a0 be e1 28 6e bd
       -0.07274233 -0.06429981 -0.313111 -0.058144454
000100 a3 60 a7 bd f5 cf 84 be 82 a8 d2 be 97 62 94 bc
       -0.08172729 -0.2593991 -0.41144186 -0.018113418
000110 3d ab 22 3c 26 07 5d bd 88 44 73 bd 68 f2 03 be
       0.009928522 -0.053961895 -0.05939153 -0.1288544
000120 91 d5 e3 bc ce ea 39 bd 66 a7 14 3f cf 20 ee bd
       -0.027811797 -0.045389943 0.5806793 -0.116273515
000130 53 79 94 bd e1 f6 b8 bc 9b 7c be bd 08 d8 da 3e
       -0.07249703 -0.022578659 -0.0930111 0.42742944
000140 19 cc 3d bc eb 8e 0f bd ee 3c 60 bd 22 aa de bd
       -0.011584305 -0.035048407 -0.054745607 -0.10872294
000150 14 03 c0 bc b8 1d 37 bd dd 5f d5 3e 2b 9b 69 bd
       -0.023438968 -0.044706076 0.416747 -0.057032745
000160 af 62 11 bf 55 64 5a be ae c0 b9 bd 5e 59 72 bd
       -0.56791204 -0.21327336 -0.09069954 -0.05916726
000170 a0 0d 72 bb 18 bf b1 bc 2e ac 2b bd d2 a4 44 bd
       -0.003693439 -0.021697566 -0.04191225 -0.048008747
000180 6d d3 63 3d a2 40 ef be 98 2a 81 3f 87 31 03 bd
       0.055621553 -0.46728998 1.0091124 -0.032029655
000190 fa 49 6d bd 9c c4 c2 bd 3f d0 49 bc 81 ec 7e bd
       -0.057931878 -0.095101565 -0.012317716 -0.062237266
0001a0 77 b4 1c 3e ee c7 cb bc 39 27 a6 be 52 69 87 be
       0.15303217 -0.024875607 -0.324518 -0.2644754
0001b0 13 44 a9 be 15 c7 a7 3e 5b de 8f bd fc 0c 29 bd
       -0.3305975 0.32769075 -0.07024833 -0.04127215
0001c0 e8 c7 8d 3f 47 e0 2c bd ec e4 a9 3e 44 fd 9f bd
       1.1076632 -0.042206075 0.33182466 -0.078119785
0001d0 13 a9 84 bd 53 4c 01 bf 10 ab a1 3e 6f ac fa bc
       -0.06477561 -0.50507087 0.31575823 -0.0305998
0001e0 e7 10 8b bd 17 22 6e bd cb 27 b6 bd 47 fd 40 bd
       -0.06790333 -0.05813798 -0.08894309 -0.047116544
0001f0 7d ef 6d bc e8 db a0 3e c8 07 b7 be ba 56 ab be
       -0.0145224305 0.31417775 -0.35748124 -0.33464605
000200 4b 29 f1 bd 85 d7 54 3e 98 c4 9c bc 75 7b 3a bd
       -0.11775454 0.20785339 -0.019136712 -0.045527894
000210 0e 94 83 bf 3b da 4f 3f 78 1a 64 3f c4 57 f6 3e
       -1.0279558 0.8119237 0.8910289 0.48113835
000220 b8 04 63 3c 10 3c 00 bf b4 8c 0f be 22 e0 a0 3b
       0.0138561055 -0.5009165 -0.14018518 0.004909531
000230 54 a9 2d 3e e0 d8 52 3e c2 c5 58 3f 00 e3 a4 bd
       0.16959125 0.20590544 0.84676754 -0.08051109
000240 a8 c8 8d be aa 71 30 bd 60 74 e3 bd 5f a6 99 bd
       -0.2769215 -0.04307715 -0.11106181 -0.07502436
000250 8c e0 58 bd 26 2e 34 be 37 ff 97 bd 1f 35 67 3d
       -0.05294852 -0.17595729 -0.07421725 0.056447145
000260 d1 c3 82 be a5 a0 a1 bd 9b ad 67 bd 3c 1b 92 be
       -0.2554002 -0.07891969 -0.056562047 -0.28536403
000270 6a 10 1e bf 4b e4 61 3f bc 22 57 bd b4 03 61 3e
       -0.61743796 0.8823897 -0.05252336 0.21974069
000280 aa f0 32 3d e9 e1 84 be 9d 6a 41 bd f4 94 28 bd
       0.043686546 -0.25953606 -0.047220815 -0.041157678
000290 f5 45 98 bc 69 0f 18 bd ab c9 c4 3e 5f 0f 77 bc
       -0.018588046 -0.03712407 0.3843511 -0.015079348
0002a0 2f e0 27 3e 86 94 15 3f 67 1e 5e bd a8 b9 aa 3e
       0.16394113 0.58429754 -0.054228213 0.3334477
0002b0 25 11 d6 bc 47 57 80 bd 77 24 9c 3d 00 af 5e bd
       -0.026131222 -0.06266647 0.076241426 -0.05436611
0002c0 99 0c 6c bd 36 cb 7f 3d f2 09 89 bc 50 16 a7 bf
       -0.0576292 0.062449656 -0.016728375 -1.3053684
0002d0 a8 04 cb be aa c1 70 3e f4 cf e3 3e 04 e1 bf 3d
       -0.3965199 0.23511377 0.44494593 0.0936909
0002e0 1b 2a d0 3d 27 54 a1 3c 61 65 e5 bd 77 b1 87 bd
       0.10164281 0.019693447 -0.11200977 -0.066256456
0002f0 a1 1c 94 bd 76 6c 63 3e 2c da fe 3e 04 7d a0 3e
       -0.07232023 0.22209343 0.49775827 0.3134538
000300 e8 ab c3 bc 7c 62 2f bd a1 3d 40 bd 02 76 b3 be
       -0.023885682 -0.04281853 -0.046933774 -0.3505097
000310 76 d4 79 be fd a5 51 bd 67 dc 88 bc 01 56 cd bd
       -0.24397454 -0.05118369 -0.016706659 -0.100261696
000320 f7 ab 01 bd 58 e0 95 bd fa 84 48 bd eb dd 88 bc
       -0.03165814 -0.07318181 -0.04895494 -0.016707381
000330 04 5f 87 3e d4 a8 68 bd 31 a6 32 bd a4 b1 3d bd
       0.2643968 -0.056801632 -0.043615524 -0.04631199
000340 68 cf 1b 3f 63 c2 e0 bc bb 25 e3 bc fc ec 6c be
       0.6086335 -0.02743644 -0.027727952 -0.23137277
000350 14 d6 4c bc ca 36 9f bc c6 76 13 bd cf db 1d bd
       -0.012502212 -0.019435305 -0.036001943 -0.038539704
000360 e2 81 51 bd f5 3e 65 bd 6b 7f 96 bd de 3e 4e be
       -0.051149257 -0.055968244 -0.07348522 -0.2014117
000370 2a 6f 93 bb 0b 5a f9 3e 24 5e d1 be c7 16 41 bf
       -0.004499336 0.4870151 -0.40892136 -0.7542538
000380 83 12 93 bd e5 41 78 3e 28 3a b4 bd b3 1f 80 bc
       -0.07181265 0.24243887 -0.08800155 -0.015640115
000390 6c ae 50 bd 75 f9 50 bf cb 3d 03 bf 90 7b bc be
       -0.05094759 -0.8163064 -0.51266164 -0.3681302
0003a0 c3 05 8c bc 4f 6c b5 bd 02 24 39 bf b1 3d f0 bd
       -0.017092591 -0.08858549 -0.7232057 -0.11730517
0003b0 7b a7 cf bd bf 23 23 3f f0 54 07 bc 1a 32 58 3a
       -0.10139366 0.6372642 -0.008259997 0.0008247212
0003c0 b2 ad 9e bc 18 af e2 3e af 20 c0 bc 68 24 45 bd
       -0.019369934 0.4427421 -0.023453085 -0.048130423
0003d0 39 8f a5 bc c8 83 0b 3f 3b cc ea bd 45 9c a8 bd
       -0.020209895 0.5449796 -0.11464735 -0.08232931
0003e0 3e 71 5c bd f5 1d 0f 3f 3c 27 4e 3f a9 5f 1d bd
       -0.053818934 0.55905086 0.80528617 -0.038421307
0003f0 85 5f 48 bd 6e e1 73 bd 8a 9d 56 3f 8d ce 35 bc
       -0.04891922 -0.05954116 0.83834136 -0.011096609

l3.weight f4 [1, 256]
000000 ba e3 b9 be f3 d8 9c 3e 18 42 02 ba 86 53 f5 be
       -0.36306554 0.3063427 -0.0004968955 -0.47915286
000010 59 c9 5f bf 1a b8 a8 bf d0 dc 69 be e7 7e a5 bc
       -0.8741661 -1.3181183 -0.2283814 -0.020202113
000020 8d 50 a6 bf 97 bf 16 be 6f c6 3c bf f2 2c 38 3c
       -1.2993332 -0.14721523 -0.73740286 0.011241185
000030 04 6e a7 bb 03 92 b3 3c 87 b1 0c bd 34 d4 00 bf
       -0.0051095504 0.02192021 -0.03434899 -0.50323796
000040 85 ac 88 bf 02 18 b2 be 66 ce 29 bf 14 73 ad bc
       -1.0677649 -0.34783942 -0.66330564 -0.021173038
000050 24 82 c3 bc 80 d1 c6 3c 93 12 ae 3c 92 bf 56 bf
       -0.023865767 0.02426982 0.021249091 -0.83886063
000060 8d 92 d6 3c e4 ef be bb 5e 71 5b 3e c3 9c 99 3b
       0.026192928 -0.005826937 0.21429965 0.004687877
000070 80 c7 fc bc 47 49 6c be 40 3d 83 bf 44 09 bc 3b
       -0.030856848 -0.23074828 -1.0253067 0.0057384092
000080 6c e0 a0 be c9 0f d6 bb cb 8f 07 3c cc d1 11 bf
       -0.3142122 -0.0065326435 0.008274029 -0.5696075
000090 1f eb 6a be b4 40 c5 3c cd 9e 28 3c 47 5d 04 3f
       -0.22941254 0.024078704 0.010291767 0.5170483
0000a0 a3 fc 43 be f2 91 2b bf 3b e9 d5 be a2 fc 50 be
       -0.19139342 -0.6701957 -0.41779503 -0.20408872
0000b0 0b 9c ed bc 72 3e e8 be a5 1b 21 be 8b ba 15 bb
       -0.029005071 -0.45360142 -0.15733202 -0.0022846784
0000c0 a4 81 7b bc 6d 4d ad 3c af e4 a4 3b 41 eb 95 be
       -0.015350733 0.021155084 0.005032144 -0.29281047
0000d0 4a b6 05 3f b0 f2 56 bf b3 9e 78 3c bc 5f 63 bf
       0.52231276 -0.8396406 0.015174556 -0.88817954
0000e0 bd 33 e2 3e d2 38 c3 3e e1 3b 14 3e 74 42 96 bb
       0.44180098 0.38129288 0.14475967 -0.0045855585
0000f0 52 e2 39 bf 8e 47 d7 3c da 50 9b bf 61 8f bf bb
       -0.7261096 0.026279237 -1.2134049 -0.0058459495
000100 e7 0a 00 bd 9c 32 a9 bf fd ad 83 be 2e 67 af 3b
       -0.031260397 -1.321857 -0.2571868 0.005352876
000110 fe e1 6e 3c ff 04 d3 3c 1a b7 49 bc f0 be 0c 3c
       0.014580248 0.025759218 -0.012311721 0.008590445
000120 df 12 31 3d d0 10 01 3d 25 d1 be be 5e 61 35 bf
       0.043230888 0.031510174 -0.3726894 -0.70851696
000130 e2 04 80 bc ed 0b 78 bc 1d b7 f8 bc 68 7a 83 be
       -0.015627328 -0.015139562 -0.030360753 -0.25679326
000140 3f 65 e7 3a 4f 4b 52 bc d3 43 26 3c 74 6c 7e 3c
       0.0017654075 -0.012835338 0.0101480065 0.015528787
000150 f3 b3 c7 3c 89 5a 81 3f b6 a5 df be 07 77 d5 bc
       0.024377799 1.0105754 -0.43681115 -0.026057733
000160 3c cf 9f be a9 18 0f bf 6d 1b ac bd 15 cc 0b bd
       -0.31212795 -0.55897003 -0.084036686 -0.034130175
000170 e9 e3 06 3c 9c 48 f5 bb b5 16 c6 3c 19 57 9f 3c
       0.008233049 -0.0074854624 0.02418075 0.019450711
000180 28 ec 2c bf be e9 99 be 86 22 38 3f 97 6b cc 3c
       -0.67547846 -0.30061144 0.7192768 0.024953647
000190 00 72 91 bb 78 e1 89 be 40 8e aa 3c ea 36 9e ba
       -0.0044386387 -0.26929832 0.020819783 -0.0012070809
0001a0 1c 6c b4 be c4 a5 8c bc a5 cf 99 bf 84 41 1c c0
       -0.3523873 -0.017168887 -1.2016493 -2.4414988
0001b0 6a 11 dc be 31 d2 95 bf 6f d9 78 bd 81 de 0b bb
       -0.42982036 -1.170477 -0.060754236 -0.002134234
0001c0 7f a1 a7 be 84 df 14 bd 76 2d 84 be 0b cf 06 bd
       -0.327404 -0.036345974 -0.25815934 -0.032912295
0001d0 a6 68 11 bc b4 20 a3 be ae 08 8c bf ed f4 5f 3b
       -0.008875048 -0.31860888 -1.0940149 0.0034173087
0001e0 2f 1f 7c bc 2a c3 0f 3c 0b 2e 94 3c d4 a1 50 3c
       -0.015388294 0.008774558 0.018088361 0.012733895
0001f0 7b 27 64 3c 2e 70 a3 be 63 e5 a2 be f6 28 92 bf
       0.0139254285 -0.31921524 -0.31815633 -1.141875
000200 25 52 ba 3c b2 f2 cd be cd 42 11 3d 10 b9 10 bd
       0.022744248 -0.40224224 0.035464097 -0.03533274
000210 b6 61 15 bf 2b 9a bc 3e 84 1f ad be d3 e0 31 be
       -0.5835222 0.3683637 -0.33813107 -0.1737092
000220 cc 51 39 3c af 85 89 be ce 92 05 bc 6f 11 07 bf
       0.011311006 -0.26859805 -0.008152677 -0.52760977
000230 38 71 89 be db 34 71 bf 9d b4 99 be 2a 86 5f 3b
       -0.26844192 -0.94221276 -0.3002061 0.0034107068
000240 36 50 d5 bb 9f cd ba 3b 2f 15 60 bc e5 f6 13 bd
       -0.006509806 0.0057007815 -0.013676926 -0.03612413
000250 a3 40 99 bb c1 0b 97 be 75 75 27 39 3b 3a 86 be
       -0.0046768948 -0.29501155 0.00015970117 -0.262163
000260 54 44 32 bf 7d a0 d7 bc 41 b8 88 ba d0 08 cf bb
       -0.6963551 -0.026321644 -0.0010430889 -0.006318189
000270 a9 83 f7 be 09 d6 27 3f 68 43 92 3c be 1a 66 be
       -0.48342636 0.65560967 0.017854407 -0.22471139
000280 02 d1 2c bf b4 e9 8b bf 94 9e 76 3c 71 ca 9e bc
       -0.6750642 -1.0930696 0.015052456 -0.019383641
000290 22 58 05 3d 3e 03 4e bc f5 79 b1 be 2f 28 7c bb
       0.032554753 -0.012574015 -0.34663358 -0.00384761
0002a0 0e 40 ba bf 34 8a cb be f4 70 04 bb f2 cf 54 be
       -1.4550798 -0.39753878 -0.0020208927 -0.2078245
0002b0 42 f1 03 bc a3 c2 b8 be e5 02 ea be c5 0a 18 bd
       -0.008053126 -0.36085996 -0.45705333 -0.037119646
0002c0 d9 04 41 3c 6e 6f cc be 39 d4 a0 bc f8 b3 86 be
       0.011780941 -0.39928764 -0.019632446 -0.2630918
0002d0 77 45 58 be 0f b5 1e bf 44 45 62 3e 22 6d 3a bf
       -0.21120249 -0.61995023 0.22096735 -0.72822773
0002e0 6f ba f2 be 3d cd 7b bf bf f6 52 bd b2 f6 eb 3b
       -0.47407863 -0.98360044 -0.051504847 0.007201039
0002f0 85 f4 1b bb 2f 34 2f 3e 24 d9 79 bf cb dd 8a be
       -0.0023796868 0.1710975 -0.97596955 -0.2712234
000300 01 72 e5 bc c7 c5 a5 bc 03 5b a5 bc 50 3c 90 be
       -0.028008463 -0.02023591 -0.020185 -0.28171015
000310 04 20 9b 3e 4b e3 b3 3b 26 44 1d 3c 8f 37 a4 bc
       0.30297863 0.005489742 0.009598767 -0.020046024
000320 5c 24 ca bc 4d 9d a6 bc 10 40 0e 3b 71 e5 3a 3c
       -0.02467554 -0.020338679 0.0021705665 0.011407242
000330 a6 d3 24 bf f0 53 0a bc 34 18 3d 3b c3 fe fa bb
       -0.6438545 -0.008442864 0.0028853538 -0.0076597645
000340 61 b9 c7 be 42 0b d5 bb 12 c5 08 3d af 71 55 be
       -0.3900862 -0.006501586 0.033391066 -0.20844148
000350 8b 19 68 bc 99 55 ce bc 85 f9 08 3d 55 49 80 3a
       -0.014166246 -0.0251873 0.033441085 0.000978748
000360 04 af b1 bb e3 65 14 bb 57 49 93 3c c5 59 bf be
       -0.005422475 -0.0022643737 0.017979307 -0.37373176
000370 3e 6b 2e 3c 90 69 1a bf c0 d9 15 3f fb 9e 2d bf
       0.010645686 -0.60317326 0.58535385 -0.6782071
000380 1a 25 91 bc 83 67 9c be 5f 87 95 3c 6b 2d 86 be
       -0.017717887 -0.30547723 0.018253027 -0.26206526
000390 7c d5 53 3c e4 2e d8 bd 77 20 5a bf b3 b9 56 bf
       0.012929317 -0.10555819 -0.8520579 -0.83877105
0003a0 f6 e5 88 3c ef 35 a6 bd 84 c0 0f bf 4c d4 d1 bc
       0.016711216 -0.08115756 -0.5615313 -0.025613926
0003b0 c8 85 9a 3c 3a 7a 02 3f 60 e9 1b 3c 1a 27 ce 3c
       0.01886262 0.5096775 0.00951609 0.02516513
0003c0 2f 32 4e bc dd 86 dd be 3b 2d b8 be 96 eb de bc
       -0.012585207 -0.43266955 -0.35972008 -0.027211946
0003d0 11 af 83 bc 1c 03 e2 be 76 d1 e6 3c ab ab 90 b9
       -0.01607469 -0.44142997 0.02817605 -0.00027593723
0003e0 c2 3a 2f 3f cf 86 c5 be 04 ca 9a 3e 68 ef 7f 3c
       0.6844903 -0.38579413 0.3023225 0.015621044
0003f0 3f 83 a6 3a 02 a2 d5 ba f6 cf c5 3e 0d 28 e9 3a
       0.0012703909 -0.0016298892 0.38635224 0.0017788425
