saves/Dobot-v1/her/seed_0/model/actor.pth (torch, 581989 bytes, 6 tensors)

l1.weight f4 [512, 24]
00000000: fd3b 3f3d a628 253d 1f6a 5b3e 2481 e93c
00000010: 475e bcbd 2b6a 963c 9b02 723d a77d ab3d
00000020: 491e 2d3d 2c49 17be b864 aebd 86bd 153a
00000030: d1cf 953d d5d0 c03d 10d2 0bbe d3cf 053e
00000040: b6ed 2a3e f818 d33c c7f8 93bd 40cf f2bd
00000050: 022c 1ebe 29b6 f1bd b299 83bd fc45 fe3d
00000060: fc1e ac3d a741 603b c91e b4bd 0563 a33d
00000070: ff80 acbd 7f20 2d3d e102 17bd 08a4 63be
00000080: 25a3 4f3e 839a 5cbe 4b26 a13d c196 f33d
00000090: c161 d7bd d1f4 18be 7c9b c13d 6fd4 d9bd
000000a0: 7d94 5c3e 6d4a 7d3c f744 173e c17d c33d
000000b0: 0174 d5bd f4f4 82bd e642 34bd 63bd cd3d
000000c0: b7de 523d 85b7 4cbd 62a9 d63c 1885 5cbd
000000d0: ff12 613e a622 183e 18dc 2bbe 3b56 31be
000000e0: 6797 91bd 8d83 b53d a5e2 a1bc e772 debc
000000f0: f97b a63d 92ac c63d 8912 06bd 96b0 e63d
00000100: 6e5a 373c daa0 933c 80cc dd3d cfe9 9dbd
00000110: 2727 cdbd a0d8 d3bd 65a3 983c 81b9 08be
00000120: 9266 5a3e 1da8 073e b560 23be 9263 97bd
00000130: cbec 4a3e 9325 90bc 04e8 48be 5291 d43d
00000140: 745c 0dbe b4be 3fbd f09f a5bd 028f bbbd
00000150: 1254 5c3e c446 b63d 6829 f2bd 6707 153c
00000160: d06a 34bd b23f 99bd 5e6f 6e3d 2bc9 42bd
00000170: ef8e 3a3d e953 87bd 36b2 35be aa31 443e
00000180: b17b 5f3e f2b5 a2bd fbd5 37bd 5038 0abe
00000190: b6ae 073e d4c9 173e 9b32 633d a247 aebd
000001a0: 96f5 f63c 4ec0 f53d 92a3 153d 1c73 573e
000001b0: dc68 de3d c1c4 2bbe d2f9 42be f3f9 103e
000001c0: 2c6b 64bc a5a6 ccbd b888 b23d c71f 90bd
000001d0: 66ad 32be ddf4 f5bd e04c 2cbd 8f63 9abd
000001e0: 12b1 ac3d 3060 ebbc b9c9 6a3e 019f 853d
000001f0: ff24 94bd fb34 8abd d6c7 d5bd eb05 bc3d
00000200: da93 4abd 74d4 5cbb aa70 ff3d bd30 0abd
00000210: c1fa 923c 17eb 0abe 663c 113e 4ea2 c43d
00000220: de49 083c 441f fabd 4955 0e3e 4ca1 a93d
00000230: 9150 123d a6c6 823d 7f1d 1a3e 3064 543d
00000240: a0f5 36be 46eb 94bd 7185 94bd b54e 503e
00000250: b3af ce3d e794 ebbd 2f6d ac3d 9a22 c8bd
00000260: ba66 413e bb31 6dbd bd60 8a3d 50d8 0a3e
00000270: c69e 133e 4ee4 42bd a84e 3a3e a129 043d
00000280: 5a1c 11bd 731a 46be cf0d 1a3d 9593 923c
00000290: dc1e e0bc d92d 81bd 6424 3d3e c25a 76bd
000002a0: 5d3d 91bd 7009 70bd 8dd5 40bd 8d80 03be
000002b0: 1753 473e 5871 5e3e ce58 0dbe 8be4 08be
000002c0: 4b6a 353d a9e1 563d dc55 9cbd 35e5 3dbe
000002d0: 076f 4f3e 5903 5cbd b81a 123e 6d7f acbd
000002e0: bd6b 58bd 1527 ae3d 6c84 e63b 5dbe 37bd
000002f0: 8ae6 73bd e43f 053e c516 ba3d db17 bc3c
00000300: b60f 433e c56c 1c3d 7343 4c3e 1467 debc
00000310: 64a1 4a3e 2dae a63d 6292 0ebe df47 d8bd
00000320: b9cb 41be 7e3c b03d 0722 b43d 131a 513e
00000330: 43d8 f0bd a28b 2dbd a2b2 43be c39b 143e
00000340: 3772 39bc c401 07be 76a6 43bd fce5 673d
00000350: abb7 273e 033a e3bd eaaf 8bbb 80d7 16be
00000360: 243d b83d 6ff2 853d 7178 db3d 79f4 ae3d
00000370: 7d59 d63d a13f a13d 671a 5abe 5995 54bd
00000380: 236e 9dbd ac04 8bbc 1c64 14be 55b1 df3c
00000390: 25a9 36be cb1d d73d b87d 10be 713c eabd
000003a0: 27b9 553e be41 c23c 3b09 41be 8949 21be
000003b0: 5e74 1cbd fa0f 67be 4369 ba3d 08c6 c23d
000003c0: b1c8 0dbe b1ab 463d b8ff 3f3e 9a7e f6bd
000003d0: e9f2 1bbe 0e4c a0bc 0e09 28be 82cc c23c
000003e0: dc8a 82bd 0fa1 34be 61a8 25be 726c 3a3e
000003f0: 4ebf c9bd 182e 603d 9fae f5bd e7e0 98bd
0.04668807 0.04032197 0.214272 0.028503962 -0.091976695 0.018361172 0.059084516 0.08373576
0.04226521 -0.14774007 -0.08515304 0.000571214 0.073150285 0.094148315 -0.13654351 0.1306756
0.16692242 0.025768742 -0.07225185 -0.11855936 -0.15446475 -0.118023224 -0.064257994 0.12415692
0.08404347 0.003421882 -0.08794934 0.07977871 -0.084230416 0.04226732 -0.03686798 -0.22230542
0.20277078 -0.21543317 0.07868632 0.118939884 -0.10516692 -0.1493714 0.094534844 -0.106362216
0.21541019 0.015459639 0.14772402 0.0954547 -0.104225166 -0.06394377 -0.04400911 0.10045888
0.05148193 -0.049979705 0.026203815 -0.053837866 0.21979903 0.14856967 -0.16783178 -0.1731805
-0.07108956 0.08862982 -0.019761393 -0.0271544 0.08129115 0.09700884 -0.03273252 0.1126415
0.011190994 0.018021036 0.10830021 -0.07710611 -0.10017233 -0.10344052 0.0186326 -0.13352014
0.2132819 0.13247724 -0.1595486 -0.073920384 0.19816892 -0.017596042 -0.19619757 0.1037928
-0.138048 -0.046812728 -0.08087146 -0.09158136 0.21516445 0.08900216 -0.11824304 0.009096003
-0.044047177 -0.07482852 0.058211677 -0.04755513 0.04554647 -0.066078015 -0.17743763 0.1915957
0.21824528 -0.079448596 -0.044881802 -0.13498044 0.1325024 0.14823085 0.055468183 -0.085097566
0.030146401 0.1199957 0.036532946 0.21040004 0.10859844 -0.16774274 -0.19040611 0.14157848
-0.013941567 -0.099927224 0.08717483 -0.07037311 -0.17448959 -0.120095946 -0.0420655 -0.075385205
0.08432211 -0.02873239 0.22928514 0.06524468 -0.07233619 -0.067483865 -0.10438506 0.09180816
-0.04945741 -0.0033695968 0.12472661 -0.033737887 0.017941834 -0.13566242 0.14183196 0.0960127
0.008318393 -0.12212995 0.13899721 0.08282718 0.035721365 0.063855454 0.15050314 0.05185336
-0.17867136 -0.07271437 -0.072520144 0.20342524 0.10092106 -0.1150301 0.084192626 -0.09772225
0.18886843 -0.057908755 0.067567326 0.13559079 0.14416036 -0.04758101 0.18194067 0.032266263
-0.03542743 -0.19346027 0.037610825 0.017892638 -0.027358465 -0.06307573 0.18470913 -0.060145147
-0.07091782 -0.05860275 -0.047078658 -0.12842007 0.1946529 0.21722925 -0.13803408 -0.13368432
0.044290822 0.0524613 -0.07633564 -0.18544467 0.20257197 -0.05371413 0.14268005 -0.08422742
-0.052837122 0.08503548 0.007034829 -0.04485928 -0.05954603 0.13012654 0.09086374 0.022960594
0.19048962 0.03818967 0.19947605 -0.02714876 0.19788128 0.0813869 -0.13923028 -0.10560583
-0.1892537 0.08605288 0.08795553 0.20420103 -0.11759999 -0.042369492 -0.19111112 0.14512543
-0.011318735 -0.13184267 -0.04776617 0.056615815 0.16378658 -0.11095049 -0.004262914 -0.14730644
0.08996037 0.06540381 0.10716332 0.08542723 0.10466287 0.078734644 -0.21299134 -0.05190024
-0.076870225 -0.016970001 -0.14491314 0.027306238 -0.17837961 0.105037294 -0.14110458 -0.114373095
0.20871411 0.023712989 -0.18851177 -0.15750708 -0.038196914 -0.22564688 0.09102108 0.09510428
-0.13846089 0.04850358 0.18749893 -0.12035866 -0.15229382 -0.019567516 -0.16409704 0.023779158
-0.063741416 -0.17639564 -0.16177513 0.18205431 -0.098509416 0.05473146 -0.11996197 -0.07464772

l1.bias f4 [512]
00000000: 0b4e 083e da5c 423e 7cfa 233e 3e82 1b3e
00000010: 731f 9dbc c386 6a3e 882a 183e 89d9 403e
00000020: 1fa9 ff3d fc78 f5bd 200a 033e 17d2 ddbc
00000030: a5b0 2b3d 84c8 b13d fe26 98bd bfee a3bc
00000040: 964e 30be 74df 0cbd 6595 fd3d 5e98 b43a
00000050: 3bf6 02be 3753 ddbd 3137 3fbe f2ee c23c
00000060: 1ce2 c7bb d881 81bb 66e2 d23c b392 a13b
00000070: 5bb1 9cbc 5033 233e e2d5 4e3c 59f7 2dbd
00000080: ca63 8bbc b12c b1bc d1b5 55bd 8291 4b3c
00000090: 25ae ed3c c1cf 1d3e 0345 6a3e cf6b 3bbe
000000a0: 28f1 1bbe 58e0 1c3e b075 2f3e e0e1 9c3d
000000b0: cae2 223e a5e6 4e3e a2ac af3d 0f8f 273d
000000c0: 4a19 df3d acf8 5b3e 3a6a 283e 2774 4e3d
000000d0: cd10 2ebd 18e4 523e 8f56 25bc bd0b 3c3b
000000e0: ff45 d7bd 2738 f2bd 9ac1 3b3d 8426 4b3e
000000f0: b4b2 dc3d dc33 ea3d f662 49be a160 483d
00000100: bbef 39be 1b50 ecbd 302c cf3d 2674 543d
00000110: fbab 2bbe 4068 45bd 1e3e e43d 2f64 40be
00000120: a39d e9bc fee3 29bd 8334 14be 5149 bcbd
00000130: f6a2 87bb c08e f0bd 5855 3e3d 4bf6 83bc
00000140: 0775 40be 7b9a 2e3d 18b3 0fbe 4ac9 0b3e
00000150: 6fff a53d 43b7 93bd 54c9 bbbc 8b02 04be
00000160: 879f 69bb 5bd5 263d a3d8 40be d1f2 3c3e
00000170: abd8 36be a731 06be cb17 423d 76f8 b33d
00000180: e89c 703d c621 1fbc 5db1 29be cb01 013d
00000190: 6b18 a6bd 2917 073e 86ef 5f3e 1bda 863d
000001a0: 1209 25be 51d4 9abd 2a27 343d c0f0 ad3c
000001b0: a50b 77bd f655 173e 967d 0cbe e130 c73d
000001c0: 63eb 2dbe f1b5 ef3d dcd2 17be fcf8 31be
000001d0: 39f7 7abc 7239 673e 3b33 4dbe 613a 493e
000001e0: 5b9b 12be ea89 ac3c 85ba de3d 9409 1f3e
000001f0: 746a 13be e733 f53d 9e78 273e 2f17 d23d
00000200: e2d4 cd3d 2731 4e3e 907e 583e 3da8 e7bd
00000210: 7e5e c1bd 9bbd 563e a931 903d 6785 9dbd
00000220: 8d48 fe3b d690 46bc 1503 bdbd fb7f 813c
00000230: 76c5 133d 3553 efbd ed05 46bc 704e ad3c
00000240: 9ebc 093e b926 4cbc 06ae 3bbe 4370 383e
00000250: c78f 11be a7cd ebbd 20be 95bd ec18 ac3d
00000260: 4fb9 2f3e dad5 d4bc 65cf 8abc 2eb4 1cbe
00000270: b936 30be acec 0cbe 90b8 d5bc 57fa 6d3d
00000280: 8230 03be 45d0 3b3d ce64 09be 41d5 a73d
00000290: 67fd 1e3e c52f f2bc 9c8f 093d 4a73 433e
000002a0: c0ef a63d d78b 303e d25c 843c d71e a33d
000002b0: 89e1 b8bd 2ef2 f5bd e4f8 3b3e 8746 1abe
000002c0: d2e0 d53d 4d90 483e 6bac 35be 4b7f 04be
000002d0: 42e9 5f3e 1d1a 83bc 3d34 2bbd d27a a53b
000002e0: c839 3fbc 0293 1dbd 2232 d43b 7a16 b6bd
000002f0: d399 823c 45c0 403e 1a36 1a3d b8a1 b13d
00000300: 3582 46be 1139 cd3c 776e f43b c35f 083c
00000310: 50d9 c0bd 7e22 063e 2008 83bd eb6b f63d
00000320: 1723 0dbe 02d8 b93d 5619 45bd 409d f33d
00000330: d80d 463e 8bbe 023e 5644 103e 22b6 8c3c
00000340: 9439 6abd fe3f 003e a224 debc 53da bcbd
00000350: 49bd c63d e1e4 1bbd fb4c e53d 7b9e b3bb
00000360: 4698 413e b876 babb 1bd3 373e 32df 323e
00000370: a5ab 13be d5fa 23bd b831 7f3e 7543 1fbb
00000380: 9a1c 833e 1a93 1abd b038 0b3c 8c85 3d3d
00000390: d281 75bc 44dd fa3d 244d dd3d 03b3 fa3a
000003a0: 3bc4 013e 2b90 b43d eb95 e83d ad78 e5bd
000003b0: b194 903d 127e e4bd 8a12 003e 2ef3 ee3c
000003c0: de75 843d 47d9 a83d 4a90 c53d 00e0 e33a
000003d0: 3d4d 0ebd 9a2a 023d 6258 c5bd 66e1 55bd
000003e0: 605e a03d adab e0bd 1bb7 00bd 4c4d 8ebd
000003f0: 3cf7 0c3d 2531 c83d 22b7 adbc 6ed2 303e
0.13311021 0.18980733 0.16013521 0.15186402 -0.019180035 0.2290297 0.14859974 0.18832983
0.12483429 -0.119859666 0.12796831 -0.027077718 0.04191651 0.086808234 -0.07429312 -0.020011304
-0.17217478 -0.03439279 0.1238201 0.0013778319 -0.12789242 -0.108068876 -0.18673398 0.023795579
-0.0060999524 -0.003952246 0.02574272 0.004930818 -0.019127538 0.15937543 0.012624236 -0.042472217
-0.017015357 -0.021627756 -0.052175347 0.0124248285 0.029013703 0.15411283 0.22877888 -0.18302844
-0.15228713 0.15319955 0.17134738 0.0766027 0.15906826 0.20205171 0.08577849 0.040907916
0.108934954 0.2148158 0.16446772 0.05040374 -0.04249649 0.20594823 -0.010091438 0.002869352
-0.105113976 -0.118271165 0.04583893 0.19838911 0.107762724 0.11435673 -0.19666657 0.048920278
-0.18157856 -0.115387164 0.1011585 0.05186858 -0.16764824 -0.048195124 0.111446604 -0.18788217
-0.02851755 -0.041477196 -0.14473157 -0.091936715 -0.0041392995 -0.117459774 0.04646811 -0.016108653
-0.18794642 0.042627793 -0.14033163 0.13651004 0.08105361 -0.07212689 -0.02292315 -0.12891595
-0.0035648064 0.040730815 -0.1883264 0.18452002 -0.1785609 -0.13104878 0.047385972 0.087876245
0.058743387 -0.009712642 -0.16571565 0.03149585 -0.08110126 0.13192429 0.21868715 0.06584569
-0.16116741 -0.075600274 0.043982662 0.021232963 -0.06031384 0.14778885 -0.13719782 0.0972612
-0.16984324 0.117046244 -0.1482653 -0.17380136 -0.015317732 0.22580507 -0.20039074 0.19651176
-0.14317076 0.021061856 0.108754195 0.15530998 -0.14396077 0.1197279 0.16354606 0.10258328
0.1005037 0.20135938 0.2114203 -0.11311386 -0.09441851 0.20970766 0.07040722 -0.0769146
0.0077601136 -0.0121194925 -0.092291035 0.015808096 0.036076985 -0.11685792 -0.012086374 0.021155566
0.13450858 -0.012460404 -0.18328103 0.18011574 -0.14215003 -0.115138344 -0.07311654 0.08403191
0.17160533 -0.025980879 -0.016944597 -0.15303108 -0.17208375 -0.13762158 -0.026088983 0.05810007
-0.12811473 0.04585292 -0.1341736 0.08194972 0.15526353 -0.029563794 0.033584222 0.19086948
0.081511974 0.17240845 0.016157541 0.079648666 -0.090273924 -0.12009083 0.18356663 -0.15065967
0.10443272 0.19586296 -0.17741553 -0.12939183 0.21866325 -0.016003663 -0.041797865 0.0050500417
-0.011671491 -0.038470276 0.006475703 -0.08891006 0.01594249 0.18823345 0.03764925 0.086734235
-0.19385608 0.025051625 0.0074594575 0.008323613 -0.09416449 0.13099095 -0.06398034 0.120323025
-0.13782917 0.09074403 -0.048119865 0.118952274 0.19341218 0.12767999 0.14088568 0.017176691
-0.057183817 0.12524411 -0.027117077 -0.092213295 0.09704072 -0.038060073 0.111963235 -0.005481539
0.18905744 -0.005690422 0.17951624 0.17467955 -0.14420946 -0.040034134 0.2492131 -0.0024301682
0.2560776 -0.037737943 0.008497402 0.04626994 -0.014984565 0.12249234 0.10805729 0.0019126836
0.12672512 0.0881656 0.113567196 -0.11204658 0.07059611 -0.111568585 0.12507072 0.029168691
0.06467794 0.08244567 0.096466616 0.0017385483 -0.03474163 0.03177891 -0.09635998 -0.05221691
0.078305006 -0.109702446 -0.031424623 -0.06948337 0.03441547 0.097749986 -0.021205489 0.17267773

l2.weight f4 [256, 512]
00000000: 5c60 cbbc ebf8 e4bc 798e 093d b103 f0bb
00000010: 4999 b7bc 12f3 c138 92b1 06bd b048 293c
00000020: 2214 e2bc ded8 25bb b717 33ba 9387 853c
00000030: 4ffe e4bc b841 1b3d dc2d 043d 1007 273c
00000040: 7b22 c23c 417d eb39 478d e83c cb10 b33c
00000050: 7947 3ebd fc46 153d d7f4 2e3d b873 683b
00000060: a0ce 10bc 21ff 3a39 7d6a 393b 138d 90bc
00000070: 2a8d 9e3b 8d63 15bd ea3f 193d 274c 0a3d
00000080: ff97 41bc 503e 01bd f3ff 9cba 194d e1bc
00000090: 9484 c239 0fe8 cdbc c443 603b 2bbc 283d
000000a0: 8731 0cbb 78a7 24bd bdce 0bbd d0f7 1e3d
000000b0: aa93 9dbc 8c94 0b3d 494a 72bc 4e16 94bc
000000c0: 3b31 ecbb 7bc4 a5bb 855c 40bd 5863 adbc
000000d0: 592e 0c3d 829b 2dbd cf4b bc3c b390 05bd
000000e0: e70e 3d3c dd92 343d 479f 74bc d18e cf3b
000000f0: fd14 623c e8c4 733c ced0 18bd 1387 f5bc
00000100: 157c 623c feaa 31bd 0bf5 e3bc 30fb 853c
00000110: 8478 4abb 38e0 c2bc e169 263c 1bf4 333d
00000120: 7920 a3bc ff38 403c c23e 71bc ca54 f8bb
00000130: 928b 5d3b c463 533c 7959 f4bc fb6e 8bbc
00000140: 4d28 223d 5f89 233d b03b cd3c b5c1 cc3c
00000150: b809 d43c 4fb6 c4bc 7e06 833a 4f65 043c
00000160: bab1 043d 62a2 bd3c 7391 f3bc 1710 0bbc
00000170: f315 83bc 5f2a ae3b 1d30 0d3c 2386 d93c
00000180: 59db dc3c 847d ef3c 68eb 24bd ae5a db3c
00000190: 2753 f13b 9b13 603c e7eb 4dbc bbe4 0bbd
000001a0: ae45 303c 4170 20bd b16b 013b 98f7 33bd
000001b0: b26b 8a3b 727b 093c 3370 0dbd 663c 123d
000001c0: f533 153d cc2f 28bc 63ac 053c d387 9dbc
000001d0: c0cc 04bd fcbf d7bc eda6 a33c fec4 f73c
000001e0: f3ec 703c 3b1e 2d3d 90d4 16bd dbac fcbb
000001f0: 4b82 183d e2ff 363b 6a89 9abc 67da 01bd
00000200: 90f9 36bd 4b39 d53b 95e7 b5bb f2a1 c2bc
00000210: cb29 50bc 838e a4bc 2648 8fbc 6c31 babc
00000220: 9641 173c 91d8 183c dd97 0dbc 3ce9 1d3d
00000230: 68aa 07bd 20ac 09bd 1df3 f43b 3c56 153d
00000240: a5e9 f9bc 49db 8abc aee9 c53c a30e e9bc
00000250: c94c 2fbd 9ab0 123d 9b65 e33b c866 06bc
00000260: 9819 8f3a f284 e8bc 5afd 153d a5a1 073d
00000270: c5d3 2ebc 14af aebc 48a4 e13c 3382 1b3d
00000280: d731 25bc 8366 013d 3ec8 2cbd b8c6 73bc
00000290: f62b 9abb fb3f 6cbc ea3c 543c 9e21 103d
000002a0: a697 2bbd fbab 323d 7a49 32bd 8607 ac3b
000002b0: 4ec4 ef3c 8007 dcbc d9e3 1bbc 6195 173d
000002c0: 9704 3bbc 3d68 a43c 7b01 5b3c f617 55bc
000002d0: 99fb a0b9 f8e0 c23c 83e7 25bd f1b2 42bd
000002e0: 753f 32bd 08f8 a7bc bb3d 293d 5ce4 193d
000002f0: f38c aa3a 00d1 3cbd b5ad 873c 0ffd 4bbd
00000300: 53e4 143d c6b0 c23c 55cd dabc ec01 a43c
00000310: fcc6 a53c 24e9 adbc 8877 29bd e2f5 593b
00000320: 70cf 2a3d 4398 693c f44e a6bc 1216 0d3d
00000330: c392 bfbc 3592 b2bc cfcc 2ebc 7ca6 83bc
00000340: eceb dbbc 2fde 30bd 4038 bb3c fd2a c63c
00000350: f72a 15bc 4be8 2dbd 9efa 013d 4b10 9d3c
00000360: a4a7 c7bb c5ba 223d 7fbc 113a acd7 34bd
00000370: 3d9f 77bb 5e52 27bb 5489 17bd 53b6 0e3d
00000380: fc61 29bd 50de 2ebb a4e4 823b d0d7 28bd
00000390: 89ed 2cbd b17d 943c e3d9 eabb 55f7 c13c
000003a0: 426a fcbb 6f4f b73c 61f3 b83c 6b1f 75bc
000003b0: eaa7 cb3c fbbd f8bb 8cbb 153d 7b3b 12bd
000003c0: c6c7 233c 1e1c 973c 0318 07bd 50ba 8cbb
000003d0: 1192 23bd b786 74bc b4e0 063d fe47 873b
000003e0: 0013 eebc 35b2 10bd 1bef da3c 2694 96bc
000003f0: 6573 a23c ec3f debc 8657 0abc 267e 00bd
-0.024826221 -0.027950725 0.03358314 -0.007324659 -0.02241196 9.2482325e-05 -0.032884188 0.010332271
-0.02759749 -0.0025306265 -0.0006831842 0.016299998 -0.027953295 0.03790447 0.032270297 0.010194555
0.023698082 0.00044916014 0.028387679 0.021858593 -0.04645488 0.03644465 0.042713966 0.0035469364
-0.008838326 0.00017833385 0.0028292232 -0.017645394 0.0048386054 -0.036471892 0.03741447 0.03376403
-0.011816024 -0.031553566 -0.0011978134 -0.027502583 0.00037101342 -0.025135068 0.003422008 0.041195076
-0.0021391825 -0.040198773 -0.034132708 0.03881055 -0.01923545 0.034077212 -0.014788219 -0.018077042
-0.007208017 -0.0050588227 -0.046963234 -0.021165535 0.034223888 -0.042384632 0.022985367 -0.0326087
0.0115391975 0.044085372 -0.014930553 0.0063341637 0.013798949 0.014878489 -0.037308507 -0.029971635
0.013823529 -0.04337596 -0.027826807 0.016355127 -0.0030894587 -0.023788556 0.010157079 0.04393397
-0.019912945 0.011732339 -0.014724435 -0.007578467 0.0033805114 0.012902204 -0.02982782 -0.017020693
0.039589215 0.03992593 0.025052875 0.02499471 0.02588354 -0.024012713 0.0009996442 0.0080807945
0.032396056 0.02314872 -0.029732442 -0.008487723 -0.016001677 0.0053151096 0.008617428 0.02655322
0.026960062 0.029234655 -0.040263563 0.026776638 0.007364649 0.013676549 -0.0125684505 -0.03415368
0.0107588 -0.039169554 0.0019748027 -0.043937296 0.004224264 0.008391248 -0.03453083 0.03570213
0.036426503 -0.010265302 0.008158776 -0.019229805 -0.032421827 -0.026336662 0.019977057 0.0302453
0.014704931 0.04226516 -0.03682381 -0.0077110357 0.037233632 0.0027923514 -0.018864352 -0.031702425
-0.044671595 0.006507074 -0.0055512884 -0.023758862 -0.012705277 -0.020087486 -0.017490458 -0.022728644
0.0092319455 0.009328977 -0.008642164 0.038552508 -0.033121496 -0.033611417 0.0074752704 0.036459193
-0.030506918 -0.016950266 0.024159279 -0.028449362 -0.042797837 0.03581295 0.0069396026 -0.008203216
0.0010917662 -0.028383706 0.036618568 0.03311314 -0.010670607 -0.021323718 0.027544156 0.037965965
-0.0100826835 0.031591903 -0.042183153 -0.014878921 -0.0047049476 -0.014419551 0.012953976 0.03518831
-0.04189267 0.043621045 -0.043527104 0.0052499203 0.02926841 -0.026859045 -0.009514772 0.037007693
-0.0114146685 0.020069236 0.013367052 -0.013006201 -0.00030705033 0.023788914 -0.04050399 -0.047533933
-0.04351755 -0.020504013 0.041318636 0.037571296 0.0013011977 -0.046097755 0.016562322 -0.049801882
0.03635056 0.023765933 -0.026709238 0.020020448 0.020236485 -0.021229334 -0.04137376 0.003325813
0.041701734 0.014257493 -0.02030132 0.034444876 -0.023385411 -0.021798233 -0.010668947 -0.016070597
-0.026845895 -0.04318064 0.02285397 0.02419042 -0.009104482 -0.04245786 0.031733148 0.019172808
-0.0060929824 0.0397289 0.0005559399 -0.044150993 -0.0037784122 -0.0025531272 -0.0369962 0.034841847
-0.04135321 -0.0026682802 0.0039945412 -0.04122144 -0.04221872 0.01812634 -0.0071670874 0.023677507
-0.0077030966 0.022376744 0.02257699 -0.014961104 0.024860341 -0.007591007 0.03655581 -0.035701256
0.00999636 0.018446025 -0.032981884 -0.004294671 -0.03993422 -0.014924697 0.032929137 0.004128455
-0.029061794 -0.0353262 0.026725342 -0.01838119 0.019830415 -0.02713009 -0.008443719 -0.031370305

l2.bias f4 [256]
00000000: 34a3 dd3c 9de7 e6ba 5455 c23c a845 15bd
00000010: df17 063d 78f1 9d3a 8af5 a9bc 2e03 57bc
00000020: b29c 063d 9e5b edbc 881c d8bc d64d 063d
00000030: efb7 0d3d 78b2 233d 10dd 0abd 9fcc 6b3d
00000040: 89c4 a43c 22bc 05b7 c62f 14bd 02b8 2bbc
00000050: 8e90 20bd 4300 2e3d 7629 233d 1733 ca3c
00000060: 09f5 e03c 7753 903c 59fa 9a3b 4cc9 de3c
00000070: f883 32bd 28f3 4bbc 9125 2fbd 33eb 9a3c
00000080: d019 6b3c 1bdd 6236 072b 97bb 0713 04bc
00000090: 2b94 153b 8967 1cbd 5946 153c 2e64 2f3d
000000a0: 27ef 853c 414d 573c a678 7fba 1863 37bc
000000b0: 0e35 b3bc 0356 1c3d 717a 823d 0d52 c7bc
000000c0: 09b1 0abd 9f5e b5ba 8c95 883a ea66 cdbc
000000d0: 1e0d 00ba 9d7c 0a3c 4e24 7f3d 12a4 29bc
000000e0: 6e46 0ebd aab7 383b 1588 03bd 78d7 203c
000000f0: f54a ffbc 305e dd3b 6847 14bc 228b 0f3c
00000100: b96c 613d 35d0 33bd bcb4 17bc da9c 2e3d
00000110: 5900 f43c c744 72bc d7e4 193d bf28 06bd
00000120: e1af 7abc d546 213d 0a2d 183c 5e19 1ebd
00000130: c39c 7e3c 48e4 903b 1144 2d3d fa97 2cbd
00000140: 850d 2a3b 97f9 03bd 81e0 143d 468d 393d
00000150: a064 36bd 69f6 29bd c3ff 163d 13b2 c3bc
00000160: fe32 0ebd 0475 763d cc50 483d 9101 06bc
00000170: 1a8f f9bc 2689 0cbd 9be9 153d b3b3 773c
00000180: 7c6e febc acae 08bd 2f1c f63b e87b 94bb
00000190: 9a89 973b ca80 02bd 4b43 c53c 567f a93b
000001a0: 3902 a83b 5570 463d d39e 7ebc 485c 9b3c
000001b0: 3a83 303d 3903 81bc e18b 303d e860 b23c
000001c0: 6b36 05bd f1df 5e3c 6f44 b13c fea8 7c3c
000001d0: 8c76 e3bc d68a 9e3c efcf 453d 614e e83c
000001e0: 27c7 223d ca0e 42bd f937 553d 2617 dc3b
000001f0: bb8d 71bc 3ca8 483c 873e 843d baa1 1a3d
00000200: 78eb 02bc 9dad a9ba 9646 043d edd1 773d
00000210: df9f dd3c 9312 763d 600a 993b 099a 0f3c
00000220: d932 0b3d 70e8 063c 76b3 27bd 2db0 8d3b
00000230: b7f8 88bc 01b7 0e3a f070 713d f5a5 0abc
00000240: 4382 b9bc 289f 023d 77f0 25bd b290 0fbd
00000250: 32b4 8cbb c87f 873d bb09 11bd 6a02 6cbc
00000260: 65e8 323d e103 f5bc ae67 a63c ee21 aabc
00000270: 9f2e 22bd db72 063d 0ffb 3dbc a5ff 413b
00000280: 6b7f 00bd 318a f63c 842a 5e3b 269a 873c
00000290: 92e7 e93c bebe 23bd b8db da3c 1a81 33bb
000002a0: a982 d83c 1152 ca3b 2aaa 713d eaa5 f53b
000002b0: 8ca3 8abc 73d5 3ebd 383e 02bd b79d 90bc
000002c0: b278 d73d 942c ce3c 9497 18bd 44b8 b43c
000002d0: e87d 9ebc 917b ebbc 00cd 713d a8b3 673d
000002e0: 9d48 b0bc 1a71 1f3d 8865 493d 8ea3 17bd
000002f0: 02ee 283d 53bc 25bd 5470 433d cf6f 483d
00000300: 6c2e 4b3a 3b26 30bc da17 24bd e2ae a2bc
00000310: 7c6d c73c 0d7a 103c fb1c 93bc d807 9abc
00000320: 54c8 423c 662d 5bbb eacf 923c 8cb2 603d
00000330: a949 af3b 32df 423d 72af d63b 2164 a3bc
00000340: d623 e4ba 83f2 153d 04c0 27bd 30f0 12bd
00000350: 9268 e13c 6b8d 253b 7712 56bb d8b7 a83d
00000360: c8f3 94bc 0785 383d b537 f4bc d60b 54bc
00000370: a45e 143d f3bb 9a3c a85b 153c 26f0 bcbc
00000380: ad4c e33b 80f2 f43c b558 5fbc b9e0 793c
00000390: 2644 acbc 4aa0 14bc 0006 113c 4a1f 9f3c
000003a0: 72e9 5ebc 6f8b 01bc ea36 ad3b eb98 783a
000003b0: 5c9f 36bc af8d 2d3d be93 2dbd 2f9a 3ebd
000003c0: 63d2 6f3c 6cc7 23bc 0096 3ebb be68 2c3d
000003d0: 1a91 2a3d f4e7 8bbb bfbd 35bc 4ed3 263d
000003e0: 9272 fb3c b89e 823d adac 87bc a957 853c
000003f0: 1d71 03bd d73c ecbc c37b a03d 834f 6c3c
0.02705536 -0.0017616634 0.023722328 -0.036443383 0.03273761 0.0012050113 -0.020746965 -0.013123317
0.03286428 -0.02897435 -0.026380792 0.032789074 0.03459924 0.039965123 -0.033902228 0.05756819
0.020113247 -7.971221e-06 -0.036178373 -0.010480883 -0.039200358 0.04248072 0.039834462 0.024682565
0.027460592 0.017617924 0.004729551 0.027195595 -0.043582886 -0.01244811 -0.042760435 0.01891098
0.014349416 3.3805325e-06 -0.0046132836 -0.008061177 0.002282391 -0.038184676 0.0091110105 0.04282015
0.016349388 0.013140977 -0.0009745456 -0.011193059 -0.021875884 0.038167965 0.0637101 -0.024331117
-0.03386024 -0.0013837403 0.0010420545 -0.025073487 -0.0004884767 0.008452562 0.062290482 -0.010354059
-0.034735136 0.0028185644 -0.0321122 0.009816997 -0.031163672 0.006755613 -0.009050228 0.008761199
0.055035327 -0.043899734 -0.009259399 0.042630054 0.029785322 -0.014786906 0.037571754 -0.032753702
-0.015300722 0.03937419 0.009288082 -0.03859841 0.015540305 0.0044217445 0.04230124 -0.042137124
0.0025948 -0.03222045 0.036346916 0.045300744 -0.044529557 -0.04149476 0.036865007 -0.023888623
-0.0347166 0.06017019 0.04890518 -0.008179084 -0.030463744 -0.034310482 0.036599737 0.015118527
-0.031058542 -0.033369705 0.007510684 -0.0045313723 0.0046245577 -0.031861104 0.02407994 0.0051726503
0.005127218 0.048446972 -0.015540796 0.018964902 0.043093897 -0.015748607 0.04310215 0.021774724
-0.0325226 0.0136031965 0.021639077 0.01542115 -0.027766488 0.019353312 0.048294004 0.028357686
0.039740708 -0.047377385 0.052055333 0.0067166267 -0.014743264 0.012247141 0.06457239 0.03775189
-0.00799071 -0.0012945418 0.03229388 0.060502935 0.027053772 0.060076308 0.0046704262 0.008764752
0.03398404 0.008234128 -0.04094263 0.0043239803 -0.016720159 0.000544414 0.058945596 -0.008462419
-0.022645121 0.031890064 -0.04051253 -0.0350501 -0.004293942 0.06616169 -0.03540967 -0.014404872
0.04367866 -0.029909076 0.02031311 -0.020768132 -0.039595243 0.03282438 -0.011595502 0.002960184
-0.031371515 0.030095192 0.0033899853 0.016552996 0.028552804 -0.039976828 0.026716098 -0.0027390183
0.026429491 0.006174334 0.05900017 0.007496585 -0.016923688 -0.04659028 -0.031797618 -0.01765333
0.10521068 0.02516774 -0.03725393 0.022060521 -0.019347146 -0.028745444 0.059033394 0.056567818
-0.021519 0.03892622 0.049169093 -0.037021212 0.041242607 -0.040462803 0.047714546 0.048934754
0.0007750753 -0.010751302 -0.04006181 -0.019858781 0.024344198 0.008818162 -0.017958155 -0.018802568
0.011888582 -0.0033443808 0.017921407 0.054857776 0.005349357 0.047576137 0.0065516764 -0.019945206
-0.00174057 0.03660823 -0.040954605 -0.035873592 0.027515683 0.0025261294 -0.0032664814 0.082381904
-0.01818265 0.04504874 -0.02981172 -0.012942275 0.03622307 0.01888845 0.009116091 -0.02306373
0.0069366307 0.02990079 -0.013631989 0.015251332 -0.02102859 -0.009071419 0.008851528 0.0194241
-0.013605462 -0.007906779 0.0052860873 0.0009483236 -0.011146393 0.042371448 -0.042377226 -0.04653376
0.014637562 -0.009996276 -0.0029081106 0.042092077 0.041642286 -0.0042695943 -0.011092602 0.04072886
0.03069428 0.063779294 -0.01656183 0.016277151 -0.032090295 -0.028837604 0.07836106 0.014423254

l3.weight f4 [3, 256]
00000000: bdcb 8bbb 01ef 2ebc 6db9 0ebd be6f 243d
00000010: 5740 4d3d 2edd 0ebd 3eda 9abd a044 363c
00000020: 20d5 173d 905e 303d 54d8 403d efc2 ea3c
00000030: 5cf4 363d 53a4 3cbd 7d2b 203c dacf a7bd
00000040: 7adb 71bd ed9f 1cbd f1e7 213d 12fe 5dbd
00000050: a47a 0ebd 41da a3bd 3ba0 66bd 169c 013d
00000060: 95a0 84bd f087 573d 58d8 683d c541 ff3b
00000070: 11cf 0f3d 4b20 2bbd f240 bf3b f77a 5e3d
00000080: f69a 533c e731 af3b a4f7 b03c bea7 97bd
00000090: d5e8 573d b80e 23bc c3f1 7dba ed30 0d3d
000000a0: 6ca2 03ba 36e2 9cbd fcf6 49bd 7057 953c
000000b0: 63cd 09bd 19ea fc3c b5ea 8dbd fc9c 94bc
000000c0: 9741 9fbd cb43 85bd 005c dbb8 641b 93bc
000000d0: 1e6f 643d d89c 95bb 2451 f4ba a33e 79bd
000000e0: 8c63 f7bc b2ca e0bc d4c9 9d3c 786d 25bc
000000f0: 1fe7 babc 7cf9 08bd 4a2e d53c ba4a 6fbb
00000100: e9fb dabc 44e5 e53c ecae d43c 3c23 f5bc
00000110: f8ee 6c3b f8d0 293d a7c3 95bd 2f90 043d
00000120: e20d 973c c4fd 88bc 5936 56bd 16bb 133d
00000130: e9bc b5bd 2dd9 8d3c c410 b9bc 5889 5e3c
00000140: d71c cdbc 4a74 523d c161 9bbb 5409 afbc
00000150: 8736 97bc 4443 f3bc 2c04 fcbc c569 633d
00000160: 36a3 ebbc e04e d63b 878b 2bbd f356 67b9
00000170: 973f 49bd 0af3 363c a9bc 493c a745 e2bb
00000180: 7e9a 723d 145e b73c 7264 57bd e808 9bbb
00000190: 8d83 e0bc 68c8 20bd 4ca9 403d 777c 79bd
000001a0: f3bd 3cbd 05be a7bd c541 ae3c ee10 233d
000001b0: 9f45 9c3c 00af 503c 6adc 96bd 9c14 85bc
000001c0: e5f4 443d 562c e33c c8dd 99bc ed73 31bd
000001d0: 8c37 0fbd 5dfd c43c e018 dbbc d68e 99bc
000001e0: 0706 2dbd 41a5 1d3d 1e5f 34bd 86fe 20bd
000001f0: 709b 36bd e870 16bc e41c e4bc 14bd 293d
00000200: 0006 5dbd a694 9bbd 7174 19bd 9768 14bd
00000210: ec89 39bd b6f7 a7bd 119d 0dbb dd08 f6bc
00000220: dc94 21bd 1b61 593d d469 fabb 5255 a23c
00000230: 6cdb 93bc c8a8 b43c 144a 85bd 677c 8b3b
00000240: 5ee1 0dbd 7cf5 db3c 598e 193d af88 dabc
00000250: 7ce8 4e3d f7dc 4ebd ff59 40bc 43b8 c4bc
00000260: 5f2f 85bd 378e a6bd 00c8 62bb 1b87 8ebd
00000270: b8b7 69bd cbc3 18be 0834 bbbc 6668 6cbd
00000280: a240 6ebd 308f f83c 067b c8bc c22e 8fbd
00000290: 7026 f7bb 20e4 7d3b 8ecb b9bc 70b4 dc3b
000002a0: d6a8 503d f0c0 03bd 6a45 13bd 4cfd 1a3d
000002b0: c2ad 7cbd b296 e6bb 8e35 3c3d cc0c f13c
000002c0: 268d f3bd a9e7 57bd ec96 48bd ab95 323d
000002d0: a3b0 fabc b3e3 59bc 684d 91bd e511 40bd
000002e0: a84d e33c cea2 0cbd 449d 14bd 724f 71bc
000002f0: d8f9 21bd e606 16bd 97a5 173c 68a5 22bd
00000300: 28db 973c b6f9 7cbd be51 9bbd df4a 0fbd
00000310: 38b1 40bd 0488 8dbd 26ea b4bc c8a3 a4bd
00000320: d6bf 193d 74aa a5bc 71b7 f43b 5b2f 78bd
00000330: 6088 1bbd a0bc 2e3c 7230 59bd 4728 f3bc
00000340: 684b aabc 694f a2bd 807f 96ba 8b4d 363d
00000350: 2a1d 1a3d 6419 c2bc aae5 abbd 9ab7 00be
00000360: bec5 94bc 1a40 86bd a702 a9bc fe25 0fbd
00000370: 5b9d bcbc 5570 a03b 6c77 82bd 9ce5 ccbc
00000380: 8a9b 9fbd 9f75 94bd 8aab f938 0abc 2abd
00000390: 5aca 05bd 806d b23a 0ce8 f9bc fe1c d0bc
000003a0: d93b c6bb 7d40 09bd b503 79bd 9acf 293c
000003b0: 403e a7bb 1aed cbbc 95e6 113d 0b6f 61bd
000003c0: 7c0c b03c 4533 a8bc 9259 643d 8978 02bd
000003d0: e93d 45bd 4655 95bd 626a 5ebd b615 87bd
000003e0: 0095 f73c 2190 14bd 1853 053d 7175 16bd
000003f0: 7b7a 41bd 154e 583d e5f6 eb3a 5a2a 0c3d
-0.004266231 -0.0106771 -0.034844805 0.04014563 0.050110187 -0.034878902 -0.07561158 0.01112476
0.037068486 0.04305893 0.047081307 0.028657405 0.044666633 -0.04605515 0.009775993 -0.081939414
-0.0590472 -0.038238455 0.039527837 -0.05419738 -0.034784928 -0.08000613 -0.05630515 0.031642996
-0.06475941 0.052619874 0.056846946 0.0077898228 0.035109583 -0.041778844 0.0058365995 0.054316487
0.012915364 0.005346525 0.02160246 -0.07405041 0.05271228 -0.00995224 -0.00096872094 0.034470487
-0.0005021456 -0.07660334 -0.04930781 0.01823017 -0.033643138 0.030873345 -0.069295324 -0.018141262
-0.07776182 -0.06507071 -0.0001045987 -0.017957397 0.055770032 -0.0045658164 -0.0018639904 -0.06085075
-0.030198835 -0.027440403 0.019261278 -0.0100969 -0.022815285 -0.03344105 0.026023049 -0.0036513046
-0.026731448 0.028063424 0.025962315 -0.029924028 0.0036153179 0.041459054 -0.07312708 0.032364067
0.018439237 -0.016722567 -0.052297924 0.03606709 -0.088739224 0.017315472 -0.022591002 0.01358255
-0.025038166 0.051380433 -0.004741878 -0.021366753 -0.018458618 -0.02969516 -0.030763708 0.05552079
-0.028764348 0.0065401644 -0.04188111 -0.00022062268 -0.04913291 0.011166343 0.0123130465 -0.006905276
0.059229366 0.022383727 -0.052586026 -0.0047312863 -0.027406478 -0.039253622 0.047036454 -0.060909715
-0.046079587 -0.0819054 0.021271596 0.039811067 0.019076167 0.012737036 -0.073662594 -0.016245179
0.048085112 0.027731102 -0.018782511 -0.043323446 -0.034965083 0.024046594 -0.02674526 -0.018744867
-0.042242076 0.038487677 -0.044036023 -0.039305232 -0.04458183 -0.009182192 -0.027845807 0.041440085
-0.0539608 -0.07596712 -0.037464563 -0.036232557 -0.04529755 -0.08201544 -0.0021608511 -0.030033523
-0.039448604 0.053071123 -0.00764201 0.019816075 -0.018048964 0.022053137 -0.0650827 0.0042567733
-0.034638755 0.026850455 0.03748927 -0.026676504 0.050514683 -0.050503697 -0.011740207 -0.024013644
-0.06503176 -0.08132594 -0.0034604073 -0.06959363 -0.057059973 -0.14918439 -0.022851959 -0.05771675
-0.058167107 0.030341715 -0.024472725 -0.0699134 -0.007542424 0.003874071 -0.02268007 0.006735377
0.050942264 -0.03216642 -0.03595487 0.03783922 -0.061689146 -0.0070370072 0.04594951 0.029425047
-0.11892156 -0.052711163 -0.048972055 0.043599766 -0.030601805 -0.013298917 -0.07094842 -0.046892066
0.02774699 -0.03433495 -0.036282793 -0.014728414 -0.03954491 -0.036627673 0.009255788 -0.039708525
0.018537119 -0.06176158 -0.075839505 -0.034983512 -0.04704401 -0.069107085 -0.022084307 -0.08039051
0.037536465 -0.02022288 0.007468157 -0.060592037 -0.037971854 0.010665089 -0.053024717 -0.029682292
-0.02078791 -0.079253025 -0.001148209 0.044507544 0.03762547 -0.023693748 -0.08393414 -0.12570038
-0.018160697 -0.06555195 -0.020631148 -0.03494834 -0.023024252 0.0048962035 -0.06370434 -0.02501183
-0.077933386 -0.07248997 0.00011905197 -0.041683234 -0.03266368 0.0013612956 -0.030506156 -0.02540445
-0.006049615 -0.033508766 -0.06079455 0.0103644375 -0.0051038563 -0.024893332 0.03562029 -0.05503754
0.021490328 -0.02053226 0.055749483 -0.031853233 -0.048154745 -0.07291655 -0.054300673 -0.06595938
0.030222416 -0.036270265 0.032549948 -0.036733095 -0.047235947 0.05280884 0.0018002657 0.034220077

l3.bias f4 [3]
00000000: 84ad 05bd 4d12 a2bc e3a1 64bc
-0.03263618 -0.019784117 -0.013954612
