saves/Dobot-v1/aim/seed_0/model/actor.pth (torch, 293719 bytes, 6 tensors)

l1.weight f4 [256, 24]
00000000: ac4e 09bf eeb7 3abf a7b1 063e d48a 0c3e
00000010: 9c87 c9bc 3201 14bf 989c dd3d c778 b03e
00000020: 2cd5 65be 6179 3abd d2d8 db3e 3bd2 26be
00000030: 422b df3e 75c4 373f 3a40 5cbf e08f 893e
00000040: f274 ce3e c436 d9bf 2b30 70bd 30d1 fb39
00000050: 10a4 b63e a9ab 2dbe 9438 813c dfd5 043e
00000060: 032f 443d b90a 34bd 4783 02be 7a13 0d3e
00000070: 2cb6 f1bd 5547 f0bc df67 8aba ffcc 42be
00000080: 5867 203e d16f 29be 1ba3 e93d 57b5 a43d
00000090: eeb7 92bd 52ec d8bd e7dd 1f3e 0430 abbd
000000a0: 723a 3a3e 0075 333a b2f4 443e ae94 113e
000000b0: 835b 71bd f9cf 0bbd 2b71 063c 9df1 043e
000000c0: 9a23 b43e 7fff 2fbe 0e72 fe3d 291a c7be
000000d0: 0414 9a3e 00d7 febe 5b0d bbbd a25b d9be
000000e0: f22e 8cbe 00cb 953d e935 09bf f371 ff3e
000000f0: 235a 45be cb4a d0bf 974d 723f 3859 3ebf
00000100: 0baa 90c0 bbd0 d93f 726a 313e 8711 613e
00000110: ae25 773d 01b3 af3b 1024 263f 9680 48bf
00000120: d699 6c3e 4c6b 1f3f 0f7c babf bb31 a33e
00000130: d9a1 d8be cdc2 003f 9266 8d3e 4dff 2c3f
00000140: 4541 85bd 4992 e83e 74d3 f83e ef55 40bf
00000150: f3d6 303f 85ba bb3f 2c04 22bf 126c a93e
00000160: fd78 0b40 2681 edbe f0a8 f6bd 806c 813d
00000170: fca2 8fbe aa9e c6be 8361 86be f65e 273f
00000180: 5586 17be dc83 18c0 f5ff 52be acc4 a03e
00000190: a527 3b3e c9a7 b1bd 787b 103f 5e8c 053e
000001a0: 0501 09bf 5a37 1e3f a928 b23e 7beb 23bf
000001b0: ded8 8f3f 16d3 15bf bb43 fb3e 3295 d63f
000001c0: ddbf a7bf 5a13 303f 0493 d2bc f998 c53d
000001d0: ab06 8e3f 7344 c3be 26b1 733a 8d26 3f3f
000001e0: 54e5 2a3f 37b0 f4bd 1c9c ba3e 3c0c 5c3e
000001f0: 084a 6fbe 269c e0bd e204 95be 1ed9 2cbf
00000200: d36e cabd 5fcd 9d3d 5347 10bf 5c4d c3bd
00000210: 0016 253f 0879 4fbf f2ff 0dbf df8c 5e3f
00000220: 5f43 71bf 58a9 12c0 4fed 9e3e b322 993e
00000230: b40d ca3d 5146 b23c 38ff 413f 1d4f 63bd
00000240: 5ab9 49be 6c60 a1bd 7da2 e0bd 1b66 373e
00000250: 19d9 763d 3024 e7bd 2c35 473d ada1 9ebd
00000260: 43f3 273e 1bbc b4bd c043 b63d e4b5 c93d
00000270: 90c5 fb3d 3c67 14bd 2c58 623e 925c 1e3d
00000280: 346d e5bc e9ba d7bd b028 8d3d c9ef 463d
00000290: a456 48bc 73a6 07bd 21fe 5d3e 9848 84bc
000002a0: 4913 33bf 90d6 66bf aafb 79be 9917 8abd
000002b0: 33c2 353f c3de 013f 4d0c ecbd 1072 bb3d
000002c0: 893c bdbd fef2 a4bd a50c f23e 96c1 cbbf
000002d0: 2cd3 513e 455b 4a3f f2df 9d3e d960 b03d
000002e0: ef51 6a3f 5e47 33be 2724 f0bd 6e89 82be
000002f0: 7e20 e93e 0bd8 ed3d d472 c5be 01f0 403f
00000300: 4668 e23e f626 8abf ba68 c5bd fb7d 6bbe
00000310: f3aa bf3e dc1c 4abd fa19 e0be d3c5 5ebf
00000320: 60e3 23bf 17da 0cbe f368 d0be 029a b2bf
00000330: 8d47 0bbf c0b9 efbe 882d 9ebf ac00 f9bd
00000340: 5d7f 80bf 3c01 95c0 2dc3 ef3d d32b c83e
00000350: a5b6 7a3f 27f3 953d 57fc 043f c247 583f
00000360: 3302 a7be b0fe 67be a4d7 9a3e 960b d23e
00000370: b722 2e3e bd6d 0ebf d5cb 233e 70da 1cbe
00000380: da66 86bd ad98 d03e d8f7 833d 4ecc 383f
00000390: fdf4 18bf 4f1f 023d 169e 833f 497b 73c0
000003a0: a31b 91be 51c2 1e40 a624 abbe 5163 45be
000003b0: 7b76 1b3d d664 ffbe 0a8d 043d 93f0 6cbe
000003c0: 9925 78bd bfa2 893d c7e1 923e d2e0 87be
000003d0: 6aa8 5ebe 7503 31bf 40df b3be 1007 13bf
000003e0: 324b efbd 1bf7 b8be 6028 f3be 4630 c23e
000003f0: 2772 68bf ffac f23f a2ee 74bd 926f bbbf
-0.5363567 -0.72936904 0.13153706 0.13724834 -0.024600796 -0.57814324 0.108208835 0.34467146
-0.224446 -0.045525912 0.42938858 -0.16291134 0.4358769 0.71784145 -0.860355 0.2686758
0.40323597 -1.6969838 -0.058639687 0.00048030308 0.35672045 -0.16960014 0.015774049 0.1297221
0.047896396 -0.04395554 -0.12745391 0.13776961 -0.11802325 -0.029330889 -0.001055952 -0.19023512
0.15664423 -0.16546561 0.11408063 0.080424 -0.07163988 -0.105919495 0.15611993 -0.08358768
0.18186358 0.00068457425 0.19233969 0.14216873 -0.058925163 -0.034133885 0.008205692 0.12982793
0.35183412 -0.17187308 0.12424098 -0.38887146 0.30093396 -0.49773407 -0.09133407 -0.42452723
-0.27379566 0.0731411 -0.53597885 0.49891624 -0.19272666 -1.6272825 0.9464964 -0.74354887
-4.520757 1.7016824 0.17325762 0.21979342 0.06033867 0.005361915 0.64898777 -0.78321207
0.23105559 0.622731 -1.456911 0.3187388 -0.4231098 0.5029724 0.27617317 0.6757706
-0.0650659 0.45424107 0.48598826 -0.75131124 0.69077986 1.4666296 -0.63287616 0.33090264
2.1792595 -0.46387595 -0.12043941 0.06319523 -0.28054035 -0.38792926 -0.2624627 0.65379274
-0.14797337 -2.383048 -0.20605452 0.3140005 0.18276842 -0.086745806 0.564384 0.13041827
-0.5351718 0.6180321 0.34796646 -0.6403119 1.1238058 -0.58525217 0.49075112 1.6764281
-1.3105427 0.6877953 -0.025704868 0.09648318 1.1095785 -0.3813816 0.00092961115 0.746682
0.66756177 -0.11947673 0.36447227 0.21489042 -0.23368084 -0.10967283 -0.29105288 -0.67518795
-0.09884419 0.07705187 -0.5635883 -0.095362395 0.64486694 -0.81044054 -0.55468667 0.869337
-0.94243425 -2.291586 0.31040427 0.29909286 0.09865895 0.021762045 0.7578006 -0.05549537
-0.19699612 -0.07879719 -0.10968492 0.17910044 0.060265634 -0.11286199 0.048634693 -0.07745681
0.1640139 -0.08824941 0.08899641 0.09849146 0.122935414 -0.036231264 0.22103947 0.0386625
-0.028006174 -0.10533697 0.06892526 0.04856852 -0.012227688 -0.033117723 0.21678974 -0.016147897
-0.699513 -0.90171146 -0.24412408 -0.06742782 0.7099945 0.5073053 -0.11525784 0.09152615
-0.09240062 -0.080541596 0.47275272 -1.5918453 0.20490712 0.79045516 0.3083492 0.08612222
0.9153127 -0.17507693 -0.117256455 -0.25495476 0.45532602 0.116134726 -0.3856417 0.75366217
0.4422018 -1.079314 -0.09639116 -0.22997276 0.3743511 -0.04934393 -0.4376982 -0.87020606
-0.6401882 -0.1375507 -0.4070507 -1.395325 -0.5440605 -0.46821404 -1.2357645 -0.12158331
-1.0038868 -4.6564007 0.11707149 0.39095935 0.97934943 0.07321768 0.5194754 0.84484494
-0.32618865 -0.2265575 0.30242646 0.41024464 0.1700543 -0.556362 0.15995724 -0.15317702
-0.06562586 0.40741482 0.06443757 0.72186744 -0.5974882 0.03176814 1.0282619 -3.8043997
-0.28341398 2.4806101 -0.33426398 -0.19276167 0.03795479 -0.4988162 0.032361068 -0.23138647
-0.06058273 0.067204945 0.2868788 -0.26538712 -0.21743932 -0.691459 -0.35131264 -0.5743265
-0.11684264 -0.36126027 -0.4749174 0.37927455 -0.9079918 1.8959044 -0.05979789 -1.4643424

l1.bias f4 [256]
00000000: a53d 7ebe a4ec 33be ee94 0ebe 0926 00be
00000010: da95 8d3c c8f8 a2bd 0acf d8bd b5c5 403e
00000020: 71b7 71be a9f1 7c3e 90f8 95bd 6130 143e
00000030: 1d60 06bd 4835 3c3c 422e 9dbe ae8e c2bd
00000040: b642 a5bd 566a 20be bc9d f23d 2fc0 2bbe
00000050: 4cbc 233c 44ee 01be 4803 53be 5c90 e73c
00000060: b995 203d 1326 afbd cf5c e7bb 8b89 bbbd
00000070: 2e13 8c3c 59a3 6c3e db2d aebc 85cc 29bd
00000080: 3e34 48be 15c6 25be b563 febd 40ff 53bd
00000090: ea89 5cbd c75e 333e fe21 6c3d 0313 603e
000000a0: 8544 7fbe f8fa b33c 54c5 92be 533f 1a3e
000000b0: 12d4 c0bd a214 4cbd 6584 28be e25f 4f3e
000000c0: a7bd 8c3d 0713 a0bd 8f76 223d 499f eebc
000000d0: db80 16be 116a 85bd 2b1a b9bc e073 88be
000000e0: e6dc bdbe 8492 283a 0f94 03be 7115 3cbe
000000f0: 6ff5 5bbd f895 6dbe abef 8cbe 4a12 c3bd
00000100: 2751 4dbe 2849 5dbe 3943 71be 6007 063e
00000110: 7fc3 82be 00f0 a4bd 1e64 29be b69a 47be
00000120: 82a6 7fbe 3543 09bd 16e2 ce3c f8b1 b9bd
00000130: eb4a f53d 52c1 0b3d 92b7 df3b d491 41be
00000140: 46ac 0c3e c5e3 2abe 364f 3abe 8fb8 6dbe
00000150: 6e77 7fbe b5d3 cabc f87f 5c3d 6974 e7bd
00000160: da9f 83be ce62 34be 9d20 b2bb 53d4 d1be
00000170: ad18 11bd 4525 46be e092 af3d 918f df3d
00000180: 54f4 ba3d 3919 5fbe 88ce d4be 122c dcbd
00000190: 5d1d 0dbe d013 9dbd fb5f 95be 645a a8be
000001a0: 7a8f 8ebe 3241 8ebd d720 8bbc 1301 10be
000001b0: 82e5 90be b011 a6bd 66ad 84be 3c00 12bd
000001c0: 56b7 53be 2343 063e c154 3fbe e405 aebd
000001d0: 970b 9abd 430d 023d f675 d4bd c803 65bc
000001e0: 7399 8bbe f7bd 21be 2d46 0d3e f54d 5b3e
000001f0: 0045 c5bd 5cd2 bcbe 4143 3b3d 9d7e fcbd
00000200: 5fde 433e e094 9dbc cb8b 163e 3111 f7bd
00000210: 95ec 953c 928e 3a3c 0006 4ebe 5845 ac3d
00000220: d857 63bb ca0f 53be decf 91be 1935 69be
00000230: 3fb5 d0bd 155d ee3b 3ac5 e6bd 1014 38be
00000240: 316d 2a3d 2890 a13d 7d8b 96bd 1208 9a3c
00000250: 7b62 39be 377c 983e 40fe 84be a266 ca3d
00000260: 2ab6 8bbe a970 aabd 7e29 59be 38eb f4bc
00000270: 4a3f 213a d95b 4ebe d0b5 81be 3d6a 64be
00000280: 8d7e c4be 3d8d 1cbd aa45 d63d 672c dfbd
00000290: 4ac2 163e acd4 1ebe f344 a5bd 8b68 2dbe
000002a0: 584b f3bd 322d f4bd ec30 f7bd 0b94 9e3d
000002b0: c812 5f3d 32e8 a6be c4fc 3a3e 8bb6 06be
000002c0: 0da5 3bbe f4d8 4cbe 5fab f6bd 4f54 7a3d
000002d0: 4744 a7be 1c9e aebd 52fb 6cbe 3571 e73e
000002e0: e70a 54bd a760 9dbe 6bf1 293c a889 e2bd
000002f0: 4d25 8a3d a66a ac3d f157 47bd 1f41 ec3e
00000300: ad79 02be 978b 19be 3e27 823d 1f78 bbbd
00000310: 0b0c 0cbe a5e1 f3bd 148b 66be 45f1 98bd
00000320: ada9 653c 6fae d5be f1a7 483d 326a a83d
00000330: fcd3 cebe 6271 813d 427f d13d 96ac cf3c
00000340: 57c0 ab3d bcc3 b0bd 87bf 61bd 191a 5dbe
00000350: 1f20 ebbe 9f0b 4bbe d1d4 0cbe b1bc 7e3d
00000360: e0ed 2dbe f748 11be 3f9e 07bb efab 64bd
00000370: e01d ccbc c726 063e 9d69 673c 7a30 7bbe
00000380: 9419 8bbe 5ed4 e4bc 3711 27bd a241 a4bb
00000390: 71d4 b83b a86b afbd 09c8 f3bc f5da 1fbd
000003a0: 1664 4ebe 4ac0 f03e d807 8cbe f35d c4bd
000003b0: 6ae6 4c3d 573c 2ebd 6f72 d5be 60ae 85be
000003c0: dfc6 993d c731 6c3e a1f3 5b3d 5d5d 81be
000003d0: 44d0 82bd 64b9 6cbd 6060 9dbe e02b 9b3d
000003e0: 7ce6 64be 6022 02bc 9dea 1bbe 5493 d6bd
000003f0: 7d41 65be d884 3e3d 2d02 11bd 8121 88be
-0.24828203 -0.1757074 -0.13924 -0.1251451 0.017283369 -0.079576075 -0.105863646 0.18825419
-0.23605134 0.24701561 -0.073228 0.1447158 -0.032806505 0.011487313 -0.30699354 -0.0949987
-0.08069365 -0.15665564 0.11846492 -0.16772531 0.009993624 -0.12688547 -0.2060672 0.028267078
0.039205287 -0.08552184 -0.007060624 -0.091570936 0.01709899 0.23109187 -0.0212621 -0.04145481
-0.19551179 -0.16188844 -0.12421361 -0.051757097 -0.053842463 0.17516623 0.057649605 0.21882252
-0.24928482 0.021970257 -0.28666174 0.15063219 -0.09415449 -0.049824364 -0.16456755 0.2025142
0.06872111 -0.07816129 0.039663848 -0.029128687 -0.14697592 -0.06514371 -0.022595486 -0.26650906
-0.37082595 0.0006430524 -0.12849449 -0.18367554 -0.05370086 -0.2320174 -0.27526602 -0.09524973
-0.20050488 -0.21609938 -0.235608 0.13088751 -0.25539777 -0.08053589 -0.16542098 -0.19492611
-0.24965861 -0.03351136 0.02525429 -0.09067148 0.1197718 0.03411991 0.006827303 -0.18903285
0.13737592 -0.1668845 -0.18194279 -0.23214935 -0.24947903 -0.024759153 0.053832978 -0.113015
-0.25707895 -0.17615816 -0.0054360167 -0.40982303 -0.035423923 -0.19350155 0.08572936 0.10916055
0.09128633 -0.21786965 -0.4156382 -0.10750593 -0.13780732 -0.076697946 -0.2917479 -0.32881463
-0.2784384 -0.06946029 -0.016983433 -0.1406291 -0.283001 -0.081088424 -0.25913543 -0.035644755
-0.20675406 0.13111548 -0.18684675 -0.08497217 -0.07521742 0.03175093 -0.10374062 -0.013977952
-0.2726551 -0.15795122 0.13796301 0.21416457 -0.09632301 -0.3687924 0.045718435 -0.12328837
0.19127797 -0.019236028 0.14701764 -0.12063826 0.018301288 0.0113865305 -0.20119476 0.08411664
-0.003468981 -0.20611492 -0.28478903 -0.22774161 -0.1019082 0.00727428 -0.11268087 -0.17976403
0.04160804 0.07888824 -0.07350824 0.018802676 -0.18103974 0.29782268 -0.25975227 0.09882857
-0.27287418 -0.083222695 -0.21207234 -0.029897317 0.00061510934 -0.20152225 -0.25334024 -0.22306152
-0.383778 -0.038220633 0.10462506 -0.10897141 0.14722553 -0.15510815 -0.08069792 -0.16934411
-0.11879605 -0.11922683 -0.12069878 0.07743081 0.05446127 -0.32599026 0.18260485 -0.13155572
-0.1832468 -0.20004636 -0.12044405 0.06111556 -0.3266928 -0.08526251 -0.23142746 0.45203558
-0.05176821 -0.30737802 0.0103725 -0.11061412 0.06745396 0.08418779 -0.04866785 0.46143433
-0.12741728 -0.14994656 0.06355141 -0.09153771 -0.13676469 -0.11908273 -0.22513992 -0.074678935
0.014017505 -0.41734645 0.048988286 0.0822338 -0.40396106 0.06320454 0.102293506 0.02535085
0.08386295 -0.08631083 -0.055114295 -0.21591987 -0.45922944 -0.19828652 -0.13753058 0.06219167
-0.16985273 -0.1418799 -0.0020693687 -0.05582803 -0.02491659 0.1310073 0.014124301 -0.24530211
-0.27167952 -0.027933296 -0.0407879 -0.005012707 0.0056405594 -0.08565456 -0.02975847 -0.039027173
-0.20155367 0.47021705 -0.27349734 -0.09588232 0.050024427 -0.042538013 -0.41688868 -0.261096
0.07508635 0.23065864 0.05369914 -0.25266543 -0.0638738 -0.05779399 -0.3073759 0.07576728
-0.22353548 -0.007942766 -0.15226217 -0.10477319 -0.22388263 0.04651341 -0.035402466 -0.2658806

l2.weight f4 [256, 256]
00000000: a6ca a4be 002d f4b9 f02f f33d 0464 cabf
00000010: 66ef 283f b4c3 4c3e b2f0 2bbd ebe5 c9be
00000020: 1f1e d23e 036b 433f e8f1 8fbf 7417 b33e
00000030: 4635 14bd 0cd1 1bbf bce0 69bd 4f59 ec3e
00000040: dd02 243f b78b 2c3f 2255 023f aa0a bbbd
00000050: cb2d d23f 26a5 363d c53d 853f 8065 3f3b
00000060: f60a c3bf 71a8 51be 31b9 05c0 86db 553d
00000070: 0962 01bf ba15 323f 3af0 c0bf a39e f9bc
00000080: 2b90 8b3c d707 66bf f351 053e b0a1 b7bc
00000090: 21fb 213f 1abe 61bf f40f 64be a778 5b3f
000000a0: 3102 c4bf 9ced 3abd 564f 8f3e 6a1d 2740
000000b0: a575 28bf 70db 2dbc ec3e 233d 1c1e a7be
000000c0: 29e3 91be 0193 b8be ce83 43bf e4a2 db3e
000000d0: 279c 2fbe 862f 27bc 00e1 643d 4a91 fe3b
000000e0: 2f37 fcbf 5f0e 1cbf 75e0 2ebf 0d56 dc3d
000000f0: 95ec 12c0 257c dabe 1528 103e f724 0d3d
00000100: e0af 3fbc bb33 763c 0e54 aabf d8db 583e
00000110: 2195 06bf 2b1f fbbb 40b6 383c 40c5 6fbc
00000120: 184b 41bf d06e 3ebd 1b27 4bbf 64d2 94bc
00000130: fce6 103e 4f56 c3bf 1ab4 08be 2406 03bd
00000140: ccc4 5ebd 8e5c bb3f bf7a b7bd 88f0 b5be
00000150: 1c84 a1be 5471 0dbe 1426 b9be 9419 4e3e
00000160: 1d05 a4bf 18d9 253c 9752 bb3e 4a19 68be
00000170: 64d5 e8be 67ac 80bf 224e e1bf 2546 2bbf
00000180: dff1 cfbf 3a69 d93e 6079 973e 6da6 b9be
00000190: 9213 6e3d fc18 1dbf 3643 acbe 6570 a03e
000001a0: b48f 15be f087 243f 7ec1 033f f769 4b3f
000001b0: baed de3f 2767 8dbd 3c43 d2bc db45 143e
000001c0: ee4f 96bf 3d4d c7be 5031 e93b 6295 173d
000001d0: 8834 453f 7178 133f 04cc ccbd aea7 90be
000001e0: dbd5 733d b888 34bc 53a8 0ebe 14f9 db3e
000001f0: aaf3 8c3c 54d7 f0bf 5535 c6bf ce50 9cbe
00000200: 234e 963f b2d2 b03e 7900 75be 83a0 8ebe
00000210: 3f80 80bf a33a 38be ee4c 203d 5731 e23f
00000220: 6dc4 b13e 123c 9a3f 335c a0be a0c4 febd
00000230: 7197 2fbe 1eb1 04c0 5b14 d73b 5da6 463f
00000240: 1b2c 8a3e f018 a13e bc5f a5be dba0 fa3d
00000250: 9b7f 6fbf 0ff4 7e3e d711 efbe 66ed 28bf
00000260: fd57 32bf 5abd 493f 9601 6e3f 4e9d 46bf
00000270: 35c3 c6be a0c2 8bbf 0869 5c3f e7dd fdbe
00000280: a2f7 ccbc 354f 6dbc 1679 50bf 971b a23e
00000290: 3b81 0e3f 97eb 603f 0be1 b73c fc1e 3b3d
000002a0: d8c8 e3bc d4b6 f43c 2035 14bf fb4a 9c3e
000002b0: 7944 aebf 0f76 d33c 0073 afbb a346 46bd
000002c0: d704 68bf 16e9 823f 3235 a33e 51b0 643f
000002d0: 0c2e e23f 1b3e 29bf 5a33 b53f 123d 4cbe
000002e0: faec e8be 77fb 30be 0abb 97bf 985f 13be
000002f0: 6bea 1a3f bb1a 47bf a52e 393f 6855 493e
00000300: bed0 a0bd a0ab 033c 3ee7 04bf 4c05 e63e
00000310: 167a 643f 45f9 a23e db8b 9bbf 9b5c 8d3f
00000320: 126a ae3c 9307 02be 174c 61bf eb33 46bf
00000330: 2648 c3be 66dd 8abd fb67 bd3e 6dbb 043f
00000340: 6731 d13e 40dc 74bd 0040 a9b6 ba8d 37bf
00000350: 7605 e1be 966f 7cba 9401 763d d2d9 b93d
00000360: e20f 6abd ac44 013d 0096 9b3d 4f8f 0c3f
00000370: aa4f e1be c398 96bf e7e8 5f3d 3831 cc3e
00000380: 4552 87bf 442a 893c 9036 c0bb 0694 e43e
00000390: d751 52be 760d 44bf b422 73be 863b fc3d
000003a0: d737 823e fc07 9c3e ed2b da3e f8b4 3d3f
000003b0: 3da0 44bf 43dc 4f3f 4414 8bbf 492d d23d
000003c0: 8083 a03f 7ffa 13bf 8592 a9bf 756a 2dbf
000003d0: ff82 a53e 7288 e03e b7d2 ba3d 4c17 51bf
000003e0: cbda cb3e 5012 113f 5781 b63c b5aa 913e
000003f0: 79cb de3d 2c8e 80bb 68d8 70bf ff96 e6be
-0.32185858 -0.00046572834 0.11874378 -1.5811772 0.65990293 0.1999653 -0.04197759 -0.39433226
0.41038606 0.7633516 -1.1245699 0.3497883 -0.036183618 -0.60865855 -0.05709909 0.46161887
0.6406687 0.6740069 0.5091115 -0.091328934 1.6420225 0.04459109 1.0409476 0.0029204786
-1.523772 -0.20474412 -2.0894282 0.052211307 -0.50540215 0.695644 -1.5073311 -0.030471152
0.017036518 -0.8985571 0.13019542 -0.022415966 0.6327382 -0.88180697 -0.2227171 0.85730976
-1.5313169 -0.04563676 0.27990216 2.6111703 -0.6580451 -0.0106114 0.03985493 -0.3264016
-0.28493622 -0.36049655 -0.76372993 0.42897713 -0.17149411 -0.010204202 0.05587864 0.0077687846
-1.9704341 -0.6095943 -0.68311244 0.107586004 -2.2956898 -0.4267284 0.1407779 0.03445908
-0.011699647 0.015026982 -1.3306901 0.21177614 -0.525713 -0.0076636276 0.011273921 -0.01463443
-0.7550521 -0.046492398 -0.79356545 -0.018166728 0.14150614 -1.5260714 -0.13349953 -0.031988278
-0.0543869 1.463762 -0.08958959 -0.35535073 -0.31546104 -0.13812762 -0.36161864 0.20126945
-1.281406 0.01012256 0.3658645 -0.22665897 -0.45475304 -1.0052613 -1.7601969 -0.6690391
-1.6245688 0.42463094 0.2958479 -0.36259785 0.058124132 -0.6136625 -0.33645028 0.3133575
-0.146056 0.64269924 0.5146712 0.79458565 1.7416298 -0.069044404 -0.025666825 0.14479773
-1.1743143 -0.38926116 0.007116474 0.037007697 0.7703328 0.57605654 -0.099998504 -0.2825293
0.05953012 -0.011018924 -0.13931398 0.4296347 0.017206032 -1.8815713 -1.5485026 -0.305304
1.1742595 0.34535748 -0.23925962 -0.27856836 -1.0039138 -0.17991118 0.039135866 1.7671307
0.34720173 1.2049582 -0.31320342 -0.12439847 -0.17147614 -2.0733104 0.006563706 0.775976
0.26986775 0.31464338 -0.32299602 0.12237712 -0.93554085 0.24897788 -0.46693298 -0.6598724
-0.6966551 0.7880455 0.9297117 -0.7758378 -0.38820806 -1.091877 0.86097765 -0.4958336
-0.025020424 -0.014484216 -0.8143476 0.31661674 0.5566594 0.8785948 0.022446176 0.045683846
-0.02780573 0.029872335 -0.5789356 0.30525956 -1.3614646 0.02581313 -0.0053542852 -0.04840721
-0.90632385 1.0227382 0.31876522 0.8933154 1.7670302 -0.6611039 1.4156296 -0.19945171
-0.454933 -0.17283426 -1.1853955 -0.14391935 0.60513943 -0.7777516 0.723368 0.19661486
-0.078523144 0.008036524 -0.5191535 0.44925916 0.8924879 0.31830803 -1.2152056 1.1043886
0.021290813 -0.12698202 -0.8800673 -0.7742297 -0.38140982 -0.0678051 0.36993393 0.5184849
0.40858003 -0.05978036 -5.044043e-06 -0.7170063 -0.4394948 -0.0009629665 0.0600601 0.09074749
-0.057144053 0.03155963 0.075969696 0.5490617 -0.4400609 -1.1765369 0.054665472 0.398813
-1.0571982 0.016743787 -0.0058658794 0.44644183 -0.20539032 -0.7658304 -0.23743707 0.12316041
0.25433227 0.30474842 0.42611638 0.7410426 -0.76807004 0.8119547 -1.086556 0.10262544
1.2540131 -0.578041 -1.3247839 -0.67740566 0.32326505 0.438541 0.09122222 -0.81676173
0.39815363 0.5666857 0.02227847 0.28450552 0.10878653 -0.003923198 -0.9408021 -0.45037076

l2.bias f4 [256]
00000000: 5624 cfbe b75e 6cbe 989d 9dbe 5d5b 543e
00000010: c7dc 06bd 13c8 9bbd 764e e2be 4a07 92bd
00000020: 7069 f1bd be24 953c 2b02 30be 285f 36bd
00000030: 5913 69bd 9da4 493e 589a a1be 0e25 91bd
00000040: 8b4f 15be b3ae 513e 92d3 c93d 96f4 92bd
00000050: 2673 06be 4a64 36bc 9905 20bc 7084 7cbd
00000060: 0c49 993e 0c26 fe3c 8081 51bd 5fe6 233e
00000070: 131a 583e 218c 29bd 4d02 c73c bc16 37bd
00000080: 7ebb 293e bd4c 043d dbfd 88bb 6681 5c3d
00000090: cc62 28be 3456 98bd 10e8 883e e263 f33e
000000a0: d90d 663e 04e1 513d 116b 16bc 0d88 573e
000000b0: e23b 86bd ce91 d6bd c822 f73d c7b0 ecbe
000000c0: f8ac 593e 3be7 2cbe 544f 883e 0b80 77bd
000000d0: 6ed1 783c 55a9 553c d6a5 213c bf4c 3cbd
000000e0: 3226 67be 2f60 a1bd be39 bc3e 3098 9abc
000000f0: dc72 20bd 6604 8fbd b9f5 a0be 921b 5c3e
00000100: a5ba 713e ec0d b53e 06f5 9cbe b459 183c
00000110: b0db 9bbe e40c 703a 1bfe 02be 02da 813e
00000120: 2132 113c 9a3c 3b3a 6d80 ee3c 2a1b d1bc
00000130: 333e 45bd 3884 1b3d 7a8c 09be 4013 18bd
00000140: a2b6 b7bd 991b b53d 514c 4ebe a803 203d
00000150: 83c2 2fbe beb7 70bd 53e6 d3bd 1bd1 85bd
00000160: 6edb 14bf 1acf 89bd 1243 36be 1387 833e
00000170: b8b7 2f3e b327 e7bd 9a91 a73e 2ad7 75b9
00000180: 2c31 45bd 7435 70bd 707e 8c3b ef42 593c
00000190: 103c f03e 1727 adbe 5d6d 943c 5f8f 003d
000001a0: 8488 82bd 7423 cdbc 5262 16bd ef11 203e
000001b0: 53f4 35bd ebaf cd3d 59da f93c 4c10 aebd
000001c0: 4288 c43b 1c28 203e ac8e 3bbd 6859 a9bd
000001d0: d317 ecbc 459e c13d d8e3 233e 8f1b 49bd
000001e0: 0030 b23e d6b8 99bd 8dd0 8ebd 6e01 cfbd
000001f0: e362 14be 3edd 7dbe e8ab b63d ed12 debe
00000200: cd63 c0bd eb93 04bf 9a03 52bc 662a 49bd
00000210: 0cbe b0bd 0144 423d 0a74 e43c 7c42 08be
00000220: ae84 2dbe 4493 9fbd 7bdf 81be 7594 efbd
00000230: 993f 1dbe cdf7 4a3e 38a2 eb3d bb07 213c
00000240: aeeb 733d 10e2 7f3e 3ace 283d 6c79 61bd
00000250: ab00 abbd 6009 b2bc 9f6c 3e3b 0d0d 8fbe
00000260: 5e67 a93e 5a68 70be 7abb a2bd c682 573c
00000270: b1ca 67be 307a b13d dd4e 00be 5260 963e
00000280: c5c7 8abe 80eb 32be 13ef 9d3e a1ad bebb
00000290: 8c0b ab3e 6d9c 63be b033 9a3d 2c8a 4e3d
000002a0: 14a5 3eb9 5e91 8dbe 60c0 f23d b8c5 abbe
000002b0: 1ec4 a6be f9d0 cfbe 56ce 65bd 04a9 9fbe
000002c0: 112b d2bd b920 a43e d5a1 0e3d c8f2 623e
000002d0: 8cf3 b33e 215b 963d b87c c1be 78e0 68bd
000002e0: 520d 14be 473a 953e 9a51 3c3e 2351 8cbe
000002f0: 4d2d a1be 7f5a 163e 511b 8fbe be03 39bd
00000300: 4021 cf3d 896c 93be ed6f e33c 38c0 603e
00000310: 6063 afbd ee7b 96be d769 56be af21 673e
00000320: 0626 d8bc 7052 a6bd b593 d83e f4b8 3dbe
00000330: 23ca b6be 2573 0b3e f61a c03d 1447 463b
00000340: a310 1ebf df4f 86be 6d9d 543d f94e 55be
00000350: d008 c73c 8b93 f1bc 87ab 663d 8a96 143e
00000360: b284 80bb 3f7d ba3d 19cd 75be 0289 f8b9
00000370: f19f bebe 2d83 c8be 8b10 8e3c 2041 39bd
00000380: 119a b4be 5ede e63b ac07 a6be b6b9 3cbd
00000390: 72f2 25bd d41a e4bc 5fe4 1e3b 9865 653e
000003a0: 7ed8 56bd a1e8 a3bc 0368 253f 4689 0f3e
000003b0: 08c3 9f3e 5eba 513e 5c63 153c b3e9 2bbe
000003c0: b933 fdbd 6879 e9be 7783 e2be 9304 6a3b
000003d0: 8955 813c 3a37 943e c8fa 423e ea9e 303e
000003e0: 23d2 b33e 2be2 ea3d 3713 dabc 055c 073e
000003f0: 94c4 943c d6cc 04bd 63e3 433e 8f92 f93d
-0.4045741 -0.23083006 -0.30784297 0.20737977 -0.032925393 -0.076065205 -0.44200486 -0.071302965
-0.11787689 0.018205997 -0.17188327 -0.04452434 -0.056903217 0.19691701 -0.31563067 -0.07087146
-0.14581124 0.20476799 0.09854807 -0.07175557 -0.13129863 -0.011132309 -0.00976696 -0.06164974
0.29938543 0.031024002 -0.05114889 0.16005848 0.21103697 -0.041393403 0.02429309 -0.044699416
0.16575429 0.032299746 -0.0041806526 0.05383434 -0.16443938 -0.07438317 0.2673955 0.47537142
0.2246622 0.051239982 -0.0091808 0.21047993 -0.065543905 -0.10477029 0.12067181 -0.4622862
0.21257389 -0.16885082 0.26623023 -0.060424846 0.015186651 0.01304086 0.0098661985 -0.04597163
-0.22573164 -0.07879674 0.36762804 -0.018871397 -0.03917204 -0.06983261 -0.31437472 0.21494892
0.23606355 0.35362184 -0.30655688 0.009298731 -0.30441046 0.0009157194 -0.12792246 0.2536164
0.008862049 0.0007142514 0.029113973 -0.025525648 -0.04815502 0.03796789 -0.13432494 -0.037127733
-0.08970381 0.088431545 -0.201463 0.039065987 -0.17164044 -0.05876898 -0.10346665 -0.06534024
-0.58147323 -0.067289546 -0.17799023 0.2568899 0.17159927 -0.11286869 0.32728273 -0.00023445176
-0.048142597 -0.058644727 0.0042875335 0.013260587 0.46920824 -0.33818886 0.018118555 0.03138673
-0.063736945 -0.02504132 -0.03671486 0.15631841 -0.04442246 0.10043319 0.030499624 -0.08499202
0.0059976885 0.156403 -0.04579036 -0.08269006 -0.028819954 0.09454016 0.16004884 -0.049098548
0.34802246 -0.07505958 -0.06973372 -0.101076946 -0.14490847 -0.24791428 0.08919507 -0.43373814
-0.093940355 -0.51788205 -0.0128182415 -0.0491127 -0.086299986 0.047428135 0.027887363 -0.13306612
-0.16945145 -0.077917606 -0.25365815 -0.11698238 -0.15356292 0.19821091 0.1150555 0.009828503
0.059550934 0.2498858 0.041212298 -0.055047438 -0.08349737 -0.021732986 0.0029056442 -0.27939644
0.33086675 -0.23477307 -0.079459146 0.013153737 -0.22635914 0.086658835 -0.12530084 0.29370362
-0.27105537 -0.17472649 0.30846462 -0.005819038 0.33407247 -0.2222764 0.0752939 0.05042474
-0.00018181308 -0.2764997 0.11853099 -0.33549285 -0.325715 -0.4058912 -0.05610498 -0.31183636
-0.102621205 0.32056215 0.034822304 0.22162926 0.3514675 0.073416 -0.37790465 -0.056854695
-0.14458206 0.29146025 0.18390504 -0.27405652 -0.31479874 0.14682959 -0.27950528 -0.045169584
0.10113764 -0.28793743 0.027763331 0.21948326 -0.08563876 -0.29391426 -0.20938812 0.22571443
-0.026385318 -0.081211925 0.42300192 -0.18527585 -0.35701093 0.13618143 0.093801424 0.0030254768
-0.61744136 -0.26232812 0.051907945 -0.20830907 0.024296194 -0.0294893 0.056315925 0.14510551
-0.0039220685 0.0910592 -0.2400402 -0.00047404325 -0.372314 -0.3916258 0.017341873 -0.045228124
-0.35273793 0.007045551 -0.32427728 -0.046075545 -0.040514417 -0.027844824 0.0024245006 0.22402036
-0.052452557 -0.020008387 0.64611834 0.1401721 0.31203485 0.2048125 0.009117927 -0.16788368
-0.12363381 -0.45600438 -0.44240925 0.0035708293 0.015787857 0.28948385 0.19040978 0.17248121
0.3512126 0.11468919 -0.02662049 0.13218696 0.018160142 -0.03242191 0.1912971 0.12186157

l3.weight f4 [3, 256]
00000000: ae54 a23d 94b2 91bf 04c3 c13f d87d 833f
00000010: c445 913f 60da 8abf 29cb 663d 9553 873e
00000020: 14f0 bb3e e929 0e3e c69d dc3f 55ee b03c
00000030: e65b 70bc 72b3 0fc0 7e3f 18c0 e3b3 c2ba
00000040: 2309 b9bf 1ed0 513d 941b 90bf d28b b03f
00000050: 0681 2440 a4cf c5bf 63f5 17bf 2a78 743c
00000060: ab73 483f 79c5 0fbf 0749 eb3c 4b59 f8be
00000070: 5c2e 3d3f 9371 14c0 7ae1 a03f 343f e63c
00000080: d21c 1040 aba5 bebc 9639 343b 6922 f3bf
00000090: 5a67 e4bf aad9 e73e c156 cabf 06d4 3abf
000000a0: 9cf7 10bf 1de4 f4be 1de1 b7bf 8269 153f
000000b0: f00d fb3b 2a76 23bf 2eb2 6f3f a038 abc0
000000c0: 2e7c debf 9358 fcbf dd1a 1fc0 6d54 b03c
000000d0: 23c8 d9bf 3abb 383d c43b 1d3a 560b 233d
000000e0: e8df d9be 4d9c e53f f4a2 bb3f 0802 82bc
000000f0: 4a46 e5be 8a6a 9cbb 90af cf3f 72af 27c0
00000100: 60d2 ed3f 019e 3bbf 3a38 0b3f 31a7 533c
00000110: 9903 87be 4223 7bbd 13ac e4bf d5c9 adbf
00000120: 4970 0e3b 05b5 3c3d 2268 0040 fa4c dc3c
00000130: d9cb 1b3f da2c 853d d579 663f 1bf1 6cbf
00000140: 7d83 5e3b ade2 91be 334a 903e 2fc7 aa3f
00000150: 4a5d e63e c7da 803d 12ea 07bd b786 18bf
00000160: 9ff8 2ec0 c348 d2be 2375 32c0 c424 5e3f
00000170: b928 e33f bbc6 9dbf 8078 0e40 9617 2540
00000180: f69c 0e3d 5078 6abc d2ca 593d 2914 113d
00000190: fc24 183e cc06 9a3d 32a0 303f e056 fd3c
000001a0: 5b2d a93b c82c 4b3d b532 2fbb c807 1d40
000001b0: 8b45 0f3d 6f5f 6f3f 3b41 153f a0d2 a23d
000001c0: 3b27 ac3f e86a 9fbe cec0 0b3d f27f dabc
000001d0: 3927 963d 7f1d af3f d6a6 393f 8250 ab3b
000001e0: 7d0d 7e3f c121 91be d93c f5bb 1e90 c7bf
000001f0: 47bb 08c0 96e7 c3bf 1840 923e a0aa ad3f
00000200: 90ff abbf c5db 9ebf 2d98 3d40 f0cb 42bf
00000210: 063c 2d40 81a7 94bd 35d2 fc3c 5b1e 75bf
00000220: 5bee 7840 c3eb dfbc a8ca 9bbf f702 89bf
00000230: 5e92 ed3f b844 0f3f 334e 863f 14c8 23bd
00000240: a4e9 643f 7ca3 6bc0 b5be b13e 7aeb 1340
00000250: 9b2d 3440 6392 ebbf 0ca6 e33c 71b8 933f
00000260: dff9 babf 794c 86bf f36d bb3f 52fe c0bf
00000270: aa72 06c0 1dc2 cf3f 9d79 f13f b4e7 abbf
00000280: 2bef 68bf 643f 7c3f 5e9d 65bf 8648 b43f
00000290: 2914 29bf c296 d7bf dd7e af3e 0941 0d3f
000002a0: ae20 203f 814a 743f 3426 b23f 4a08 6abf
000002b0: 7d6d 14c0 2106 e43e 3219 5d3d 40b9 bfbf
000002c0: 075c 3dbb cd52 8bbf 97b1 f5be 0ae8 e5ba
000002d0: 6f7a 89bf e9e1 21c0 d431 043e 3996 273d
000002e0: 46d8 d3bf b346 6dbe 1844 7b3f 0acc 043f
000002f0: ba0c e3bf 9c3b 0ebf 2916 aa3f 6184 bc3d
00000300: e5e0 6f3c 196c cf3c 856f 673c 1350 50be
00000310: b6e5 8dba ee42 943f f0f2 d03f 5935 99bf
00000320: 6c80 953b d8f8 5b3d 2326 8f3f c5b9 c2bf
00000330: 3889 08c0 b5bb 8f3f 13fe 36bd aacc e4ba
00000340: ee1d 63c0 724b 84bf ebc5 dcbe fcfd 6cbe
00000350: 1d70 6fbf 2016 f2bb 7f30 27c0 812a ae3e
00000360: f395 a33c 54f4 0ec0 3861 f93d c46c a3bf
00000370: 79f7 49bf 0ce8 763f 4568 e2be 976c 143d
00000380: 46fd 3b40 0c8f 133d 826d 3740 23b4 d7bc
00000390: 4d48 64bf 8e16 4abb b05f 443c eac5 03c0
000003a0: e90b 64bc 550f 9d3c e151 88bf 562f 793f
000003b0: 4517 e63e d27a 493f bdd0 2d3d f75e db3f
000003c0: 8b5a b03f 3a59 92bf 1a21 8040 ad7f 6bbd
000003d0: c966 a13f de8f 7e3f 6e18 d2bf 394a 643f
000003e0: 6072 51bf fb74 68bf 31f2 dc3f 1697 afbf
000003f0: 92b4 7d3c 9839 d8bc 1402 16bf daae 603e
0.079263076 -1.1382623 1.5137639 1.027278 1.1349416 -1.0847893 0.056346092 0.26430956
0.36706603 0.13883175 1.7235649 0.02159802 -0.014670348 -2.2453275 -2.3788753 -0.0014854636
-1.4455913 0.051223867 -1.1258416 1.379267 2.570375 -1.5453992 -0.59358805 0.0149212275
0.78301495 -0.56160694 0.028721346 -0.48505625 0.73898864 -2.319432 1.256881 0.02810631
2.251759 -0.023272356 0.0027500144 -1.8994876 -1.784404 0.45283252 -1.5807725 -0.7297977
-0.5662782 -0.47830287 -1.4365574 0.5836412 0.0076615736 -0.6385218 0.93631256 -5.350662
-1.7381647 -1.9714531 -2.4860146 0.021524632 -1.7014202 0.04510043 0.00059979805 0.039805733
-0.4255364 1.7938324 1.4659104 -0.01587011 -0.4478019 -0.0047734426 1.6225452 -2.6200833
1.8579826 -0.7328797 0.5438267 0.0129182795 -0.26369932 -0.06131292 -1.7865013 -1.3577219
0.0021734408 0.04607107 2.0063558 0.026892174 0.6085792 0.065026954 0.9002965 -0.925554
0.0033952885 -0.28493252 0.2818161 1.3342036 0.4499305 0.062917285 -0.03318221 -0.5958056
-2.7339246 -0.41071138 -2.7883995 0.8677485 1.7746803 -1.2326273 2.2261047 2.5795646
0.03481766 -0.014310911 0.05317194 0.035419617 0.14857858 0.07520828 0.6899444 0.030925214
0.0051628775 0.049603254 -0.0026733105 2.4536 0.03497843 0.93504995 0.5830266 0.0795033
1.3449472 -0.3113625 0.03411942 -0.026672337 0.073317 1.3680876 0.72520196 0.005228103
0.9923933 -0.28346065 -0.0074840602 -1.5590856 -2.1364305 -1.530505 0.28564525 1.3567696
-1.3437366 -1.2410818 2.962413 -0.76092434 2.7067885 -0.07258511 0.030861953 -0.95749444
3.889548 -0.0273341 -1.2171221 -1.070403 1.8560293 0.5596423 1.0492615 -0.03998573
0.8941901 -3.6818533 0.3471581 2.3112473 2.8152835 -1.8404049 0.027789138 1.1540662
-1.4607505 -1.0492088 1.4642929 -1.5077612 -2.1007485 1.6231114 1.8865238 -1.3430085
-0.9098994 0.98534226 -0.8969325 1.4084632 -0.66046387 -1.6842883 0.34276477 0.5517736
0.62549865 0.95426184 1.3917909 -0.914189 -2.3191826 0.44535926 0.053979106 -1.4978409
-0.0028893964 -1.0884644 -0.47987053 -0.0017540467 -1.0740489 -2.5294135 0.12909633 0.040914748
-1.6550376 -0.23171501 0.9815078 0.5187384 -1.7738259 -0.55559707 1.3288013 0.09204937
0.014641021 0.0253201 0.014125709 -0.20343046 -0.0010825905 1.1582925 1.6324139 -1.1969405
0.004562428 0.053704113 1.1183513 -1.5212942 -2.1333752 1.1229159 -0.044675898 -0.0017456014
-3.5487018 -1.0335524 -0.4311975 -0.23143762 -0.93530446 -0.0073878914 -2.612335 0.34016803
0.019968962 -2.2336626 0.12176746 -1.2767568 -0.7889324 0.96447825 -0.44220176 0.03623637
2.9373336 0.036025092 2.8660588 -0.026331013 -0.8917282 -0.0030836198 0.011985704 -2.0589547
-0.013918855 0.01917235 -1.0649987 0.97337854 0.44939628 0.78703034 0.042435396 1.7138356
1.3777632 -1.143348 4.0040407 -0.057494808 1.2609493 0.99438274 -1.6413705 0.89175755
-0.8181515 -0.908035 1.7261411 -1.3717983 0.015484946 -0.02639465 -0.5859692 0.219417

l3.bias f4 [3]
00000000: c3f5 e1bd c6b8 89be 6f50 163c
-0.110332035 -0.26898783 0.00917445
