saves/Dobot-v2/none/seed_0/model/actor.pth (torch, 581463 bytes, 6 tensors)

l1.weight f4 [512, 24]
0	0x3e002d18	0.12517202
1	0x3c54d7b9	0.012990885
2	0xbf225c9b	-0.63422555
3	0xbf5c9ccc	-0.86176753
4	0xbe4cb48a	-0.19990745
5	0x3f2752ba	0.65360606
6	0x3efb949a	0.49136811
7	0xbe7c8535	-0.2466019
8	0xbe142e25	-0.14470728
9	0xbedaa085	-0.42700592
10	0x3e235200	0.1594925
11	0xbf0aa12f	-0.54152197
12	0xbe08e316	-0.13367876
13	0x3e2ec7e1	0.17068435
14	0x3e19cad4	0.15018779
15	0x3e6d57f2	0.2317808
16	0x3dec7d61	0.11547352
17	0x3fd353dc	1.6509967
18	0xbf7f28a1	-0.9967137
19	0xbdb02157	-0.08600109
20	0x3e399c36	0.18125996
21	0xbe922c92	-0.2854963
22	0xbe4fb5fe	-0.20284268
23	0x3f8d55d6	1.104182
24	0xbf69208e	-0.910653
25	0xbedaca5b	-0.4273251
26	0xbf11d0d5	-0.5695928
27	0xbf6eae2e	-0.9323453
28	0xbe059e18	-0.13048589
29	0xbe2be6df	-0.16787289
30	0xbf75bd74	-0.9599221
31	0x3f14ae99	0.58078915
32	0xbf2614b6	-0.6487535
33	0xbf4601de	-0.773466
34	0x3f2b91e0	0.6701946
35	0xbf361564	-0.7112639
36	0xbe12398a	-0.14279762
37	0x3f948b27	1.1604966
38	0x3f16c8b9	0.5890003
39	0x3e04414c	0.12915534
40	0x3ee7a243	0.45240983
41	0x3dddfb85	0.10838989
42	0x3f19f523	0.60139674
43	0x3e13821a	0.14405099
44	0x3eadf008	0.33972192
45	0x3eed07f1	0.4629512
46	0x3e4056b5	0.18783076
47	0xbc8c9334	-0.017160036
48	0xbf496ea2	-0.7868444
49	0xbebf028b	-0.37306628
50	0xbf60725f	-0.87674516
51	0xbf2e8b15	-0.6818097
52	0xbd5409aa	-0.05176703
53	0x3f032c1c	0.5123918
54	0xbf0948f9	-0.5362697
55	0x3eaba04b	0.3352073
56	0xbe103a5a	-0.1408476
57	0xbf180d25	-0.59395057
58	0x3f1dafd0	0.61596394
59	0xbfc3db13	-1.5301231
60	0x3f128232	0.5722991
61	0x3db90f57	0.09036129
62	0xbe76c933	-0.24100189
63	0x3f2cae20	0.67453194
64	0xbf257144	-0.64625955
65	0x3e1af216	0.15131411
66	0x4015bfbe	2.339828
67	0xbd4c7ebd	-0.049925555
68	0x3ed1f974	0.4101063
69	0x3fdfd86f	1.7487925
70	0xbf1f4351	-0.6221209
71	0x3f99b175	1.200728
72	0x3e9c4dc1	0.30528072
73	0x3f066fdc	0.52514434
74	0x3e609cfe	0.21934888
75	0xbede9858	-0.43475604
76	0xbf2d2b8e	-0.67644584
77	0xbfb2e8b5	-1.3977267
78	0xbf3b2a8e	-0.7311181
79	0x3ea329aa	0.31867725
80	0xbde1370d	-0.10996828
81	0xbf278359	-0.65434796
82	0xbd40278d	-0.04691272
83	0x3ea7359d	0.3265809
84	0xbd72539f	-0.05916178
85	0xbebacdc6	-0.36485118
86	0x3b27314c	0.002551156
87	0xbd1882eb	-0.037234228
88	0x3eaa609b	0.3327683
89	0xbef6d2ad	-0.48207608
90	0x4061aea5	3.5262845
91	0x3d8164ee	0.06318079
92	0xbddd3d3a	-0.10802694
93	0x402ed328	2.731638
94	0xbea9c311	-0.33156636
95	0xbfe5ef77	-1.7963704
96	0x3e0dd17f	0.13849448
97	0xbc883783	-0.016628033
98	0xbf1c6c1c	-0.6110246
99	0xbec7a6f5	-0.38994566
100	0xbe33cfb3	-0.175597
101	0x3f24c159	0.64357525
102	0xbe71d73b	-0.2361726
103	0x3d90b946	0.07066588
104	0xbe9b7998	-0.30366206
105	0xbed13b4c	-0.40865552
106	0x3ce22eb3	0.027610159
107	0xbf961069	-1.1723758
108	0x3ef7e5af	0.48417422
109	0x3f148be3	0.5802595
110	0xbcc4d258	-0.024026081
111	0x3f28e516	0.6597456
112	0x3d9a4037	0.07531779
113	0x3f8d067c	1.1017604
114	0xbec8cb4f	-0.39217612
115	0xbe055a14	-0.13022643
116	0x3ce14bd8	0.027501985
117	0xbdf6e677	-0.120556764
118	0x3e2cf95b	0.16891997
119	0x3f231c94	0.6371548
120	0x3da40d9d	0.08010409
121	0x3c48540d	0.0122270705
122	0xbdcbfa0f	-0.09959804
123	0x3dc5d09d	0.096589305
124	0xbe488155	-0.19580586
125	0xbdf7c760	-0.12098575
126	0xbd514c86	-0.05109837
127	0xbdcba2cc	-0.099431604
128	0xbd923f1d	-0.07140944
129	0xbe2b51e4	-0.16730458
130	0xbd31d97c	-0.0434203
131	0x3d32b85d	0.043632854
132	0xbe082be2	-0.1329799
133	0xbc2ba185	-0.010475521
134	0x3e15a11f	0.14612244
135	0xbcabe6ab	-0.020984014
136	0x3bb9e519	0.0056730625
137	0xbc9041f0	-0.017609566
138	0x3d2935a5	0.041310925
139	0x3e04e7b8	0.12979019
140	0x3e45ff12	0.19335583
141	0x3e04bdcb	0.12963025
142	0x3e46730b	0.19379823
143	0xbc71ded1	-0.014762596
144	0x3da07e96	0.07836644
145	0xbca6f17f	-0.020378826
146	0x3eb11bf5	0.34591642
147	0xbe944570	-0.28959227
148	0xbf13d042	-0.5773965
149	0xbfa861fd	-1.3154904
150	0xbe490d2a	-0.19633928
151	0x3e5ece10	0.21758294
152	0xbcf81c67	-0.03028698
153	0x3ce91715	0.02845339
154	0xbe05dcdd	-0.13072534
155	0x3e88fe80	0.26756668
156	0x3eeba952	0.4602762
157	0xbf3d7710	-0.740098
158	0xbccef3bd	-0.025262708
159	0x3e246f94	0.16058189
160	0xbd7f3ef4	-0.062315896
161	0xbf0ed0c2	-0.5578729
162	0xbfda120f	-1.7036761
163	0xbe5b7c04	-0.21434027
164	0xbdae0e4c	-0.08498821
165	0xbf49906d	-0.78736
166	0x3e78da3e	0.24302003
167	0xbfa6e4c6	-1.3038566
168	0xbf194ffe	-0.59887683
169	0xc00d49de	-2.2076335
170	0x3e870730	0.2637267
171	0xbe8aae4d	-0.27086106
172	0x3f3be9e6	0.73403776
173	0x3e23c0b2	0.15991476
174	0x3d56ea45	0.05246951
175	0x3e4e2939	0.20132913
176	0xbeb048e4	-0.3443061
177	0xbe2ca875	-0.16861136
178	0x3f080227	0.53128284
179	0xbf1b4482	-0.6065141
180	0x3e25e3a1	0.16200115
181	0xbe75c5a2	-0.24001172
182	0x3f0991fd	0.53738385
183	0x3e8e3d53	0.27781162
184	0xbf349110	-0.7053385
185	0x3f25a207	0.6470036
186	0xbf76cfae	-0.96410644
187	0x3e051325	0.12995584
188	0x3f550f84	0.832268
189	0xbe0f1d20	-0.13975954
190	0x3ec0e98a	0.37678176
191	0x3f9338e8	1.1501741
192	0x3cf320e3	0.029678768
193	0x3eadcd07	0.33945486
194	0xbe9b3f24	-0.3032161
195	0xbe9962c3	-0.29958162
196	0xbf5dea1b	-0.8668534
197	0x3f65659f	0.89608186
198	0x3eb884a8	0.3603871
199	0x3f4fbf90	0.81151676
200	0x3e2dab7e	0.1695995
201	0xbe93cdb2	-0.2886787
202	0xbdb0768d	-0.08616362
203	0xbe09203f	-0.13391207
204	0x3f499e88	0.78757524
205	0xbe783052	-0.24237183
206	0xbddfeb03	-0.10933497
207	0x3f8d052d	1.1017205
208	0xbea76f2c	-0.32702005
209	0x3f43fe34	0.7655976
210	0xbeae7fae	-0.34081787
211	0xbe170a77	-0.14750086
212	0xbe78f9f3	-0.24314098
213	0x3d8d1704	0.068891555
214	0xbdef9d09	-0.11699874
215	0x3eed47ec	0.46343935
216	0xbfc74d47	-1.5570458
217	0xbfd39449	-1.6529628
218	0xbda5bad3	-0.080922745
219	0x3e81ca70	0.2534976
220	0x3c7beab2	0.01537578
221	0x3e308399	0.172377
222	0x3e934066	0.2876007
223	0x3fc26042	1.5185626
224	0xbf211bfc	-0.62933326
225	0x3ef663a4	0.48122895
226	0x3fa689e5	1.3010832
227	0xbf9415da	-1.1569169
228	0xbee2b0e4	-0.44275582
229	0x3e4698e0	0.19394255
230	0x3eb10c48	0.34579682
231	0xbe1dd42f	-0.15412973
232	0xbebc0461	-0.3672209
233	0x3ef575b3	0.4794136
234	0xbecef66c	-0.4042238
235	0x3ca689db	0.020329406
236	0x3f832fdc	1.024898
237	0xbeede172	-0.46461064
238	0xbd83605e	-0.06414865
239	0x3f0eea73	0.5582649
240	0x3d5702fe	0.052493088
241	0x3edbfc1b	0.4296578
242	0xbe941af9	-0.28926829
243	0x3d8c0885	0.068375625
244	0x3e078b0b	0.13236634
245	0xbf224772	-0.63390267
246	0xbd8f63a8	-0.0700143
247	0xbeb9398c	-0.36176717
248	0xbdfcb14c	-0.12338504
249	0xbe063203	-0.13105015
250	0xbdda57d7	-0.10661285
251	0x3e183df3	0.14867382
252	0xbde489ef	-0.11159121
253	0x3ecf9993	0.40546855
254	0x3da48cf9	0.08034701
255	0xbeb034ea	-0.3441537

l1.bias f4 [512]
0	0xbe0305d3	-0.1279519
1	0xbef7e5a4	-0.4841739
2	0xbdcdb272	-0.10043801
3	0xbe7f688b	-0.24942224
4	0xbe4cf5ce	-0.20015642
5	0x3d3d888a	0.046272792
6	0xbe01bed4	-0.12670451
7	0x3e3b8cf8	0.18315494
8	0x39f6e4b1	0.00047091165
9	0xbe68645a	-0.22694531
10	0xbecc69b5	-0.39924398
11	0xbd3e28d4	-0.046425655
12	0x3d9c55c0	0.07633543
13	0xbe29d6d4	-0.16585857
14	0xbe5237b0	-0.20529056
15	0x3e748c97	0.23881756
16	0xbe334598	-0.17507017
17	0xbeeb418b	-0.45948443
18	0xbe4fcba3	-0.20292525
19	0xbc07b5a1	-0.00828305
20	0x3e080e50	0.1328671
21	0xbe2977ce	-0.16549608
22	0xbe226d46	-0.15861997
23	0xbd47b9ca	-0.048761167
24	0x3ea19f66	0.31566924
25	0xbe3c1568	-0.18367541
26	0x3e2c068a	0.1679937
27	0x3e5ef837	0.21774374
28	0xbecd8042	-0.40136915
29	0xbe4166d4	-0.18886882
30	0xbefc5418	-0.49282908
31	0x3e99dc8c	0.30051076
32	0x3e65aad1	0.22428443
33	0x3e6bf687	0.23043261
34	0xbd9a76bd	-0.07542179
35	0xbe6d0b64	-0.23148876
36	0xbe1367e7	-0.14395104
37	0xbe4c0f3f	-0.19927691
38	0xbe6ac254	-0.22925693
39	0xbdcd0d50	-0.10012305
40	0xbd993cb6	-0.07482283
41	0xbd0e50c8	-0.034745008
42	0x3d81aa22	0.063312784
43	0x3e1a6cea	0.1508061
44	0x3d84a9b7	0.06477683
45	0xbe8edb7e	-0.27901834
46	0x3d70113b	0.058610182
47	0xbe892121	-0.26783088
48	0x3d3c480d	0.04596715
49	0x3b8e6d93	0.0043465584
50	0xbd907eea	-0.07055457
51	0xbd338caa	-0.04383532
52	0x3cee7a32	0.029111002
53	0xbe90a8b9	-0.28253725
54	0x3e2e6eea	0.17034498
55	0xbc133b6f	-0.008986338
56	0xbec31cf8	-0.3810804
57	0x3e80a0b8	0.2512262
58	0xbdc71774	-0.0972127
59	0x3db10bf7	0.0864486
60	0xbed8d72a	-0.42351657
61	0xbc81a1d5	-0.015824238
62	0xbe212112	-0.15735272
63	0xbdaf29ff	-0.08552932
64	0xbc10e6b1	-0.008844064
65	0xbe303d33	-0.17210846
66	0xbe2ba6b1	-0.16762806
67	0xbe0832c2	-0.13300613
68	0xbee571e9	-0.4481347
69	0x3cc96829	0.0245858
70	0x3df605dd	0.12012837
71	0xbe0d6994	-0.13809806
72	0xbe872412	-0.26394707
73	0x3e54f328	0.20795882
74	0xbd75c20d	-0.059999514
75	0xbdb51be3	-0.088432096
76	0xbe5ce1e3	-0.21570544
77	0x3d3d1e3d	0.046171416
78	0xbe8a40e3	-0.2700263
79	0xbec52e29	-0.3851178
80	0xbce19f0f	-0.027541665
81	0xbe9d1d54	-0.30686438
82	0xbd19492e	-0.037423305
83	0xbdd2c2a1	-0.10291029
84	0x3c1fc5d6	0.009751758
85	0xbea4934b	-0.32143626
86	0xbe43c57b	-0.19118302
87	0xbe4ba24d	-0.19886132
88	0x3db0b252	0.08627762
89	0x3c722d73	0.014781344
90	0xbe22223c	-0.15833372
91	0xbd72b6f1	-0.059256498
92	0x3e75f800	0.24020386
93	0x3deb08e8	0.11476308
94	0xbc824824	-0.01590354
95	0xbe08a092	-0.13342503
96	0x3e53f28d	0.20697995
97	0x3de5d98b	0.11223134
98	0xbd4f1eae	-0.050566368
99	0x3e100293	0.14063482
100	0xbe2b1b42	-0.16709617
101	0xbf115dda	-0.5678383
102	0x3df0e646	0.11762671
103	0xbdbaf68e	-0.09129058
104	0xbdf0fde0	-0.11767173
105	0xbdbd0ad7	-0.09230583
106	0xbe210c6f	-0.157274
107	0xbe4cca67	-0.19999085
108	0x3db5b527	0.08872443
109	0xbe011ff2	-0.12609842
110	0xbe74facd	-0.23923798
111	0xbdf749e2	-0.12074639
112	0xbd7f157d	-0.062276352
113	0xbe2f3996	-0.17111811
114	0xbebc3238	-0.36757064
115	0x3e10aa55	0.14127477
116	0xbe2da39a	-0.1695694
117	0xb9b379c8	-0.00034232275
118	0xbe9dd9f8	-0.3083036
119	0xbe86a803	-0.26300058
120	0xbea9c5bd	-0.33158675
121	0xbe28661f	-0.16445206
122	0xbefb7ef3	-0.49120292
123	0xbe862cea	-0.26206142
124	0xbedf42c6	-0.43605632
125	0xbe982c49	-0.29721287
126	0xbec15e2c	-0.3776716
127	0xbc96d052	-0.018409882
128	0x3dd5c4f1	0.10437954
129	0xbe1b9a5c	-0.15195602
130	0x3c8f1896	0.017467778
131	0xbdf7aded	-0.120937206
132	0xbdb9ccf6	-0.09072296
133	0xbedad1fe	-0.42738336
134	0xbd55515c	-0.052079543
135	0xbdf2cd3f	-0.11855554
136	0xbe5e32aa	-0.21699014
137	0xbe34623e	-0.17615601
138	0xbd83d5a1	-0.06437231
139	0xbe944a01	-0.2896271
140	0xbdc55b5d	-0.09636567
141	0xbe696876	-0.22793755
142	0xbeda9993	-0.42695293
143	0xbe4d4cfa	-0.20048895
144	0x3b7e24fb	0.0038779366
145	0x3d8f7ebc	0.070065945
146	0x3d212e6a	0.039350905
147	0x3c8d6e21	0.017264428
148	0x3e5cf046	0.21576032
149	0xbdaab641	-0.083355434
150	0x3db594e9	0.08866293
151	0xbce6c08f	-0.028167991
152	0xbe4f1e7c	-0.20226473
153	0xbe0456bb	-0.1292371
154	0x3e0913dc	0.13386482
155	0xbe4e6c05	-0.20158394
156	0xbeb04089	-0.34424236
157	0x3dc7f1e1	0.097629316
158	0xbde738ea	-0.11290152
159	0x3d5493d5	0.051898796
160	0xbe6a581b	-0.22885172
161	0xbcaf4be5	-0.021398494
162	0xbeab01cc	-0.33399808
163	0xbe63fe88	-0.22265065
164	0xbe6472c1	-0.223094
165	0xbd095611	-0.033529345
166	0x3b5377a3	0.0032267354
167	0xbd10ae43	-0.03532244
168	0xbcf3e6c1	-0.029773118
169	0xbe8b5191	-0.27210668
170	0xbcbbaaa2	-0.022908513
171	0xbd8151af	-0.06314408
172	0x3c3963b0	0.011315271
173	0xbdf5ef24	-0.12008503
174	0xbe856567	-0.26053926
175	0xbe521a77	-0.20517908
176	0xbc9faff1	-0.019493075
177	0xbe5ebc8c	-0.21751612
178	0xbd4be86e	-0.04978221
179	0xbcfc3046	-0.030784737
180	0xbe488e34	-0.19585496
181	0xbd42230e	-0.047396712
182	0x3df874cf	0.121316545
183	0xbe8e4af4	-0.2779156
184	0xbe3df8d7	-0.18551956
185	0x3cdb9fe9	0.02680965
186	0xbd4b31a6	-0.049607895
187	0x3d7c65b0	0.061620414
188	0xbe03d425	-0.12873895
189	0x3d8e5494	0.06949726
190	0xbcb371d4	-0.021904863
191	0xbbaeba9a	-0.0053323032
192	0xbeacc3bf	-0.33743092
193	0xbc86cd66	-0.016455363
194	0xbd8975b3	-0.067119025
195	0xbe9489f4	-0.290115
196	0xbda75a74	-0.081715494
197	0xbe335de9	-0.17516293
198	0x3d2fe37a	0.042941548
199	0xbe9e521d	-0.30922022
200	0xbeb048f0	-0.34430647
201	0xbeb08338	-0.34475112
202	0xbd54abaa	-0.051921524
203	0xbe2a3f7d	-0.16625781
204	0xbe582a1d	-0.21109815
205	0x3df22582	0.1182356
206	0xbdda3956	-0.10655467
207	0xbe94502d	-0.2896742
208	0xbe2ad2ad	-0.16681929
209	0x3e9fa597	0.31181023
210	0xbe2a91d6	-0.16657194
211	0xbd84d264	-0.06485441
212	0xbd31e854	-0.043434456
213	0x3de7a7f1	0.11311329
214	0xbe5401cf	-0.20703815
215	0x3e13c4ef	0.14430593
216	0xbd9e3763	-0.07725408
217	0xbe361ed7	-0.17785202
218	0xbe7e7d36	-0.24852452
219	0xbe7a00d3	-0.24414377
220	0x3bcd50d2	0.006265738
221	0xbeae0346	-0.33986872
222	0xbe1c3056	-0.15252814
223	0x3e7d6311	0.24744822
224	0xbd99f01d	-0.07516501
225	0xbd99a862	-0.075028196
226	0xbe576934	-0.21036226
227	0x3e1d00e8	0.15332377
228	0xbe4d4864	-0.20047146
229	0xbeaa4b34	-0.332605
230	0xbe161a15	-0.14658387
231	0xbe41c48a	-0.1892263
232	0xbcea34bf	-0.028589604
233	0xbeb4f4cb	-0.35343012
234	0xbe9f02e5	-0.31056896
235	0xbe3dc165	-0.18530805
236	0x3ce758d9	0.028240608
237	0xbeb109da	-0.3457783
238	0xbe15ca23	-0.1462789
239	0xbee3fec2	-0.44530302
240	0x3ec58ec4	0.38585484
241	0xbda2078e	-0.07911597
242	0xbcd53ed8	-0.026030943
243	0xbe7dcbd0	-0.2478478
244	0xbe91a88c	-0.28448904
245	0xbd13559a	-0.035970308
246	0x3e2923b0	0.1651752
247	0xbe84229f	-0.25807664
248	0xbdc80b6b	-0.09767803
249	0x3e0493ad	0.12946959
250	0xbe1fb504	-0.15596396
251	0xbeb61fc6	-0.35571116
252	0xbe6f3af4	-0.23362333
253	0xbe0095a8	-0.1255709
254	0xbd66f464	-0.056385413
255	0xbe48201d	-0.195435

l2.weight f4 [256, 512]
0	0xbc1e604a	-0.009666512
1	0xbd30eeb6	-0.043196402
2	0x3cabdc02	0.020978931
3	0xbd43e6d9	-0.047827575
4	0x3cc75f10	0.024337322
5	0x3ba0db9a	0.004908991
6	0xbd0a1149	-0.03370789
7	0xbd475a6a	-0.04867021
8	0xbc8a9581	-0.016916992
9	0x3cc30e05	0.023810396
10	0x3d0c7433	0.034290504
11	0x3cafabba	0.02144419
12	0x3d0c03d3	0.034183335
13	0x3c9a6f95	0.018852035
14	0xba09227b	-0.0005231273
15	0x3d0531bb	0.03251813
16	0x3c9079e4	0.017636247
17	0xbd2c4c34	-0.04206486
18	0x3c82acfd	0.015951628
19	0xbc054be1	-0.008135767
20	0xbd070017	-0.03295907
21	0x3c78cda7	0.01518575
22	0x3bb3352b	0.0054689846
23	0x3d751a2d	0.059839416
24	0x3cec486f	0.028843133
25	0x3d0158de	0.03157889
26	0x3bef0721	0.007294551
27	0xbc32d003	-0.010913852
28	0x3bcebe88	0.006309334
29	0x3cc13232	0.023583505
30	0xbd816210	-0.06317532
31	0xbd162dcd	-0.036664773
32	0xbd2236ab	-0.039602917
33	0xbcf08124	-0.029358454
34	0x3d039c6a	0.03213159
35	0x3bec447f	0.007210314
36	0xbb4b73b8	-0.0031044316
37	0xbdaefa9b	-0.08543893
38	0xbbd374b0	-0.006453119
39	0x3b1d40da	0.0023994953
40	0xbbac6b7e	-0.0052618375
41	0xbd0bc84c	-0.034126565
42	0x3ce9f66c	0.028559886
43	0x3a2a6f46	0.00065015664
44	0xbd303572	-0.04301972
45	0x3ca6292b	0.020283302
46	0xbc39126f	-0.011295899
47	0xbcf9580e	-0.030437496
48	0xbd183df9	-0.037168477
49	0xbc6b0901	-0.014345408
50	0xbcfcb9c5	-0.0308503
51	0xbd50f88d	-0.051018286
52	0x3bde3947	0.0067817303
53	0xbd5cafca	-0.053878583
54	0xbd07f1a2	-0.033189423
55	0xbbd429ce	-0.00647471
56	0xbd478b07	-0.04871657
57	0x3cb6b20f	0.022301702
58	0xbd43fea5	-0.04785027
59	0xbca595f8	-0.020213112
60	0xbc9ba351	-0.018998774
61	0xbd72c7a1	-0.059272412
62	0xbd331f72	-0.04373116
63	0xbd0b61d1	-0.034028832
64	0xbd3858ba	-0.04500649
65	0xbc55adbb	-0.013041909
66	0x3cc99986	0.024609338
67	0xbd6a4433	-0.057193946
68	0x3b7d2f57	0.0038632953
69	0xbccd62c5	-0.025071511
70	0x3cefdf51	0.02928129
71	0xbc31a5ed	-0.010842782
72	0xbbc99168	-0.006151367
73	0x3a24ed29	0.0006291443
74	0xbd05aa02	-0.032632835
75	0xbb87a3d0	-0.004139401
76	0xbc92d197	-0.017922206
77	0x3cb35f20	0.021895945
78	0xbbe39567	-0.0069453004
79	0x3c5207c2	0.012819232
80	0xbbe1e638	-0.0068938993
81	0x3c8f7fab	0.017516932
82	0xbcf7d6d6	-0.030253809
83	0xbc9c251c	-0.019060664
84	0xbd1a9bc3	-0.037746202
85	0x3c1ac305	0.00944591
86	0xbd31c0c3	-0.043396723
87	0x3d23acac	0.039959595
88	0x3cfaaeab	0.030600866
89	0x3c6307d0	0.013856843
90	0x3d1ff354	0.039050415
91	0xbd0d227b	-0.03445671
92	0xbcc0bf39	-0.023528682
93	0x3d374cd6	0.04475101
94	0xbd0b7d4e	-0.034055047
95	0xbcbcd72e	-0.023051824
96	0xbd19005c	-0.03735386
97	0x3cd939a9	0.026516752
98	0x3b423861	0.0029635655
99	0xbd458e32	-0.04823131
100	0x3c70d9ac	0.0147003345
101	0x3ce12bdd	0.027486736
102	0x3d03d18a	0.032182254
103	0x3cf29b06	0.029614937
104	0xbd72153f	-0.059102293
105	0xbbc1d367	-0.0059150937
106	0xbc00cff4	-0.00786208
107	0x3c31848f	0.010834827
108	0x3c10751a	0.008816982
109	0x3c472c03	0.012156489
110	0x3d298142	0.041383035
111	0xbd219db6	-0.039457045
112	0x3b40c737	0.0029415616
113	0x3c980c07	0.018560423
114	0xbd37b9d2	-0.044854946
115	0xbd0aa9d2	-0.03385336
116	0xbd0f41f2	-0.034975
117	0xbcb109dc	-0.021611147
118	0xbd0bf28e	-0.034166865
119	0x3ce782c4	0.028260596
120	0xbd3bede1	-0.045881156
121	0x3bdb789e	0.0066977283
122	0xbd159776	-0.036521398
123	0x3cd25e5b	0.025679758
124	0xbc7970ba	-0.01522463
125	0xbd82425e	-0.06360315
126	0xbca12608	-0.019671455
127	0xbd269184	-0.04066612
128	0x3c0eb3ee	0.008709891
129	0x3cb22a36	0.021748643
130	0xbcae2245	-0.021256575
131	0x3c3a2bd0	0.011362985
132	0xbd0e2e52	-0.034712143
133	0xbbbba317	-0.005726229
134	0x3c00af2a	0.007854262
135	0xbc4627e0	-0.012094468
136	0xbd896436	-0.06708567
137	0xbd27de5f	-0.040983554
138	0xbd689762	-0.056784995
139	0x3bf07d39	0.0073391465
140	0x3c6709ec	0.014101487
141	0xbc8f238e	-0.017473008
142	0x3cb55890	0.022136956
143	0xbd2b515f	-0.04182565
144	0x3c5df632	0.013547467
145	0x3d1932de	0.037402026
146	0xbcba075d	-0.02270859
147	0xbd55fffe	-0.052246086
148	0xbc938746	-0.01800884
149	0xbcc7152c	-0.024302088
150	0x3c764793	0.015031713
151	0x3d09c94e	0.033639245
152	0x3d090a82	0.033457287
153	0x3c5a7226	0.013332879
154	0x3b3149ea	0.0027052113
155	0xbd03408b	-0.032043975
156	0xbc512ba4	-0.012766752
157	0xbc088c4a	-0.008334229
158	0xbcccf14b	-0.025017401
159	0xbd62cc5c	-0.055370674
160	0x3d1a3e40	0.037657022
161	0xbd5b49fd	-0.053537358
162	0xbc9a3be3	-0.018827384
163	0xbd303694	-0.0430208
164	0xbd452fb6	-0.048141204
165	0xbcd44e6e	-0.025916304
166	0xbd464b4f	-0.048411664
167	0x3b13f4cc	0.002257633
168	0x3d13acd2	0.036053486
169	0x3c6c97ce	0.01444049
170	0xbca4b828	-0.020107344
171	0x3c7aa9d1	0.015299276
172	0x3d1279e3	0.03576077
173	0x3c941a49	0.01807894
174	0xbd0ef508	-0.03490165
175	0x3c2925ce	0.010323955
176	0xbbe1f308	-0.0068954267
177	0xbabeecf2	-0.0014566465
178	0x3bf0d1c9	0.007349227
179	0xbd2123b9	-0.03934071
180	0xbd1402e8	-0.036135584
181	0x3c86c0ce	0.016449358
182	0xbc4bcd85	-0.012439136
183	0xbcf1d0a8	-0.02951844
184	0x3cb0b64b	0.021571299
185	0xbcfd3e85	-0.0309136
186	0x3cfb44de	0.030672487
187	0xbd50b4f5	-0.050953824
188	0xbcc91616	-0.024546664
189	0x3c77f430	0.015133902
190	0xbd1998cf	-0.037499245
191	0xbc1fcee6	-0.009753918
192	0xbca5d655	-0.020243803
193	0x3cbbefe4	0.022941537
194	0xbd240cb8	-0.040051192
195	0xbd1223df	-0.03567874
196	0xbd35c91b	-0.044381242
197	0x3bc9611f	0.006145611
198	0xbc6b61ba	-0.014366562
199	0xbd0567b1	-0.03256959
200	0xbd2869c7	-0.041116502
201	0x3b56de86	0.0032786443
202	0xbd1c15a8	-0.03810659
203	0xbd0c2c77	-0.034222092
204	0xbc3f1f68	-0.011665203
205	0xbd4f516c	-0.05061476
206	0xbcb62dfc	-0.022238724
207	0xbcafcfd7	-0.02146141
208	0x3c85a92a	0.016316015
209	0xbc2ea0ac	-0.010658424
210	0x3c471907	0.012151963
211	0xbc1fb534	-0.009747792
212	0x3c3bc29c	0.011459973
213	0xbd0c8972	-0.034310766
214	0xbc325707	-0.010885007
215	0x3cef1ec6	0.029189479
216	0x3cbdd792	0.023174081
217	0xbc2de147	-0.010612792
218	0xbcdb96f8	-0.026805386
219	0xbd131701	-0.03591061
220	0xbd2a13ff	-0.041522976
221	0x3c6aa61b	0.014321829
222	0x3d291f46	0.04128959
223	0xbaefc45d	-0.0018292774
224	0xbd23363f	-0.039846655
225	0x3d33cf0f	0.04389864
226	0xbc8a0b95	-0.016851226
227	0xbc856b02	-0.016286377
228	0xbd25d656	-0.04048761
229	0x3ceeac09	0.029134767
230	0x3bf1e957	0.0073825526
231	0xbd4a961b	-0.049459558
232	0x3ce5a8b2	0.028034542
233	0x3caad23f	0.020852206
234	0x3c5a939f	0.01334086
235	0x3d1daf6c	0.038497373
236	0xbb32a137	-0.0027256736
237	0xbd07122a	-0.032976307
238	0xbcd7bff3	-0.026336646
239	0x3c2bfbdf	0.0104970625
240	0xbc95cf16	-0.018287223
241	0x3cecbcc6	0.028898608
242	0xbd105e5b	-0.035246234
243	0x3cf6f3d7	0.030145569
244	0xbcaf25b0	-0.021380275
245	0x3d09217f	0.03347921
246	0xbd4f88a3	-0.050667416
247	0x3c0430c0	0.0080682635
248	0x3c1cb680	0.009564996
249	0xbb4c8e78	-0.0031212848
250	0xbbbb8caf	-0.005723558
251	0xbd20c99e	-0.039254777
252	0xbcd5d870	-0.026104182
253	0x3c8bf2a6	0.017083477
254	0x3c997c0e	0.018735912
255	0xbccae8bd	-0.024769181

l2.bias f4 [256]
0	0x3c99b418	0.018762633
1	0xbc03d393	-0.008046049
2	0xbd0b05ca	-0.033941068
3	0xbd73f474	-0.0595593
4	0xbb84ec0f	-0.0040564607
5	0xbd8b6fb5	-0.06808416
6	0x3f085a86	0.5326313
7	0xbc93d787	-0.018047107
8	0x3ee65b56	0.4499156
9	0x3c72f6c6	0.014829343
10	0xbd95df36	-0.07317965
11	0x3dcba521	0.09943605
12	0xbe2a3712	-0.1662257
13	0xbd92bb5a	-0.07164641
14	0x3c5a7699	0.01333394
15	0xbd1d8231	-0.03845424
16	0x3f28ac61	0.6588803
17	0xbd4196ac	-0.047262833
18	0x3e8595d5	0.26090875
19	0xbe8661b0	-0.26246405
20	0x3e9eb6ec	0.30998933
21	0xbccdd993	-0.025128162
22	0xbb927549	-0.004469548
23	0xbd1b14df	-0.0378617
24	0x3ec3e8c6	0.3826353
25	0xbebcd03a	-0.36877614
26	0x3d072078	0.03298995
27	0x3e3680ff	0.17822646
28	0xbda3c2e8	-0.0799616
29	0x3ebcaba5	0.36849704
30	0xbc48ee05	-0.0122637795
31	0x3e05c747	0.130643
32	0x3f110a34	0.56656194
33	0xbd817261	-0.06320644
34	0x3da254d7	0.07926338
35	0xbe947be2	-0.29000765
36	0xbcc14977	-0.023594601
37	0xbc414b02	-0.011797668
38	0xbe421859	-0.189546
39	0x3dc6d96a	0.09709437
40	0x3ea33c70	0.31882048
41	0xbe41e336	-0.1893433
42	0x3ef24c6a	0.47323924
43	0xbda2a586	-0.07941727
44	0xbd2fb994	-0.04290159
45	0x3e431455	0.19050725
46	0xbdf16eb0	-0.1178869
47	0xbcbca4e7	-0.02302785
48	0xbdb0517a	-0.086092904
49	0xbd3db193	-0.046311926
50	0xbe8a28e9	-0.26984337
51	0xbd2ae626	-0.041723393
52	0xbd71b96a	-0.059014715
53	0xbd7c6a22	-0.061624654
54	0x3f17ffc0	0.5937462
55	0xbf5b9217	-0.8576979
56	0xbd2a9f52	-0.041655846
57	0x3ea8a0eb	0.3293527
58	0x3a294505	0.0006457123
59	0xbd48a64b	-0.048986714
60	0x3f0fc582	0.5616075
61	0x3b95d376	0.0045723272
62	0xbdd0bb13	-0.101919316
63	0x3e9872f3	0.297752
64	0xbd3efa47	-0.0466254
65	0xbec370c3	-0.38171968
66	0xbe1297a4	-0.14315659
67	0xbcab1fa4	-0.02088911
68	0xbcac39fc	-0.021023743
69	0xbf554474	-0.83307576
70	0xbd18ba90	-0.037287295
71	0xbdb315e0	-0.08744407
72	0xbe5a937b	-0.21345322
73	0x3e21be10	0.1579516
74	0xbe8d2f20	-0.27575016
75	0xbe9fc80e	-0.31207317
76	0xbd99010d	-0.074709035
77	0xbd060939	-0.03272364
78	0xbe1a78bc	-0.15085119
79	0xbd4fcb68	-0.050731093
80	0xbdcbcd6e	-0.09951292
81	0xbd472046	-0.048614763
82	0xbe3ce477	-0.18446527
83	0x3e4d34af	0.20039628
84	0x3c9e7896	0.01934461
85	0x3c2febbe	0.010737358
86	0xbcb95953	-0.0226256
87	0x3de2df2d	0.11077724
88	0xbccf1d0f	-0.02528241
89	0x3e053a8a	0.13010612
90	0xbcf46450	-0.029832989
91	0xbc8c4dcf	-0.017126946
92	0xbcd54ba7	-0.02603705
93	0x3ec1d081	0.37854388
94	0x3ef865e1	0.48515227
95	0x3aa35e2c	0.0012463978
96	0x3c04adb8	0.008098058
97	0xbc963494	-0.018335618
98	0xbda9f8f1	-0.08299435
99	0xbe6ca602	-0.23110202
100	0x3bfff500	0.0078111887
101	0x3da03698	0.07822913
102	0x3b009867	0.001962209
103	0xbc603b78	-0.013686053
104	0x3d5988a3	0.053108823
105	0x3eceff90	0.40429354
106	0xbd9a9f15	-0.07549874
107	0x3e274f60	0.16338873
108	0xbe182534	-0.14857942
109	0xbec38137	-0.3818452
110	0x3c068dc1	0.008212508
111	0x3c926e35	0.017874816
112	0xbeb5dd4e	-0.35520405
113	0x3ce3f762	0.027827922
114	0x3b707135	0.003668857
115	0xbd16e11a	-0.036835767
116	0xbea717bb	-0.32635292
117	0x3e9d41e3	0.3071433
118	0xbd07f515	-0.033192713
119	0xbe40b0ac	-0.18817395
120	0x3ea1d6f3	0.31609306
121	0xbc020509	-0.007935771
122	0xbd3b4b06	-0.045725845
123	0x3cbf4900	0.023350239
124	0x3cda0e36	0.026618104
125	0xbcb1c53f	-0.0217005
126	0x3ef39bf3	0.47579917
127	0xbdb1eeae	-0.08688103
128	0x3c806818	0.015674636
129	0x3d37e784	0.044898525
130	0xbde1976e	-0.11015211
131	0x3e96c755	0.29448953
132	0x3c66f07f	0.014095425
133	0xbdbca74c	-0.09211597
134	0xbe8e18ac	-0.27753198
135	0x3b1498d7	0.0022674107
136	0x3dcaed13	0.099084996
137	0xbc91876f	-0.017764775
138	0xbcba91f2	-0.02277467
139	0x3e4db7d8	0.20089662
140	0xbd3b2d80	-0.04569769
141	0x3bf02a41	0.007329256
142	0x3e6f931a	0.23395959
143	0xbeea9035	-0.45813146
144	0xbf2dcc0f	-0.67889494
145	0xbe8239fb	-0.2543486
146	0xbd5b2b0e	-0.053507857
147	0xbd93039c	-0.07178423
148	0xbd10d515	-0.03535946
149	0xbc523255	-0.012829383
150	0xbd0a1872	-0.03371472
151	0xbe8047ea	-0.25054866
152	0xbd5d25c1	-0.053991083
153	0xbe0da91c	-0.13834041
154	0x3e3e8970	0.18607116
155	0xbcd015db	-0.025401046
156	0x3de62c65	0.11238936
157	0xbd195b51	-0.0374406
158	0x3ae94863	0.0017798062
159	0xbcde0a5b	-0.027104547
160	0x3d4b48af	0.049629863
161	0xbc43c027	-0.011947668
162	0xbea705ff	-0.32621762
163	0xbbf94000	-0.0076065063
164	0xbda8687a	-0.08223052
165	0xbaf95a23	-0.0019024055
166	0xbd56d0ff	-0.052445408
167	0x3d56ba81	0.052423958
168	0x3e29541c	0.16535991
169	0xbe632211	-0.22180964
170	0x3e954519	0.2915428
171	0x3cfd3838	0.030910596
172	0x3d13ebeb	0.03611366
173	0xbc61499a	-0.013750458
174	0xbcd05127	-0.025429321
175	0xbd1728a7	-0.036904003
176	0xbedb9df3	-0.42893943
177	0xbd88cee9	-0.0668009
178	0x3a9a60c0	0.0011778101
179	0xbc97ef7e	-0.018546816
180	0xbd846692	-0.06464876
181	0x3ede546f	0.43423793
182	0x3ef2602c	0.47338998
183	0xbcebd00c	-0.028785728
184	0x3e248cdb	0.16069357
185	0xbdafac1a	-0.08577748
186	0x3f258834	0.64660954
187	0x3f0687cb	0.52550954
188	0xbe20e5eb	-0.15712707
189	0xbd33924d	-0.043840695
190	0x3e8db4fe	0.2767715
191	0x3dadf4dc	0.08493969
192	0xbedfbe94	-0.43700087
193	0xbc5c23ba	-0.013436252
194	0x3f2656e1	0.64976317
195	0x3d4e04a8	0.05029741
196	0x3d81254c	0.06305942
197	0x3c910dc6	0.017706763
198	0x3e6ce2fb	0.23133461
199	0xbd49306a	-0.049118437
200	0x3d040374	0.032229856
201	0xbd65b112	-0.05607707
202	0xbe6ae702	-0.22939685
203	0xbf1df271	-0.6169806
204	0xbe17b7f0	-0.1481626
205	0xbd975f61	-0.07391239
206	0x3e429497	0.19001995
207	0x3ecf0ca3	0.4043933
208	0x3d997225	0.074924745
209	0xbe5c6ba6	-0.2152544
210	0xbe9b55a7	-0.30338785
211	0xbd91e0ce	-0.07122956
212	0x3e9016e6	0.2814247
213	0x3ba7d08f	0.0051212977
214	0x3cb44f18	0.022010371
215	0xbd0c749b	-0.03429089
216	0x3be326e1	0.006932125
217	0xbe5c50b1	-0.21515156
218	0xbd4359f0	-0.047693193
219	0x3c65281a	0.013986612
220	0x3ee36752	0.44414765
221	0xbd2df6a1	-0.04247153
222	0x3bf893b0	0.007585965
223	0x3c34ab2f	0.0110271415
224	0x3e0a2100	0.13489151
225	0xbcc723e0	-0.024309099
226	0xbe843bd1	-0.25826886
227	0x3ea2f4b7	0.31827328
228	0xbcf0ac14	-0.029378928
229	0xb956d7af	-0.00020488979
230	0xbd08937a	-0.03334377
231	0x3ed460b1	0.4148002
232	0x3e5ee0ea	0.21765485
233	0x3e096e79	0.13421048
234	0xbe29ad87	-0.16570102
235	0xbe1808d4	-0.14847118
236	0xbd8bcaba	-0.068257764
237	0xbe16560e	-0.14681265
238	0x3e14e4af	0.14540361
239	0x3cbfd152	0.023415241
240	0x3e4572a6	0.19282016
241	0xbd3f615a	-0.0467237
242	0x3e430f40	0.19048786
243	0xbcbf0364	-0.023317046
244	0x3c9cf2dc	0.019158773
245	0xbdd0040e	-0.10157023
246	0xbdcd2961	-0.10017658
247	0xbe8d4bc7	-0.27596876
248	0x3e614ae1	0.2200122
249	0xbcd67948	-0.026180878
250	0xbf092722	-0.53575337
251	0xbd92f03e	-0.07174729
252	0xbe02d031	-0.12774731
253	0x3e64aa6d	0.22330637
254	0xbcecc6fb	-0.028903475
255	0xbc933abf	-0.017972348

l3.weight f4 [3, 256]
0	0xbd887158	-0.066622436
1	0xbd280b8f	-0.041026648
2	0xbcd8df98	-0.026473805
3	0x3c0c7082	0.008571746
4	0xbd9679ca	-0.07347448
5	0x3e27768c	0.16353816
6	0xbf818f3f	-1.012184
7	0xba2fca71	-0.00067058863
8	0x40394445	2.8947918
9	0x3cb2c590	0.02182272
10	0xba8f184f	-0.0010917279
11	0x3dd541c9	0.10412938
12	0xbdc28139	-0.094973035
13	0xbd59acfc	-0.053143486
14	0xbd30996c	-0.043115065
15	0x3c988137	0.018616302
16	0xbf4c2abe	-0.7975272
17	0xbc00a473	-0.007851708
18	0x3f9ebaf1	1.24008
19	0x3f43aaf3	0.7643272
20	0xbf0ac392	-0.54204667
21	0x3b2d2bcb	0.0026423808
22	0x401ef5b2	2.483746
23	0xbd2eea7e	-0.042704098
24	0xbf5b609c	-0.8569429
25	0xbf32ca57	-0.69839996
26	0x3e7f1b03	0.24912648
27	0xbf8ceeb5	-1.1010348
28	0xbc281aea	-0.010260323
29	0x3f06a7d5	0.5259984
30	0xbcac6e05	-0.021048555
31	0x3f7a045e	0.97662914
32	0x3faf5a5e	1.3699453
33	0xbe1abb09	-0.15110411
34	0x4004bc4f	2.0739934
35	0xbf36460c	-0.71200633
36	0xbfe8a48f	-1.8175219
37	0xbd264341	-0.040591482
38	0xbfb11a89	-1.3836223
39	0x3fb96136	1.4482791
40	0xbfc83b86	-1.5643165
41	0x3dcec169	0.10095484
42	0x4046df26	3.10737
43	0xbfae9e45	-1.364205
44	0x3c8905b7	0.016726358
45	0x401fa117	2.4942071
46	0xbfad8e2d	-1.3559014
47	0xbc924eb3	-0.017859792
48	0xc02decf2	-2.717587
49	0x3d51a3fa	0.05118177
50	0xbec1176f	-0.3771319
51	0xbb722b67	-0.003695214
52	0xbd3ab6ac	-0.045584366
53	0xbcfdcf8a	-0.030982751
54	0x3f633719	0.8875595
55	0x3f37e08f	0.71827024
56	0xbc201288	-0.009770043
57	0x3f83795c	1.0271411
58	0x3f979b16	1.1844203
59	0xbec2b25f	-0.3802671
60	0xbf701a9c	-0.937906
61	0x3d47e04a	0.048797883
62	0x3e0ac7f9	0.13552846
63	0x3fca28a3	1.5793651
64	0x3eb4358e	0.3519711
65	0xbfa96688	-1.3234415
66	0xc0276690	-2.615635
67	0x3cba67fe	0.022754665
68	0x3cef6b97	0.029226108
69	0x3f872b77	1.056014
70	0x3d06d4b9	0.032917712
71	0x3f9c586d	1.2214485
72	0x3e4e15fb	0.20125572
73	0x3f4513ac	0.7698314
74	0x3f960d6b	1.1722845
75	0x3e2cd1cf	0.1687691
76	0xbe244075	-0.16040213
77	0xbd82ca95	-0.06386296
78	0x3e6b657b	0.2298793
79	0xbd697d58	-0.057004303
80	0xbd5d5256	-0.0540336
81	0xbc01590f	-0.007894768
82	0x3decc6c3	0.11561348
83	0xbf50d1e8	-0.8157029
84	0xbf7d979e	-0.99059474
85	0xbac06bd4	-0.0014680573
86	0x3d6ab2f3	0.057299566
87	0xbe4f8ae6	-0.2026783
88	0xbd052caf	-0.032513317
89	0xbe6be94e	-0.23038217
90	0xbc7f4e9b	-0.015582706
91	0x3d368783	0.044562828
92	0xbbb4245c	-0.0054974984
93	0xc07b9765	-3.9311154
94	0xc0157136	-2.3350348
95	0xbcc29fdc	-0.023757868
96	0x3bfe9cea	0.0077701705
97	0x3d02d040	0.031936884
98	0xbda98442	-0.08277179
99	0xbf3ddcb6	-0.74164903
100	0xbd57fd80	-0.05273199
101	0xc0490497	-3.1409051
102	0xbd31bc0d	-0.04339223
103	0xc004ee39	-2.07704
104	0x3f6b581b	0.91931313
105	0x3f9b7f44	1.2148213
106	0xbf8d3428	-1.1031542
107	0xbfab9b41	-1.3406755
108	0xbfbabe07	-1.4589242
109	0x3ef9b5aa	0.4877141
110	0xbea30816	-0.31842107
111	0x3c19abe0	0.009379357
112	0x3fad542b	1.3541311
113	0xbb7e830b	-0.0038835432
114	0x3d12c0f3	0.035828542
115	0x3ccd9b37	0.025098426
116	0x3fb87542	1.4410784
117	0x3f79b5c3	0.9754297
118	0xbb8f6cef	-0.0043769996
119	0x3f166353	0.58745307
120	0xbf024d01	-0.5089875
121	0xbfb3d8d9	-1.4050552
122	0x3d20f9b8	0.03930065
123	0xbd42c8d7	-0.047554817
124	0x3cef94ea	0.029245812
125	0x3da51248	0.080601275
126	0xbf30bea6	-0.69040906
127	0xbf0256f7	-0.5091395
128	0x3cc59ec8	0.024123564
129	0x3fbce1ab	1.4756368
130	0xbf881833	-1.0632385
131	0x3f83d9ad	1.0300804
132	0x3f0e929d	0.55692464
133	0x3e4417b0	0.19149661
134	0x3ec4a2d6	0.38405484
135	0xbfc5bddc	-1.5448565
136	0xbf76c55d	-0.963949
137	0xbf826a34	-1.0188661
138	0x3c037b17	0.008024952
139	0x3e088db3	0.13335304
140	0x3d4aa218	0.04947099
141	0x3cef5acc	0.0292181
142	0x3fab3ca1	1.3377877
143	0x3f082ed3	0.5319645
144	0xbf3a69fa	-0.7281796
145	0xbe143e7b	-0.1447696
146	0xbd0d743b	-0.034534674
147	0x3f88ef2d	1.0697991
148	0x397c8b86	0.0002408457
149	0xbd2e73a7	-0.042590763
150	0xbd147095	-0.03624018
151	0xbf3a10af	-0.7268171
152	0x3cbcc8fe	0.02304506
153	0xbfb5de65	-1.4208494
154	0x3f15fe0b	0.58590764
155	0x3d1ef1e0	0.03880489
156	0xbf944ca2	-1.1585886
157	0x3c743c28	0.0149069205
158	0x3d5affb6	0.05346652
159	0xbc7a781c	-0.015287425
160	0xbfce32f5	-1.6109301
161	0xbc999044	-0.018745549
162	0xc0009438	-2.0090466
163	0xc007db3d	-2.1227562
164	0x3f685f43	0.9077036
165	0xbcc70805	-0.024295816
166	0xbce92cae	-0.028463688
167	0x3f5c00e2	0.8593885
168	0xbd491189	-0.04908899
169	0x3f1964cf	0.59919447
170	0x3fb353cb	1.4009947
171	0x3ec4f7b4	0.38470232
172	0xbdf4a87e	-0.119462
173	0x3ef0b33c	0.47011745
174	0x3dda39cd	0.10655556
175	0xbd2ff5ee	-0.042959146
176	0x3f470a81	0.777504
177	0x3c43c4b7	0.011948756
178	0x3a8bab21	0.0010655859
179	0xbd31b527	-0.04338565
180	0xbd287682	-0.041128643
181	0xc012376e	-2.2846332
182	0x3fca6251	1.5811254
183	0x3d38d59b	0.045125585
184	0x3ec9aa3b	0.39387688
185	0x3b86e547	0.0041166875
186	0xbfa6c589	-1.3029033
187	0xc00ac5ee	-2.1683307
188	0xbeb14510	-0.34623003
189	0x3d13b6a4	0.03606285
190	0xbff0305c	-1.8764758
191	0xc04a5b6a	-3.1618295
192	0x3ef61526	0.4806301
193	0x39a9b5e4	0.0003236971
194	0xbfbcccb1	-1.4749967
195	0xbc1c65ab	-0.009545724
196	0x3ebff616	0.37492436
197	0xbcd09d36	-0.025465589
198	0x402aa936	2.6665778
199	0xbcde2530	-0.027117342
200	0xbfe26642	-1.7687457
201	0xbd4d1c53	-0.05007584
202	0xbf7c27ca	-0.98498213
203	0xbe5afa6f	-0.21384595
204	0xbfd6ea64	-1.679028
205	0xbcdab918	-0.026699588
206	0xbf0a1382	-0.53936017
207	0xbfc7006b	-1.5547003
208	0x3f1cb8e6	0.6121963
209	0xbeb4f197	-0.35340568
210	0xbfc1470c	-1.5099807
211	0xbfb568ed	-1.4172646
212	0x3be97b99	0.0071253297
213	0x3cc8050d	0.02441647
214	0x3cda3368	0.02663584
215	0x3b1dd3b0	0.0024082474
216	0x3cf4f067	0.029899789
217	0xbf18f318	-0.5974593
218	0xbf5f6f37	-0.87279075
219	0xbce9d1c1	-0.028542401
220	0x401b9b36	2.4313483
221	0x3f565096	0.83716714
222	0x3d410b81	0.04713011
223	0x3f0e830d	0.5566872
224	0xc01a413a	-2.410231
225	0x3c009c6b	0.007849793
226	0x3ed95266	0.42445678
227	0x407150c3	3.7705543
228	0xbd3cc177	-0.04608294
229	0xbcb38f83	-0.021919018
230	0x3cdc0b83	0.026860958
231	0xc0214d7c	-2.5203543
232	0xbff73625	-1.9313399
233	0x40346ad9	2.8190215
234	0x3fb769ac	1.4329123
235	0xbf67a78f	-0.9049005
236	0xbb852177	-0.004062827
237	0x3f38598a	0.72011626
238	0x3ff56649	1.917184
239	0xbeb85823	-0.36004743
240	0x3fa136fe	1.2594907
241	0x3bcc33d9	0.0062317667
242	0x4014d8b8	2.3257275
243	0x3bcd4fd8	0.0062656216
244	0xbc953d3a	-0.018217672
245	0xbe08f3cd	-0.13374253
246	0xbf099a30	-0.53750896
247	0x4004e622	2.0765462
248	0x401b861c	2.4300604
249	0xbd24c4b0	-0.04022664
250	0x3fc5a8d5	1.5442148
251	0x3fb4f822	1.4138224
252	0xbf3df4c8	-0.7420163
253	0x3f083126	0.53199995
254	0x3d40b9ab	0.047052067
255	0x40356e35	2.8348515

l3.bias f4 [3]
0	0x3e3678d4	0.1781953
1	0xbea7eb56	-0.32796735
2	0x3c931eeb	0.017959079
