saves/Dobot-v1/none/seed_0/model/critic.pth (torch, 585559 bytes, 5 tensors)

l1.weight f4 [512, 27]
0.2867554 0.14789118 0.49948585 0.051712986 0.36833745 0.55219257 0.21689521 0.18792279
0.4054774 0.16581003 -0.37465 0.5613586 1.0564731 -0.30250478 -0.6306186 0.7205839
0.2567576 -0.71342427 -0.3732802 -0.8062174 -0.22722347 -0.15492186 -0.9765916 0.70561373
0.12332611 -0.015615068 0.14376706 0.84425604 0.41573074 -1.499807 1.2707012 -2.0090995
0.35354748 2.1365795 1.0941727 0.166514 1.4768008 0.042964976 0.072442055 1.1839954
-0.78572935 0.23372479 1.0780907 -1.3722774 2.2089212 -0.9425285 0.064032234 -0.2686156
-1.110836 0.37126637 0.036208406 0.051974572 -0.035808895 -0.013689021 0.051083412 -1.0036361
-0.40604162 1.2005723 0.116970316 0.2814334 1.4419725 -0.1809271 -0.5408336 1.2604619
-0.20683762 -0.5751343 2.2572653 3.9038043 1.8279946 2.3243365 1.8297942 4.4745307
-0.7706966 0.82134134 0.91242594 -0.9962432 1.9092319 1.7298607 0.15883407 0.122667685
0.12454792 -0.4864777 -1.0277648 -0.5731209 -0.3281423 -0.19957772 0.014047289 -0.009776314
0.40210354 -0.4871918 -0.027153598 0.38801634 -0.6056207 0.48118204 0.7798232 0.0005125053
0.6564189 0.7128086 0.16804478 0.0037861383 0.15801972 0.54588825 -0.04671486 0.6888431
0.91457003 -0.016152538 0.007318331 0.043199014 -0.24662761 -0.09690743 -0.17411241 -0.14087828
0.11524294 -0.1827437 -0.03334023 0.13418636 -0.13448578 -0.024281003 0.26829982 -0.17527337
0.0075147455 -0.031529192 -0.088180065 -0.027779687 0.22744161 0.1540009 -0.084943786 0.025745302
-0.082363114 -0.12876174 0.23187804 -0.01596732 -0.046273854 -0.030376595 0.107280895 -0.06023404
-0.32435194 -0.0891353 0.07492725 -0.33529946 -0.16740064 -0.020259146 0.1514495 -0.04636766
-0.09409114 0.18722339 -0.11451046 0.08184854 0.26452124 -0.02709324 0.18305823 0.03664655
-0.0426034 0.049033068 0.12995067 0.082278855 -0.09489229 0.14746648 -0.12833579 -0.1145426
-0.116582304 -0.05102717 -0.073904954 -0.1767685 -0.3804231 -0.021242324 0.03100378 0.10306999
-0.40812683 -0.06269871 -0.37549242 0.019135054 0.11225742 0.046122544 0.35478172 0.14156064
0.10246259 0.025224594 -0.20419282 0.42685783 0.1452511 0.22545475 0.25965437 -0.0064366455
0.4399387 0.014502622 -0.07003358 -0.03249573 -0.078698166 -0.55807525 -0.91793156 -0.9444474
0.09068681 0.050663322 0.6970995 0.16314475 0.4044235 -0.74181134 0.060354028 0.62934655
-2.8825858 -0.66013664 1.8668374 1.4398364 -0.45482263 1.3977861 2.4475477 -0.01972828
0.6097834 0.741012 0.06991325 0.6847585 1.2689407 -0.23311432 -0.019289512 -0.054677527
0.49016798 0.08188153 0.5129183 0.17175189 0.32331696 0.4845897 0.09719737 0.0029554432
0.22143623 0.09144558 0.008838231 0.4415386 0.71811086 -0.23330359 -0.14543591 0.71688837
0.15931515 -0.36717057 -0.18027596 -0.36697787 -0.2818481 -0.23673613 -0.7697985 0.5309629
0.04276906 0.08078222 -0.12564658 -0.118961744 -0.9669245 -0.1655331 -0.16915272 -0.20918162
-0.28116268 -0.11109974 0.021867646 -0.25086728 -0.22771133 0.103714205 -0.31134808 0.0829741
00000000: 9bd1 923e c970 173e 9cbc ff3e ffd0 533d
00000010: ba96 bc3e 7e5c 0d3f c719 5e3e d56e 403e
00000020: bc9a cf3e 1bca 293e 20d2 bfbe 32b5 0f3f
00000030: 833a 873f e8e1 9abe 3870 21bf 3078 383f
00000040: bb75 833e f9a2 36bf 951e bfbe 4364 4ebf
00000050: 45ad 68be d6a3 1ebe e801 7abf 1aa3 343f
00000060: 6692 fc3d 58d6 7fbc ac37 133e 2a21 583f
00000070: a9da d43e adf9 bfbf 56a6 a23f 1695 00c0
00000080: 2d04 b53e b8bd 0840 da0d 8c3f a582 2a3e
00000090: cf07 bd3f 0bfc 2f3d 805c 943d 298d 973f
000000a0: 8f25 49bf 8d55 6f3e e0fe 893f c9a6 afbf
000000b0: f75e 0d40 8c49 71bf 5523 833d fc87 89be
000000c0: e02f 8ebf a016 be3e 444f 143d 4ae3 543d
000000d0: 59ac 12bd ea47 60bc d73c 513d 2677 80bf
000000e0: b0e4 cfbe 5aac 993f 228e ef3d 0a18 903e
000000f0: 8e92 b83f f444 39be 1274 0abf d156 a13f
00000100: 3ecd 53be 003c 13bf 0977 1040 eed7 7940
00000110: bafb e93f eec1 1440 b236 ea3f 5b2f 8f40
00000120: 5f4c 45bf 6d43 523f bf94 693f cb09 7fbf
00000130: b661 f43f 136c dd3f 66a5 223e 3239 fb3d
00000140: fb12 ff3d 9b13 f9be cc8d 83bf 0db8 12bf
00000150: 4402 a8be 1a5e 4cbe 9a26 663c d52c 20bc
00000160: 84e0 cd3e 3471 f9be 3971 debc 14aa c63e
00000170: f509 1bbf 7e5d f63e 7ea2 473f a659 063a
00000180: 120b 283f a07a 363f ee13 2c3e dc20 783b
00000190: eccf 213e 55bf 0b3f 1558 3fbd 0558 303f
000001a0: 4321 6a3f 5452 84bc 9cce ef3b 73f1 303d
000001b0: f38b 7cbe 6777 c6bd 864a 32be 6542 10be
000001c0: 7e04 ec3d 2a21 3bbe c48f 08bd 2668 093e
000001d0: a4b6 09be f4e8 c6bc 985e 893e dd7a 33be
000001e0: 413e f63b c124 01bd c097 b4bd 3a92 e3bc
000001f0: 74e6 683e 69b2 1d3e 02f7 adbd d0e7 d23c
00000200: fead a8bd 1eda 03be 7071 6d3e e6cd 82bc
00000210: a789 3dbd 56d8 f8bc 16b6 db3d f8b7 76bd
00000220: 7511 a6be 918c b6bd 7573 993d 5fac abbe
00000230: 136b 2bbe 82f6 a5bc 9415 1b3e 04ec 3dbd
00000240: dbb2 c0bd 7db7 3f3e 7684 eabd 35a0 a73d
00000250: 546f 873e a4f2 ddbc 9e73 3b3e b11a 163d
00000260: e780 2ebd e6d6 483d ca11 053e d181 a83d
00000270: e456 c2bd 7401 173e 756a 03be 5095 eabd
00000280: b4c2 eebd de01 51bd 7b5b 97bd cd02 35be
00000290: d1c6 c2be 6204 aebc a4fb fd3c 5c16 d33d
000002a0: 00f6 d0be 2e68 80bd 8b40 c0be 1ec1 9c3c
000002b0: 38e7 e53d feea 3c3d f3a5 b53e 46f5 103e
000002c0: e8d7 d13d cfa3 ce3c ec17 51be 1c8d da3e
000002d0: b4bc 143e 9cdd 663e 6bf1 843e 7fea d2bb
000002e0: a53f e13e 689c 6d3c c46d 8fbd 3e1a 05bd
000002f0: 812c a1bd 05de 0ebf 90fd 6abf 4ec7 71bf
00000300: 02ba b93d 5884 4f3d 1d75 323f 6b0f 273e
00000310: 9910 cf3e 59e7 3dbf c935 773d db1c 213f
00000320: 497c 38c0 b7fe 28bf 87f4 ee3f 8f4c b83f
00000330: 83de e8be a8ea b23f 9fa4 1c40 349d a1bc
00000340: c41a 1c3f f6b2 3d3f ae2e 8f3d 554c 2f3f
00000350: a66c a23f 85b5 6ebe 0a05 9ebc 8bf5 5fbd
00000360: 4cf7 fa3e 81b1 a73d 9d4e 033f badf 2f3e
00000370: cd89 a53e 241c f83e 6a0f c73d 1cb0 413b
00000380: 2ec0 623e d247 bb3d 3ace 103c 5911 e23e
00000390: 1dd6 373f 23e7 6ebe 27ed 14be ff85 373f
000003a0: 8323 233e c8fd bbbe 439a 38be 86e4 bbbe
000003b0: 654e 90be f56a 72be 8411 45bf 2fed 073f
000003c0: 9c2e 2f3d 2671 a53d 7fa9 00be 37a2 f3bd
000003d0: 5d88 77bf 8281 29be 5f36 2dbe b533 56be
000003e0: 8ef4 8fbe 4388 e3bd c723 b33c ad71 80be
000003f0: 292d 69be 1d68 d43d 0469 9fbe 53ee a93d

l1.bias f4 [512]
0.67846066 -0.10146136 -0.5364478 -0.18052132 -0.0677896 -0.17220603 -0.23414326 -0.6280407
0.5962788 -0.39290908 -0.07891131 -0.37816024 -0.14457649 -0.35554302 -0.34726104 -0.06037894
-0.33123568 -0.33582836 -0.09466215 -0.577337 -0.27365205 -0.33572793 -0.20878494 -0.25596282
-0.5923185 -0.77132 0.55884916 -0.30405456 -0.11047993 -0.1871529 -0.3262205 -0.24305157
-0.18143292 0.07421231 -0.5599677 -0.2552351 -0.44470787 -0.13052472 -0.19089982 -0.07442947
-0.006916213 -0.29825473 -0.17202292 -0.9257765 -0.12553586 -0.047657225 -0.71824616 -0.44850197
0.5068745 -0.33287215 0.05559676 0.5493101 -0.08448824 -0.23932825 -0.75076646 -0.22674695
-0.14553624 -0.10821834 -0.29819816 -0.001782448 -0.056820855 -0.34465447 -0.2545536 -0.49267894
-0.18019806 -0.37990284 -0.35414302 -0.33060306 -0.2670868 -0.29686773 -0.15862866 -0.38638553
-0.46102345 -0.31030628 -0.206315 -0.5251144 -0.34567946 -0.21465448 -0.54629594 -0.05851285
-0.06468542 -0.36182746 -0.20365633 0.054266386 -0.37525043 -0.6233897 -0.11920124 -0.679276
0.014998555 -0.081835754 -0.23592806 -0.4008609 0.3172842 -0.105067305 -0.732257 -0.106637485
-0.52746683 -0.17894952 -0.006256237 -0.1779391 -0.47833884 -0.5208341 -0.18684049 -0.71355593
-0.10575675 -0.06661737 -0.27563196 -0.9279147 0.005640405 0.023721885 -0.37603262 -0.05189083
-0.20494182 -0.27294472 -0.5967321 -0.22324638 -0.35860512 0.0045200996 -0.18236522 -0.11972808
-0.19245465 -0.14319618 -0.760666 -0.46918783 -0.78067815 -0.024476651 -0.76394266 0.17882532
-0.4282786 -0.056732677 -0.4768318 -0.44557208 -0.13296449 -0.45213705 -0.6534822 -0.7079646
-0.32693824 -0.686189 -0.503786 -0.027209962 -0.05123381 -0.35221216 -0.0650599 -0.15687238
-0.21811569 -0.2556514 -0.22725481 -0.20293161 -0.059113055 -0.32548514 -0.29627663 -0.68644375
-0.052184675 -0.24500374 -0.53851193 -0.16602407 0.013951647 -0.2250231 -0.6715273 0.46400976
-0.31941387 -0.610681 -0.22109136 -0.5041049 -0.70949465 -0.12547079 0.061983533 -0.13821864
-0.29209834 -0.19471455 -0.22544108 0.08097918 -0.17010157 -0.26081342 -0.28277487 -0.18226458
-0.20368181 -0.18708108 -0.18499623 -0.47666556 -0.7750248 0.7835754 -0.026744884 0.34166014
-0.18919478 -0.38353857 -0.09161088 -0.03453674 -0.31907865 -0.11980456 -0.3390724 -0.032948744
-0.15853174 0.0072400477 -0.21046792 -0.21298671 -0.19915308 -0.3639488 -0.39986196 0.11347721
-0.2448265 -0.67175704 -0.26381853 0.017465401 -0.15730315 -0.24579969 -0.09055998 -0.7703732
-0.024038887 -0.085501485 -0.17060368 -0.21909727 -0.5377973 -0.23811503 -0.1453942 -0.32289878
-0.26557332 -0.2386004 -0.3926044 -0.34049818 -0.2656787 -0.17756501 -0.30908132 -0.21784839
-0.2584008 -0.26606902 -0.09206681 -0.09886699 -0.07984838 -0.0668524 -0.32493642 0.052302897
-0.48554283 -0.9306847 -0.24723281 -0.39594167 -0.02878117 -0.16192688 -0.7318918 -0.02165582
-0.053470712 -0.036858913 -0.4236308 -0.42222786 -0.23525414 -0.844527 -0.2168847 -0.17287977
-0.10565421 -0.105168864 -0.54472405 -0.2786051 -0.66219354 -0.054817297 0.034806393 -0.14809689
00000000: 99af 2d3f f9ca cfbd a554 09bf 95da 38be
00000010: 46d5 8abd c756 30be 40c3 6fbe 46c7 20bf
00000020: baa5 183f 612b c9be 419c a1bd 389e c1be
00000030: dc0b 14be bc09 b6be 33cc b1be e84f 77bd
00000040: b997 a9be b2f1 abbe 3bde c1bd 5ccc 13bf
00000050: 1f1c 8cbe 88e4 abbe b8cb 55be 8f0d 83be
00000060: 2fa2 17bf 3a75 45bf bd10 0f3f 0aad 9bbe
00000070: 4d43 e2bd 03a5 3fbe 6006 a7be 83e2 78be
00000080: 8dc9 39be a0fc 973d 0b5a 0fbf 2dae 82be
00000090: c0b0 e3be 46a8 05be 3e7b 43be 7a6e 98bd
000000a0: 66a1 e2bb d8b4 98be c726 30be b0ff 6cbf
000000b0: 798c 00be 3934 43bd fbde 37bf 0da2 e5be
000000c0: 87c2 013f 386e aabe 6eb9 633d 969f 0c3f
000000d0: 2c08 adbd 7712 75be 3b32 40bf 5a30 68be
000000e0: 7407 15be 94a1 ddbd 6ead 98be 08a1 e9ba
000000f0: fcbc 68bd 8d76 b0be d954 82be 6a40 fcbe
00000100: d785 38be a082 c2be 3c52 b5be ce44 a9be
00000110: 9abf 88be 0cff 97be 8d6f 22be 53d4 c5be
00000120: 440b ecbe 77e0 9ebe 3d44 53be e66d 06bf
00000130: e6fc b0be 62ce 5bbe 0dda 0bbf 2cab 6fbd
00000140: ca79 84bd 7341 b9be 498b 50be 6e46 5e3d
00000150: d320 c0be 7896 1fbf c81f f4bd 08e5 2dbf
00000160: 80bc 753c 8199 a7bd 2097 71be a43d cdbe
00000170: 1373 a23e 872d d7bd 3275 3bbf c164 dabd
00000180: 1108 07bf 8b3e 37be 1f01 cdbb ab35 36be
00000190: d4e8 f4be 6255 05bf 1d53 3fbe 9aab 36bf
000001a0: ff96 d8bd b06e 88bd a21f 8dbe d18b 6dbf
000001b0: 26d3 b83b 6654 c23c 5987 c0be 7b8b 54bd
000001c0: 45dc 51be 69bf 8bbe 6fc3 18bf b39a 64be
000001d0: 179b b7be 581d 943b f3bd 3abe ff33 f5bd
000001e0: d512 45be 05a2 12be 02bb 42bf 6339 f0be
000001f0: 86da 47bf 4283 c8bc bf91 43bf fc1d 373e
00000200: 5547 dbbe 8660 68bd 4c23 f4be 0622 e4be
00000210: d827 08be 827e e7be 9c4a 27bf 2b3d 35bf
00000220: 7364 a7be 15aa 2fbf 1ff8 00bf 6de7 debc
00000230: 8bda 51bd 2755 b4be 203e 85bd 27a3 20be
00000240: b859 5fbe bee4 82be 7cb5 68be 4ecd 4fbe
00000250: 8820 72bd fda5 a6be 92b1 97be c7ba 2fbf
00000260: 99bf 55bd 43e2 7abe ebdb 09bf 3702 2abe
00000270: 7395 643c 756c 66be 37e9 2bbf b092 ed3e
00000280: 378a a3be 9755 1cbf c665 62be 050d 01bf
00000290: 71a1 35bf 6a7b 00be 72e2 7d3d 3089 0dbe
000002a0: ea8d 95be 4063 47be 07da 66be 6ad8 a53d
000002b0: 1b2f 2ebe 5689 85be dec7 90be 91a3 3abe
000002c0: f791 50be 2f92 3fbe a76f 3dbe 820d f4be
000002d0: 0668 46bf 6698 483f 1618 dbbc 14ee ae3e
000002e0: 47bc 41be 2b5f c4be 7c9e bbbd 6676 0dbd
000002f0: 475e a3be 185c f5bd e69a adbe 43f5 06bd
00000300: 2556 22be ec3d ed3b e784 57be 3019 5abe
00000310: c9ee 4bbe 7f57 babe b5ba ccbe bd66 e83d
00000320: ccb3 7abe 45f8 2bbf 3913 87be 9a13 8f3c
00000330: 1414 21be eab2 7bbe 8377 b9bd 2e37 45bf
00000340: 33ed c4bc 671b afbd bbb2 2ebe 095b 60be
00000350: 15ad 09bf 6dd4 73be 38e2 14be fd52 a5be
00000360: 3af9 87be aa53 74be 7203 c9be c755 aebe
00000370: 0a07 88be 9ad3 35be e83f 9ebe a613 5fbe
00000380: 1c4d 84be 333a 88be 868d bcbd c77a cabd
00000390: 8c87 a3bd e9e9 88bd 115e a6be 903b 563d
000003a0: 1299 f8be 5a41 6ebf 992a 7dbe deb8 cabe
000003b0: 7dc6 ebbc 29d0 25be 435d 3bbf 8c67 b1bc
000003c0: 1b04 5bbd 5ff9 16bd 23e6 d8be 402e d8be
000003d0: 76e6 70be ec32 58bf 0617 5ebe 6507 31be
000003e0: 3c61 d8bd c662 d7bd 0973 0bbf 54a5 8ebe
000003f0: 8485 29bf 1a88 60bd 2691 0e3d b6a6 17be

l2.weight f4 [256, 512]
-0.010398717 -0.044915702 -0.018115733 -0.004802288 0.022131674 0.018772762 0.03087442 -0.011582159
-0.0030377528 0.0045038457 -0.030371416 0.025933525 0.011122611 -0.0029792963 -0.026391687 0.034861397
0.023147542 -0.039334435 0.04133474 0.0385213 0.02157049 -0.01934846 -0.016702611 -0.019496897
-0.01592162 -0.08185204 -0.032874987 0.03381459 -0.04376711 0.001598313 0.018464677 0.02832365
-0.030722303 0.040449593 0.008614716 0.030995924 -0.025726378 -0.03496968 -0.014652485 -0.022129029
0.033041928 -0.021912 -0.00029254582 -0.0039644465 0.009847601 -0.022045953 0.030571809 -0.016658971
-0.06495105 -0.019198714 -0.010162295 -0.039508272 -0.05303252 0.039171066 0.0004979816 0.0066044163
-0.027174292 0.014481853 0.018215586 0.02583157 0.04018534 0.012682809 0.029864399 -0.031392075
-0.04092157 -0.050591517 0.034364767 -0.028948484 -0.008741314 0.028952122 0.039827608 0.030264908
-0.010258999 -0.019028934 0.015296803 -0.03737631 0.022678 -0.0083347075 -0.022514906 -0.037195794
0.035933297 -0.022333924 0.0012229171 -0.022844728 -0.022741396 0.013066854 0.03020466 -0.031605635
-0.0052357623 -0.020434251 0.03792276 -0.040944595 -0.02648785 -0.004831309 -0.03608583 0.03345545
0.00025830744 0.033082686 -0.053522423 0.017291214 -0.045610167 -0.04129863 0.023871463 0.0024034288
0.033352796 -0.0107165575 0.019544845 -0.053274713 -0.037663676 -0.027396563 -0.0019722881 -0.04611901
0.0071039535 0.001766361 0.016165301 -0.02212996 -0.029392997 -0.05348745 0.010246494 0.016453644
-0.040324412 -0.0119215 -0.03210491 -0.071476236 0.025675373 -0.0131800575 0.021173585 0.005514715
-0.040798124 0.0021332398 -0.008924817 -0.0036740988 0.0071892226 0.017750578 0.008947164 -0.043724
0.018930657 0.0015377501 -0.04194482 -0.0714557 0.0100079235 -0.0049317535 -0.004737771 -0.011058741
0.029983077 -0.020138208 0.016669834 -0.033988424 0.016690318 0.029576369 0.0063499813 -0.027534835
-0.04215756 -0.0394466 -0.05586816 -0.023035603 0.006750879 -0.037946414 0.010092995 -0.05689047
-0.03559029 -0.018595576 0.0033576253 -0.012243145 0.02463502 0.019781383 -0.0008461642 0.033239864
0.0006616064 -0.032955427 -0.019539773 -0.027224006 0.0021217968 -0.04793384 -0.044582933 -0.007943707
0.0014062572 0.010370754 0.03237463 -0.0014018773 -0.011403166 -0.0510739 -0.022943184 -0.056095053
-0.035191197 -0.003056958 0.01552961 -0.015688242 -0.015585552 -0.018734995 -0.05027717 -0.020615041
0.024694633 0.0018361347 0.003865045 -0.02412484 -0.011062763 -0.03633519 0.016079674 0.034182332
-0.015437884 -0.045432504 0.0064317863 0.022313897 0.008281276 0.004897572 -0.047008056 0.01767928
0.032835163 0.01459455 -0.028156355 0.008901275 -0.039778944 0.018991135 0.0017121736 0.019951906
-0.019363753 0.0186322 0.004830281 0.011481702 0.0072114537 0.032686166 0.010220246 -0.009893988
-0.0013704987 0.00033180372 -0.038593896 0.01575072 -0.057697043 -0.051909227 -0.009465577 -0.009198702
0.02183005 -0.02259186 0.013057544 0.011937957 -0.051634897 -0.006532612 -0.046885297 0.024680387
0.012909062 0.031664427 -0.01124831 0.010210156 0.03185935 -0.02301376 0.009321044 0.0020425245
0.021007797 0.014909708 -0.039797135 0.02784597 -0.020532051 -0.00036080927 0.02111545 0.010809521
00000000: 615f 2abc 87f9 37bd 7267 94bc 835c 9dbb
00000010: 7c4d b53c 56c9 993c 5aec fc3c 19c3 3dbc
00000020: 0915 47bb ff94 933b 7acd f8bc 8b72 d43c
00000030: 9d3b 363c 4c40 43bb 6133 d8bc d3ca 0e3d
00000040: ea9f bd3c 251d 21bd 9e4e 293d 83c8 1d3d
00000050: 99b4 b03c a980 9ebc ead3 88bc f5b7 9fbc
00000060: 0f6e 82bc 0ba2 a7bd eca7 06bd 2b81 0a3d
00000070: 2445 33bd 7c7e d13a 3c43 973c 0007 e83c
00000080: 57ad fbbc 79ae 253d bd24 0d3c 2aeb fd3c
00000090: 20c0 d2bc 5e3c 0fbd fa10 70bc f047 b5bc
000000a0: f956 073d cb80 b3bc d660 99b9 30e8 81bb
000000b0: d557 213c b799 b4bc bb71 fa3c 6578 88bc
000000c0: 0e05 85bd 9f46 9dbc c17f 26bc 6dd3 21bd
000000d0: a138 59bd d771 203d fb8a 023a dc69 d83b
000000e0: 9f9c debc 4b45 6d3c da38 953c bb9c d33c
000000f0: 6299 243d 8ecb 4f3c 2fa6 f43c fa94 00bd
00000100: 609d 27bd 0d39 4fbd 12c2 0c3d 5f25 edbc
00000110: ba37 0fbc 002d ed3c 4622 233d 1dee f73c
00000120: 5c15 28bc 91e2 9bbc 719f 7a3c e717 19bd
00000130: 37c7 b93c 4c8e 08bc 2e71 b8bc 9e5a 18bd
00000140: cb2e 133d a2f5 b6bc 4a4a a03a de24 bbbc
00000150: 2a4c babc 5c16 563c c36f f73c e974 01bd
00000160: c290 abbb bb65 a7bc e554 1b3d 85b5 27bd
00000170: 0cfd d8bc f54f 9ebb bcce 13bd 9508 093d
00000180: 706d 8739 b681 073d 543a 5bbd 4ea6 8d3c
00000190: bad1 3abd c128 29bd 168e c33c d882 1d3b
000001a0: f19c 083d 8094 2fbc 831c a03c 9636 5abd
000001b0: 3a45 1abd c26e e0bc 8141 01bb 49e7 3cbd
000001c0: 48c8 e83b 3d85 e73a 186d 843c e449 b5bc
000001d0: 95c9 f0bc a815 5bbd e9e0 273c cbc9 863c
000001e0: 362b 25bd 6552 43bc 7080 03bd 2262 92bd
000001f0: 2955 d23c 2bf1 57bc 3a74 ad3c c8b4 b43b
00000200: ef1b 27bd d3cd 0b3b 6539 12bc 26c9 70bb
00000210: 9293 eb3b a969 913c 2097 123c f017 33bd
00000220: 7714 9b3c 558e c93a 55ce 2bbd 5e57 92bd
00000230: 46f8 233c 8c9a a1bb 4e3f 9bbb b92f 35bc
00000240: 129f f53c e2f8 a4bc 2d8f 883c 7237 0bbd
00000250: 22ba 883c 244a f23c 8113 d03b bc90 e1bc
00000260: 68ad 2cbd c292 21bd 03d6 64bd 29b5 bcbc
00000270: 7a36 dd3b b36d 1bbd 175d 253c fb05 69bd
00000280: 20c7 11bd c055 98bc 9b0b 5c3b 7997 48bc
00000290: 62cf c93c 910c a23c 1ed1 5dba 8626 083d
000002a0: a76f 2d3a 45fc 06bd e011 a0bc e104 dfbc
000002b0: d80d 0b3b 4656 44bd 989c 36bd 5226 02bc
000002c0: 2952 b83a 18ea 293c 439b 043d 32bf b7ba
000002d0: 58d4 3abc de32 51bd 58f3 bbbc edc3 65bd
000002e0: a524 10bd 3f57 48bb e86f 7e3c a184 80bc
000002f0: 8b5a 7fbc 227a 99bc 6fef 4dbd e0e0 a8bc
00000300: 664c ca3c 75aa f03a b24c 7d3b 75a1 c5bc
00000310: 9740 35bc 35d4 14bd 85b9 833c c602 0c3d
00000320: 2eef 7cbc 6f17 3abd bcc1 d23b a2cb b63c
00000330: 30ae 073c d07b a03b 858b 40bd 23d4 903c
00000340: 2a7e 063d fb1d 6f3c 28a8 e6bc a7d6 113c
00000350: 3fef 22bd 4c93 9b3c 036b e03a 2e72 a33c
00000360: bca0 9ebc 8ea2 983c 5547 9e3b c01d 3c3c
00000370: 0f4e ec3b eee1 053d d272 273c 651a 22bc
00000380: 4ea2 b3ba f1f5 ad39 a214 1ebd a707 813c
00000390: bc53 6cbd c59e 54bd 8215 1bbc 27b6 16bc
000003a0: efd4 b23c 9012 b9bc 4fef 553c 6c97 433c
000003b0: 1d7f 53bd 850f d6bb cc0a 40bd 862e ca3c
000003c0: 8880 533c 8fb2 013d d54a 38bc 8048 273c
000003d0: f37e 023d 5a87 bcbc 4bb7 183c e0db 053b
000003e0: 8b18 ac3c d947 743c 5202 23bd 3b1d e43c
000003f0: d532 a8bc 002b bdb9 4ffa ac3c 6b1a 313c

l2.bias f4 [256]
-0.023692673 -0.058561813 -0.04290744 0.80268985 0.4985732 1.0447674 0.047105778 -0.071037866
0.013108666 -0.0012819042 0.019408109 0.8901226 -0.008502256 0.0003855798 -0.04805015 -0.5045231
0.024818916 -0.049203664 -0.08399431 -0.011673338 0.058915704 0.1101923 -0.029258221 -0.03267822
0.06940247 0.009100432 0.010982956 -0.04777302 -0.0052637765 -0.018511688 0.82886374 -0.06966097
-0.01939323 -0.034888845 0.012643421 -0.017333234 0.013024025 -0.0026351602 -0.0074699786 -0.033030137
-0.07563694 0.017852115 0.013310322 1.451113 0.13053583 0.48004425 -0.06284193 1.3871971
-0.019673692 0.015213769 0.022425974 0.5064131 -0.05064231 0.03329218 -0.033417184 -0.018916663
-0.0049181245 1.485713 0.019335674 -0.017831283 -0.07961605 0.43769804 0.02103399 -0.0022894973
-0.073222466 -0.01020234 -0.007908887 -0.016589936 0.026755057 0.05374502 0.14714637 -0.044628974
-0.07218006 0.028232057 -0.05814619 -0.04382645 0.011462273 0.008701653 0.013209334 -0.037017573
-0.035182938 0.13189751 -0.014386553 0.006899937 0.26806533 -0.051567897 0.017524727 -0.041230626
0.008689764 1.1714226 0.81369865 -0.075279124 -0.088978425 0.18715957 -0.049617197 1.5048422
-0.06284387 0.6676827 -0.019436844 0.012395863 0.032223083 -0.038216345 -0.035885025 -0.055185284
-0.023741163 0.008203691 -0.04863912 0.215771 -0.043456938 -0.030367145 0.4904498 0.4141081
-0.028522538 -0.044395685 -0.028168455 0.025313506 -0.0035899347 0.00774606 0.6985995 0.5196219
-0.019446915 0.14018182 -0.017731572 -0.005823597 -0.07843911 -0.040229663 1.5584654 0.017124338
-0.03328537 -0.025330229 1.5914811 0.08915264 0.0035424693 -0.061950926 0.8251259 -0.009309419
0.60275894 -0.0042548343 -0.056186475 -0.0039559845 0.0021278884 0.19727382 -0.03199426 0.17296949
0.57398194 -0.052079357 -0.043271165 0.5459119 -0.05378873 -0.008662047 0.14275555 0.028528174
-0.060224153 -0.014834351 1.0248688 -0.074990794 0.69426686 1.0134361 -0.06281732 0.05615128
-0.027618753 1.2302887 -0.020497546 -0.04482173 -0.0345136 -0.057511494 0.0048301774 1.6242518
-0.02446478 -0.00095724186 -0.024055216 0.0060547497 -0.036699086 0.099409275 -0.037128743 -0.0449792
0.009066676 -0.03630484 -0.055716764 1.09584 -0.017307246 -0.01206801 -0.0020836182 1.559807
0.55087245 0.0142282285 1.1043686 -0.057284474 0.25590882 -0.012931944 -0.0050568487 0.32865733
0.026199527 -0.016688308 -0.0066671376 0.010641128 -0.00335716 1.5440034 -0.03350656 0.015419161
-0.013234049 1.1080116 0.020821646 -0.06504718 0.030086963 0.5394876 0.036973014 -0.031863853
-0.002934115 0.84815305 -0.057321478 -0.0290132 -0.041474286 1.3734449 -0.06542984 -0.009836433
0.001646192 0.47960865 -0.015096718 -0.027380899 -0.009810187 0.011963218 0.02176092 -0.01575934
0.021477552 -0.011821265 -0.047507823 -0.017053593 -0.04873255 0.58660394 -0.038100626 -0.07057664
0.020511435 -0.14028294 -0.039630007 0.36075062 -0.018808812 -0.01603207 -0.030585213 0.011083977
-0.033241678 0.99866146 -0.056262147 -0.032518096 1.5805386 1.2634802 -0.008620515 -0.017828468
0.8453762 -0.0061837123 -0.014892257 -0.07270261 0.012973396 -0.019839885 0.006573187 0.4152317
00000000: 2317 c2bc 83de 6fbd b6bf 2fbd 157d 4d3f
00000010: fd44 ff3e f0ba 853f fdf1 403d 4d7c 91bd
00000020: bbc5 563c 9105 a8ba c1fd 9e3c 13df 633f
00000030: 0c4d 0bbc a527 ca39 3cd0 44bd 6d28 01bf
00000040: 0a51 cb3c c889 49bd 3505 acbd 8741 3fbc
00000050: 9851 713d 80ac e13d f0ae efbc 99d9 05bd
00000060: e222 8e3d fa19 153c dbf1 333c a4ad 43bd
00000070: c27b acbb d3a5 97bc 6a30 543f 69aa 8ebd
00000080: 8dde 9ebc 9be7 0ebd 5a26 4f3c 6dfe 8dbc
00000090: b862 553c a7b2 2cbb b9c6 f4bb 9c4a 07bd
000000a0: 8ae7 9abd 993e 923c 8913 5a3c 12be b93f
000000b0: 2fab 053e 5cc8 f53e 45b3 80bd ad8f b13f
000000c0: b92a a1bc 2c43 793c adb6 b73c 4aa4 013f
000000d0: 506e 4fbd 625d 083d 75e0 08bd 1ef7 9abc
000000e0: 3828 a1bb d82b be3f d965 9e3c e912 92bc
000000f0: bd0d a3bd f519 e03e 794f ac3c 640b 16bb
00000100: a9f5 95bd b727 27bc 4794 01bc 9ee7 87bc
00000110: 6c2d db3c bd23 5c3d 8aad 163e dfcc 36bd
00000120: 24d3 93bd ea46 e73c b32a 6ebd 5d83 33bd
00000130: 42cc 3b3c 6191 0e3c f66b 583c bd9f 17bd
00000140: fc1b 10bd 2410 073e 94b5 6bbc de18 e23b
00000150: dc3f 893e dc38 53bd 0490 8f3c 72e1 28bd
00000160: 835f 0e3c 2df1 953f 8e4e 503f f12b 9abd
00000170: 523a b6bd c2a6 3f3e 673b 4bbd ab9e c03f
00000180: 49b4 80bd 41ed 2a3f 043a 9fbc 0518 4b3c
00000190: 5afc 033d be88 1cbd 2dfc 12bd f709 62bd
000001a0: d47c c2bc c668 063c d039 47bd 13f3 5c3e
000001b0: e7ff 31bd 85c4 f8bc 3c1c fb3e fa05 d43e
000001c0: 19a8 e9bc 40d8 35bd 88c1 e6bc 455e cf3c
000001d0: 1c45 6bbb a9d2 fd3b 6bd7 323f f105 053f
000001e0: 234f 9fbc d38b 0f3e cd41 91bc dfd3 bebb
000001f0: afa4 a0bd dcc7 24bd cb7b c73f 5748 8c3c
00000200: 3d56 08bd 5781 cfbc a7b5 cb3f a995 b63d
00000210: c628 683b 41c0 7dbd 733b 533f 8986 18bc
00000220: 694e 1a3f 236c 8bbb ca23 66bd 34a1 81bb
00000230: 0b74 0b3b 2602 4a3e 6a0c 03bd ea1e 313e
00000240: 7bf0 123f 2a51 55bd 1b3d 31bd e2c0 0b3f
00000250: 9251 5cbd 42eb 0dbc 832e 123e ebb3 e93c
00000260: 9aad 76bd c70b 73bc e72e 833f c694 99bd
00000270: 79bb 313f 46b8 813f 5ea6 80bd e2fe 653d
00000280: b940 e2bc 1a7a 9d3f 78ea a7bc fe96 37bd
00000290: 225e 0dbd 2c91 6bbd 7746 9e3b 7ce7 cf3f
000002a0: 5d6a c8bc 6aef 7aba 720f c5bc ec66 c63b
000002b0: c851 16bd 1797 cb3d 4f14 18bd 1c3c 38bd
000002c0: 658c 143c 62b4 14bd 4337 64bd 7c44 8c3f
000002d0: edc7 8dbc e7b8 45bc 508d 08bb c1a7 c73f
000002e0: fa05 0d3f 841d 693c f35b 8d3f 20a3 6abd
000002f0: 7b06 833e 81e0 53bc ecb3 a5bb c645 a83e
00000300: 64a0 d63c ebb5 88bc 0178 dabb 2058 2e3c
00000310: cc03 5cbb e7a1 c53f 2d3e 09bd a6a0 7c3c
00000320: a0d3 58bc 53d3 8d3f 2892 aa3c 7537 85bd
00000330: ef78 f63c dc1b 0a3f 0471 173d ac83 02bd
00000340: 484a 40bb 8f20 593f edc9 6abd 17ad edbc
00000350: f1e0 29bd 0bcd af3f 1400 86bd fe28 21bc
00000360: 0ac5 d73a 448f f53e 3a58 77bc e84d e0bc
00000370: e8ba 20bc 6001 443c f543 b23c bb19 81bc
00000380: b1f1 af3c fbad 41bc 9097 42bd fab3 8bbc
00000390: c89b 47bd ad2b 163f 670f 1cbd 7c8a 90bd
000003a0: 9907 a83c 55a6 0fbe 1353 22bd 4eb4 b83e
000003b0: f014 9abc b055 83bc d78d fabc 9299 353c
000003c0: 6d28 08bd 47a8 7f3f 2373 66bd b231 05bd
000003d0: 174f ca3f b8b9 a13f 0f3d 0dbc 020d 92bc
000003e0: 936a 583f bda0 cabb a7fe 73bc 1be5 94bd
000003f0: 5e8e 543c 4187 a2bc e463 d73b 4099 d43e

l3.weight f4 [1, 256]
0.018610712 0.031324226 -0.018351043 -0.10072942 -0.004259336 -0.08366782 -0.58492756 0.00039781292
0.021190539 -0.014406853 0.0047497135 -2.7165928 -0.14428936 0.038367704 0.013721861 -1.4534967
-0.4594849 -0.022674771 0.007185845 0.045638457 -0.0021675855 -0.49468717 0.03778848 0.012581313
-0.011133938 -0.71888757 -0.0027889255 0.03791842 0.008175675 0.019096466 -0.0044541904 -2.057645
-0.048121404 0.0043519665 -0.025556782 0.0065005776 -0.021028992 -0.08264554 0.01011144 0.016944064
0.02136873 0.009265761 0.023079498 -0.16203213 -0.262933 -1.5162886 -0.012350118 -0.15894154
-0.025264034 0.009521121 0.039232988 0.72626936 0.033302493 0.052177653 0.015040282 0.0049595246
0.044023376 -0.19949326 0.022642829 0.005307647 0.009901389 0.21027474 0.024605606 -0.029016105
0.047513377 -0.007129377 -0.0042905994 -0.020912452 0.016320188 -0.057028938 -0.18496001 0.008968442
-0.024180144 0.00935032 0.010152337 -0.004027722 0.040986452 -0.008367158 0.04004287 -0.23109268
-0.0028388682 -0.22094604 0.00901912 -0.0109589165 -1.5421079 -0.06638121 0.024180513 0.047291927
0.040511705 -0.1950719 0.01848224 0.008800208 0.016196841 0.34032044 -0.0057974714 -0.23134434
0.027707366 -0.012542098 0.021962399 -0.33557364 0.0431522 0.0012900782 -0.005466128 0.008278425
0.014942556 0.00043492467 0.013637239 -0.5131726 0.032350376 -0.013804935 0.02059422 0.03067171
0.0026213895 -0.012909778 0.03093146 0.0046873186 0.0055954666 0.029971773 -0.31339064 -0.7463538
-0.024890723 -0.27457127 0.029275686 0.010131091 -0.014889731 -0.3664797 -0.26078135 0.0017542781
-0.0048215045 -0.017094798 -0.300535 -0.0065399623 0.029882208 0.0069153146 -0.55258393 -0.24177319
-0.002927216 -0.001510639 -0.00554143 0.020024672 0.0076116575 -1.3123213 -0.022496901 -1.6267384
-0.6435075 -0.0069026034 -0.0029358685 -0.00031208975 -0.012734652 -0.0017455098 -0.071308814 -0.032215446
0.012007424 -0.0032734938 -0.7936708 -0.0054550734 -0.08916367 -0.23087141 -0.010346826 0.029441644
0.042823438 -0.094929524 0.02329736 -0.026857628 0.02904238 -0.009238875 0.0007218605 -0.33309403
-0.02308731 -0.0037768607 0.023315882 0.053220104 0.023899952 -1.1455038 -0.004929475 0.00357655
-0.27968964 0.022973824 0.015365002 -0.4785871 -0.005743212 0.01322757 0.017767485 -0.2842758
-0.42199555 -0.00097365846 -0.012870426 -0.0065308423 -0.21638434 0.0042468426 0.027456949 0.32986668
0.008925318 -0.64165276 0.0006426145 -1.4664332 -0.008832257 -0.2617662 0.03060815 -0.043527603
0.029552445 -0.1367706 0.04911462 -0.020638559 0.0003449813 -0.06895564 0.0400263 -0.012478433
0.019767093 -0.27152222 0.004454295 0.0017487557 -0.009476424 -0.13928735 0.024306992 0.022747774
-0.016275022 -1.2599436 0.022813411 -0.022265142 0.01670667 0.018210657 0.042683445 0.046286225
0.054340612 -0.0077472487 0.015711028 -0.013561244 0.04340418 -0.13402405 0.032953087 -0.003324572
0.03060686 0.024001343 -0.009929826 -2.1658056 -0.01844908 -0.032815173 0.017152365 0.0027377866
0.021700349 -0.17307958 0.0030796356 0.02717256 -0.28552786 -0.06742782 0.020048613 0.046129137
-0.012174907 -0.022578334 -0.0059889434 0.0053848345 0.049088277 0.040465366 0.027830487 0.073677614
00000000: 7e75 983c d54d 003d ed54 96bc 3a4b cebd
00000010: e691 8bbb 095a abbd d0bd 15bf 8c91 d039
00000020: c897 ad3c b90a 6cbc 7ca3 9b3b a8dc 2dc0
00000030: 97c0 13be 7427 1d3d a8d1 603c 2e0c babf
00000040: 9b41 ebbe 71c0 b9bc 3d77 eb3b 64ef 3a3d
00000050: 0d0e 0ebb a347 fdbe 18c8 1a3d da21 4e3c
00000060: 1f6b 36bc 0409 38bf 68c6 36bb 5850 1b3d
00000070: 44f3 053c 3170 9c3c 75f4 91bb 75b0 03c0
00000080: f31a 45bd f19a 8e3b 755c d1bc cc02 d53b
00000090: fe44 acbc 1142 a9bd 74aa 253c 47ce 8a3c
000000a0: 7a0d af3c 6bcf 173c 3711 bd3c c0eb 25be
000000b0: 279f 86be bf15 c2bf 2658 4abc 92c1 22be
000000c0: 85f6 cebc 7afe 1b3c c5b2 203d caec 393f
000000d0: 3268 083d 3cb8 553d 846b 763c 8283 a23b
000000e0: db51 343d f647 4cbe 747d b93c c5eb ad3b
000000f0: 6f39 223c 4352 573e b291 c93c 2fb3 edbc
00000100: 639d 423d 8d9d e9bb 2898 8cbb 9750 abbc
00000110: eab1 853c 2d97 69bd 2866 3dbe 5ff0 123c
00000120: 7015 c6bc 1632 193c fd55 263c fbfa 83bb
00000130: 69e1 273d 6716 09bc fe03 243d 8fa3 6cbe
00000140: 4e0c 3abb ae3f 62be eec4 133c 078d 33bc
00000150: cb63 c5bf dff2 87bd 3616 c63c 2eb5 413d
00000160: 9aef 253d eec0 47be 1168 973c bf2e 103c
00000170: 3daf 843c 7b3e ae3e b7f8 bdbb 88e5 6cbe
00000180: 8ffa e23c 5f7d 4dbc 7dea b33c 4fd0 abbe
00000190: 5cc0 303d d717 a93a 341d b3bb 3ba2 073c
000001a0: 9fd1 743c 9a06 e439 ba6e 5f3c 485f 03bf
000001b0: d481 043d 182e 62bc 36b5 a83c 3d43 fb3c
000001c0: 9ecb 2b3b 8983 53bc f963 fd3c 1498 993b
000001d0: 2d5a b73b 5d87 f53c bd74 a0be 0b11 3fbf
000001e0: a1e7 cbbc 9b94 8cbe 90d3 ef3c e0fc 253c
000001f0: 0ff4 73bc 3aa3 bbbe 2285 85be ceef e53a
00000200: b6fd 9dbb 640a 8cbc b9df 99be 2e4d d6bb
00000210: 88cb f43c dd99 e23b 2476 0dbf 6493 77be
00000220: 89d6 3fbb a200 c6ba e294 b5bb c80a a43c
00000230: 366b f93b 25fa a7bf 6c4b b8bc f738 d0bf
00000240: e8bc 24bf 3c2f e2bb b367 40bb fa9f a3b9
00000250: 00a5 50bc 97c9 e4ba 5b0a 92bd 58f4 03bd
00000260: c9ba 443c 1d88 56bb 022e 4bbf 79c0 b2bb
00000270: 719b b6bd 8e69 6cbe bc85 29bc 9a2f f13c
00000280: a167 2f3d 696a c2bd 1bda be3c 8704 dcbc
00000290: 49ea ed3c a65e 17bc 3d3b 3d3a 4d8b aabe
000002a0: 9921 bdbc 3585 77bb f300 bf3c 53fd 593d
000002b0: d5c9 c33c de9f 92bf 6f87 a1bb 8d64 6a3b
000002c0: 7b33 8fbe 9a33 bc3c 7dbd 7b3c 5e09 f5be
000002d0: 8e31 bcbb 73b8 583c 1e8d 913c 998c 91be
000002e0: cd0f d8be 1d3d 7fba 7bde 52bc ad00 d6bb
000002f0: db93 5dbe 1929 8b3b 65ed e03c 49e4 a83e
00000300: 7f3b 123c 5b43 24bf 2175 283a 15b4 bbbf
00000310: 2cb5 10bc 3806 86be f1bd fa3c 004a 32bd
00000320: f817 f23c 980d 0cbe 692c 493d 3212 a9bc
00000330: 9bde b439 9d38 8dbd 9ef2 233d 5772 4cbc
00000340: 99ee a13c f604 8bbe 56f5 913b 8136 e53a
00000350: 0143 1bbc 58a1 0ebe 751f c73c 8a59 ba3c
00000360: 3253 85bc d545 a1bf 31e3 ba3c 6365 b6bc
00000370: 6ddc 883c 842e 953c d6d4 2e3d a096 3d3d
00000380: 4394 5e3d a2dc fdbb 6ab4 803c fb2f 5ebc
00000390: 95c8 313d 9a3d 09be d1f9 063d 10e1 59bb
000003a0: 3dbb fa3c 779e c43c b5b0 22bc 8f9c 0ac0
000003b0: 8622 97bc 3469 06bd 1e83 8c3c 706c 333b
000003c0: eec4 b13c c63b 31be b6d3 493b fd98 de3c
000003d0: b530 92be 9917 8abd fd3c a43c e8f1 3c3d
000003e0: 4379 47bc 33f6 b8bc e63e c4bb 4473 b03b
000003f0: ca10 493d 03bf 253d c3fc e33c 4ae4 963d
