saves/Dobot-v2/sr/seed_0/model/critic.pth (torch, 294743 bytes, 5 tensors)

l1.weight f4 [256, 27]
00000000: 052e a9be 9879 393c 45e4 6c3f 2d07 053f
00000010: fa0b a8be 9d7a 0bbf e83a d53e cf1f ee3e
00000020: ae40 16be bcbf 4a3f 7225 453e 18ef 733f
00000030: aac2 a13f a145 ad3d 60f8 ff3e e05d 8a3f
00000040: 7e00 3d3f 16aa 0740 cadd 413e b40f b6bc
00000050: 4890 25bd b671 07bf 864a c5be a26e 69bf
00000060: 812c ad3b 7838 b4bc 9a48 6f3c 3760 bbbe
00000070: 57c8 d3bd d040 083f 285e 0cbf 90f0 373e
00000080: bc75 623e b7f7 373f 93ad a9be 9170 98be
00000090: 5a4b 693d 5136 893e 6f8e 20bf 30b9 d5be
000000a0: 352a cebf bfa8 f6bd 3743 8e3f 41ae 02c1
000000b0: 966b 4ec0 6b72 c2bf cb33 643e 80f0 073e
000000c0: 2e3d 22bf d7cc 9abd 63d1 803f 9af0 673c
000000d0: 3341 eebb bf24 eb3b e53a 333f 44c9 dd3e
000000e0: 514f 563e f489 a8be b616 0f3f f84c 2e3f
000000f0: 5292 03bf d007 93be 193a 1a3f 8311 7fbe
00000100: 8aab ebbe 210d d33e a399 0cbf 5e1e 883d
00000110: e8fa 0dbf e2a9 96bf 3090 82be 0464 5a3f
00000120: d9d3 f5be b2b5 f3bd 009e d0be 48fe b83e
00000130: fd15 6bbe 2406 fe3e 7a04 1dbe d4b6 4b3d
00000140: 466b 9c3d 319d fcbf f306 473e 6018 a9bf
00000150: 0fa0 b2bd 94b9 14bf c094 5ebe 9403 acbe
00000160: d9fc b43f 5f92 edbe 7ae8 833d 443b f13f
00000170: daf0 d83d 96dc ce3f 7a63 c53e 6eb7 bd3e
00000180: eaac 9f3f c00b 50bf aad6 5a3f 4f49 2c3f
00000190: 1756 f63e 44ae 323e 0295 a7be a0c0 ba3e
000001a0: 41fd adbe 0283 06bf 8c1a 0f3f b20a 323e
000001b0: 847f e43e f17c 0a3f 08b8 1e3e eb69 293f
000001c0: a101 7bbf dbc4 85be 5618 093f 7924 533e
000001d0: f5e2 57bc 5dad 383f d596 13be 97fd 723f
000001e0: 00d4 3bbf f670 80bf 393d b6be ba9f 8fc0
000001f0: 3188 6cc0 e85f 5fc0 4adb 5840 c7f8 fd3d
00000200: 8f68 aabe 127c 9f3f ff5b 1bbe 01eb d5bf
00000210: d9b0 403d 9717 cf3c 35e6 89bd 94d5 ad3e
00000220: 0550 2f3f e947 1d3f 0ae0 f9be 6573 c83e
00000230: b2f2 083f a86c 18bf 83ea b1be 6901 293f
00000240: 7cb4 99be 9a32 97be 1bd8 fe3e 37d6 32bf
00000250: fb01 c7bd 631d 45be 60c1 67bf 232d b8be
00000260: 6a5b 7b3f d78e dabe db8a 13be a6b1 fabe
00000270: 6fac 8c3e 6531 5cbe e886 ee3e d317 eabc
00000280: 9542 bdbd 9df6 c63c 57b2 f93d 131f 59be
00000290: a7af 37bd 26a8 ccbd c2e2 edbd fba9 3b3d
000002a0: 080c 433e 449e 2c3d 1b51 2bbe 82f1 a2bc
000002b0: a19a 503e 5209 94bd c973 92bd 3c77 21be
000002c0: 95e4 9ebd 8cee ae3d fd1f 8bbd 6360 debd
000002d0: 87e5 c0bd ad8f 743e ca86 233e 4574 1bbe
000002e0: ff2d 813e b567 6cbe 05b4 783d a85e 38bc
000002f0: 358f 7e3d 7164 5ebf f596 20bf 54f0 623d
00000300: 467e cdbe 9c00 80be bec4 36c0 df0e c2be
00000310: b187 fa3e c175 05bf a1c2 05bf af8a 2c3f
00000320: b2bc cf3e 0a8b 133f 7a39 a83e 70df dc3f
00000330: d1a2 a43f b871 e13d b5ea cf40 5f73 823f
00000340: 2a04 993e 4efc 183f 3551 073f ada1 91be
00000350: 22a1 38bf 873a 77be 3222 a13e 27fd 27be
00000360: 7fe8 1bbc 040c 69bd 1a0b 92bd e9ea d8bd
00000370: ef61 25be f676 8b3d fd2c 89bd 30a3 263e
00000380: b353 0dbe 6d38 3f3e 87b2 a03b d46d 3c3e
00000390: 5507 c43d f2f3 1cbd 6d66 623e f1c5 db3c
000003a0: c5e4 d7bd 402b 48be 8f04 9a3d 76b9 0b3e
000003b0: da1d 633e 477e 4fbd 28de 38bd fd8f 15be
000003c0: 8845 ad3d 755c fa3c 8aaa efbd 0cc2 533e
000003d0: fb5e a23d eab9 dd3d 4f48 0abe 7937 d53e
000003e0: 8010 033f 726e 34be 0803 10be 7025 e33e
000003f0: 1ec5 f3be de07 babd d1a1 0cbf 62c4 cebe
-0.33042923 0.011320494 0.9253581 0.51964074 -0.32821637 -0.5448397 0.41646504 0.46508643
-0.14673111 0.79198813 0.19252566 0.95286703 1.2637532 0.08460546 0.49994183 1.0809898
0.73828876 2.1197562 0.18932262 -0.022224285 -0.0404208 -0.52907884 -0.3853342 -0.9118444
0.0052848463 -0.021999583 0.014604712 -0.36596844 -0.10340946 0.53223896 -0.5483117 0.17962861
0.22115225 0.7186236 -0.3314024 -0.2977338 0.056956626 0.26799253 -0.62717336 -0.4174285
-1.610663 -0.120439045 1.1114262 -8.167542 -3.2253165 -1.5191168 0.22285382 0.13275337
-0.633746 -0.07558601 1.00639 0.014156485 -0.007270956 0.0071760113 0.7001174 0.43317616
0.20928694 -0.3291775 0.5589403 0.68086195 -0.5139514 -0.28716898 0.602449 -0.24909024
-0.4602931 0.41220954 -0.5492193 0.06646417 -0.5546098 -1.1770594 -0.2550063 0.8530886
-0.4801319 -0.1189989 -0.40745544 0.361315 -0.22957607 0.4961406 -0.15333739 0.049734905
0.07637648 -1.9735471 0.19436245 -1.3210564 -0.08721935 -0.5809567 -0.21736431 -0.3359648
1.4139663 -0.46400735 0.06440826 1.8846211 0.10592814 1.6161067 0.38552457 0.37054008
1.2474644 -0.8126793 0.854838 0.6729936 0.48112556 0.1744929 -0.3273087 0.36475086
-0.3398228 -0.5254365 0.5589988 0.17386892 0.44628537 0.54096895 0.1549989 0.66177243
-0.9804936 -0.2612675 0.5355276 0.20619382 -0.013176669 0.7213953 -0.14413007 0.949182
-0.7337036 -1.0034473 -0.35593584 -4.488248 -3.6958125 -3.4902287 3.3883843 0.12400966
-0.33282897 1.2459738 -0.15171812 -1.6712343 0.047043655 0.025279803 -0.06733362 0.3395201
0.68481475 0.6143785 -0.4880374 0.3915054 0.53495324 -0.59540796 -0.3474923 0.66017777
-0.3002051 -0.29530793 0.4977425 -0.69858116 -0.097171746 -0.19249491 -0.9052944 -0.35971937
0.9818636 -0.42687103 -0.14408438 -0.4896366 0.27475306 -0.21503218 0.465873 -0.028575813
-0.09241215 0.024287516 0.12192219 -0.2120326 -0.04484525 -0.09993009 -0.11615516 0.045816403
0.19047558 0.04214312 -0.16730158 -0.01989055 0.20371486 -0.0722834 -0.071509905 -0.1576814
-0.07758442 0.08541593 -0.06793211 -0.10858228 -0.09418779 0.23882933 0.15969387 -0.15181072
0.25230405 -0.23086436 0.060718555 -0.011253037 0.06214829 -0.8687201 -0.6273034 0.055404976
-0.401354 -0.25000465 -2.8557582 -0.3790197 0.4893165 -0.52132803 -0.52250105 0.67399114
0.4057365 0.5763403 0.3285635 1.7255688 1.2862188 0.11008018 6.4974008 1.0191458
0.2988599 0.59759986 0.5285829 -0.2844366 -0.7212087 -0.2414342 0.314714 -0.16405164
-0.009515881 -0.056896225 -0.07131024 -0.105916806 -0.1615064 0.068097994 -0.06698034 0.16273189
-0.1380146 0.18673868 0.0049040946 0.18401271 0.09571711 -0.038318582 0.22109385 0.026827784
-0.10541681 -0.19547749 0.07520401 0.13644966 0.22179356 -0.050657537 -0.04513374 -0.14605708
0.08460528 0.030561665 -0.117024496 0.20679492 0.07928272 0.10826476 -0.13504146 0.41643885
0.5119705 -0.17620257 -0.14063656 0.443645 -0.47611326 -0.09083532 -0.5493441 -0.40384203

l1.bias f4 [256]
00000000: 7139 1dbd cf8a a3be b8f1 e13e bd6d 2cbf
00000010: ecda 90be f58f 183f 5479 2abe 8d97 a7be
00000020: 8877 33be b6f7 c53e f260 ce3d e94f a1be
00000030: 9ba2 433f 23b3 c8bd 196b 0cbe 23b6 35be
00000040: 2d71 7fbe d3ac fdbd b145 24be d2de 30be
00000050: 2b30 04be 2a3e 41be 111b 21be 5cb1 bbbe
00000060: 8dd5 79be 9405 ae3c 6a1b 63be d59f 9b3d
00000070: 352d adbe 48df edbd e7ab 31be 7890 df3c
00000080: 1dfa 2dbf 5d3a b73e 0f1b 00be 9d39 00be
00000090: 964e e0be 228a ffbd a5f5 a83e 92cc 31be
000000a0: d67b 0b3f 6257 38be 889d 033b 7f14 91be
000000b0: 62ea 4ebe a101 b4be c70d afbe 3d46 c93c
000000c0: 2b61 eabd 3542 d13c c378 533d 98b3 5dbe
000000d0: 3723 45be 6bb8 9d3e 8a78 d1bd f3ad 3ebe
000000e0: 5a2b 93be 45b8 a1be 5dc8 5c3d 8d9f c23d
000000f0: 6f52 4bbf f3b4 8e3e 677b 193f c525 36be
00000100: fef0 77be 9617 babd 95dd 303f 9d7b 4dbd
00000110: d4ed 503d 6227 83be 1c28 1cbe 0530 15be
00000120: 2a18 383e 4f79 143f 01a7 14be 9d08 f5be
00000130: 02ce 71be 3b94 a2be 9dbe 9e3b 589a d0be
00000140: acbe 04bf 5c56 70be 65d0 24be 618a bdbe
00000150: 8afa 9fbe f47d 7fbd d12b b2be 8246 eebd
00000160: 2173 49be fc78 75bd cf78 2cbf d0d0 3f3c
00000170: e0eb 153e 3772 3ebe 6909 38be a866 c43d
00000180: a536 8fbe f9a6 50be 1b63 4abd 7784 963e
00000190: 8abf 1abe cb72 adbe 2e90 abbd 90cf 0c3e
000001a0: af39 cdbd 9467 47be 8c59 49bd 3875 f0be
000001b0: faaf 1a3e 7495 2d3f 13cb c7bd 46a2 85bd
000001c0: 3844 8bbe 9db1 16be d0de 2fbe 6ff1 5bbe
000001d0: 2648 fbbe 05f7 0bbe a40d c8be 153b 11bf
000001e0: b701 1ebf c285 883c 6a50 84be cb5d 85bd
000001f0: 7f9a 4bbe 07e6 46be b4b3 dd3c 2bb5 cc3e
00000200: 6fc9 97be a923 e4bd 5a0e 83bd f8cf 15be
00000210: 653c d8bd c90e e3bd 299d 0a3f 41cd 82be
00000220: 9671 993d 8e3b cebd ec86 dbbd 977e 6e3e
00000230: a87a afbe dbf4 1abe b2ac 76be fc5e bcbd
00000240: 6166 893e 411b 203f 0ce3 e1be 8f5e b83e
00000250: 27f9 85be 00c2 13bf 1615 2cbe 9e9d d9bc
00000260: 00a7 c93d 17d9 773e 679d 9ebe 4ae5 2ebe
00000270: d55e 78be 6cd9 babd b421 aebe 1b67 03be
00000280: 95ee 60be 16c4 4dbe e12f 32bd 7ee2 88be
00000290: 175b d6bd 2dd0 6ebe 5737 adbd 0378 f6be
000002a0: 3201 a5be d5ce 743e b524 2cbe 4672 953d
000002b0: 8ebd 343e a087 b3bc f160 0dbe 2e1e 90be
000002c0: 0ab1 133e 2e18 893e a0bf f6bc 9b95 febd
000002d0: 7d03 6ebd 0ddd 19be 4ad8 fdbd cac5 27be
000002e0: 8565 98be a17d 06be 87ed d63e f830 01bf
000002f0: 2a06 11be dedb 66be 726b 3d3f c1f3 5abf
00000300: d9cf 453f 9bdd bcbd 84be 7d3e 4d7c b03e
00000310: bf61 043e 5029 a5bd c8c9 41be 7ee5 adbe
00000320: 8eee 24bf 5cd6 b13b 7d39 59be daae dd3e
00000330: 73c1 023e 8c00 163f e9c1 95be 6d1c 7abe
00000340: bd81 9abe 852f 11be 2e92 5fbe 8dc6 5bbe
00000350: d193 c0be 3ee3 c6bb ed5f bfbe a2d3 13bf
00000360: 8c3b 2f3f bc3a 24bc 62f6 87be 6236 95bd
00000370: cacd dfbe 06e9 413f ab6e 073f 4d83 8dbe
00000380: 93b3 7dbe 22c6 143f fb88 573c d81b 95be
00000390: 7968 1cbf 0d40 7abe 3141 253f 77b1 81be
000003a0: 45b4 4fbe 6efa 0dbe 9b57 063f 3406 88bc
000003b0: b615 c3be 1746 85be 6125 1cbe 0403 6abe
000003c0: cc34 b1bc 19c2 723f cc99 51bb 11b1 03be
000003d0: f996 bcbe 845c c13d 6bcf 4c3e 8b83 d8bc
000003e0: 9b12 aabd f1bb 75bc b4fc 48bf ffdf bebd
000003f0: 5fcf 0abf f104 62be 8a23 1d3f c4a4 06bd
-0.03838486 -0.3194184 0.4412973 -0.6735495 -0.28292024 0.5959466 -0.16647846 -0.32732812
-0.17526066 0.3866555 0.100770846 -0.3150628 0.7641999 -0.097997926 -0.1371273 -0.17745261
-0.24945517 -0.12386479 -0.1604221 -0.17272499 -0.12909 -0.1887137 -0.15732981 -0.36658752
-0.2439787 0.021242894 -0.22178426 0.07598845 -0.33823553 -0.11614853 -0.17350732 0.027290568
-0.6795977 0.35786715 -0.12510322 -0.12521978 -0.43809956 -0.124775186 0.32999912 -0.17363194
0.54485834 -0.18002084 0.002008291 -0.2833595 -0.20206597 -0.35157493 -0.341902 0.024569625
-0.114443146 0.025544265 0.05162884 -0.21650541 -0.19251715 0.30804762 -0.10228069 -0.18621044
-0.28744012 -0.315859 0.05390202 0.09503088 -0.7942266 0.27872428 0.5995392 -0.17787845
-0.24213025 -0.0908653 0.6908811 -0.050166715 0.05100806 -0.25615984 -0.15249676 -0.14569099
0.17977968 0.579976 -0.14516832 -0.47858134 -0.23613742 -0.31753716 0.0048445 -0.40742755
-0.5185344 -0.23470443 -0.16095121 -0.37019637 -0.31245834 -0.062375978 -0.34799054 -0.11634542
-0.19672824 -0.059929833 -0.6737184 0.0117075 0.1464076 -0.18598257 -0.1797234 0.095898926
-0.27971378 -0.20376195 -0.04941092 0.29397938 -0.15112129 -0.33876643 -0.083771095 0.13751054
-0.10020768 -0.19473106 -0.049157664 -0.4696443 0.15106192 0.6780617 -0.0975553 -0.06525092
-0.27200484 -0.14716192 -0.1717484 -0.21478818 -0.49078482 -0.13668449 -0.39072907 -0.5673078
-0.61721367 0.016665343 -0.258426 -0.0651203 -0.19883154 -0.19423686 0.027063228 0.3998197
-0.2964587 -0.11139614 -0.06399222 -0.14630115 -0.10558394 -0.110868044 0.5414606 -0.2554722
0.07492368 -0.10069953 -0.10719094 0.23290478 -0.34273267 -0.15132467 -0.24089316 -0.09197804
0.2683592 0.62541586 -0.44118536 0.36009642 -0.2616665 -0.57717896 -0.16804919 -0.026564416
0.09846306 0.24203907 -0.30979463 -0.17079654 -0.24254926 -0.09123501 -0.34010088 -0.128323
-0.21966012 -0.20094332 -0.043502692 -0.267353 -0.10466593 -0.233216 -0.08457821 -0.48138437
-0.32227474 0.23907025 -0.16810878 0.072971866 0.17650434 -0.021915257 -0.13806511 -0.28148025
0.14423004 0.2677626 -0.03012067 -0.12430879 -0.058108795 -0.1502573 -0.123947695 -0.16384044
-0.29764953 -0.13133861 0.41978094 -0.50465345 -0.14162508 -0.2254481 0.73992074 -0.8552819
0.77270275 -0.092219554 0.24779707 0.34469834 0.12927912 -0.0806452 -0.1892463 -0.3396415
-0.64426506 0.005427165 -0.21213336 0.43297464 0.12769108 0.58594584 -0.29249504 -0.24424906
-0.30177107 -0.14178284 -0.21833107 -0.2146246 -0.37612775 -0.00606957 -0.37377873 -0.577448
0.68450236 -0.010023769 -0.26555163 -0.07285763 -0.43711692 0.7574619 0.5290324 -0.27639237
-0.24775533 0.58114827 0.013155217 -0.29122806 -0.6109691 -0.24438496 0.645526 -0.25330707
-0.20283611 -0.13865063 0.52477425 -0.01660452 -0.38102502 -0.26030037 -0.15248634 -0.22852713
-0.02163162 0.9482742 -0.003198254 -0.12860514 -0.36833933 0.09441474 0.20000999 -0.026429912
-0.0830433 -0.014998422 -0.78510594 -0.093200676 -0.54222673 -0.22072197 0.61382353 -0.032871976

l2.weight f4 [256, 256]
00000000: 52c0 65bb f132 53bd e379 9ebd b24a 1fbd
00000010: d41d f03c 1ab2 f23c e6a4 57bd 0f08 cebb
00000020: fb38 933c edbd 4dbd 66dd 3cbd 13be 943c
00000030: 762c 6dbd 0afb 67bd 8479 0abd c89a 18bc
00000040: 785c 5b3d 3a3d a43c 7739 5d3d bc82 b73c
00000050: baa0 99bc 4944 bc3b a843 6c3d 202f 37bb
00000060: 9882 943c 38b1 edbc fc2b 13bd a8fc cbbc
00000070: 5b78 4bbd 5887 15ba 2ba5 7ebd c486 f33c
00000080: 4d74 41bc 28ec 0dbc 88b3 e03b e61c 53bd
00000090: c0ee 2b3b b295 783a b25b 283d 64cb 63bd
000000a0: 17f4 a5bc 5019 aabb 3763 92bd 5fc0 99bd
000000b0: a278 12bc 2cd1 52bd d01d c3bc c0d3 d33c
000000c0: f787 37bd db1d 693d e4d4 9bbd dc0d aebc
000000d0: 48b6 dcbc 5975 23bd d8e6 16bc 200c 293c
000000e0: abd8 033d 857f aebd 619f 94bd 167a 1abd
000000f0: 004c 52bd 0366 c63c 4cda 80bd 66a0 643d
00000100: f831 9abc c5ea 933c a8cd 1bbb df2b a6bd
00000110: 123f eebc f0ff d63b debc 93bc d630 253c
00000120: d030 55bd 0063 01bd ee53 683d 85a7 8f3c
00000130: 027c 333d 96d3 1cbc f3eb d93c 7730 3b3d
00000140: f43d fe3c 38d3 f13a b6b1 253a ed68 f8bc
00000150: 610b 9cbd 57af 2cbd a094 33bd 88d3 54bd
00000160: e2b9 193d 46ef 90bc 0d0e 37bc 8c5e b2bc
00000170: 29d5 0dbd 90e8 a93c 9ca5 8cbd 0ecd 7bb9
00000180: a893 663d 10ec fbbb 7a5d 2bbd 15f7 cabc
00000190: 24ea 7abd a8d9 98bb c0a4 a1ba 7c26 17bd
000001a0: 37af 5c3d 0eff 163c 3056 27bd e9bc f13c
000001b0: 3061 b13c 6420 50bd 000a ab3a 2058 8fbd
000001c0: d2a3 613d 401f 583b f055 243d 6a64 e6ba
000001d0: cbe4 21bd aae6 6dbd b22a 95bd a3cb 80ba
000001e0: dc6e 5c3d 487a 88bd 5b02 b9bb 5255 6bbd
000001f0: 1e39 bbba cf0a 6fbc 4039 6a3b fc99 3ebd
00000200: 7f60 753c 68dc 19bd 1117 083c 7eda 183d
00000210: 9a6a 8dbd 1cfa dc3c 55e6 cd3a 3fc7 363c
00000220: bd67 45bd f7fb 6ebd 315f 7cbb 8dd3 1f3d
00000230: e0b3 14bd e0d8 dfbb 30de 833c 7410 10bd
00000240: dfb2 123d fb9a 64bd dccc 083d 490f ffbc
00000250: caf9 8dbd 8ed2 efbc d019 c13c 2a35 163d
00000260: 0147 3bbc d302 19bd bd15 8dbd 9597 e73c
00000270: cbee babc 380c 623d 9576 6a3d 6078 70bb
00000280: a8e6 363d 097b 3bbd 655a 85bd d31a c73c
00000290: 4a30 283d da12 09bd 59da a63c 7eaa 8f3c
000002a0: ceb9 74bd 7c02 9ebd 646a e23c 4c3c 8ebc
000002b0: 4657 f439 9f23 d0bc b4e4 723c e00a 0cbb
000002c0: eec6 5fbd e316 e9bc 8e76 cdbc 62db 403c
000002d0: 749f 123d ac7b 77bd 2eec 4ebd b24e 86bd
000002e0: dfef 57bd 838e 783d e1c1 4dbc bbc5 1abb
000002f0: be4b 8bbd 3c57 123d 539a adbd 1593 8dbd
00000300: a355 123d 6e8d 0fbd 38a3 b93c 6023 23bc
00000310: fcb4 9c3c 153d 753d b5d1 033d 7f21 08bd
00000320: 9c20 9e3c fdb1 45bd 67d9 88bd cb7d 20bd
00000330: 78fd bb3c f298 46bd aac5 733d 7bf1 09ba
00000340: e0e6 9ebc 42b7 473d 0aa4 683d e243 7e3d
00000350: 387b bf3c 2828 3e3c 2b59 6e3b 8ec2 103d
00000360: 86b5 33bc 160a bdbd 77d2 d6bc f827 533d
00000370: 5ecc 7e3c 04cf eabc 8ed5 f03c 5041 a8bb
00000380: 2af5 583d 216a a3bd bbed 36bd 78b1 a93c
00000390: de7d c639 4f91 93bc 9b89 3ebd bc80 04bd
000003a0: 20da 043d a0f4 8ebd 2ac7 71bc 997b 003d
000003b0: acc6 963c 188f 323c 945c 353d 1096 f83b
000003c0: 1859 4abd 85aa 2bbd cf78 9abd 4ccc 4fbd
000003d0: 82c8 ffbc dadd 0cbd ca1a a4bc 461d 0fbd
000003e0: 8e46 0fbd 85c7 0d3d 3e02 1f3b 92a9 27bd
000003f0: f71f 4ebd b51a 7fbd 2d88 92bd 88ff 86bd
-0.0035057259 -0.051562253 -0.07738092 -0.038889594 0.029311098 0.029625941 -0.052647494 -0.0062875818
0.017971506 -0.050229955 -0.04610958 0.01815704 -0.05790373 -0.056635894 -0.033807293 -0.0093142465
0.053554982 0.020048726 0.05400988 0.022401206 -0.018753398 0.005745445 0.05768171 -0.0027951673
0.018128678 -0.029015169 -0.03593062 -0.02490075 -0.049675327 -0.0005704067 -0.062169235 0.029727347
-0.011807513 -0.008662261 0.0068573393 -0.05154123 0.0026234835 0.00094827556 0.041103072 -0.05561389
-0.020257993 -0.0051910058 -0.0714783 -0.07507395 -0.008939894 -0.051469013 -0.023817927 0.025857806
-0.0448074 0.056913238 -0.07608965 -0.021246843 -0.026942387 -0.039906833 -0.009210311 0.010317832
0.032189053 -0.08520416 -0.072569616 -0.037714086 -0.05134201 0.024218565 -0.06291637 0.05581703
-0.018822655 0.018056283 -0.0023773704 -0.081138365 -0.029082809 0.006561272 -0.018034395 0.010082444
-0.052048504 -0.031588554 0.056720667 0.017535934 0.043819435 -0.00957193 0.026601767 0.045700517
0.0310354 0.0018449789 0.00063207315 -0.03032347 -0.07619358 -0.042159405 -0.04384291 -0.051959544
0.037530787 -0.01769222 -0.011172784 -0.0217736 -0.034627113 0.020740777 -0.06867525 -0.00024013614
0.05629316 -0.007688053 -0.041837193 -0.024776021 -0.06125845 -0.0046646185 -0.0012332425 -0.036901936
0.053878035 0.009216083 -0.04085368 0.029509025 0.021652788 -0.05081214 0.0013049245 -0.069992304
0.05508787 0.003297761 0.04012102 -0.0017577533 -0.039524835 -0.058081307 -0.07283534 -0.0009826313
0.05381666 -0.06663948 -0.0056460327 -0.057454415 -0.001428399 -0.014589979 0.003573969 -0.04653357
0.01497662 -0.03756371 0.008306281 0.037317745 -0.06905098 0.02697473 0.0015708903 0.011155902
-0.048194636 -0.05834576 -0.0038508887 0.03902011 -0.036304355 -0.0068312734 0.016097158 -0.03517194
0.035815116 -0.055811863 0.033398494 -0.031135218 -0.06932409 -0.029275205 0.023571879 0.036671795
-0.011430503 -0.03735621 -0.06888912 0.028270522 -0.022818943 0.055187434 0.057241995 -0.0036692843
0.044653565 -0.045771632 -0.06511382 0.024304783 0.041061677 -0.033465244 0.020367788 0.017537352
-0.05974751 -0.077153176 0.027638622 -0.017362736 0.0004660433 -0.02540761 0.014825035 -0.0021368787
-0.054633074 -0.028453296 -0.025080945 0.011771055 0.035796598 -0.060420677 -0.050518207 -0.06557979
-0.052718993 0.060682785 -0.012558431 -0.0023616392 -0.06801556 0.035727724 -0.08476701 -0.06912819
0.0357262 -0.035046987 0.022660837 -0.0099571645 0.019129269 0.059872705 0.032182414 -0.03323507
0.019302659 -0.048265446 -0.06682091 -0.039182466 0.022948012 -0.048485704 0.05951468 -0.00052621186
-0.0193972 0.048758753 0.056797065 0.062076457 0.023374185 0.011606254 0.0036369066 0.03534179
-0.0109685715 -0.09230439 -0.026223404 0.05155179 0.015551655 -0.028663166 0.029398706 -0.005134739
0.05296818 -0.07979227 -0.04466031 0.020714507 0.0003785928 -0.018013624 -0.04651795 -0.032349333
0.032434583 -0.06980252 -0.014756957 0.031367872 0.018405281 0.010898374 0.044277743 0.007586248
-0.049401373 -0.041910667 -0.07542574 -0.050731942 -0.03122354 -0.03439126 -0.020032305 -0.034940027
-0.034979396 0.034614105 0.002426281 -0.0409332 -0.050323453 -0.06228133 -0.0715488 -0.065917075

l2.bias f4 [256]
00000000: 43a4 a6bd d87f 2abd 7444 3abd 34dc 8fbc
00000010: 1e84 d5bc 7f8f 3fbd a9c0 0dbc 2c3e ecbc
00000020: aae1 23bd d342 04bd d02f 6dbd 894e a3bd
00000030: 2800 a0bd a929 b6bb ee7e d13c 563d 173d
00000040: 2df9 28bc ff1f 72bd a246 1ebe 526e d0bd
00000050: 40ba b6bd 9e0a 28bd abc2 e1be 91af 693a
00000060: f485 8fbb 1840 d7bc 2f0f 54bd 7e7d d73c
00000070: fbea 98bc 7845 09bc 83fb bebd 8957 bbbd
00000080: 5874 8a3c 2da4 56bd f487 2abd 3086 96bd
00000090: 9ac7 a0bd 7d5d 6cbd 356e d63a 9938 62bd
000000a0: 647b c1bd 302c 94bd f52e 6cbd eac1 4dbd
000000b0: 2407 0bbd bbbd 8abd 432f afbd 924b bcbd
000000c0: 3cd3 f1bc 6441 e0bd bd50 babc 4a54 89bd
000000d0: f7be 5b3b 3248 343f 6c1e ddbd 6276 05bd
000000e0: 99c2 8bbd aa07 bbbc 3536 d93b 4415 e2bd
000000f0: 1b79 08bd ded2 29bd 1eb6 d1bd a434 5d3c
00000100: 463b 98bb b84d 38bd e6e5 5fbb a844 12bd
00000110: a5f1 07be bbae 9abd fb9c 98bd 5990 17bd
00000120: cb88 3bbc 7be9 cabb 1d2f 593c defd 4ebd
00000130: e6bc 68bc d851 84bc 9a7e f0bc 424e 9dbd
00000140: 6e5d 9fbd b970 96bd 103f 96bd 97ee e0b7
00000150: 826b 6dbd 3985 003c 34ac b0bd ff53 a5bd
00000160: d91d ed3b c677 59bd 065e 8b3b 9c1f 28bd
00000170: 3bf4 f2bd 8339 a3bb 5ec2 b0bd b0fb 4bbd
00000180: cb98 3fbd 2c34 bebd 6381 5cbc 63e8 343d
00000190: 15ae 02bd e1c0 03bd 0aeb 17bd 9075 7dbd
000001a0: d94a 6fbc f54a 34bd 95d3 c5bc 5d1c 8abd
000001b0: 3b7f 87bd 3e31 74bb b6b6 1dbc 249a 333d
000001c0: dfc3 bdbd 9aa2 a9bd 34ff edbb e6c8 8ebd
000001d0: 816e 90bd cfe7 8abc 2da7 89bd 1395 38bd
000001e0: 3259 b3bd 42bd e9bc 76ba 13be c46f 0bbd
000001f0: 140d 60bd 0aca c3bd 7b50 f7bd d6b0 39ba
00000200: 703c 3fbd 47e4 babc 995f 9cbd c30a ecbc
00000210: 7c35 9fbd bcea 94bd f174 a4bd 933a b5bd
00000220: 958f 803c 198a 93bd 94b1 a7bc 14c5 263d
00000230: 42f1 303b f85a a43c 38f4 fabc 43e9 30bd
00000240: 340d 99bd fea0 4039 e4f8 4abc 4440 d1bd
00000250: 2f8e 13bd ae23 a9bd 2d27 3dbd 5994 573f
00000260: 1913 94bd 2e19 4fbd 1e9e ccbd ad72 5c3f
00000270: 42d9 73bd f15e c5bc 2532 5cbd 5325 eabd
00000280: 5bf7 85bc 269e 0cbd 5407 3c3f b726 873b
00000290: ec3c 083c bf8e 253c 5884 2dbd aec8 8abc
000002a0: ed7e 843d 96da 03bd 6026 e3bc 2c3d 4f3b
000002b0: 7a12 51bd 691c 23bd eb0e 463c 9faf cbbc
000002c0: 752b ccbc b424 c9bd 3356 6dbd 4dca 5bbd
000002d0: af02 e2bd 7edd 013d e1b6 a1bc 568a 6fbe
000002e0: 735c 9f3b d227 c3bb 761d 96bd ba4a d3bd
000002f0: 8a96 9cbc e8a7 31bd 8f38 99bd 9807 92bb
00000300: 9ed2 983c 0d69 afbd 2ba2 7fbd af02 bb3b
00000310: 916c b73b 55e1 98bd 478f adbd ebf2 13bd
00000320: d9a2 cdbd adcf 483c bb4c 14bd 085e 6cbd
00000330: e48d d1bc e627 36bd 0369 7cbd 24d4 80bd
00000340: 98ce c6bd 616d 003c 67a2 b2bd e2c7 eebb
00000350: 252d 48bd 8851 ddbc 69ab d1bc 3a73 5fbd
00000360: c98b 46bd 0d23 6dbd df99 3cbe ab00 c6bd
00000370: c37e a2bd 1ff9 9dbd aeef d5bd c47c 15bc
00000380: ca97 bdbd 0a0c bcbd 5a3b 20bd 1872 8dbd
00000390: d4e1 e4bd f6b7 10bc 2c0c 17be 1801 883a
000003a0: 7fa5 53bd e112 99bd 6eea 51bd 3c9d 27bd
000003b0: da88 75bc 5442 3a3b 4947 86bd bc28 34bd
000003c0: 132b 0fbf 0900 8fbd 4d30 96bd daec b0bc
000003d0: cf79 c9bd a419 79bd 806c a5bd fbe1 f8bc
000003e0: 91e8 ccbc 02e2 82bc bc5c 9bbd e4dc e2bd
000003f0: b008 9e3c 230b 7abd ac45 62bb 5e55 93bd
-0.08136799 -0.041625828 -0.04547544 -0.017561056 -0.026063975 -0.046767708 -0.008651891 -0.02883824
-0.040010132 -0.03229029 -0.057906926 -0.07973964 -0.0781253 -0.0055591655 0.02557322 0.03692373
-0.010313314 -0.059112545 -0.15456632 -0.10177292 -0.08922243 -0.04102575 -0.44093832 0.0008914406
-0.004379982 -0.02627568 -0.051772293 0.026304957 -0.018666735 -0.008378379 -0.09325316 -0.091475554
0.01690118 -0.052402664 -0.04163356 -0.07349813 -0.07850571 -0.057706345 0.0016359749 -0.055229757
-0.09447363 -0.072349906 -0.05766197 -0.05023376 -0.033942357 -0.067744695 -0.08553936 -0.091941014
-0.02951967 -0.10949972 -0.022743577 -0.0670553 0.0033530572 0.7042266 -0.10796818 -0.0325836
-0.06824226 -0.022830803 0.0066287764 -0.11039212 -0.03331862 -0.041460864 -0.10239814 0.01350132
-0.004645738 -0.044995993 -0.003416413 -0.035710007 -0.13275774 -0.075528584 -0.07451817 -0.037002895
-0.011446188 -0.006192384 0.013255862 -0.050535075 -0.014205193 -0.016152307 -0.029357243 -0.07680942
-0.07781492 -0.07345719 -0.07336247 -2.6813983e-05 -0.057963856 0.007844263 -0.08626595 -0.080726616
0.007236224 -0.05309274 0.004253152 -0.04104577 -0.118629895 -0.004981221 -0.086308226 -0.049800575
-0.046776574 -0.09287295 -0.013458583 0.044166934 -0.0319043 -0.032166366 -0.037089385 -0.061879694
-0.014605247 -0.044016797 -0.024148742 -0.06743691 -0.06616064 -0.0037260796 -0.009626081 0.04384817
-0.09265875 -0.08282967 -0.0072630886 -0.06971912 -0.07052327 -0.016956238 -0.067213394 -0.045064043
-0.08757247 -0.028532628 -0.14426598 -0.034042135 -0.054699972 -0.0956002 -0.12075897 -0.00070835405
-0.046688497 -0.02281393 -0.07635421 -0.028813725 -0.07773873 -0.072713345 -0.08030117 -0.08849063
0.015693465 -0.072040744 -0.020470418 0.040715292 0.002699927 0.020062909 -0.03063403 -0.043191206
-0.074732214 0.00018370521 -0.012388442 -0.10217336 -0.03602427 -0.082587585 -0.04617994 0.84210736
-0.07230205 -0.050561123 -0.09991096 0.8611248 -0.059533365 -0.024093123 -0.05375876 -0.114329
-0.0163533 -0.03433051 0.7344868 0.004124488 0.008315306 0.010104834 -0.04236254 -0.016941395
0.06469522 -0.03219088 -0.02772826 0.0031622155 -0.05104301 -0.039822016 0.012088518 -0.024864016
-0.024923066 -0.09821454 -0.057943534 -0.053659726 -0.11035668 0.031705372 -0.019740524 -0.23392615
0.0048633157 -0.0059556747 -0.07329838 -0.10316987 -0.019114751 -0.04337302 -0.07481491 -0.0044564717
0.018655118 -0.08564959 -0.062410515 0.005707107 0.005597659 -0.07464854 -0.084745936 -0.036120337
-0.10040826 0.012256545 -0.03620599 -0.057706863 -0.025580354 -0.044471644 -0.061623584 -0.062904626
-0.097073734 0.007838578 -0.08722382 -0.0072870115 -0.04887118 -0.027016416 -0.02559443 -0.054553248
-0.048473153 -0.057894755 -0.18418072 -0.09668096 -0.07934334 -0.07713532 -0.10446106 -0.009123985
-0.09257467 -0.09181984 -0.039119102 -0.06906527 -0.11175886 -0.008832922 -0.14750737 0.0010376303
-0.0516715 -0.07474304 -0.05124896 -0.040921435 -0.014986241 0.0028420882 -0.06556565 -0.04398416
-0.559251 -0.069824286 -0.073334314 -0.021597315 -0.09837686 -0.06081547 -0.08077335 -0.030381193
-0.02501324 -0.01597691 -0.07586047 -0.11077288 0.019291252 -0.061045777 -0.003452639 -0.07194017

l3.weight f4 [1, 256]
00000000: 7544 eabb a452 733c 31fe b6bc 082b e4bc
00000010: 95bb 99bb e85e 203c d332 f0bc a1c9 50bc
00000020: bbaa 4fbc dd62 cfbc 07d3 f03c dc8e 86bb
00000030: b56b 61bb b7c8 f13a 7758 7e3a 79c4 06bb
00000040: 0bd6 4e3b b0ec c9bb c31a d03b 1848 f43c
00000050: 6905 3a3b cbe8 b2bb 03eb c0bf 7ad4 f33b
00000060: 6375 a13b 73cb ab3b 3acb 4a3c ec1c 66bc
00000070: eb9f 61bc 41bb 1bbd 1490 bb3c 3540 0a3b
00000080: 4ee6 023c 220d 84bc 31b8 b13c 2830 043d
00000090: f979 c6ba 45dd bfbc 6930 dcbc 6db9 8cbc
000000a0: e602 b53c b279 bfbc 5e3e d33c 9b04 86bc
000000b0: 8591 09ba 50b6 af3c 36a7 573c 606c af3b
000000c0: 4ee7 71bc e221 abbc e779 943d 1b23 ebbc
000000d0: 1435 adbc 9507 903f efb9 64bc e426 a7bc
000000e0: 86ee cfbc d077 76bc 07d1 a6bb 92b0 bebc
000000f0: 3868 2bbd 9911 993c 8547 f33a 58f6 393c
00000100: f86e d43a 870e 003c 5298 3a3c a451 fc3c
00000110: 5d09 09bb c90a 763a f4c0 383c 8878 923c
00000120: aa08 903b 568d 4c3d f548 d439 3f5b f6bb
00000130: eb53 bf3b adb3 013d 6326 273c ff93 fabc
00000140: 5d23 163a d329 b8bb 46f1 e4bb 514a 24bc
00000150: 5a61 22bd 8846 213d 0090 3d3d d04a d7bc
00000160: ebfc 81bc c3db 69bd 0606 d3bc db2b 363b
00000170: 0bc5 153c 66fb 86bb cc66 96bc c2a3 0c38
00000180: 823b 7ebc 1be6 66bc c04d ab3c a7c1 303d
00000190: 8988 8abc 039d 7b3c b011 d43c 14ea 5a3b
000001a0: 7f74 f1bc 6705 c53b 96d6 f2bc e438 8abc
000001b0: 6c03 9e3a e057 9abb a3a1 bcbc b7cb af3b
000001c0: 7c26 0abc 865d dc3a 36fa 74bc c2e0 d0bc
000001d0: 62f7 afbc 019d 923c 7794 e63c 9fab 9c3c
000001e0: 3c5e 64bc 507e 163c 070c f03b 1c4a ef3c
000001f0: 64cc 153b d8d2 c7bc 33a0 1e3c ebb7 9cbb
00000200: 66d6 913b db30 b2bc de36 f0bc 14cb 6b3b
00000210: 16e4 20bc 900e 013d 0993 2b3d ffaf 543c
00000220: 9c52 2e3c 0957 953b 95af 14bd f9e2 383d
00000230: 9df8 3dbc 1c64 26bc 84b2 29bc c988 913c
00000240: 1a15 9cbc 8d9d 1dbb 1b00 59bc 0905 85bb
00000250: 02ad 8a3c cf33 183b 1685 86bc 7571 153f
00000260: b2ac 3e3c cb7a c03c 71c2 1e3c 2e3e 4f3f
00000270: f941 1e3c 3323 87bc 13b0 493a f081 00bc
00000280: 1f01 bc3c 649b 10bb c5f7 e13e b1f6 973c
00000290: e1dd 3abb 9420 cd3c d364 26bd 673d a53c
000002a0: e253 643d a319 6b3a aea6 fbba b17c 8a3c
000002b0: 3348 c13b c8ab 653c c286 b6bb 197e 2ebd
000002c0: 373c febc 1b69 d63c ab0e 553d cc9f 69bb
000002d0: 9df5 1a3a c940 7f3d 4361 f0bc e0be 9cbb
000002e0: ce74 163c b423 b6bc 8f12 a4bc d107 a63b
000002f0: 17ab 39bb 4a30 d13a a3ed e2bc 42eb a43c
00000300: 517b febc fef5 d5bb e247 44bc 43eb ec39
00000310: 9368 243c 2798 bf3c b694 0e3b b41b 703c
00000320: 9fc5 b7bb 7572 4e3b 4e2f 90bc 6822 b53c
00000330: 08ae b13c 6976 163c 2768 9bbc afe7 b23b
00000340: 7a49 8b3c 4180 2ebb ff1b 86bc 66ac 3cbc
00000350: c494 ea3b b903 c53c e473 18bb 590e 743c
00000360: 8b52 813c 4563 9cbb ab81 94bc 9375 3bbb
00000370: 2a9d 263a 2284 c13c 7bcd 8b3c c362 dabc
00000380: ccd0 58bd 72e5 5ebb b618 eb3c d276 d03b
00000390: e898 00bd d92a bbbc 6dc5 773d 2a46 a9bc
000003a0: a6f8 babc 48ed 74bc c33c f3bb 37d3 443d
000003b0: f0c1 56bc afa3 eb3c 1d16 7abc 6640 b4ba
000003c0: 89f3 cebf 3b72 913c bc78 b2bc 828e 213d
000003d0: 5a43 1cbd 8c00 2cbc 67ee de3b 203c a93b
000003e0: d74d 963a 73a5 a93b d9bd 393d fb81 2b3c
000003f0: 9d08 57bb a3f8 353d 3126 f7bc c204 52bc
-0.007149274 0.014851246 -0.022338005 -0.02785255 -0.004691551 0.009788252 -0.02932111 -0.012743385
-0.012674983 -0.025315696 0.0293975 -0.0041063856 -0.0034396474 0.0018446659 0.00097025133 -0.0020563884
0.0031560685 -0.0061622486 0.0063508465 0.029819533 0.0028384572 -0.00545988 -1.507172 0.0074411007
0.0049273237 0.005242759 0.012377555 -0.014044981 -0.013771038 -0.038020376 0.02289585 0.00210954
0.007989479 -0.016119543 0.021694275 0.032272488 -0.0015142552 -0.02342094 -0.026878553 -0.017178262
0.022096109 -0.023373459 0.025786575 -0.016359618 -0.00052478194 0.021449238 0.013162425 0.0053534955
-0.01476462 -0.02089018 0.072498135 -0.028703263 -0.021143474 1.1252314 -0.013960346 -0.020404287
-0.025382292 -0.015043214 -0.005090836 -0.023277555 -0.041847438 0.018685149 0.0018560743 0.011350237
0.0016207388 0.007815964 0.011388855 0.030800648 -0.0020910122 0.00093857624 0.011276472 0.01787974
0.004395564 0.049939476 0.00040490148 -0.0075182016 0.005838861 0.031665493 0.010202023 -0.030588148
0.00057273154 -0.00562022 -0.00698677 -0.010027484 -0.039643623 0.039373904 0.046279907 -0.02628079
-0.015867671 -0.057094347 -0.025759708 0.0027797136 0.009141217 -0.0041193245 -0.018359564 3.3531112e-05
-0.015517117 -0.014092947 0.020911098 0.04315343 -0.016910808 0.015357259 0.02588734 0.0033403682
-0.029474495 0.006012607 -0.029643338 -0.01687283 0.0012055463 -0.0047101825 -0.023026293 0.005364861
-0.008432027 0.001681254 -0.014952233 -0.025497798 -0.021480266 0.01789713 0.028146965 0.019124804
-0.013938483 0.009185389 0.0073256525 0.029210143 0.0022857422 -0.02439253 0.009681749 -0.004782667
0.004450607 -0.021751812 -0.029323038 0.0035979198 -0.009820005 0.03150803 0.04188827 0.012981414
0.010639813 0.0045574945 -0.03630026 0.045138333 -0.011594919 -0.010155704 -0.010357503 0.01776542
-0.01905303 -0.0024050206 -0.013244654 -0.004059438 0.0169282 0.002322424 -0.016420882 0.58376247
0.011637853 0.023496052 0.009689913 0.80954254 0.009659284 -0.016496276 0.00076937786 -0.0078434795
0.022949753 -0.0022065276 0.44134346 0.018550249 -0.0028513598 0.025039949 -0.040623497 0.02017088
0.05574406 0.0008968359 -0.0019199455 0.01690516 0.0058984994 0.014018007 -0.0055702636 -0.042600725
-0.031034572 0.026173165 0.05201594 -0.0035648225 0.0005911233 0.062317643 -0.029343253 -0.0047834963
0.009183122 -0.022233821 -0.02002838 0.0050668498 -0.0028330737 0.0015959826 -0.027701205 0.02013171
-0.031064661 -0.0065295687 -0.011980029 0.0004518871 0.010034698 0.023387982 0.002175612 0.014655042
-0.005608275 0.0031501327 -0.017600682 0.022111133 0.02168943 0.009183505 -0.018970562 0.0054597477
0.01700281 -0.0026626738 -0.016370771 -0.011515712 0.0071588475 0.024049627 -0.0023262436 0.014895999
0.01578643 -0.004772576 -0.018128237 -0.0028604015 0.0006355817 0.023622576 0.017065754 -0.026658421
-0.0529335 -0.0034011272 0.028698307 0.0063618207 -0.031395823 -0.02284758 0.060491014 -0.02066334
-0.022823643 -0.01494915 -0.007423015 0.048052993 -0.013107762 0.028764574 -0.015264061 -0.0013752102
-1.6168071 0.017754665 -0.021786086 0.039442547 -0.03815017 -0.010498177 0.006803322 0.005164638
0.001146729 0.005177194 0.04534707 0.0104680015 -0.003281153 0.04442657 -0.030169578 -0.012818517
