saves/Dobot-v1/mfrs/seed_0/model/critic.pth (torch, 586085 bytes, 5 tensors)

l1.weight f4 [512, 27]
0.61291134 -0.17184025 0.22662488 -0.15385014 0.12980618 0.86664534 0.26408163 -0.11201686
0.11233487 -0.068337955 -0.60385966 -1.0383457 -0.6829199 -1.9736835 -0.25582248 -0.24953774
-2.7004757 1.3863512 -0.2046202 -0.18575054 0.10134429 0.1792408 0.11154907 1.5324917
0.028103331 0.021505643 0.028629638 0.19458504 -0.034171652 -0.26502797 -0.70928687 -0.92042875
-1.9056028 0.16339202 0.269951 -0.6303335 -0.6476651 -0.40770218 0.030006729 1.9237748
0.6821739 0.14112625 2.800787 3.058757 -0.81248814 -0.3125481 0.9867237 0.40619448
0.6983893 2.4852874 -1.8854618 -0.09712725 0.08611794 -0.016710453 -1.3855699 -3.1325085
0.068500996 -0.9077968 0.095414855 -0.028397882 -0.26563776 0.09415106 -1.0655339 -0.7943474
0.53946036 -2.4154954 0.8167102 -1.1435269 -1.7947665 1.9611106 -0.6981303 -4.639545
0.11858169 0.5637732 2.0654519 0.22085376 0.7798139 2.6293225 -0.11650015 0.09524018
-0.052860603 -0.1428051 -0.08016395 -0.07753763 0.058876194 -0.07865079 0.11181641 -0.0671431
0.05367979 0.088333115 -0.01745242 -0.057308238 -0.13154314 -0.1498675 0.16034727 -0.10021117
-0.11562063 -0.016890906 0.035913877 -0.1359595 0.114102654 -0.16795081 0.17916283 0.1544465
0.024364896 -0.0065076984 0.05654794 -0.014674913 -0.0022608824 -0.2717642 -0.29814824 0.1914654
-0.065099075 0.04785808 -0.08049527 -0.20785888 -0.3119222 -0.040548332 -0.048361532 -0.037626963
0.34632334 0.38648534 0.21765342 0.08839004 0.18642315 0.10807524 -0.1879309 0.34382808
0.020062115 -0.06281282 0.61729044 -0.024137767 0.15693125 0.079940535 -0.316982 0.47144136
-0.49371403 -0.07133719 0.9350439 -5.3295684 0.46957615 -1.6231388 5.164216 -0.78920954
1.6658738 -0.07854986 -0.85614264 0.10705648 -0.06690825 -0.36934155 -0.62196475 1.0626953
-0.9990333 -0.779637 0.7192838 0.74292505 -2.5059347 1.157844 0.8721772 0.06329001
-0.023011044 -0.040201463 -0.8757065 -0.35857096 -0.41256347 0.5813858 -0.4423724 -1.2167844
0.13447174 0.9395388 -0.5458439 0.56162304 0.7518883 0.39569613 0.58257496 0.9025663
0.115220696 0.1347264 -0.015307287 -0.64577234 -1.1100497 0.20150003 0.5214652 -1.0355574
-0.24326588 -0.64105004 -0.05223223 -0.0894416 0.13953152 -0.16541979 -0.35597864 0.4376286
-1.0557492 -0.45716283 -0.23100908 -1.4991465 1.7234349 -0.21254444 -1.270257 0.32809836
0.39842665 -1.3005928 2.127941 0.767907 -1.7998433 3.3345795 2.3362885 0.50339466
-0.39076865 0.33409053 0.7385453 -0.5377879 0.32043663 0.026523584 -0.0028487106 -0.010017841
-0.6595632 0.43144137 -1.0712246 1.2606218 -0.74904984 0.4165189 0.776095 1.5406986
-0.15233344 0.8944714 1.2125216 -0.2698512 1.0691696 0.55972284 0.10424388 1.1550906
-0.63003415 0.77765507 -1.2241089 -0.022533383 -0.093910314 -1.8985901 -0.40523696 -0.622186
0.15065186 0.0046751387 -0.02498249 -0.103428826 0.5885532 0.2157743 0.5161268 -0.046517722
-2.9736931 0.857716 -0.27024502 0.20335999 0.692199 -0.24963683 1.1621636 0.9442989
00000000: c2e7 1c3f e4f6 2fbe 5a10 683e e48a 1dbe
00000010: e9eb 043e 78dc 5d3f b535 873e 1869 e5bd
00000020: d30f e63d c5f4 8bbd 8c96 1abf 83e8 84bf
00000030: d7d3 2ebf a9a1 fcbf 2afb 82be d286 7fbe
00000040: 98d4 2cc0 f573 b13f f587 51be 6435 3ebe
00000050: 988d cf3d e68a 373e d773 e43d b028 c43f
00000060: f538 e63c 9a2c b03c b488 ea3c 4d41 473e
00000070: 93f7 0bbd bfb1 87be d393 35bf 38a1 6bbf
00000080: cbea f3bf 3d50 273e 0437 8a3e 895d 21bf
00000090: 61cd 25bf 57be d0be acd0 f53c 413e f63f
000000a0: f3a2 2e3f 6683 103e 1840 3340 adc2 4340
000000b0: 39ff 4fbf 4e06 a0be ed99 7c3f b9f8 cf3e
000000c0: a4c9 323f f30e 1f40 d056 f1bf a7ea c6bd
000000d0: 9a5e b03d 5ce4 88bc 5b5a b1bf 057b 48c0
000000e0: 404a 8c3d 5f65 68bf dd68 c33d ada2 e8bc
000000f0: ac01 88be 45d2 c03d 6a63 88bf 5a5a 4bbf
00000100: 131a 0a3f 7a97 1ac0 eb13 513f 175f 92bf
00000110: e9ba e5bf ac05 fb3f abb8 32bf 2777 94c0
00000120: f5da f23d 7153 103f 5d30 0440 7d27 623e
00000130: e2a1 473f d246 2840 a197 eebd 490d c33d
00000140: 5c84 58bd 803b 12be ff2c a4bd 0dcc 9ebd
00000150: 2a28 713d aa13 a1bd 0100 e53d 5282 89bd
00000160: 57df 5b3d fee7 b43d 61f8 8ebc 0bbc 6abd
00000170: 3fb3 06be de76 19be 1332 243e 843b cdbd
00000180: 82ca ecbd cc5e 8abc 6e1a 133d f838 0bbe
00000190: a7ae e93d 4cfb 2bbe 7676 373e 3927 1e3e
000001a0: e498 c73c 883e d5bb d09e 673d 0c6f 70bc
000001b0: 502b 14bb ad24 8bbe e3a6 98be 810f 443e
000001c0: aa52 85bd d606 443d b4da a4bd f5d8 54be
000001d0: 44b4 9fbe 0216 26bd be16 46bd bb1e 1abd
000001e0: 4b51 b13e 68e1 c53e 8ae0 5e3e d605 b53d
000001f0: b6e5 3e3e 8d56 dd3d f570 40be 3c0a b03e
00000200: 4e59 a43c 02a4 80bd bf06 1e3f 91bc c5bc
00000210: 96b2 203e ddb7 a33d 774b a2be c360 f13e
00000220: 16c8 fcbe 3c19 92bd 095f 6f3f d38b aac0
00000230: 496c f03e 03c3 cfbf 4241 a540 a309 4abf
00000240: 5a3b d53f c0de a0bd 2a2c 5bbf 6e40 db3d
00000250: 3107 89bd 561a bdbe 1539 1fbf 6606 883f
00000260: a5c0 7fbf 4a96 47bf fc22 383f 5630 3e3f
00000270: 3c61 20c0 3b34 943f 0147 5f3f 319e 813d
00000280: a881 bcbc 4aaa 24bd 4d2e 60bf 9d96 b7be
00000290: 853b d3be b3d5 143f a37e e2be 97bf 9bbf
000002a0: f6b2 093e 9d85 703f 6dbc 0bbf 87c6 0f3f
000002b0: c07b 403f af98 ca3e a223 153f 960e 673f
000002c0: d4f8 eb3d b8f5 093e 6acb 7abc 5651 25bf
000002d0: 1c16 8ebf 0656 4e3e be7e 053f 258d 84bf
000002e0: b11a 79be db1b 24bf 76f1 55bd 282d b7bd
000002f0: 5ae1 0e3e ce63 29be d542 b6be db10 e03e
00000300: ca22 87bf 3f11 eabe a58d 6cbe 08e4 bfbf
00000310: 8499 dc3f 40a5 59be c897 a2bf 82fc a73e
00000320: 94fe cb3e d379 a6bf 2f30 0840 8e95 443f
00000330: 4461 e6bf c069 5540 c085 1540 79de 003f
00000340: d412 c8be ea0d ab3e 4e11 3d3f 78ac 09bf
00000350: 4510 a43e fd47 d93c 6fb1 3abb df21 24bc
00000360: 22d9 28bf e2e5 dc3e e31d 89bf 0e5c a13f
00000370: bbc1 3fbf f741 d53e 29ae 463f 9d35 c53f
00000380: 4cfd 1bbe 14fc 643f e833 9b3f f029 8abe
00000390: 8dda 883f ff49 0f3f d17d d53d 02da 933f
000003a0: eb49 21bf 6714 473f 9aaf 9cbf ee97 b8bc
000003b0: 0d54 c0bd 0005 f3bf 387b cfbe 9547 1fbf
000003c0: 7b44 1a3e e831 993b 14a8 ccbc 7ed2 d3bd
000003d0: 6cab 163f f0f3 5c3e e320 043f 5e89 3ebd
000003e0: fd50 3ec0 4793 5b3f 8e5d 8abe 9a3d 503e
000003f0: f433 313f cca0 7fbe c7c1 943f 93bd 713f

l1.bias f4 [512]
0.22510497 -0.6789365 -0.48346522 -0.10774014 -0.21909653 -0.5002305 -0.33788317 0.10965261
-0.34386042 -0.14983924 -0.22395857 -0.06390515 -0.08434119 -0.56432664 -0.24901868 -0.63743883
-0.28064695 -0.25460914 -0.57874346 -0.060113106 -0.1859579 -0.5217125 -0.13455954 0.4223314
-0.1861722 -0.5232579 -0.46288022 -0.6141589 -0.15954067 -0.4295754 0.059769224 -1.0578271
-0.36914942 -0.1641554 0.031492263 -0.022206793 0.1615182 -0.5584485 -0.16431287 -0.32596195
-0.41538244 -0.71025103 -0.15078679 -0.49161425 -0.13068725 -0.19117656 -0.804088 0.34628266
-0.22159716 -0.3867956 -0.1550286 -0.42429593 -0.10220437 -1.0446038 -0.16189618 -0.6588736
-0.7893645 -0.22801773 -0.62574303 -0.21176738 -0.3191654 -0.44163623 -0.2906816 -0.24745667
-0.21106277 -0.33457583 -0.33701843 0.33877546 -0.59250575 0.25945094 -0.4586213 -0.60767
-0.14889508 -0.35401222 -0.118810676 -0.6056914 0.026182631 -0.3426945 -0.5510392 -0.7991132
-0.46715933 0.21808614 -0.21886878 -0.66025245 0.004539643 -0.011327303 0.17392142 -0.09468437
-0.849158 -0.15730053 -0.48976207 -0.09353023 -0.55196023 -0.29931366 -0.51052207 -0.21294445
-0.769827 -0.54889923 0.043149076 -0.44572848 -0.32942417 -0.32457566 -0.17131299 -0.47992435
-0.1984862 -0.50866663 -0.6507468 -0.7352232 -0.09946521 -0.016965609 -0.47560415 -0.1653158
-0.18652852 -0.46175063 -0.5271164 -0.28472644 -0.34859502 -0.41721326 0.17561036 0.112888195
-0.64241344 -0.9532025 -0.6266611 -0.12218089 -0.3230164 -0.98541725 0.01282097 -0.63854384
-0.39885005 -0.069772266 -0.18016148 -0.2393324 -0.45509934 -0.37445292 -0.50868905 -0.5100677
-0.4746952 -0.20202807 -0.57396436 -0.7288962 -0.22489686 -0.73184204 -0.038183074 -0.36301288
-0.16939646 -0.13793828 -0.35398796 -0.08191118 -0.16416256 -0.3009814 -0.48158523 -0.2859719
-0.13499248 -0.07565508 -0.6679003 -0.19690298 0.34397075 -0.60470957 -0.08268574 -0.47371674
-0.92935514 -0.45010582 -0.46878022 -0.031857632 -0.40021837 -0.38906512 -0.21119255 -0.40446922
-0.6875561 -0.32889342 -0.531989 -0.51834977 -0.30122203 -0.23564185 0.035509154 -0.27843598
-0.5128308 -0.11728023 -0.29566675 -0.24081175 -0.308415 -0.15216574 0.18340823 -0.001427229
-0.08303016 -0.6605246 -0.88424 -0.6567452 -0.5067423 -0.3572133 -0.10745025 -0.4150643
-0.74204737 -0.16042681 -0.09509965 -0.41653308 -0.32654706 -0.34110728 0.13246132 -0.41714483
-0.1692538 -0.5179279 -0.12726615 -0.04898131 -0.8850609 -0.16535047 -0.5621276 -0.8353594
-0.05457002 -0.1035038 -0.539806 -0.19500516 -0.12999633 -0.18376951 -0.41747415 -0.48482776
-0.22229576 0.26238456 -0.42681426 -0.20329238 -0.17558302 -0.24371834 0.03686484 -0.5142162
-0.27470285 -0.009018452 -0.31057286 -0.65082294 -0.34703857 -0.17349878 -0.37208933 -0.37776423
0.13319221 0.024068175 -0.3755508 -0.16138752 0.16823228 -0.50738573 -0.36420313 -0.15653172
-0.21170957 -0.19616522 -0.588925 0.5217991 -0.25139892 -0.18271154 -0.09965007 -0.089077294
-0.32250923 -0.12183287 -0.33046263 -0.36153203 -0.33406055 -0.47840524 -0.14494969 -0.49430695
00000000: eb81 663e c8ce 2dbf c188 f7be dda6 dcbd
00000010: d75a 60be 1b0f 00bf 06ff acbe 8c91 e03d
00000020: 790e b0be 756f 19be 6555 65be b4e0 82bd
00000030: 13bb acbd b677 10bf c1fe 7ebe 312f 23bf
00000040: f5b0 8fbe 215c 82be 8828 14bf 2939 76bd
00000050: bf6b 3ebe f38e 05bf fac9 09be d23b d83e
00000060: eda3 3ebe 3bf4 05bf a3fe ecbe 8539 1dbf
00000070: a15e 23be 4ff1 dbbe 93d0 743d e166 87bf
00000080: 2701 bdbe 5a18 28be 08fe 003d 05eb b5bc
00000090: 0765 253e 7bf6 0ebf a241 28be 7ce4 a6be
000000a0: 02ad d4be 03d3 35bf da67 1abe ddb4 fbbe
000000b0: e1d2 05be cac3 43be b6d8 4dbf f64b b13e
000000c0: 5eea 62be 130a c6be d1bf 1ebe 513d d9be
000000d0: 8650 d1bd 94b5 85bf 1dc8 25be f1ab 28bf
000000e0: cb13 4abf 7b7d 69be b230 20bf 8cd9 58be
000000f0: a669 a3be 251e e2be 38d4 94be 4865 7dbe
00000100: d720 58be 864d abbe ae8d acbe fa73 ad3e
00000110: 75ae 17bf c1d6 843e 69d0 eabe 4390 1bbf
00000120: f477 18be 1741 b5be 0353 f3bd 970e 1bbf
00000130: f57c d63c a775 afbe e810 0dbf af92 4cbf
00000140: 822f efbe f951 5f3e 231f 60be 4e06 29bf
00000150: 49c1 943b 2796 39bc 7518 323e e1e9 c1bd
00000160: 6b62 59bf 6413 21be 18c2 fabe c78c bfbd
00000170: 444d 0dbf a43f 99be 93b1 02bf 1c0e 5abe
00000180: 6213 45bf a984 0cbf 16bd 303d 8636 e4be
00000190: 49aa a8be c82e a6be ac6c 2fbe a5b8 f5be
000001a0: f73f 4bbe fa37 02bf 5897 26bf 9637 3cbf
000001b0: 6bb4 cbbd 76fb 8abc 6382 f3be 8c48 29be
000001c0: 5501 3fbe 946a ecbe 1af1 06bf aac7 91be
000001d0: 0c7b b2be fa9c d5be 34d3 333e ed31 e73d
000001e0: 3575 24bf 1405 74bf dd6c 20bf f939 fabd
000001f0: 6862 a5be 4e44 7cbf 0c0f 523c 9c77 23bf
00000200: 1336 ccbe c3e4 8ebd 407c 38be 8d13 75be
00000210: c802 e9be 4bb8 bfbe 7239 02bf cc93 02bf
00000220: 400b f3be 72e0 4ebe 54ef 12bf f198 3abf
00000230: 5d4b 66be 005a 3bbf db65 1cbd d3dc b9be
00000240: 4476 2dbe b13f 0dbe e93d b5be 0cc1 a7bd
00000250: 3b1a 28be 3c1a 9abe 5792 f6be e96a 92be
00000260: 783b 0abe 0df1 9abd 84fb 2abf efa0 49be
00000270: ef1c b03e 3fce 1abf 2457 a9bd 008b f2be
00000280: 38ea 6dbf 4574 e6be f603 f0be 267d 02bd
00000290: 6ce9 ccbe 8b33 c7be dc42 58be 9716 cfbe
000002a0: ad03 30bf b864 a8be 6e30 08bf 92b2 04bf
000002b0: c639 9abe 194c 71be 0c72 113d 298f 8ebe
000002c0: e148 03bf 9e30 f0bd a261 97be 5b97 76be
000002d0: 92e8 9dbe 56d1 1bbe 5ecf 3b3e dc11 bbba
000002e0: b70b aabd 2418 29bf 8d5d 62bf 7420 28bf
000002f0: ddb9 01bf a9e4 b6be e00e dcbd 4f83 d4be
00000300: d1f6 3dbf ed46 24be 9bc3 c2bd d343 d5be
00000310: 2d31 a7be 9da5 aebe f1a3 073e 0294 d5be
00000320: de50 2dbe ec96 04bf 0f52 02be a0a0 48bd
00000330: 5a93 62bf a251 29be 98e7 0fbf 1dda 55bf
00000340: d084 5fbd cdf9 d3bd ba30 0abf 6faf 47be
00000350: c21d 05be 132e 3cbe 2cbf d5be 583b f8be
00000360: 80a1 63be 4557 863e 6687 dabe e12b 50be
00000370: 09cc 33be 4d91 79be 96ff 163d aca3 03bf
00000380: daa5 8cbe 21c2 13bc 6803 9fbe 559c 26bf
00000390: 0aaf b1be aaa9 31be 7e82 bebe 506a c1be
000003a0: 8a63 083e 9f2a c53c 3248 c0be c542 25be
000003b0: 1545 2c3e 08e4 01bf d578 babe da49 20be
000003c0: 65ca 58be 89df 48be cac3 16bf a094 053f
000003d0: 5cb7 80be bc18 3bbe 5615 ccbd 286e b6bd
000003e0: ee1f a5be 8383 f9bd 6632 a9be ba1a b9be
000003f0: fc09 abbe 88f1 f4be b16d 14be cd15 fdbe

l2.weight f4 [256, 512]
-0.05373555 0.046796255 -0.0064141965 -0.018184932 0.017153297 -0.033319633 0.0063872626 -0.049272053
0.012112025 -0.017316729 -0.034169693 -0.040665556 -0.0018676117 -0.045286395 -0.016806876 -0.054624077
-0.011896967 0.033878013 -0.021833552 -0.016772898 -0.061479766 -0.039379157 -0.04110459 -0.061666973
-0.03899363 -0.015105251 0.01960589 0.01834259 0.020257022 -0.009424343 -0.08130563 -0.033636793
-0.00079278747 -0.010217481 0.0012121304 -0.021026408 0.00982277 0.02541652 -0.0013274922 -0.0022356627
0.01264057 -0.006926353 0.007829613 -0.011992251 -0.014988908 -0.043742314 -0.03277488 -0.015410305
-0.020539813 0.007767098 0.013194569 0.031147603 -0.033425413 -0.023336127 7.1964816e-05 0.0096368585
-0.022880886 -0.020037707 0.026614351 -0.055206854 0.035405543 -0.037696067 -0.008313319 -0.06191363
-0.036317453 -0.030219587 -0.02156713 -0.03721263 -0.043590344 -0.09411154 0.01600452 0.04115399
-0.009154801 0.0031940208 -0.02376935 0.0063528754 -0.008101276 -0.026193472 0.024933377 0.007724169
-0.022633232 -0.017137716 -0.0067529622 -0.050154142 -0.023520548 -0.031754803 -0.02767345 -0.030142484
0.008830137 0.014576708 0.0040064924 -0.019685606 0.07064092 0.002765591 -0.06014963 -0.023977587
-0.021323059 -0.038104244 -0.028190428 -0.10534012 -0.041304875 -0.031442568 0.028250866 -0.021747826
0.035853904 0.0052634994 -0.022617826 -0.008496093 -0.05424175 -0.011576053 0.051970083 -0.009588218
0.00906911 -0.06036441 -0.03134282 0.026540732 -0.05650203 0.0036996745 -0.0027842124 0.018272767
-0.057280943 -0.0389416 0.0020250787 -0.0406222 -0.052681327 0.025009379 0.015956571 -0.026105512
0.011277848 -0.044006817 0.022520231 -0.05284952 -0.027304906 -0.018487781 -0.04037882 -0.017758075
0.007736513 -0.052240297 -0.0028486755 0.06359343 0.008239402 0.0413699 -0.0142190885 -0.001960645
0.024201656 0.016585656 -0.0078948345 -0.055309996 -0.045989268 -0.013855694 -0.039704204 -0.038299695
-0.016620478 -0.006385073 0.017641118 -0.026959604 0.04026633 -0.036426213 0.01158884 -0.016916553
0.014251943 -0.05377255 -0.047060832 -0.024213877 -0.041047085 -0.04285064 0.03305651 -0.015689611
0.045680914 0.040595315 0.028577674 -0.023514332 -0.0026153603 0.013726543 0.008214634 -0.043687124
0.023957865 -0.0066271173 0.019037604 -0.014613902 -0.006968136 0.006407766 -0.038863856 -0.057958294
-0.03600786 -0.013193144 0.06905251 -0.017404115 -0.0290347 -0.021212233 -0.019114133 -0.030432217
-0.10574479 -0.04019143 0.023303807 0.00020035557 -0.03172339 -0.016311325 0.02733165 -0.061789274
-0.044438824 -0.05732359 0.033455167 0.006271236 -0.021886915 -0.022526775 -0.04274286 4.1274874e-05
-0.0059897504 -0.004740073 -0.0053859185 -0.020097803 -0.0067441287 -0.009128017 -0.043597907 -0.050640985
-0.019675236 0.00012033395 0.020334406 -0.054809272 0.020952927 -0.04797717 -0.05951608 -0.003360607
0.011008889 -0.0035963862 -0.02613616 -0.048576508 0.01847382 0.008083171 0.021393886 0.0047940244
-0.0049666367 -0.06432139 -0.016837774 0.004535237 -0.051397823 -0.008886707 -0.0069885277 -0.003958307
-0.04033952 0.025596946 -0.037344817 -0.059684075 -0.0066056103 -0.071149886 -0.09145828 -0.026665088
0.0020035605 0.02866104 -0.012301041 -0.03532232 0.04823923 -0.009801356 0.0041070743 -0.07455961
00000000: cf19 5cbd 6ead 3f3d 2e2e d2bb 91f8 94bc
00000010: 1285 8c3c 2b7a 08bd 3e4c d13b 7ed1 49bd
00000020: 8471 463c d0db 8dbc 85f5 0bbd ed90 26bd
00000030: a6ca f4ba 3a7e 39bd 93ae 89bc 7fbd 5fbd
00000040: 7feb 42bc acc3 0a3d 47dc b2bc 5167 89bc
00000050: 35d2 7bbd 0a4c 21bd 495d 28bd 8296 7cbd
00000060: c9b7 1fbd 047c 77bc 889c a03c 3343 963c
00000070: 0ef2 a53c 8f68 1abc 9183 a6bd bcc6 09bd
00000080: 11d3 4fba 3967 27bc 59e0 9e3a 933f acbc
00000090: afef 203c 4e36 d03c 3fff adba 3284 12bb
000000a0: 651a 4f3c 76f6 e2bb c747 003c 257b 44bc
000000b0: 0994 75bc 242b 33bd f43e 06bd 817b 7cbc
000000c0: 1c43 a8bc 2483 fe3b 092e 583c 4229 ff3c
000000d0: 16e9 08bd 682b bfbc d1eb 9638 eae3 1d3c
000000e0: b270 bbbc 1e26 a4bc 5706 da3c 9520 62bd
000000f0: 6705 113d 3167 1abd 9634 08bc 2699 7dbd
00000100: 9cc1 14bd 118f f7bc 8dad b0bc 456c 18bd
00000110: ca8b 32bd 8dbd c0bd e91b 833c 1691 283d
00000120: 05fe 15bc c752 513b f1b7 c2bc c82b d03b
00000130: 37bb 04bc b193 d6bc 1541 cc3c 071b fd3b
00000140: 5469 b9bc 6564 8cbc f447 ddbb 6e6e 4dbd
00000150: 2aae c0bc 5311 02bd 6eb3 e2bc 5fed f6bc
00000160: 47ac 103c 25d3 6e3c e548 833b b543 a1bc
00000170: 30ac 903d eb3e 353b 755f 76bd a56c c4bc
00000180: b2ad aebc 3213 1cbd 9def e6bc 90bc d7bd
00000190: 4d2f 29bd ecc9 00bd 5c6e e73c 7f28 b2bc
000001a0: 8bdb 123d 6f79 ac3b 0549 b9bc 3233 0bbc
000001b0: 992c 5ebd 7ca9 3dbc 95de 543d e717 1dbc
000001c0: 9b96 143c ac40 77bd 5461 00bd f36b d93c
000001d0: ac6e 67bd 3d76 723b 5577 36bb c5b0 953c
000001e0: 6c9f 6abd 3a81 1fbd 2fb7 043b 7763 26bd
000001f0: 60c8 57bd 78e0 cc3c 5bb7 823c 3adb d5bc
00000200: b9c6 383c 7e40 34bd 597c b83c bd78 58bd
00000210: 8aae dfbc b073 97bc 4364 25bd 6279 91bc
00000220: 9382 fd3b ecf9 55bd d8b0 3abb 463d 823d
00000230: 8ffe 063c 7c73 293d 2ef7 68bc 2a7e 00bb
00000240: 8d42 c63c a4de 873c 5659 01bc bc8c 62bd
00000250: 3e5f 3cbd fe02 63bc e0a0 22bd 24e0 1cbd
00000260: ab27 88bc e039 d1bb 1b84 903c 63da dcbc
00000270: 4fee 243d a733 15bd 1edf 3d3c 9594 8abc
00000280: fb80 693c 9b40 5cbd dcc2 40bd 2e5c c6bc
00000290: fd20 28bd 2784 2fbd 4366 073d 8087 80bc
000002a0: e91b 3b3d 4647 263d ba1b ea3c 21a1 c0bc
000002b0: 7766 2bbb 4be5 603c ac96 063c 45f1 32bd
000002c0: 4943 c43c 4a28 d9bb c0f4 9b3c 266f 6fbc
000002d0: f654 e4bb 3df8 d13b b52f 1fbd ad65 6dbd
000002e0: fa7c 13bd 0f28 58bc 676b 8d3d 1393 8ebc
000002f0: 2eda edbc 47c5 adbc 3e95 9cbc fc4c f9bc
00000300: b990 d8bd c59f 24bd a0e7 be3c 8a16 5239
00000310: 63f0 01bd 549f 85bc a0e6 df3c c016 7dbd
00000320: 7c05 36bd 24cc 6abd 4908 093d f17e cd3b
00000330: 304c b3bc 128a b8bc 2313 2fbd 8f1e 2d38
00000340: ab45 c4bb 9d52 9bbb 5c7c b0bb 26a4 a4bc
00000350: dafd dcbb ae8d 15bc b893 32bd ec6c 4fbd
00000360: f62d a1bc cc5b fc38 5794 a63c b07f 60bd
00000370: 79a5 ab3c b683 44bd 22c7 73bd a13d 5cbb
00000380: a15e 343c 59b1 6bbb 801b d6bc 29f8 46bd
00000390: 6956 973c 476f 043c 3b42 af3c 3117 9d3b
000003a0: 2bbf a2bb efba 83bd 5fef 89bc 539c 943b
000003b0: 8686 52bd 8d99 11bc 0500 e5bb b0b4 81bb
000003c0: 0d3b 25bd b0b0 d13c e1f6 18bd 4a77 74bd
000003d0: e073 d8bb 08b7 91bd 7b4e bbbd be70 dabc
000003e0: 2b4e 033b 8fca ea3c 4e8a 49bc 23ae 10bd
000003f0: 8096 453d de95 20bc a394 863b b5b2 98bd

l2.bias f4 [256]
-0.076814525 -0.07372938 -0.03834925 0.72503954 -0.10440758 0.07051276 -0.024349246 -0.3305837
-0.06457382 0.033118717 0.46175182 -0.079808585 -0.0013008355 -0.03400121 -0.08919823 0.06014712
-0.015668035 -0.011444578 -0.048546452 -0.034929786 -0.056659285 -0.04946708 -0.02800772 0.8651628
-0.03969197 -0.0688811 -0.045221787 0.012861299 -0.08319563 -0.020498438 -0.08945313 0.009042161
0.02191924 -0.067089066 -0.019084617 -0.039877675 -0.04311687 0.00068914733 -0.09926633 -0.05176034
-0.046376217 0.7925041 -0.043394282 -0.048427984 -0.01707322 0.015082172 0.16858946 -0.050227847
-0.03768505 -0.16380382 -0.028836505 -0.07143089 -0.047292452 -0.033116404 1.30938 -0.07646839
-0.017881647 -0.034081757 -0.031207062 -0.09194979 0.02125109 0.0034225094 0.7175056 0.007273624
-0.006293045 -0.026244018 -0.086751536 -0.043459356 0.7134211 -0.0848959 -0.9249084 -0.0015249444
-0.033127297 -0.04245935 -0.061638188 -0.005749313 0.5298779 -0.030164767 -0.0790249 -0.033127107
-0.0106851775 -0.04706186 0.4367437 -0.004672279 -0.009516139 0.0040285564 -0.030038614 0.18311116
-0.08326673 -0.1668787 -0.03154905 0.014320361 -0.023286471 0.23083243 -0.26450536 -0.094748676
-0.03202879 0.039709818 -0.000110246285 0.33064103 1.0822998 -0.03433367 -0.011490023 -0.05194457
-0.019760393 -0.004268796 -0.036528487 -0.019588802 -0.09097509 -0.0563457 -0.033124305 -0.47696194
-0.009246756 -0.08823173 -0.003903494 0.046279944 -0.0013028965 -0.054913677 0.015160036 1.3857152
0.37309486 -0.5008071 -0.4453716 -0.0631421 -0.038422953 -0.024538608 0.4043196 0.0019462745
-0.09517846 -0.042274736 -0.06683223 -0.046480075 -0.02003961 0.01521083 0.11168262 -0.043075573
-0.06628891 -0.117119975 -0.05974449 -0.018876461 0.029641125 -0.046016708 -0.02999757 -0.061309434
1.309575 -0.038444895 0.5057046 -0.010506526 -0.05166336 0.018446993 -0.06931729 0.80406713
0.024295794 0.004429128 0.030979447 -0.030899389 -0.06661504 -0.012413427 -0.025566569 -0.0063510435
-0.031125298 -0.048653983 -0.016771778 -0.070622005 -0.0008722528 -0.03578616 0.004120849 -0.17438641
0.015956847 -0.0794281 -0.027447278 -0.010316493 -0.051017433 -0.01333883 -0.09310847 -0.035939123
-0.057295103 -0.0615934 0.26349363 -0.020022936 -0.006552488 -0.021362549 -0.007936691 0.30397296
-0.027216012 1.1582437 -0.036546033 -0.066313855 -0.029645635 0.84516704 -0.04213593 -0.02626743
-0.070475385 -0.049232952 -0.046793967 -0.009422617 0.088419296 0.20064457 -0.0373381 -0.07447047
0.012959225 0.020666745 -0.042629268 -0.03155711 -0.04626078 -0.008268129 -0.040768214 0.004528843
-0.018189386 -0.025562506 -0.04665355 -0.19818307 -0.020296492 -0.07282498 -0.065564446 0.004166019
-0.07522218 -0.008507733 -0.04388568 -0.3123099 -0.40226704 0.5122494 0.24783061 0.014419161
-0.055888116 0.019647034 0.0046379105 0.72579366 -0.026109327 -0.010666834 0.006055851 -0.7446723
-0.044693504 -0.019761376 -0.08569647 -0.095906034 -0.046177562 -0.03699183 -0.045766953 -0.016817199
-0.051433403 -0.028205073 -0.04292926 0.01249159 -0.06462186 -0.051332925 -0.044361293 0.87844914
7.8660037e-07 1.1817693 -0.06152423 -0.47948453 -0.0793167 -0.037001185 -0.019591453 -0.07157658
00000000: ef50 9dbd 6eff 96bd 1a14 1dbd 319c 393f
00000010: a4d3 d5bd fe68 903d 1278 c7bc 4442 a9be
00000020: 473f 84bd 7ea7 073d bc6a ec3e af72 a3bd
00000030: cc80 aaba da44 0bbd 90ad b6bd d45c 763d
00000040: 405a 80bc 0a82 3bbc a5d8 46bd 8912 0fbd
00000050: 9113 68bd fe9d 4abd 7270 e5bc 4f7b 5d3f
00000060: 0c94 22bd 8911 8dbd 7b3a 39bd 33b8 523c
00000070: 7862 aabd 57ec a7bc 3433 b7bd 9225 143c
00000080: fa8f b33c fe65 89bd 5857 9cbc c656 23bd
00000090: 519b 30bd e5a7 343a 254c cbbd a602 54bd
000000a0: fdf4 3dbd 8ce1 4a3f 34be 31bd 6c5c 46bd
000000b0: 23dd 8bbc 371b 773c b7a2 2c3e b7bb 4dbd
000000c0: a45b 1abd 30bc 27be 893a ecbc 5c4a 92bd
000000d0: bbb5 41bd 11a5 07bd c499 a73f 769b 9cbd
000000e0: 887c 92bc 5099 0bbd f4a5 ffbc 2c50 bcbd
000000f0: c416 ae3c 2e4c 603b 72ae 373f 9557 ee3b
00000100: e335 cebb b2fd d6bc caaa b1bd 7002 32bd
00000110: c4a2 363f e7dd adbd ccc6 6cbf a5e0 c7ba
00000120: 7db0 07bd dbe9 2dbd 5378 7cbd bc64 bcbb
00000130: 14a6 073f 1a1c f7bc cfd7 a1bd 4ab0 07bd
00000140: e210 2fbc f0c3 40bd df9c df3e eb19 99bb
00000150: 94e9 1bbc fb01 843b 8a13 f6bc 7e81 3b3e
00000160: bf87 aabd 40e2 2abe 9439 01bd f39f 6a3c
00000170: 45c3 bebc 565f 6c3e 3f6d 87be 980b c2bd
00000180: 9f30 03bd c3a6 223d 0634 e7b8 c849 a93e
00000190: cd88 8a3f 76a1 0cbd a640 3cbc d4c3 54bd
000001a0: 8ce0 a1bc 42e1 8bbb e59e 15bd b278 a0bc
000001b0: 2651 babd c0ca 66bd 5aad 07bd 5b34 f4be
000001c0: b57f 17bc d6b2 b4bd c3d1 7fbb 0a90 3d3d
000001d0: f4c5 aaba 2aed 60bd cd61 783c 1e5f b13f
000001e0: 4a06 bf3e e534 00bf bf07 e4be a550 81bd
000001f0: 6361 1dbd 3105 c9bc fb02 cf3e 231a ff3a
00000200: edec c2bd 4628 2dbd 56df 88bd e461 3ebd
00000210: 1c2a a4bc d836 793c dcb9 e43d 0370 30bd
00000220: 7bc2 87bd 99dc efbd a3b6 74bd cfa2 9abc
00000230: f2d1 f23c 047c 3cbd 77bd f5bc 9a1f 7bbd
00000240: 27a0 a73f 6578 1dbd db75 013f 9023 2cbc
00000250: f69c 53bd 261e 973c 39f6 8dbd 58d7 4d3f
00000260: f907 c73c 3822 913b 9cc8 fd3c b720 fdbc
00000270: 776d 88bd b061 4bbc fb70 d1bc 6a1c d0bb
00000280: 7bfa febc 6649 47bd f864 89bc 45a2 90bd
00000290: e5a7 64ba 8294 12bd 3008 873b 5a92 32be
000002a0: efb7 823c 33ab a2bd 1dd9 e0bc 8206 29bc
000002b0: a8f7 50bd 1c8b 5abc a7af bebd e734 13bd
000002c0: 45ae 6abd 5c49 7cbd a3e8 863e 2407 a4bc
000002d0: 41b6 d6bb 8300 afbc e508 02bc 58a2 9b3e
000002e0: 1df4 debc 5441 943f 4bb1 15bd 8fcf 87bd
000002f0: 67db f2bc de5c 583f ba96 2cbd cb2e d7bc
00000300: 6655 90bd 7ea8 49bd 08ab 3fbd 5261 1abc
00000310: 2d15 b53d c575 4d3e d6ef 18bd f983 98bd
00000320: ee52 543c 4e4d a93c 079c 2ebd 0742 01bd
00000330: f27b 3dbd 0c77 07bc 92fc 26bd b066 943b
00000340: e801 95bc 7668 d1bc cb17 3fbd 81f0 4abe
00000350: d444 a6bc 4325 95bd a746 86bd 1a83 883b
00000360: 160e 9abd 0564 0bbc 79c1 33bd 15e7 9fbe
00000370: f2f5 cdbe c722 033f 4fc7 7d3e 583e 6c3c
00000380: f0ea 64bd d1f2 a03c 9df9 973b 9dcd 393f
00000390: 3ae3 d5bc f2c3 2ebc 2970 c63b d8a2 3ebf
000003a0: 8910 37bd 9ce2 a1bc a281 afbd 626a c4bd
000003b0: af24 3dbd bf84 17bd 2176 3bbd 39c4 89bc
000003c0: d5ab 52bd 530e e7bc 97d6 2fbd 87a9 4c3c
000003d0: 7758 84bd 7942 52bd 30b4 35bd 0be2 603f
000003e0: c426 5335 3744 973f d500 7cbd ff7e f5be
000003f0: cb70 a2bd 8e8e 17bd 417e a0bc be96 92bd

l3.weight f4 [1, 256]
-0.019875538 0.029224074 0.051711503 -0.95202136 -0.00028825385 -0.68880296 0.024800753 -0.64480567
0.019362034 -0.032070436 -0.82745343 -0.14095701 -0.031465128 -0.06414727 -0.12500946 -0.69357604
-0.49340752 -0.01006484 -0.00772917 -0.07914293 0.001511383 -0.3957737 -0.024301765 1.1903033
-0.019512482 -0.0346574 0.042291123 -0.023961974 -0.03072821 -0.0042597027 -3.3692722 0.00590969
0.03145614 -0.02986394 -0.0012463176 -0.02577968 -0.024913577 0.028349712 -0.5816328 -0.025110068
-0.031457175 -1.239787 -0.016343521 -0.00974311 -0.008124951 -0.068612225 -2.5752459 -0.03792435
-0.12469373 0.7935315 -0.24172622 0.011326344 0.025735239 -0.3224652 0.6772341 -0.020886233
-0.075719334 -0.014197493 -0.02644613 -0.15327428 -0.042955305 -0.030249605 -3.00753 0.00033322914
-0.04615892 -0.0381919 -0.0012502051 -0.12509812 0.7859751 0.023136962 -0.9924378 0.018615376
0.012791319 -0.00089037983 0.0053303186 -0.04442114 -0.63171834 -0.12131315 0.01576487 -0.2615587
-0.011102195 -0.038121693 -5.268796 -0.013678749 -0.028125474 -0.021711478 0.017130671 -0.478063
-0.3478477 -1.2347323 0.016584722 -0.0016361722 -0.016193073 -0.46533737 -0.6517609 -0.016019562
0.037789173 -0.95897496 -0.0039653494 -0.97981584 -1.1487818 0.0139470855 -0.023838047 -0.013702578
-0.020899089 0.02686347 0.017004738 -0.0011372966 0.0057048746 0.023351032 -1.9991889e-05 -0.5292014
-0.02250075 -0.013923384 -0.041153796 -0.37797517 0.0015818886 -0.38970897 -0.0043320493 1.0964919
-2.7633314 -0.7217828 0.14182413 -0.00703464 -0.017516522 0.045910664 -0.80567795 0.00098185
-0.031349834 0.00072378357 -0.019756109 -0.036144096 0.0060786325 -0.032309588 -0.60924613 0.023472559
-0.00032026 -0.6625345 -0.07463029 0.011217829 0.00528729 -0.00015284597 0.030055875 -0.005385552
-1.3543504 -0.025835777 -1.571059 -0.015384649 0.006276763 -0.015693784 0.026226709 0.89042354
-0.042099286 -0.09469595 -0.022957565 -0.015556437 -0.03740607 -0.001335848 -0.011682425 -0.001934549
-0.023635121 -0.815237 0.028760646 0.016061507 0.019117018 -0.031328406 -0.8682172 -0.6241665
-0.025149351 -0.013683823 0.031427383 -0.02684224 0.008524152 0.00010833981 -0.047333647 0.01855574
-0.026203776 0.014774266 -1.5997121 -0.019400574 0.022611111 0.0110609 -0.008173593 -0.51792324
0.015721366 0.5171205 -0.014729163 0.029400509 -0.08315167 0.65574986 -0.0016748551 -0.013952056
-0.17387503 -0.34203202 0.022480076 -0.016316142 -0.19380388 -0.38225973 -0.026911372 -0.031400286
-0.08745437 -0.03376565 -0.53449863 0.010415557 0.012891591 -0.02598933 0.0202969 0.0018317434
-0.20752658 0.031225149 -0.29258555 -0.9605814 -0.03132677 -0.62379724 0.0336673 0.014917691
0.029751979 -0.069778025 -0.03624817 -1.2074777 -0.813446 0.34638393 -0.5263067 -0.11079981
0.0070865937 0.019000327 -0.04347141 -0.8664073 0.002992926 -0.20377022 -0.05402335 1.3381832
-0.014715098 -0.16263348 -0.55586886 0.0010420459 -0.19981742 0.020260401 0.023990871 -0.010945331
-0.54672617 0.028747993 -0.008717899 0.049856514 -0.019264953 0.0036872607 0.017384399 0.3934516
0.0022937574 -4.0397363 -0.08560557 -0.5294831 0.0131920995 -0.024944762 -0.06257364 0.008115415
00000000: 06d2 a2bc 5367 ef3c 71cf 533d acb7 73bf
00000010: c720 97b9 6455 30bf f32a cb3c fc11 25bf
00000020: 219d 9e3c 4a5c 03bd fdd3 53bf 0957 10be
00000030: 94e1 00bd a55f 83bd 7b02 00be 338e 31bf
00000040: e99f fcbe 00e7 24bc fa44 fdbb b015 a2bd
00000050: 9919 c63a daa2 cabe 7f14 c7bc dc5b 983f
00000060: a4d8 9fbc ebf4 0dbd 7539 2d3d e74b c4bc
00000070: bab9 fbbc fa94 8bbb 28a2 57c0 13a6 c13b
00000080: 27d8 003d 39a5 f4bc 7b5b a3ba e82f d3bc
00000090: 8f17 ccbc a83d e83c e3e5 14bf a1b3 cdbc
000000a0: 3dd9 00bd 57b1 9ebf d9e2 85bc 91a1 1fbc
000000b0: 841e 05bc 9184 8cbd d4d0 24c0 9056 1bbd
000000c0: 6d5f ffbd e124 4b3f 1487 77be 2192 393c
000000d0: b5d2 d23c 291a a5be 375f 2d3f 9b19 abbc
000000e0: bd12 9bbd 9a9c 68bc 8ea5 d8bc eff3 1cbe
000000f0: e7f1 2fbd 05ce f7bc 5f7b 40c0 42b5 ae39
00000100: 2311 3dbd 1c6f 1cbd ecdd a3ba b919 00be
00000110: aa35 493f ba89 bd3c 6710 7ebf 467f 983c
00000120: ae92 513c 6168 69ba f4a9 ae3b f1f2 35bd
00000130: 4bb8 21bf 0773 f8bd 5425 813c 06eb 85be
00000140: fbe5 35bc 7e25 1cbd fa99 a8c0 d51c 60bc
00000150: 6567 e6bc 45dc b1bc 9f55 8c3c acc4 f4be
00000160: 1819 b2be b50b 9ebf afdc 873c d474 d6ba
00000170: 56a7 84bc b340 eebe cdd9 26bf 753b 83bc
00000180: d2c8 1a3d 627f 75bf c3ef 81bb 36d5 7abf
00000190: 480b 93bf 5182 643c 0248 c3bc c780 60bc
000001a0: 9134 abbc c810 dc3c 854d 8b3c 5711 95ba
000001b0: f5ef ba3b aa4a bf3c 41b4 a7b7 be79 07bf
000001c0: 7e53 b8bc e81e 64bc e290 28bd f685 c1be
000001d0: 6057 cf3a ef87 c7be ddf3 8dbb d959 8c3f
000001e0: 6cda 30c0 c2c6 38bf 583a 113e d682 e6bb
000001f0: cf7e 8fbc d20c 3c3d e940 4ebf 6bb1 803a
00000200: af68 00bd 4bbc 3d3a 90d7 a1bc d50b 14bd
00000210: 442f c73b 0f57 04bd 8ef7 1bbf 8649 c03c
00000220: 92e8 a7b9 dc9b 29bf c4d7 98bd fcca 373c
00000230: 0141 ad3b 4745 20b9 bd37 f63c 4979 b0bb
00000240: 5b5b adbf 8da5 d3bc 7618 c9bf e50f 7cbc
00000250: 4ead cd3b 4090 80bc 65d9 d63c ccf2 633f
00000260: 4d70 2cbd f3ef c1bd 8111 bcbc 6de0 7ebc
00000270: 1b37 19bd 9f17 afba a467 3fbc b190 fdba
00000280: 719e c1bc 5fb3 50bf 729b eb3c 6c93 833c
00000290: 4b9b 9c3c 3752 00bd 7b43 5ebf 60c9 1fbf
000002a0: 0306 cebc 1d32 60bc 00ba 003d 42e4 dbbc
000002b0: e3a8 0b3c 7e34 e338 ede0 41bd 3502 983c
000002c0: 4da9 d6bc c30f 723c 5ec3 ccbf f4ed 9ebc
000002d0: f03a b93c c738 353c 89ea 05bc 9e96 04bf
000002e0: 18ca 803c 0262 043f 9652 71bc 56d9 f03c
000002f0: 6c4b aabd 39df 273f d086 dbba 2a97 64bc
00000300: 4c0c 32be d21e afbe 2328 b83c 6ea9 85bc
00000310: 8674 46be 8cb7 c3be 3d75 dcbc 969d 00bd
00000320: 471b b3bd da4d 0abd e7d4 08bf 03a6 2a3c
00000330: 4037 533c 93e7 d4bc af45 a63c 1c17 f03a
00000340: d981 54be e2cb ff3c c6cd 95be aae8 75bf
00000350: 8050 00bd 2db1 1fbf b9e6 093d 5569 743c
00000360: 6cba f33c c8e7 8ebd f678 14bd a18e 9abf
00000370: ff3d 50bf 3c59 b13e 09bc 06bf 03eb e2bd
00000380: a836 e83b 93a6 9b3c 140f 32bd decc 5dbf
00000390: f724 443b 24a9 50be 9747 5dbd 9649 ab3f
000003a0: 9817 71bc 6489 26be 6c4d 0ebf 4295 883a
000003b0: f09c 4cbe 24f9 a53c 8188 c43c 0c54 33bc
000003c0: 3ff6 0bbf e980 eb3c 85d5 0ebc 5836 4c3d
000003d0: 89d1 9dbc f8a5 713b ba69 8e3c 7d72 c93e
000003e0: dd52 163b 8545 81c0 f951 afbd 348c 07bf
000003f0: ad23 583c f558 ccbc 9c26 80bd 85f6 043c
