saves/Dobot-v4/her/seed_0/model/actor.pth (torch, 606565 bytes, 6 tensors)

l1.weight f4 [512, 36]
0	0x3e1f4327	0.1555296
1	0xbd7b0c16	-0.061290823
2	0x3e433507	0.19063197
3	0x3e2c78f0	0.16843009
4	0x3e4ea8c5	0.20181568
5	0xbdab1ac0	-0.083547115
6	0xbd548282	-0.051882274
7	0x3d687071	0.056747857
8	0xbdc19322	-0.094518915
9	0x3e63451a	0.22194329
10	0x3b5f9a29	0.0034118986
11	0x3d01165c	0.031515464
12	0xbdb59547	-0.08866363
13	0xbbc8a00e	-0.0061225956
14	0x3ba59991	0.005053707
15	0xbd069e23	-0.032865655
16	0x3dd0ec59	0.1020133
17	0xbc04637f	-0.008080362
18	0xbe2b4acc	-0.16727751
19	0x3dad61da	0.08465929
20	0xbb048ffa	-0.0020227418
21	0xbdb0b9f7	-0.0862922
22	0xbe5fb0b0	-0.21844745
23	0x3cf1c42d	0.02951249
24	0x3dda1e16	0.1065027
25	0xbe45d001	-0.19317628
26	0x3d685c08	0.056728393
27	0x3b0b3812	0.0021243137
28	0xbe0b70c4	-0.13617235
29	0xbcadc997	-0.02121429
30	0xbe213845	-0.15744121
31	0xbe088663	-0.13332514
32	0xbdf6112a	-0.120149925
33	0xbda62764	-0.08112982
34	0x3d0c5443	0.034260046
35	0x3deafdeb	0.11474212
36	0x3e3dc392	0.18531635
37	0xbde8bdd7	-0.11364334
38	0x3c8b096b	0.016972264
39	0x3e1e339a	0.15449372
40	0x3d7e720b	0.06212048
41	0xbc4b8a01	-0.012423039
42	0xbe1d3470	-0.15352035
43	0x3d3b3783	0.045707237
44	0x3e2521b5	0.1612614
45	0x3e00243b	0.12513821
46	0x3de634d9	0.11240549
47	0x3d29d839	0.04146597
48	0x3daf4921	0.0855887
49	0xbd9e8152	-0.0773951
50	0x3dd0b5e5	0.10190944
51	0xbbd84277	-0.00659972
52	0xbd8bbc20	-0.06822991
53	0xbdf22d36	-0.118250296
54	0x3dcbcb17	0.09950846
55	0x3d05970c	0.032614753
56	0x3d90191e	0.07036041
57	0xbd9d2304	-0.07672694
58	0xbdfae48a	-0.122506216
59	0x3dfeb132	0.12436141
60	0xbe01c008	-0.1267091
61	0xbdb91757	-0.09037655
62	0xbd4ed86e	-0.050499372
63	0xbd3d32eb	-0.046191137
64	0xbe17427c	-0.14771456
65	0x3e0097a3	0.12557845
66	0x3cd61f4a	0.026137967
67	0x3da7474c	0.08167896
68	0x3deba344	0.1150575
69	0xbdc00dc7	-0.09377628
70	0x3e089939	0.133397
71	0xbdb8134f	-0.08988058
72	0xbb50887b	-0.003181963
73	0x3e1a90c9	0.15094294
74	0x3e368fb3	0.17828254
75	0x3dfd8894	0.12379566
76	0x3df38a68	0.11891633
77	0x3e3413ea	0.17585722
78	0xbda5c20e	-0.080936536
79	0xbcf294c7	-0.029611958
80	0xbd13b61b	-0.03606234
81	0xbd10748d	-0.0352674
82	0xbd2c895c	-0.042123184
83	0x3ded1d3a	0.1157784
84	0x3db1f217	0.08688753
85	0xbe10d2b7	-0.14142881
86	0xbde68d5d	-0.11257432
87	0xbcdd4516	-0.027010482
88	0x3b23ab8b	0.0024974074
89	0xbdb1ec6f	-0.08687674
90	0xbdbf5664	-0.093426496
91	0xbd524638	-0.051336497
92	0xbdd54846	-0.10414176
93	0x3d162c6f	0.03666347
94	0xbe12a333	-0.14320068
95	0xbd79f684	-0.06102611
96	0xbdad45ec	-0.08460602
97	0xbb50aa93	-0.0031839951
98	0x3dd829bd	0.10554836
99	0x3e091c95	0.1338981
100	0xbd9821a9	-0.07428295
101	0xbe38a163	-0.18030314
102	0xbdd07c45	-0.101799525
103	0xbdecd414	-0.11563888
104	0xbd2cd3c4	-0.042194143
105	0xbd343a7e	-0.044001095
106	0xbe0ac43a	-0.13551417
107	0x3c6a7612	0.014310377
108	0x3c2fb900	0.01072526
109	0xbcccafcb	-0.024986168
110	0xbd7777b6	-0.0604169
111	0x3e11763f	0.14205264
112	0xbe246a2e	-0.1605613
113	0xbb821d00	-0.003970742
114	0x3d9e7400	0.07736969
115	0x3df0ffbe	0.11767529
116	0xbe1479f7	-0.14499651
117	0xbcd5cc6b	-0.02609845
118	0x3e0e554f	0.1389973
119	0x3ce0c0ab	0.027435621
120	0x3d4e6c00	0.050395966
121	0xbd96d296	-0.07364385
122	0x3dece4f0	0.11567104
123	0xbd7fff16	-0.06249913
124	0xbdb7ceb0	-0.089749694
125	0x3e1ace32	0.1511772
126	0x3d34d74b	0.044150632
127	0xba96ce00	-0.0011505485
128	0xbdede148	-0.116152346
129	0xbd171b26	-0.036891125
130	0xbe031b38	-0.12803352
131	0xbde5a8cb	-0.11213835
132	0xbcc387cb	-0.023868462
133	0x3d03f9b6	0.032220565
134	0xbe0bd706	-0.13656244
135	0x3e25df24	0.16198403
136	0x3dfb0af8	0.122579515
137	0xbe1ed436	-0.1551064
138	0x3dd55beb	0.104179226
139	0xbdccd2fe	-0.10001181
140	0xbe0b12db	-0.13581412
141	0x3e1fe3bf	0.15614222
142	0xbd8941f0	-0.0670203
143	0xbd62749b	-0.055286985
144	0x3d115f6d	0.035491396
145	0x3dd993f4	0.10623923
146	0x3cd9b540	0.026575685
147	0xbd589952	-0.052880593
148	0x3c914b0c	0.01773598
149	0xbda17757	-0.078840904
150	0xbe13f471	-0.14448716
151	0x3d230af2	0.03980536
152	0x3ceaec81	0.028677227
153	0x3d961177	0.0732755
154	0xbd9a7bd8	-0.075431526
155	0xbe1c50f4	-0.15265256
156	0xbd56ba63	-0.052423846
157	0xbe305741	-0.17220785
158	0xbcc169bd	-0.02360999
159	0x3dc2b112	0.0950643
160	0x3b884984	0.0041591544
161	0x3dad92f4	0.08475295
162	0x3d2a32b9	0.04155228
163	0x3d778729	0.060431633
164	0x3e0e56a0	0.13900232
165	0x3d11304e	0.035446458
166	0x3c8bc85c	0.017063312
167	0xbda052bc	-0.0782828
168	0x3db1b3c3	0.08676865
169	0x3e211594	0.15730888
170	0xbe029183	-0.12750821
171	0x3e31ee5e	0.17376086
172	0x3d2aa3fb	0.04166029
173	0xbd11fc5d	-0.035641063
174	0xbe124b31	-0.14286496
175	0xbe142b4d	-0.14469643
176	0xbe13479d	-0.14382787
177	0xbe04aaaf	-0.12955736
178	0xbde4f8e7	-0.11180287
179	0xbd7a5ded	-0.06112473
180	0xbdf1ec87	-0.11812692
181	0xbdf3e627	-0.119091325
182	0x3ae0c5d1	0.0017148798
183	0xbe22f9cc	-0.15915602
184	0x3b720952	0.0036931825
185	0x3d41956a	0.047261633
186	0x3c515df2	0.012778746
187	0x3db0496b	0.08607753
188	0x3de1e188	0.11029345
189	0xbde64d88	-0.11245257
190	0xbd9a3931	-0.0753044
191	0x3cbcba93	0.023038184
192	0x3dfa4672	0.122204676
193	0x3d7ac85c	0.061226234
194	0xbde66a04	-0.112506896
195	0xb940b959	-0.00018379594
196	0x3c341024	0.010990176
197	0x3d1e3b18	0.038630575
198	0xbd316342	-0.04330755
199	0xbe296036	-0.16540608
200	0xbdf7b953	-0.12095895
201	0x3cc7f4e2	0.024408761
202	0xbe08030b	-0.13282411
203	0x3cdea8b6	0.027180057
204	0x3db9ad46	0.090662524
205	0x3bd489c8	0.0064861514
206	0x3d8a8b29	0.06764824
207	0x3e0b5f29	0.1361052
208	0x3db3c05c	0.08776924
209	0xbe362160	-0.17786169
210	0x3e2dc2bc	0.16968817
211	0x3d03c1f9	0.03216741
212	0xbe3cd298	-0.1843971
213	0x3d7675e3	0.06017102
214	0xbe078c3b	-0.13237087
215	0x3e0a7463	0.1352096
216	0x3e075392	0.13215473
217	0xbde12318	-0.10993022
218	0xbdfcfd58	-0.12353009
219	0x3c40156b	0.011723856
220	0xbd34d786	-0.04415085
221	0x3d922730	0.07136381
222	0xbe1efce3	-0.15526156
223	0x3dfd1033	0.123566054
224	0x3c74d9d6	0.014944514
225	0x3b568800	0.003273487
226	0xbdd9b8ab	-0.10630926
227	0x3c29b116	0.010357162
228	0x3de7e618	0.11323184
229	0x3e2644ac	0.16237134
230	0xbddd1293	-0.107945584
231	0xbd8f1200	-0.06985855
232	0x3d0df780	0.034659863
233	0x3dbfeee8	0.093717396
234	0xbe0f3f22	-0.13988927
235	0xbd7ec2d0	-0.062197506
236	0xbe0796fb	-0.13241188
237	0x3e1cd3ea	0.15315214
238	0xbd68f650	-0.056875527
239	0x3dcd4b9e	0.100241885
240	0x3dba1060	0.090851545
241	0x3c7c0980	0.015383124
242	0x3d05275b	0.032508235
243	0x3dde0b93	0.10842051
244	0xbcac7d20	-0.021055758
245	0x3db3a2a0	0.08771253
246	0xbcb5ae80	-0.022177935
247	0x3b2bdb56	0.0026223264
248	0x3d695b60	0.056971908
249	0xbe19fa83	-0.15036969
250	0xbda28488	-0.079354346
251	0xbe08377f	-0.1330242
252	0xbd10465e	-0.035223357
253	0x3afaf088	0.001914517
254	0x3da244cb	0.079232775
255	0xbe146dc5	-0.14494999

l1.bias f4 [512]
0	0xbdac8898	-0.08424491
1	0x3e2acb38	0.16679084
2	0x3d8a727e	0.06760119
3	0xbe0d5407	-0.13801585
4	0x3d71739d	0.058948148
5	0x3d86e145	0.065859355
6	0xbda97998	-0.08275145
7	0xbd9d44e4	-0.076791555
8	0xbddc93bb	-0.10770365
9	0xbdc7e84e	-0.097611055
10	0xbe142d0a	-0.14470306
11	0x3bb4a9cd	0.005513406
12	0x3d5c2206	0.053743385
13	0xbd7e4fdb	-0.062087875
14	0xbe146fbb	-0.14495747
15	0x3e0193ae	0.12653992
16	0x3dccaae6	0.09993534
17	0x3d2fd21b	0.04292498
18	0xbd5ed8a6	-0.05440583
19	0xbc11be8d	-0.0088955285
20	0xbda9caf1	-0.08290661
21	0x3d6f4c2e	0.05842226
22	0xbdd42d22	-0.10360171
23	0xbddb7fc8	-0.10717732
24	0x3e1d0893	0.15335302
25	0x3dd08b97	0.10182875
26	0xbd9cf966	-0.076647565
27	0x3da1077f	0.07862758
28	0xbe0eec5f	-0.13957356
29	0x3cfad995	0.03062133
30	0xbbe71e52	-0.007053175
31	0xbe043827	-0.12912045
32	0xbdb8a243	-0.09015324
33	0xbd853d43	-0.06505825
34	0x3e16b201	0.1471634
35	0x3d46b9eb	0.04851715
36	0x3e2cc13a	0.16870585
37	0x3e2374e4	0.15962559
38	0x3da1d4a8	0.07901889
39	0xbc03c7f2	-0.008043276
40	0x3bc68085	0.006057801
41	0xbd2a5917	-0.04158887
42	0x3d14eaf3	0.036356878
43	0xbda332dd	-0.07968686
44	0xbcc53e82	-0.024077658
45	0xbe1726c4	-0.14760882
46	0x3d82add0	0.06380808
47	0x3db5a171	0.08868683
48	0xbce77d26	-0.028257918
49	0xbd371f23	-0.04470743
50	0xbc17981e	-0.009252576
51	0xbd313fec	-0.04327385
52	0x3ddf1694	0.10892978
53	0xbd38c68d	-0.045111228
54	0x3d2c6b1b	0.04209433
55	0xbc74e26d	-0.014946562
56	0xbc60a045	-0.013710086
57	0x3e175dc7	0.14781867
58	0xbdb675ae	-0.08909164
59	0x3e0ab0c6	0.13543996
60	0x3e050f09	0.12994017
61	0x3ddd68d7	0.10811012
62	0xbdf06745	-0.11738447
63	0x3dfd5010	0.12368786
64	0xbd7f5a0e	-0.062341742
65	0xbb871224	-0.0041220356
66	0x3cea566f	0.028605668
67	0xbd84d209	-0.064853735
68	0xbd8b23eb	-0.0679396
69	0x3e1fa541	0.15590383
70	0xbd80a502	-0.06281473
71	0xbe02d788	-0.12777531
72	0x3b9c5808	0.0047712363
73	0x3e1cb6f6	0.15304169
74	0x3daba49f	0.08381008
75	0x3e36b922	0.1784406
76	0xbcce6366	-0.025193881
77	0x3dbcafb9	0.09213204
78	0xbc861a0c	-0.016369842
79	0x3d271ad7	0.04079708
80	0x3cd29dff	0.025710104
81	0xbdc5edd1	-0.096645005
82	0x3e25fd36	0.16209874
83	0xbde40966	-0.11134605
84	0xbcdf2fd2	-0.027244482
85	0xbde2d26d	-0.11075292
86	0x3e1e58c7	0.15463553
87	0x3dfee39b	0.12445756
88	0x3da58267	0.08081513
89	0xbd9a1cf4	-0.075250536
90	0x3cccd065	0.025001714
91	0x3d57ce11	0.052686755
92	0x3d6c9fde	0.05776965
93	0xbdea39a8	-0.11436778
94	0x3d4a862d	0.049444366
95	0x3d32aee0	0.043623805
96	0x3e11847b	0.14210694
97	0x3d6b4bf7	0.057445493
98	0x3de0b3d2	0.10971798
99	0xbcafa59e	-0.021441277
100	0x3ce39989	0.027783172
101	0x3d92a5c6	0.07160525
102	0xbd7830a8	-0.060593277
103	0xbd7b5f30	-0.061370075
104	0x3cfaff40	0.03063929
105	0x3da6d96c	0.08146939
106	0x3df2423b	0.11829039
107	0x3db45682	0.088055626
108	0xbb8a64b4	-0.0042234305
109	0x3d2462bb	0.04013322
110	0x3dcb5229	0.0992778
111	0x3cfae5de	0.030627187
112	0x3e001649	0.12508501
113	0xbd8bcfb2	-0.06826724
114	0xbe200645	-0.15627392
115	0xbdc02ed8	-0.09383935
116	0x3d3fd39f	0.046832677
117	0x3dbf3db4	0.09337941
118	0x3d5c06c7	0.0537174
119	0xbe0ee663	-0.13955073
120	0xbcb3f0bb	-0.021965375
121	0xbe032aaa	-0.12809244
122	0x3da23abf	0.07921361
123	0x3d917333	0.07102051
124	0xbdce4a5a	-0.10072775
125	0x3e120694	0.14260322
126	0x3d4f693a	0.05063746
127	0x3da52f11	0.08065618
128	0xbda4bf5e	-0.08044313
129	0x3e0b3ba2	0.13596967
130	0x3e37aed2	0.17937782
131	0x3d800e73	0.06252756
132	0xbd80bed4	-0.062863976
133	0xbdb90657	-0.09034412
134	0x3d708d8a	0.058728732
135	0x3b0296a4	0.0019926215
136	0x3d793f51	0.0608514
137	0xbd26e81f	-0.04074871
138	0xbdb4a304	-0.08820155
139	0x3d98ab19	0.07454509
140	0x3df2ff2c	0.118650764
141	0xbd0a12c7	-0.033709314
142	0x3cff3708	0.03115417
143	0x3d159ac0	0.036524534
144	0x3e4d8a59	0.20072307
145	0x3e435842	0.19076636
146	0xbe29497b	-0.16531937
147	0xbd8fc09e	-0.07019161
148	0x3daae5d1	0.08344615
149	0x3d6d3099	0.057907674
150	0x3d391fd7	0.04519638
151	0xbd89ac4d	-0.06722317
152	0x3b4d25ce	0.003130305
153	0xbce37c40	-0.027769208
154	0xbd084cb7	-0.033276286
155	0x3dff3764	0.12461737
156	0x3d170ed1	0.036879364
157	0x3c4b0d88	0.012393363
158	0xbe22648d	-0.1585867
159	0xbd226713	-0.03964908
160	0x3da2a863	0.079422735
161	0x3dc8d03f	0.09805345
162	0x3d895459	0.06705541
163	0xbc95deb7	-0.018294675
164	0x3d5605c2	0.052251585
165	0x3d552b96	0.05204352
166	0xbb7e5ce4	-0.0038812691
167	0xbd0a574b	-0.033774655
168	0xbe0a71da	-0.13519993
169	0xbcaa6ad6	-0.020802896
170	0xbe0855f6	-0.13314041
171	0xbdd8efbd	-0.105926014
172	0x3dd0050f	0.10157215
173	0x3daff51b	0.08591672
174	0xbb8f29cb	-0.004368996
175	0xbe13c8b3	-0.1443203
176	0xbd37d598	-0.044881433
177	0xbd75a6e6	-0.05997362
178	0x3e40cff2	0.18829325
179	0x3e1bdc2c	0.15220708
180	0x3d33f48c	0.04393439
181	0x3e27ec98	0.16398847
182	0xbcd732bd	-0.026269311
183	0x3db65421	0.08902765
184	0xbd567ff0	-0.052368104
185	0x3d0ec4b4	0.03485556
186	0xbd24fc31	-0.04027957
187	0xbde89bc1	-0.11357833
188	0xbe137dba	-0.1440343
189	0xbd4eb16d	-0.050462175
190	0xbe020066	-0.12695464
191	0xbdbbd1ef	-0.09170901
192	0x3cb1b8b1	0.021694513
193	0x3d559aac	0.05214946
194	0x3ce01a41	0.027356269
195	0x3c553ca7	0.013014949
196	0xbd334166	-0.04376354
197	0x3dfbbb46	0.12291579
198	0x3d859bb2	0.06523837
199	0x3e42937c	0.19001573
200	0xbddc900a	-0.10769661
201	0xbd7a497b	-0.061105233
202	0x3d980939	0.07423634
203	0xbcabed35	-0.020987133
204	0xbdbb4421	-0.09143854
205	0x3e0c4263	0.136972
206	0x3de7fe19	0.11327762
207	0xbde8cd53	-0.113672875
208	0x3e32dbed	0.17466708
209	0x3c5321c0	0.012886465
210	0xbdee6623	-0.11640575
211	0xbe0ebeba	-0.13939944
212	0xbd34118e	-0.043962054
213	0x3d5d58a9	0.05403963
214	0x3d82b64c	0.063824266
215	0xbce2f6cb	-0.02770557
216	0x3c6a77df	0.014310806
217	0x3e2584b2	0.161639
218	0xbba39b2b	-0.0049928627
219	0xbdaeefd2	-0.08541836
220	0x3d91655c	0.07099411
221	0x3d022b0c	0.031779334
222	0x3cf72e81	0.030173542
223	0x3cb48bcc	0.022039317
224	0x3d6c854e	0.057744317
225	0xb991eed0	-0.00027834484
226	0xbda9c460	-0.08289409
227	0x3d9d6265	0.07684783
228	0xbc5a9bc4	-0.0133428015
229	0xbc3b7c31	-0.011443184
230	0xbe063e70	-0.13109756
231	0x3e22643a	0.15858546
232	0x3d7a4c27	0.06110778
233	0xbd7ae136	-0.061249934
234	0xbd7fc404	-0.062442794
235	0x3cc7cbbc	0.02438914
236	0x3dca3342	0.09873058
237	0xbc378a49	-0.011202403
238	0x3e10d029	0.14141907
239	0xbd88bfbf	-0.06677198
240	0xbd94b571	-0.0726117
241	0x3dd6f700	0.1049633
242	0xbe124de2	-0.14287522
243	0x3dbfa46d	0.093575336
244	0x3e10f417	0.14155613
245	0xbd7dc90d	-0.061959315
246	0x3dc34c91	0.09536088
247	0x3dc46f21	0.09591509
248	0xbcc99580	-0.02460742
249	0xbdb81e23	-0.08990123
250	0x3d083cff	0.033261295
251	0x3bc351e4	0.00596069
252	0xba10219f	-0.0005498174
253	0x3ddd3d95	0.108027615
254	0x3dedc9f7	0.11610787
255	0x3d84e879	0.06489653

l2.weight f4 [256, 512]
0	0x3d120c4f	0.03565627
1	0x3c1030ac	0.008800667
2	0x3b53ccfb	0.0032318223
3	0x3d0fb1b9	0.0350816
4	0x3c28a0a3	0.010292205
5	0x3cfc48f9	0.030796515
6	0x3c38e49f	0.011284976
7	0xbd0ab8a3	-0.03386749
8	0xbbbfb69a	-0.005850625
9	0xbbd93187	-0.0066282186
10	0xbd33d586	-0.043904804
11	0xbcd15203	-0.025551802
12	0xbcafd301	-0.02146292
13	0xbccb037f	-0.02478194
14	0x3d14aa26	0.03629508
15	0x3cd159cd	0.025555516
16	0x3d0f2b5b	0.034953456
17	0xbd13dfe2	-0.036102183
18	0x3b50041f	0.0031740738
19	0x3cd462e7	0.025926067
20	0x3c2a81e1	0.010406942
21	0xbcbcd590	-0.023051053
22	0x3d239ea9	0.039946232
23	0x3d2fbe15	0.042905886
24	0x3c9122ef	0.017716853
25	0xbc2de70d	-0.010614169
26	0xbc884027	-0.016632153
27	0xbbfbbeb7	-0.007682647
28	0xbcf2ec27	-0.029653622
29	0xbc61754b	-0.013760875
30	0xbd233f16	-0.039855085
31	0x3cb14aff	0.021642206
32	0xbd2bc9e3	-0.04194058
33	0xbcec0fe3	-0.02881617
34	0x3c40ba77	0.011763207
35	0x3c27e0d0	0.010246471
36	0x3c708d1a	0.014682079
37	0xbcc7493a	-0.02432691
38	0x3caa6fd1	0.020805271
39	0xbc316916	-0.010828277
40	0xbc12a3fd	-0.008950231
41	0xbcd58674	-0.026065089
42	0xbc89b6a8	-0.01681073
43	0xbbaf19d7	-0.0053436565
44	0xbd265233	-0.040605735
45	0x3caff53b	0.02147924
46	0x3bb310d9	0.005464655
47	0xbc5b9226	-0.013401544
48	0x3d1a17c0	0.037620306
49	0xbae1ecbd	-0.0017236691
50	0xbc4974a1	-0.012295873
51	0xbd31def2	-0.043425508
52	0xbc910ac9	-0.017705338
53	0x3cc0cd2b	0.023535332
54	0xbbe65740	-0.007029444
55	0xbd211a38	-0.039331645
56	0xbd457d3f	-0.048215147
57	0x3b881344	0.0041526873
58	0x3d34440f	0.04401022
59	0xbbd2bcec	-0.0064312126
60	0xbd26c9cd	-0.040719796
61	0x3c9d3a1e	0.019192751
62	0x3cdf3742	0.027248029
63	0xbc970c47	-0.018438471
64	0xbcc5f2b2	-0.024163578
65	0xbd027cff	-0.031857487
66	0x3c1cc405	0.009568219
67	0xbc53ab89	-0.012919315
68	0xbb861b02	-0.004092575
69	0xbcaa60eb	-0.020798167
70	0x3cc8316a	0.024437625
71	0xbd14cba0	-0.036327004
72	0x3cf74ab5	0.03018699
73	0x3d04bd3d	0.032407034
74	0x3cada8b5	0.02119861
75	0x3d065da7	0.032804158
76	0xbc7153e6	-0.014729476
77	0x3d23e323	0.040011536
78	0x3cd1fdb3	0.025633669
79	0xbcc677f0	-0.024227113
80	0x3cbc140d	0.02295878
81	0x3c9fdc97	0.019514365
82	0xbcbd7ab2	-0.023129795
83	0xba5a3c81	-0.0008325056
84	0xbd1c678d	-0.03818469
85	0x3c19f0c4	0.009395782
86	0xbcd73827	-0.026271893
87	0x3cfa557f	0.030558346
88	0x3c7d5bb9	0.015463763
89	0xbc05123d	-0.008122024
90	0xbcc90fa9	-0.0245436
91	0xbc2f5613	-0.010701674
92	0xbc9f5693	-0.019450461
93	0x3d16a474	0.03677793
94	0x3c8d595a	0.01725452
95	0xbccc4e39	-0.024939643
96	0xbaabc395	-0.0013104553
97	0x3d027a76	0.03185507
98	0x3c6cb96f	0.014448508
99	0xbb648b0b	-0.0034872915
100	0xbb93febd	-0.004516451
101	0x3c2ae214	0.010429878
102	0xbcce3382	-0.025171045
103	0xbc7bf6e6	-0.015378689
104	0xbd0dfb1e	-0.034663312
105	0x3d165e20	0.03671086
106	0x3ccd4c2d	0.025060738
107	0x3ce6652e	0.028124418
108	0x3a9826b1	0.0011608211
109	0x3d1a024b	0.037599843
110	0x3c66b480	0.0140811205
111	0xbd2d7100	-0.042344093
112	0xbc70f289	-0.014706262
113	0x3cdc985e	0.026928123
114	0x3d2a461b	0.041570764
115	0x3cae29b5	0.021260122
116	0x3d3335ae	0.043752365
117	0x3c4433b3	0.011975217
118	0xbc4ae2a1	-0.012383134
119	0x3cd0b8ef	0.025478808
120	0xbc7ba089	-0.015358099
121	0xbca18083	-0.0197146
122	0xbd339ab6	-0.043848716
123	0x3c22e3bb	0.0099419905
124	0xbcdc41a2	-0.026886765
125	0xbcc2e985	-0.023792991
126	0x3d13265a	0.035925247
127	0x3a52032d	0.00080113375
128	0x3d20b8ee	0.039238863
129	0x3c9bbfb5	0.019012311
130	0xbca16297	-0.019700332
131	0x3b89ec5f	0.004209086
132	0xbb219919	-0.0024657904
133	0x3c924c57	0.017858667
134	0x3d261f1f	0.040557023
135	0x3c96a4db	0.018389156
136	0xbd10da86	-0.03536465
137	0x3c8edfdf	0.017440734
138	0x3c30891e	0.010774879
139	0x3c0e7e94	0.008697171
140	0xb992315a	-0.0002788406
141	0xbcad6063	-0.021164125
142	0xbbbf5e7a	-0.00584012
143	0x3ce4a146	0.027908932
144	0xbaac0973	-0.0013125375
145	0xbd40083a	-0.046882845
146	0xbc6ba621	-0.01438287
147	0xbd330485	-0.043705482
148	0x3ca50128	0.020142153
149	0x3d0f1037	0.034927573
150	0xbcb22fb0	-0.021751255
151	0x3cb16bf0	0.021657914
152	0xbd2598e3	-0.040429007
153	0xbcf9ccef	-0.030493228
154	0x3c58f81f	0.01324275
155	0xbd335025	-0.043777604
156	0x3cf0a84a	0.029377121
157	0x3d1a2a78	0.037638158
158	0xbc77ae7c	-0.015117284
159	0x3c97cd97	0.01853065
160	0xbd043f08	-0.032286674
161	0xbcfb6d67	-0.030691816
162	0x3ce47971	0.027889939
163	0xbc847368	-0.016168311
164	0xbd168ce7	-0.03675547
165	0x3cf9dd82	0.030501131
166	0xbb9d694f	-0.0048038135
167	0xbd3c8858	-0.046028465
168	0x3d297035	0.041366775
169	0xbcc02ce3	-0.023458904
170	0xbd280665	-0.041021723
171	0xbcad2450	-0.02113548
172	0x3ceb0e00	0.0286932
173	0xbd41708b	-0.04722647
174	0xbcd328b3	-0.025776243
175	0xbd2ee8f5	-0.042702634
176	0x3caa70f6	0.020805817
177	0xbcc82968	-0.024433807
178	0xbd134665	-0.035955805
179	0xbd2b94d2	-0.041889973
180	0xbd2a279d	-0.041541684
181	0x3ca26485	0.019823322
182	0xbd106268	-0.035250098
183	0xbd0e3666	-0.034719847
184	0xbc831511	-0.016001256
185	0x3c856d85	0.016287575
186	0x3c942980	0.018086195
187	0x3c2565c3	0.010095063
188	0xbcdf38fc	-0.027248852
189	0x3d200558	0.039067596
190	0x3b923764	0.0044621695
191	0x3ca7f656	0.020503204
192	0x3c1b7f6a	0.009490827
193	0xbc13fe7d	-0.009032843
194	0x3b00f3b1	0.0019676501
195	0xbc319f21	-0.010841162
196	0xbc9675b2	-0.018366668
197	0xbd08455b	-0.033269268
198	0x3cc1617c	0.023606054
199	0xbcb78b83	-0.022405392
200	0xbb8a1ebe	-0.0042150905
201	0x3cd8a302	0.026444916
202	0x3caf8670	0.02142641
203	0xbd11e18f	-0.0356155
204	0xbbe75d79	-0.0070607034
205	0xbd2e44b4	-0.04254599
206	0x3bfb324d	0.0076659084
207	0x3cb6162b	0.022227367
208	0x3d1ed4e6	0.038777255
209	0xbb820f7e	-0.003969132
210	0x3d326368	0.043551832
211	0xbc74f399	-0.014950656
212	0xbc36f21d	-0.011166123
213	0xbce1ae37	-0.027548892
214	0xbd198373	-0.037478875
215	0xbd0d1f09	-0.034453426
216	0xbd03a41c	-0.03213893
217	0xbcd905dc	-0.026492052
218	0xbc01a7ca	-0.007913539
219	0x3d29b65c	0.041433677
220	0xbd025d26	-0.031827115
221	0xbc961b66	-0.018323611
222	0xbc8bbd4d	-0.01705804
223	0xbcc20b7a	-0.023687113
224	0xbcb83db0	-0.022490352
225	0x3d111129	0.035416756
226	0x3c8c742e	0.017145243
227	0xbcbfe035	-0.02342234
228	0x3d227989	0.039666686
229	0x3c581d2f	0.013190552
230	0xb98d9a89	-0.00027008753
231	0x3d23ccf4	0.03999038
232	0x3c99fcc1	0.01879728
233	0x3d1b4eb9	0.037916873
234	0xbc00bb93	-0.007857221
235	0xbd032bcf	-0.0320242
236	0x3ca7487c	0.020420305
237	0xbbe79d2c	-0.007068297
238	0xbcc7edeb	-0.02440544
239	0x3d02d39f	0.0319401
240	0xbb01db36	-0.0019814498
241	0x3d1ff504	0.039052024
242	0xbc3b7eac	-0.011443775
243	0x3c278604	0.010224823
244	0x3cf8ed63	0.030386632
245	0xbcff759f	-0.031184016
246	0x3b912156	0.004429023
247	0xbcb5a8ec	-0.022175275
248	0xbc1d8b6d	-0.009615761
249	0x3b822a02	0.003972293
250	0xbd015fa6	-0.031585358
251	0x3d1be7f3	0.038063
252	0xbcaae978	-0.02086328
253	0x3c9efbe0	0.019407213
254	0x3d0774ec	0.03307049
255	0xbc6c670a	-0.014428863

l2.bias f4 [256]
0	0x3d0057d0	0.031333745
1	0x37ceb57f	2.464163e-05
2	0xbd0bffcb	-0.03417949
3	0x3d928418	0.07154101
4	0xbd3ddd83	-0.04635383
5	0x3cef08fa	0.029179085
6	0xbd1ba355	-0.037997562
7	0xbc11eaf4	-0.008906115
8	0xbb3f97cf	-0.0029234772
9	0xbc0b89b5	-0.008516719
10	0x3c3c5564	0.011494968
11	0x3cf003c5	0.029298672
12	0x3d0fe035	0.03512593
13	0xbd0ed780	-0.034873486
14	0x3ca50081	0.020141842
15	0x3d063a3f	0.03277039
16	0x3cbcd243	0.02304948
17	0x3abaabf5	0.0014241921
18	0x3cdc1d93	0.02686957
19	0xbcd88c17	-0.026433988
20	0x3c7fd21c	0.015614059
21	0xbb4d029e	-0.0031282078
22	0x3ba08112	0.004898199
23	0x3d91d183	0.07120039
24	0x3c9f03d7	0.01941101
25	0xbce21f84	-0.027602918
26	0x3d03bf18	0.032164663
27	0x3d30663b	0.043066245
28	0xbd242f51	-0.040084187
29	0x3cd86f83	0.02642036
30	0xbc1cfcfd	-0.0095818015
31	0x3cf4b059	0.029869245
32	0xbd260bf6	-0.04053875
33	0xbd07cf4a	-0.03315667
34	0xbcde0b54	-0.027105011
35	0xbbf1d557	-0.0073801684
36	0x3c996c03	0.018728262
37	0x3d2c2429	0.042026673
38	0xbd0fa959	-0.035073612
39	0x3de39987	0.111132674
40	0x3d999380	0.074988365
41	0x3e2e7183	0.17035489
42	0x3d9b7050	0.07589781
43	0xbce5f028	-0.028068617
44	0xbba18fc5	-0.0049304687
45	0x3d3db755	0.046317417
46	0xbcb6ea9f	-0.022328673
47	0x3c0305d2	0.007996993
48	0x3bb7e38c	0.0056118425
49	0xbce298e6	-0.027660798
50	0xbc3aef22	-0.011409553
51	0xbd343b8d	-0.044002105
52	0x3d43c437	0.047794547
53	0x3d111dff	0.035428997
54	0xbcbac20e	-0.02279761
55	0xbcfe4517	-0.031038804
56	0x3ad016c1	0.0015875922
57	0xbc262885	-0.010141497
58	0x3c147c00	0.009062767
59	0x3cb0859b	0.021548083
60	0x3c1cc899	0.009569311
61	0x3c8720f3	0.016495204
62	0xbd0b2c11	-0.033977572
63	0xbd09e986	-0.03366997
64	0xbc217dab	-0.009856622
65	0xbc782378	-0.015145175
66	0x3d03115e	0.031998985
67	0x3d807e68	0.0627411
68	0x3cf9e452	0.03050438
69	0x3cffa379	0.03120588
70	0x3d253dfb	0.040342312
71	0x3cc84e4e	0.024451401
72	0xbcb7c21d	-0.022431428
73	0x3c3b5936	0.011434844
74	0xbc06d3df	-0.008229225
75	0x3d3ddf2f	0.046355423
76	0x3d233e8b	0.039854567
77	0x3b1986da	0.0023426325
78	0xbd0e1b11	-0.03469378
79	0xbc8fffaa	-0.017577965
80	0x3cff342a	0.031152803
81	0xbcf54ae8	-0.029942945
82	0xbc2e29b1	-0.010630057
83	0xbc31ce4f	-0.01085241
84	0x3d3b24b1	0.04568929
85	0xbba56dfc	-0.0050485115
86	0xbcbb731d	-0.022882039
87	0x3b409f59	0.0029391854
88	0xba60928f	-0.0008566761
89	0x3d336ec8	0.04380682
90	0x3c9b2e4b	0.018942973
91	0xbd0064d0	-0.031346142
92	0xbd245e2b	-0.040128868
93	0x3c073af7	0.008253804
94	0x3d421f49	0.047393117
95	0x3d1dba56	0.038507782
96	0x3ca5074c	0.020145081
97	0xbc111c4d	-0.008856845
98	0x3c8f8fc6	0.017524611
99	0xbbce2251	-0.006290712
100	0xbcd55fc0	-0.026046634
101	0xbbc5ca84	-0.0060361046
102	0x3caeee2b	0.021353802
103	0xbcc9f73a	-0.02465402
104	0xbd0005ed	-0.03125565
105	0x3ca147ce	0.01968756
106	0xbbb46871	-0.0055056144
107	0x3cb0bd85	0.021574745
108	0xbc9c6f81	-0.019096138
109	0xbd2dcc79	-0.04243133
110	0xbcce914f	-0.025215773
111	0xb94e17db	-0.00019654578
112	0xbc8b313d	-0.016991252
113	0xbc5c4824	-0.013444934
114	0x3d0c0854	0.03418763
115	0x3c8508dc	0.016239576
116	0x3bc2c8cc	0.005944347
117	0xbd06f30a	-0.032946624
118	0xbd39187a	-0.04518936
119	0x3d193a0b	0.03740887
120	0x3d2c6300	0.0420866
121	0x3c1b49cf	0.009478047
122	0xbd0d1fe1	-0.03445423
123	0x3cefe38c	0.029283307
124	0x3cb6beb2	0.022307727
125	0xbd199c22	-0.037502415
126	0x3d0b21f9	0.033967946
127	0xb9620c79	-0.00021557686
128	0xbd36b31e	-0.044604413
129	0x3d198474	0.037479833
130	0xbca4e6ed	-0.020129645
131	0xbd192e0b	-0.037397426
132	0xbd18bda6	-0.037290238
133	0xbc2130f8	-0.009838335
134	0xbb54beb0	-0.0032462291
135	0x3cf64d74	0.03006623
136	0xbb05ce95	-0.0020417322
137	0x3d39e8e4	0.045388117
138	0x3c024b2c	0.007952493
139	0x3d4c3c85	0.049862403
140	0x3c6eeb4f	0.014582469
141	0x3cf8bd9d	0.030363852
142	0x3cec2eee	0.028830972
143	0x3ca65170	0.020302504
144	0xbcaf7aaf	-0.021420805
145	0xbca84716	-0.020541709
146	0x3cedb754	0.029018082
147	0xbccd7a02	-0.025082592
148	0xbd035c0c	-0.032070205
149	0xbd2f3129	-0.042771492
150	0x3c8b2c7f	0.01698899
151	0xbc92ad70	-0.017904967
152	0x3d13355b	0.035939556
153	0xbb0325c5	-0.0020011526
154	0x3d1cb54d	0.03825884
155	0x3daa77b7	0.08323615
156	0x3d03665d	0.032080043
157	0xbd0ee905	-0.034890193
158	0xbc37b5d1	-0.011212782
159	0xbd13c267	-0.03607407
160	0x3c9a3472	0.018823836
161	0xbbc45b8d	-0.005992359
162	0x3cf101a1	0.029419722
163	0x3bc00d0a	0.0058609294
164	0x3cc2c994	0.02377776
165	0x3c2a1680	0.010381341
166	0x3cf1703e	0.029472467
167	0x3cb70006	0.022338878
168	0xbcebcc4a	-0.028783936
169	0x3c7cd48d	0.015431535
170	0xbc98d7b0	-0.018657535
171	0xbcbfe96d	-0.023426736
172	0x3cdcf5eb	0.026972732
173	0xbd0d4888	-0.034493
174	0x3d197284	0.037462726
175	0x3d2cebc4	0.04221703
176	0x3d48c8d1	0.04901964
177	0x3d04adf8	0.032392472
178	0x3c8f2f35	0.017478565
179	0x3cf52a13	0.02992729
180	0xbcd82e48	-0.026389256
181	0xbc1f8de0	-0.0097384155
182	0x3daa2169	0.08307154
183	0xbcec06d9	-0.028811859
184	0xbd278be3	-0.04090489
185	0xbc629c9c	-0.013831284
186	0x3d9a07da	0.07521029
187	0xba4fd241	-0.00079277536
188	0x3cfa6a8d	0.030568385
189	0xbcc0df52	-0.023543987
190	0xbce4769b	-0.027888587
191	0xbc6a3137	-0.01429396
192	0x3d256612	0.040380545
193	0x3cc9b792	0.024623666
194	0x3c4efae6	0.012633061
195	0xbd181a44	-0.037134424
196	0x3c4a24f8	0.012337916
197	0x3900bf2e	0.00012278251
198	0xbb5a0a4d	-0.00332703
199	0x3d0d6c07	0.03452685
200	0x3dacf294	0.084447056
201	0xbb4fb9e9	-0.0031696504
202	0xbc9b40ed	-0.018951857
203	0xbd010454	-0.03149827
204	0x3d1b27d2	0.037879772
205	0xbcc780b9	-0.024353372
206	0x3c87aa44	0.016560681
207	0xbd0d3aae	-0.03447979
208	0x3ca7aaee	0.020467248
209	0x3d27e9f0	0.040994585
210	0x3b51ebb4	0.003203136
211	0x3dc9fb1f	0.09862351
212	0x3c8fb233	0.017541027
213	0x3c8aaed6	0.016929071
214	0xbcb2ec9e	-0.021841343
215	0xbabafd0a	-0.0014266085
216	0xbd088c48	-0.033336908
217	0xbd305f6e	-0.04305976
218	0x3b4c2654	0.0031150775
219	0x3c8f17e7	0.017467452
220	0x3d8ed739	0.06974644
221	0xbcdd034e	-0.026979115
222	0x3d3edc14	0.0465966
223	0xbce55e67	-0.027999116
224	0x3d16bec3	0.03680302
225	0x3d080f3c	0.033217654
226	0x3bb62a9b	0.005559278
227	0xbb5f602f	-0.003408443
228	0xbd137922	-0.036004193
229	0xbbc91a25	-0.00613715
230	0x3c95084a	0.01819243
231	0x3d2d95d4	0.042379215
232	0x3d7fe1f4	0.062471345
233	0x3caaef18	0.020865962
234	0x3d2acf0c	0.04170136
235	0x3be57024	0.0070018936
236	0x3b8e763e	0.0043475917
237	0x3cd7bb12	0.02633432
238	0xbc86a8c0	-0.016437888
239	0x3c22e692	0.009942668
240	0xbcba6a57	-0.022755785
241	0xbd1c9320	-0.038226247
242	0xbd00a762	-0.03140963
243	0xbd247351	-0.040149037
244	0xbbbe42e9	-0.005806316
245	0xbc8cdaf1	-0.017194243
246	0x3cb0ab07	0.021565927
247	0x3d5f9798	0.05458793
248	0xbc87984e	-0.016552117
249	0x3c21e8eb	0.009882192
250	0xbc6ebdb9	-0.014571601
251	0x3c2175c0	0.009854734
252	0x3cb81c35	0.022474388
253	0xbbe1c41f	-0.0068898345
254	0xbc98adde	-0.018637594
255	0x3d8c6435	0.068550505

l3.weight f4 [3, 256]
0	0x3cb27901	0.021786215
1	0xbd5d2d9a	-0.053998567
2	0x3dae0246	0.084965274
3	0x3d8b30a6	0.06796388
4	0xbcef4d8a	-0.029211778
5	0x3d739aad	0.059473682
6	0x3d42bc49	0.047542844
7	0xbd5a0d60	-0.05323541
8	0x3c7da7a0	0.015481859
9	0x3b7a4f80	0.0038194358
10	0x3cd0dcbe	0.025495883
11	0x3d412a6d	0.0471596
12	0xbd247632	-0.040151782
13	0xbb8dd4bc	-0.0043283384
14	0xbcec8d96	-0.028876107
15	0x3d3a1320	0.045428395
16	0xbc94eba6	-0.018178772
17	0x3cd2af1e	0.025718268
18	0xbd22ece0	-0.039776683
19	0xbb8ffa70	-0.004393868
20	0xbc0d7fe4	-0.0086364485
21	0x3d0d9b86	0.034572147
22	0xbd52c095	-0.05145319
23	0x3dbcb992	0.09215082
24	0x3a1c3bea	0.00059598556
25	0xbd5aa979	-0.053384278
26	0x3c68d22e	0.014210267
27	0x3d9610f6	0.07327454
28	0xbd2d739a	-0.042346574
29	0x3d366421	0.044529084
30	0xbd70a26e	-0.058748655
31	0xbc99d076	-0.01877616
32	0xbd25d746	-0.040488504
33	0xbd52d840	-0.051475763
34	0x3caed68f	0.021342544
35	0xbc2d3709	-0.010572203
36	0x3d29a58f	0.041417655
37	0x3db3aeab	0.0877355
38	0x3d013950	0.031548798
39	0x3e0f04a5	0.13966615
40	0x3da55453	0.08072724
41	0x3e001741	0.1250887
42	0x3db5bce7	0.08873921
43	0xbcd4303f	-0.025901912
44	0x3ca101c8	0.01965417
45	0x3d36ebff	0.044658657
46	0xbcfb6803	-0.030689245
47	0x3db5c47c	0.08875367
48	0xbc57d8c6	-0.013174241
49	0xbd03b9cc	-0.03215961
50	0xbd431e9c	-0.047636613
51	0x3d46448a	0.048405208
52	0x3d9c2121	0.07623506
53	0x3d4500b3	0.04809637
54	0x3d891ce8	0.066949666
55	0xbd59d3d8	-0.053180546
56	0x3d133eea	0.03594867
57	0x3cfa1b95	0.03053073
58	0x3bb14968	0.005410362
59	0x3dcddc0a	0.10051735
60	0x3d12ab96	0.03580817
61	0x3d884125	0.0665305
62	0x3d7d0d3c	0.0617802
63	0x3d43a484	0.047764316
64	0x3d3d2d74	0.046185926
65	0x3ceadd5e	0.02867001
66	0x3d993d1b	0.07482358
67	0x3d587b64	0.05285205
68	0xbcca921d	-0.024727875
69	0xbc299010	-0.010349289
70	0xbc89f8ec	-0.016842328
71	0xbd59a648	-0.053137094
72	0xbb0973a0	-0.002097346
73	0xba8bca07	-0.0010665067
74	0x3d0c65ea	0.03427688
75	0x3d14088f	0.036140975
76	0x3d9e872e	0.07740627
77	0x3d01c89a	0.03168545
78	0x3d7cf8b1	0.061760608
79	0xbcf1bd5f	-0.029509244
80	0xbb4d8de7	-0.0031365098
81	0xbd1ad1af	-0.037797626
82	0x3c65d684	0.014028195
83	0x3d016546	0.031590723
84	0xbc212075	-0.0098343985
85	0xbcd0841a	-0.025453616
86	0xbce3f4e7	-0.02782674
87	0x3b91072b	0.0044259033
88	0xbcebdfd8	-0.02879326
89	0x3c87916d	0.016548837
90	0xbd48cabd	-0.04902147
91	0xbd5fa324	-0.054598942
92	0xbd5f13ae	-0.054462127
93	0x3ca4d818	0.020122573
94	0x3d699ecd	0.05703621
95	0xbcbc78be	-0.023006793
96	0xbc31a9e5	-0.010843729
97	0xb9cf288e	-0.00039512332
98	0x3bbc4d65	0.005746531
99	0xbc7f6d68	-0.015590049
100	0xbd18c14e	-0.037293725
101	0x3cb54e40	0.02213204
102	0xbd2fb672	-0.042898603
103	0xbc44cee0	-0.0120122135
104	0xbd01d30a	-0.031695403
105	0xbbdab64f	-0.006674565
106	0x3dae8114	0.085207134
107	0xbd66a909	-0.05631355
108	0xbd10e380	-0.03537321
109	0x3d9be393	0.07611766
110	0xbd4ffb84	-0.050776973
111	0xbc9d850f	-0.019228486
112	0x3d57ba12	0.052667685
113	0x3d76176c	0.06008093
114	0x3dadfadf	0.084951155
115	0x3b58169a	0.0032972456
116	0xbd24598b	-0.040124457
117	0x3d8890a2	0.066682115
118	0x3d7d3ba7	0.061824467
119	0xbcedc98c	-0.02902677
120	0xbcf7690d	-0.03020146
121	0xbd165936	-0.036706172
122	0xbd0076a1	-0.031363133
123	0x3daaee6f	0.08346259
124	0x3d9c07e6	0.07618694
125	0xbc1c3557	-0.009534202
126	0x3db2bd4f	0.08727514
127	0xbc4e115a	-0.012577379
128	0x3c166f94	0.009181876
129	0x3d8ac1fd	0.067752816
130	0xbd4a0c1a	-0.049327947
131	0xbd7521f1	-0.059846822
132	0xbcca9d7e	-0.024733301
133	0x3d9f685c	0.07783577
134	0x3b23e200	0.0025006533
135	0xbd13114e	-0.035905175
136	0x3d031b02	0.03200818
137	0x3cfe6c63	0.031057542
138	0x3ce25a9d	0.027631098
139	0x3c00e64a	0.007867405
140	0x3d863234	0.06552544
141	0x3da43bd9	0.080192275
142	0xbd54761c	-0.05187045
143	0x3d914465	0.07093123
144	0xbd78e6d3	-0.060767006
145	0x3d5b1fc4	0.05349709
146	0xbcdbad34	-0.026815988
147	0xbd1bb670	-0.038015783
148	0x3d1f5088	0.03889516
149	0xbcc05ce3	-0.023481792
150	0x3db36f05	0.0876141
151	0x3b3b4036	0.0028572208
152	0x3d5f27cb	0.05448131
153	0x3c8180f4	0.01580856
154	0x3da67473	0.0812768
155	0x3d37d181	0.044877533
156	0x3d4485a6	0.04797902
157	0x3d2e45f4	0.04254718
158	0x3c8b9ac1	0.017041566
159	0xbc0ce068	-0.0085984245
160	0x3bcb6647	0.006207261
161	0x3daa10ef	0.08304011
162	0x3c557793	0.013028997
163	0x3d79997d	0.060937393
164	0x3c941a50	0.018078953
165	0x3cae2d28	0.021261767
166	0x3da82397	0.08209913
167	0x3be50ee3	0.0069903
168	0x3d82c39b	0.06384965
169	0xbd12fc97	-0.03588542
170	0xbc7367f7	-0.01485633
171	0xbbc158f0	-0.0059004948
172	0xbcb32bc2	-0.021871451
173	0x3d39208f	0.045197066
174	0x3ccbecea	0.024893243
175	0x3d609fd5	0.054839928
176	0x3cc90990	0.024540693
177	0x3d7b9d63	0.061429393
178	0xbcb64fab	-0.022254786
179	0xbd12a860	-0.035805106
180	0x3c897ada	0.016782213
181	0xbb803ca3	-0.0039134785
182	0x3df1d8cf	0.11808931
183	0xbd405f6b	-0.046965998
184	0xbc4ffbe9	-0.012694337
185	0xbc0656e8	-0.008199431
186	0x3d65f35f	0.0561403
187	0x3caa1143	0.020760184
188	0x3cbdebfb	0.023183813
189	0xbc48ebc6	-0.012263244
190	0x3d39ae6d	0.04533236
191	0x3ccfc2da	0.025361467
192	0xb9cc885f	-0.00039011516
193	0x3b5289b8	0.0032125544
194	0x3d11eb68	0.03562489
195	0x3cf10178	0.029419646
196	0xbbc0c592	-0.005882927
197	0x3cec8b2a	0.028874952
198	0xbd08ee64	-0.033430472
199	0x3c148780	0.009065509
200	0x3dd0d17a	0.101962045
201	0x3b5ccfa0	0.003369309
202	0x3d1230d2	0.03569109
203	0x3d2e766f	0.042593416
204	0x3d36e262	0.04464949
205	0x3d6ee907	0.0583277
206	0xbcd947ea	-0.02652355
207	0xbccbef2c	-0.02489432
208	0x3d37d213	0.044878077
209	0x3cef2cae	0.02919611
210	0xbc716088	-0.0147324875
211	0x3db765e7	0.08954983
212	0xbb887172	-0.0041639144
213	0xbc1b0aa8	-0.00946299
214	0x3c59dd21	0.01329735
215	0xbd515ed4	-0.051115826
216	0xbcba7e76	-0.02276538
217	0xbd0b17e1	-0.03395832
218	0x3aa230b7	0.0012374137
219	0x3d062b85	0.032756347
220	0x3d24cdee	0.040235452
221	0x3d82f46c	0.06394276
222	0xbc036a45	-0.008020942
223	0x3b9147f2	0.0044336254
224	0x3d9d3f9e	0.0767815
225	0xbcb4b33e	-0.022058126
226	0x3c762836	0.0150242355
227	0x3d2ab6be	0.041678183
228	0x3d0f4e70	0.034986913
229	0x3d65a302	0.05606366
230	0xbc5ec6a8	-0.013597168
231	0xbc2adac3	-0.010428133
232	0x3d01841d	0.031620134
233	0x3c1b0f62	0.009464117
234	0x3d96e27d	0.07367418
235	0x3d49ff26	0.049315594
236	0xbd2783b7	-0.040897097
237	0xbd0aedcd	-0.03391819
238	0xbd431213	-0.04762466
239	0xbd280ec5	-0.04102971
240	0xbcaafa7e	-0.020871397
241	0xbc6a12fb	-0.014286752
242	0x3d9383e6	0.07202892
243	0x3d58f850	0.052971184
244	0x3d29942f	0.041401085
245	0x3d854a1b	0.06508275
246	0xbcebd31d	-0.02878719
247	0x3d7e4a83	0.06208278
248	0xbd46620a	-0.04843334
249	0x3d3c5e4a	0.04598836
250	0x3caa3cf7	0.020781023
251	0x3cccad35	0.024984935
252	0xbcbed246	-0.023293626
253	0x3db690ef	0.08914363
254	0xbd6a8cf4	-0.05726333
255	0xbc031168	-0.007999755

l3.bias f4 [3]
0	0xbc380345	-0.011231248
1	0xbd16c0b5	-0.036804873
2	0x3d431d4d	0.047635365
