saves/Dobot-v2/dpba/seed_0/model/actor.pth (torch, 581463 bytes, 6 tensors)

l1.weight f4 [512, 24]
0	0xbe4ef9f4	-0.20212537
1	0x3ba13bdd	0.0049204663
2	0xbf0b8ca7	-0.54511493
3	0xbf1eae22	-0.61984456
4	0xbcf4ba49	-0.029873984
5	0x3ebe395b	0.37153134
6	0xbf0387d2	-0.5137912
7	0xbe0c9ec1	-0.13732435
8	0xbe59b38b	-0.21259896
9	0xbeead55e	-0.4586591
10	0x3eb87acf	0.36031196
11	0xbf6d26df	-0.9263744
12	0xbf63e08d	-0.8901451
13	0xbe56759c	-0.20943302
14	0x3e36b02e	0.17840645
15	0xbf4c1d7b	-0.79732484
16	0x3d4d4498	0.050114244
17	0x3fcdaa95	1.6067683
18	0xbf991096	-1.1958187
19	0xbcef10ca	-0.02918281
20	0x3e5af15b	0.21381132
21	0x3c1a02f2	0.009400116
22	0xbc5f9718	-0.013646863
23	0x3f36a42e	0.7134427
24	0xbd2dc16a	-0.042420782
25	0xbe259f6c	-0.16174096
26	0x3ec62a56	0.38704175
27	0xbdb04e37	-0.08608668
28	0xbeecf343	-0.46279344
29	0xbf1ddcfa	-0.6166531
30	0xbe155c2b	-0.1458594
31	0x3ef63d4f	0.4809365
32	0xbe8c8fc3	-0.2745343
33	0x3cd935c9	0.026514905
34	0xbe383616	-0.17989382
35	0xbe4b69ad	-0.19864531
36	0x3fa77e11	1.3085347
37	0x3f129476	0.57257783
38	0x3f12417f	0.5713119
39	0x3f9ab3da	1.2086136
40	0x3f5083a4	0.8145087
41	0x3ecca7f3	0.39971885
42	0x3fee5c7e	1.8621976
43	0x3e4f5b33	0.20249633
44	0x3c95b7d8	0.01827614
45	0x3ef83f6b	0.48485884
46	0x3f2eb5e9	0.6824632
47	0xbe505f00	-0.2034874
48	0xbf9edd40	-1.241127
49	0xbca0b0e0	-0.01961559
50	0x3dd7e5b7	0.105418615
51	0x3eed485f	0.46344277
52	0xbcd470ab	-0.02593263
53	0xbeac0503	-0.33597574
54	0x3fcdd974	1.6081986
55	0x3f192c31	0.59833056
56	0x3d9cc3aa	0.076545075
57	0x3ed3f4d7	0.41397735
58	0x3f81ef24	1.0151105
59	0x3df3afbd	0.11898754
60	0xbe9e4476	-0.30911607
61	0x3e0746d9	0.1321062
62	0xbecded14	-0.4021994
63	0xbef08bc0	-0.4698162
64	0x3d38fcf6	0.045163117
65	0xbf82c757	-1.0217084
66	0x402f492b	2.7388408
67	0x3c630a2f	0.013857408
68	0x3df6a1f3	0.12042608
69	0x3f8e015c	1.1094165
70	0xbe823f35	-0.25438848
71	0xbe9c26e4	-0.3049842
72	0x3ed12181	0.40845874
73	0x3ebe8b75	0.37215772
74	0x3e6b466d	0.22976084
75	0x3c5633fb	0.013073917
76	0xbf963a7a	-1.1736596
77	0xbe4a2817	-0.19741856
78	0x3e2b66f8	0.16738498
79	0xbf3edd5e	-0.7455653
80	0xbe00f509	-0.12593473
81	0x3cdec000	0.027191162
82	0xbe85ca29	-0.26130798
83	0xbd3ff2b5	-0.046862323
84	0xbfa34f54	-1.2758584
85	0xbdef8fe2	-0.11697365
86	0xbd8a8d43	-0.06765225
87	0xbf8fee45	-1.1244589
88	0x3d95b2a9	0.07309467
89	0xbeac34a2	-0.33633906
90	0x3ff1c15f	1.8887137
91	0x3e5ebc6c	0.21751565
92	0xbc1975e8	-0.00936649
93	0x3f745f8e	0.95458305
94	0xbd1b5f3a	-0.037932612
95	0xbf3257f2	-0.69665444
96	0x3f17ec87	0.5934529
97	0x3d4a240d	0.049350787
98	0xbe7038e0	-0.23459196
99	0xbe779676	-0.2417849
100	0xbeba26a7	-0.36357614
101	0x3e8f7344	0.28017628
102	0x3d8cef0e	0.068815336
103	0xbea4572e	-0.32097763
104	0xbe765b52	-0.24058273
105	0x3e135783	0.14388852
106	0xbf10a1fb	-0.5649716
107	0xbe4b93dc	-0.19880623
108	0x3f6aee32	0.9176971
109	0x3f5ad266	0.8547729
110	0x3e921bd3	0.28536853
111	0x3fbebd02	1.4901431
112	0x40070910	2.1099281
113	0x3faaed4b	1.3353666
114	0xbfa94d4e	-1.3226717
115	0xbdb1b216	-0.08676545
116	0xbd2c809e	-0.042114846
117	0xbf593259	-0.8484245
118	0x3eb99e3f	0.36253545
119	0x3e4a10fd	0.19733043
120	0x3da40d9d	0.08010409
121	0x3c48540d	0.0122270705
122	0xbdcbfa0f	-0.09959804
123	0x3dc5d09d	0.096589305
124	0xbe488155	-0.19580586
125	0xbdf7c760	-0.12098575
126	0xbd514c86	-0.05109837
127	0xbdcba2cc	-0.099431604
128	0xbd923f1d	-0.07140944
129	0xbe2b51e4	-0.16730458
130	0xbd31d97c	-0.0434203
131	0x3d32b85d	0.043632854
132	0xbe082be2	-0.1329799
133	0xbc2ba185	-0.010475521
134	0x3e15a11f	0.14612244
135	0xbcabe6ab	-0.020984014
136	0x3bb9e519	0.0056730625
137	0xbc9041f0	-0.017609566
138	0x3d2935a5	0.041310925
139	0x3e04e7b8	0.12979019
140	0x3e45ff12	0.19335583
141	0x3e04bdcb	0.12963025
142	0x3e46730b	0.19379823
143	0xbc71ded1	-0.014762596
144	0xbf2a2859	-0.66467816
145	0xbea36c0f	-0.3191838
146	0x3dfb60a7	0.12274294
147	0x3dc2d845	0.095139064
148	0xbf40af07	-0.7526707
149	0xbf425225	-0.7590659
150	0xbe9ac5a5	-0.30228916
151	0xbf13e86c	-0.5777652
152	0xbe8a7766	-0.2704422
153	0x3ea7eef0	0.32799482
154	0x3eefb150	0.46814966
155	0xbe44dcaa	-0.19224802
156	0x3f2a86bd	0.66611844
157	0xbda5b1fc	-0.080905885
158	0x3e02902b	0.12750308
159	0xbd0454f4	-0.03230758
160	0xbd9a1b44	-0.07524732
161	0xbeb5acd5	-0.35483423
162	0xbeadbb5c	-0.33932006
163	0x3cee6983	0.029103046
164	0x3e49cf44	0.19707972
165	0xbe8a401f	-0.27002046
166	0x3d6d6f00	0.057967186
167	0xbedf49a2	-0.43610865
168	0x3e344ef2	0.1760824
169	0xbf75cd10	-0.96016026
170	0x3d4f172c	0.050559208
171	0xbe6b5d3b	-0.22984783
172	0x3e9ef8cf	0.310492
173	0xbf9cc21e	-1.224674
174	0xbd1d1ce1	-0.03835762
175	0xbf47744b	-0.77911824
176	0xbe9585be	-0.292036
177	0xbe106d18	-0.14104116
178	0xbea6d07f	-0.32580945
179	0xbea9fc9a	-0.33200532
180	0x3e6b77ab	0.22994868
181	0x3e5cc42e	0.21559212
182	0x3f82121d	1.0161778
183	0x3e88ee12	0.26744133
184	0x3f073b85	0.52825195
185	0x3fbb6aec	1.4642005
186	0xbf92a1aa	-1.1455586
187	0x3e3647db	0.17800848
188	0x3eb9bfcb	0.3627914
189	0xbe9e1605	-0.30876175
190	0x3eebda80	0.4606514
191	0x3ea6525f	0.3248472
192	0xbf745130	-0.9543638
193	0xbdc4ed8f	-0.09615623
194	0xbed52fe2	-0.41638094
195	0xbe00d938	-0.12582862
196	0xbfb76915	-1.4328943
197	0xbde21df6	-0.11040871
198	0x3f6ecb2d	0.9327877
199	0x3f2f4ab4	0.6847336
200	0xbe0629a4	-0.13101822
201	0x3e2d3f94	0.16918784
202	0x3f4747f8	0.7784419
203	0xbde503fb	-0.111824
204	0x3ed29e82	0.41136557
205	0x3e657374	0.22407323
206	0x3e06f154	0.13177997
207	0x3f289c13	0.6586315
208	0x3d0bca00	0.03412819
209	0x3db77ba4	0.089591295
210	0x3f4477d3	0.7674534
211	0x3be9c50e	0.0071340865
212	0x3e11921d	0.14215894
213	0x3ebb5b5b	0.36593136
214	0xbbdb7c25	-0.006698149
215	0xbe8a789c	-0.27045143
216	0xbd8b9094	-0.068146855
217	0xbebfb8ad	-0.37445584
218	0xbe129478	-0.14314449
219	0x3e0d0eac	0.13775128
220	0xbe031b6d	-0.12803431
221	0x3ecdb985	0.40180603
222	0x3da1d0fe	0.0790119
223	0xbf3957af	-0.7239942
224	0xbec16685	-0.3777353
225	0x3edbed36	0.42954415
226	0xbe6e763f	-0.23287295
227	0xbf352999	-0.707666
228	0x3f85042a	1.0391896
229	0xbfab96ab	-1.3405355
230	0x3dcdecea	0.100549534
231	0x3f8b5189	1.0884258
232	0xbfd8d7c5	-1.6940848
233	0x3f76b294	0.9636624
234	0xbe80b49d	-0.25137797
235	0x3d829b5b	0.06377288
236	0x3ea8fb23	0.33004102
237	0xbf195d81	-0.599083
238	0x3d3ea35b	0.046542507
239	0x3f674e71	0.9035407
240	0xbf277397	-0.6541075
241	0x3d907eee	0.0705546
242	0xbeb68af0	-0.35652876
243	0x3c907b6a	0.017636973
244	0xbe9d1202	-0.306778
245	0xbe4c29cd	-0.1993782
246	0x3e881209	0.2657626
247	0x3f917aa1	1.1365548
248	0xbe012fc1	-0.12615873
249	0xbda77bf0	-0.08177936
250	0x3f35e968	0.71059275
251	0xbd60e9c0	-0.05491042
252	0x3f28f6ee	0.66001785
253	0x3d6efa16	0.05834397
254	0xbd6ff91a	-0.05858717
255	0x3f26e94e	0.65199745

l1.bias f4 [512]
0	0xbe5f06bd	-0.21779914
1	0xbdd1b677	-0.102398805
2	0x3d99b93c	0.07506034
3	0xbe561483	-0.20906262
4	0xbe28cc8c	-0.16484278
5	0x3d3d888a	0.046272792
6	0xbea1bf42	-0.3159123
7	0x3d570d96	0.05250319
8	0xbe53b6ad	-0.20675154
9	0xbe56d4ee	-0.20979664
10	0xbe90cb8f	-0.28280303
11	0xbc9ce33b	-0.01915132
12	0x3d3e4766	0.04645481
13	0xbd284fa3	-0.041091572
14	0xbe610ef1	-0.21978356
15	0xbd350310	-0.044192374
16	0xbe4274e2	-0.189899
17	0xbe1d3ffd	-0.15356441
18	0xbe859a01	-0.26094058
19	0x3e5c8863	0.21536402
20	0x3eafb799	0.3431976
21	0xbe973f3b	-0.2954043
22	0xbe78e639	-0.24306573
23	0xbe27bc97	-0.16380535
24	0xbdc097cb	-0.09403952
25	0xbc7ed9cc	-0.0155548565
26	0xbbef3326	-0.0072997985
27	0xbe8d0fae	-0.27551025
28	0xbd9a4d0a	-0.07534225
29	0xbe4166d4	-0.18886882
30	0xbeb63f5d	-0.35595217
31	0xbe3795ed	-0.17928286
32	0xb9730236	-0.0002317511
33	0x3ca3538e	0.019937303
34	0xbe3e2e7b	-0.18572418
35	0xbddffbf6	-0.109367296
36	0xbe0f1687	-0.13973437
37	0x3cecfe45	0.028929839
38	0xbeeabb8e	-0.45846218
39	0x3c84f030	0.016227812
40	0xbe297df2	-0.1655195
41	0xbe559d75	-0.20860846
42	0xbcd7bc75	-0.02633498
43	0x3cc99d8c	0.024611257
44	0xbe16359b	-0.14668886
45	0xbda88a0b	-0.082294546
46	0xbc9e56bf	-0.019328473
47	0xbd899be5	-0.06719188
48	0xbc04c0af	-0.00810258
49	0x3e8385f7	0.25688145
50	0xbec3314e	-0.38123554
51	0x3c11d6f9	0.008901351
52	0xbdc5ffa4	-0.096679
53	0x3e3a030c	0.18165225
54	0xbe8c5648	-0.27409577
55	0xbe26e680	-0.16298866
56	0xbdca6162	-0.098818555
57	0xbe532fd2	-0.20623711
58	0xbdae03de	-0.08496831
59	0xbd35a562	-0.044347174
60	0xbd5c6782	-0.05380965
61	0xbe1df551	-0.15425612
62	0xbe1edff7	-0.15515123
63	0x3d7f5c8f	0.06234413
64	0xbd5987cf	-0.053108033
65	0xbce37703	-0.02776671
66	0xbe21d163	-0.15802531
67	0xbd13142b	-0.035907906
68	0xbe75b425	-0.23994501
69	0xbda1e90d	-0.07905779
70	0xbe05fd59	-0.13084926
71	0xbe0d6994	-0.13809806
72	0xbe313d6b	-0.17308585
73	0x3993a909	0.00028163966
74	0xbdd457a7	-0.10368281
75	0x3e8467b1	0.2586036
76	0xbec404d5	-0.38284937
77	0xbd87b762	-0.06626774
78	0xbe9592e5	-0.29213634
79	0xbda85025	-0.08218411
80	0x3c14369b	0.009046222
81	0x3d86610c	0.06561479
82	0x3d795ad3	0.060877632
83	0xbdcfa22d	-0.101383545
84	0xbdc5ba44	-0.09654668
85	0xbe685d18	-0.22691762
86	0xbe43c57b	-0.19118302
87	0xb9ce973e	-0.00039404066
88	0x3d23e739	0.040015433
89	0x3de5121e	0.11185096
90	0xbe231a7d	-0.15928073
91	0xbe2d91a6	-0.16950092
92	0xbce817c8	-0.028331652
93	0x3db94f0d	0.09048281
94	0xbe26c7a0	-0.16287088
95	0xbd6ddd0c	-0.058072135
96	0x3e096ab6	0.13419613
97	0xbe14c46b	-0.14528053
98	0xbe860b87	-0.2618067
99	0x3d8416f6	0.06449692
100	0xbdfc04bb	-0.1230559
101	0xbe54d23a	-0.2078332
102	0x3ec2280a	0.37921172
103	0xbe18dbd6	-0.14927611
104	0xbe442757	-0.19155632
105	0x3d33b59d	0.04387437
106	0xbda3cd72	-0.0799817
107	0xbe908974	-0.28229868
108	0xbde6cc27	-0.11269408
109	0xbc92c5a3	-0.017916506
110	0xbea53fae	-0.32275146
111	0xbea4ca2d	-0.32185498
112	0xbe1aa236	-0.15100941
113	0xbdb7984d	-0.08964596
114	0xbdeb038d	-0.11475287
115	0xbdddbb1b	-0.10826703
116	0xbe2da39a	-0.1695694
117	0x3ca8ecd9	0.02062075
118	0xbec84b5b	-0.39119992
119	0xbed2c6dc	-0.41167343
120	0xbea1308b	-0.31482348
121	0xbd8887fc	-0.06666562
122	0xbe925656	-0.28581494
123	0xbe83e257	-0.2575862
124	0xbe733eaa	-0.23754373
125	0x3e35099f	0.17679451
126	0xbe85b413	-0.26113948
127	0xbe16b769	-0.14718403
128	0x3e015fa7	0.12634145
129	0xbc8c8f0c	-0.017158054
130	0xbe817cc2	-0.25290495
131	0xbdf7aded	-0.120937206
132	0xbdb9ccf6	-0.09072296
133	0xbeba101a	-0.3634041
134	0xbe4b325d	-0.19843431
135	0x3d8d9342	0.06912853
136	0xbd245620	-0.040121198
137	0xbe8356c8	-0.25652146
138	0x3d43d750	0.04781276
139	0xbea7d0cb	-0.32776484
140	0x3e6f3e90	0.2336371
141	0xbebae1a9	-0.3650029
142	0xbd2756dc	-0.04085432
143	0xbe80edcc	-0.25181425
144	0x3c3d4be8	0.011553742
145	0xbd4d53af	-0.050128635
146	0xbe268182	-0.16260341
147	0x3e15e75f	0.14639042
148	0x3de8f979	0.11375708
149	0xbdc8fe00	-0.09814072
150	0xbc59a5b8	-0.013284139
151	0xbce6c08f	-0.028167991
152	0xbd2db186	-0.042405628
153	0xbdc0560e	-0.09391414
154	0x3de9e273	0.11420145
155	0xbef06c1b	-0.46957478
156	0xbd98134c	-0.074255556
157	0x3dce2892	0.10066332
158	0xbd9f2a82	-0.077717796
159	0xbd98dfa9	-0.07464535
160	0xbe083871	-0.1330278
161	0xbe3d4d0b	-0.18486421
162	0xbc77d8aa	-0.01512734
163	0xbe790e7a	-0.24321929
164	0xbeaf25b7	-0.34208462
165	0xbe82b600	-0.2552948
166	0x3d566f48	0.05235222
167	0xbe0f0e0e	-0.13970205
168	0xbe84265a	-0.2581051
169	0x3e3855fd	0.18001552
170	0x3db47fa9	0.08813412
171	0xbe56af1d	-0.20965238
172	0xbca9fc5f	-0.020750223
173	0x3d463962	0.04839457
174	0x3db02e79	0.08602614
175	0x3d0422cd	0.03225975
176	0x3dc697f7	0.09696954
177	0xbe66f619	-0.22554816
178	0xbbc324ca	-0.0059553133
179	0x3e1936b3	0.14962272
180	0xbdf00209	-0.11719138
181	0x3c1b1f03	0.009467843
182	0xbe1a6768	-0.15078509
183	0xbe8f0cf4	-0.2793957
184	0xbdf71f9b	-0.12066575
185	0xbea62860	-0.3245268
186	0xbc2c86bf	-0.010530173
187	0x3e1f976a	0.15585104
188	0xbe686084	-0.22693068
189	0x3d8c8a8a	0.06862362
190	0x3c95b1c5	0.018273244
191	0x3e6e7a78	0.23288906
192	0xbd9d6c9c	-0.07686731
193	0xbd689cd8	-0.056790203
194	0x3ce821cd	0.02833643
195	0x3c8e7ed2	0.017394457
196	0xbe5accca	-0.21367183
197	0xbe2e8fca	-0.17047039
198	0xbe16aee2	-0.1471515
199	0xbea29c6b	-0.31759962
200	0xbcb76e92	-0.022391591
201	0xbd6ccbbb	-0.05781148
202	0xbdfcb243	-0.12338688
203	0xbebaf505	-0.3651506
204	0xbd95319a	-0.07284851
205	0xbc84ac9b	-0.016195586
206	0xbe4416e0	-0.19149351
207	0xbe2a9969	-0.16660084
208	0xbdf9d6a3	-0.12199142
209	0xbd1dbd2e	-0.038510494
210	0xbea6b2c3	-0.3255826
211	0xbe834996	-0.2564208
212	0x3e2bd96f	0.16782163
213	0xbdde836a	-0.10864909
214	0x3d9a95b9	0.075480886
215	0xbe5ddb3f	-0.21665667
216	0xbeb0e4c4	-0.34549534
217	0xbe13d41c	-0.14436382
218	0xbe88df8c	-0.26733053
219	0xbd980784	-0.074233085
220	0x3e1b2272	0.15149859
221	0xbe8eca53	-0.27888736
222	0xbe1c3056	-0.15252814
223	0xbd341398	-0.043964
224	0xbc393c75	-0.011305918
225	0xbd99a862	-0.075028196
226	0xbe8617d3	-0.2619005
227	0xbd11e2d9	-0.03561673
228	0xbe51e755	-0.20498402
229	0xbe5e4439	-0.21705712
230	0xbe6ef2df	-0.23334835
231	0xbd1bfc21	-0.038082246
232	0xbceee5a1	-0.02916223
233	0xbe4b3484	-0.19844252
234	0xbd7c42ea	-0.06158725
235	0xbba05045	-0.0048923814
236	0xbd97ccfb	-0.07412144
237	0xbe809ba1	-0.25118735
238	0x3e883c22	0.26608378
239	0xbe9c011f	-0.30469605
240	0xbda29642	-0.07938816
241	0xbe6caea2	-0.23113492
242	0x3c178ac3	0.009249392
243	0xbe1d28e3	-0.15347628
244	0xbe4151a0	-0.18878794
245	0xbd13559a	-0.035970308
246	0xbdece24b	-0.115665995
247	0xbe5f053e	-0.21779343
248	0x3d958e0c	0.07302484
249	0xbd56a806	-0.052406333
250	0xbe12bc09	-0.14329542
251	0xbe39a365	-0.18128736
252	0xbe3c621d	-0.18396802
253	0xbe220a8e	-0.15824339
254	0xbe5627eb	-0.20913665
255	0xbe48201d	-0.195435

l2.weight f4 [256, 512]
0	0x3d1d58e5	0.038414855
1	0xbee1dc86	-0.4411356
2	0xbe10b669	-0.14132084
3	0x3e9957f9	0.2994993
4	0x3d700f50	0.058608353
5	0x3ba0db9a	0.004908991
6	0xbe389258	-0.18024576
7	0xbe31cd43	-0.17363457
8	0x3d77e955	0.060525257
9	0xbed1f0ae	-0.41003937
10	0xbf4e3c40	-0.80560684
11	0x3e28d599	0.16487731
12	0xbf810b4e	-1.0081575
13	0x3ebb6727	0.36602136
14	0x3f15784a	0.5838667
15	0x3e06066e	0.1308839
16	0x3f27d43a	0.6555821
17	0x3f2a0d1b	0.6642625
18	0xbf24f4a2	-0.6443578
19	0xbf6a2903	-0.9146883
20	0xbdef3709	-0.11680419
21	0x3e9faa4b	0.3118461
22	0xbe85ee3a	-0.26158315
23	0xbe65caba	-0.22440615
24	0x3eb0a4e4	0.34500802
25	0x3cfdecda	0.030996729
26	0xbe55a8e9	-0.20865215
27	0xbf9f1a01	-1.2429811
28	0xbf1918e4	-0.59803605
29	0x3cc13232	0.023583505
30	0x3f40bcfe	0.7528838
31	0xbf79f766	-0.97643125
32	0x3e367fc6	0.17822179
33	0x3ef31627	0.47477838
34	0xbf66271c	-0.89903426
35	0x3dc165e3	0.094432615
36	0xbb4b73b8	-0.0031044316
37	0x3efc88b9	0.4932306
38	0x3f209f42	0.6274301
39	0xbb96a364	-0.0045971144
40	0xbef7ef14	-0.4842459
41	0x3ed9450e	0.42435497
42	0x3e104b17	0.14091145
43	0xbec40c87	-0.38290808
44	0xbf5d357a	-0.86409724
45	0x3e47adcb	0.1949989
46	0xbfb06a28	-1.3782396
47	0x3e752726	0.23940715
48	0x3fbe8810	1.4885273
49	0x3ed81e55	0.42210642
50	0x3ed27c80	0.4111061
51	0xbf1a53e8	-0.6028428
52	0x3e57c112	0.21069744
53	0xbf922fcf	-1.142084
54	0xbf9d3fa3	-1.2285045
55	0xbf80c253	-1.0059303
56	0x3e9bb83d	0.30414
57	0x3ed2091a	0.4102257
58	0xbfb75f03	-1.432587
59	0xbd73ad47	-0.059491422
60	0x3cafbc28	0.021452025
61	0x3c9145df	0.017733512
62	0xbeebc2cb	-0.46047053
63	0xbf58f5f5	-0.847503
64	0xbf286d81	-0.6579209
65	0xbf7ad67c	-0.9798353
66	0xbbce4364	-0.0062946547
67	0x3e8b30da	0.27185708
68	0x3f8f41bd	1.1191937
69	0x3e487fff	0.19580077
70	0xbe0f73c7	-0.1400901
71	0xbc31a5ed	-0.010842782
72	0xbf65f89d	-0.8983248
73	0x3eecf9c4	0.46284306
74	0x3e4d091d	0.20023008
75	0xbd79f963	-0.06102885
76	0x3f4de71b	0.80430764
77	0x3f1fb527	0.6238579
78	0x3ee433f1	0.44570878
79	0xbf9ad0af	-1.2094935
80	0xbdb4f806	-0.08836369
81	0xbe24c4b7	-0.16090666
82	0xc00dc0cf	-2.214893
83	0xbce63922	-0.028103415
84	0xbf08aed3	-0.5339176
85	0x3e62f126	0.22162303
86	0xbd31c0c3	-0.043396723
87	0xbf4e3d19	-0.8056198
88	0xbe5fde82	-0.21862224
89	0xbeed0ad3	-0.4629732
90	0x3d1ff354	0.039050415
91	0xbcaef29a	-0.021355916
92	0x3fd586c0	1.6681747
93	0x3cf2afa9	0.029624777
94	0x3f254d3b	0.6457097
95	0xbe4a431d	-0.19752164
96	0xbf135951	-0.5755816
97	0xbf1df341	-0.616993
98	0x3cd12d9c	0.025534444
99	0x3cc77b63	0.024350828
100	0x3db8d698	0.090253055
101	0x3d154166	0.036439322
102	0xbd88d93e	-0.06682061
103	0x3efbfb19	0.4921501
104	0xbf0e43c6	-0.55572164
105	0xbf216592	-0.6304561
106	0xbf06860b	-0.52548283
107	0xbfab3eb8	-1.3378515
108	0xbd01d776	-0.03169962
109	0xbf91b891	-1.138445
110	0xbf3ad4fe	-0.7298125
111	0x3ec8adde	0.3919515
112	0x3b12ad98	0.0022381302
113	0xbebca97f	-0.36848065
114	0xbf11c42a	-0.5693995
115	0x3e797b88	0.2436353
116	0xbd0f41f2	-0.034975
117	0x3f1c5817	0.61071914
118	0xbe14cc82	-0.14531139
119	0x3e183691	0.14864565
120	0x3ea67213	0.32508907
121	0x3de21f81	0.11041165
122	0x3e2974ed	0.1654851
123	0xbf91f354	-1.1402383
124	0x3f2a05b3	0.66414946
125	0x3eab8700	0.33501434
126	0x3f45a1da	0.7720009
127	0xbe963325	-0.29335895
128	0xbd0ccc06	-0.03437426
129	0x3d24f8a2	0.040276177
130	0x3e051d36	0.12999424
131	0x3c3a2bd0	0.011362985
132	0xbd0e2e52	-0.034712143
133	0x3ebe3850	0.37152338
134	0xbf3c9178	-0.7365947
135	0x3ec086b5	0.37602773
136	0xbfa8cc82	-1.3187411
137	0xbe97b2f7	-0.29628727
138	0xbe8611d7	-0.26185486
139	0xbd1a503d	-0.037674177
140	0xbe37831d	-0.1792111
141	0xbfe96fca	-1.823724
142	0x3e3c5760	0.18392706
143	0x3f81fb8a	1.0154889
144	0xbed4fe6a	-0.41600353
145	0x3f036350	0.51323414
146	0xbec780ca	-0.38965446
147	0x3e80b21a	0.2513588
148	0xbf937781	-1.1520845
149	0xbeda9f6d	-0.42699757
150	0xbf3d1ae5	-0.7386916
151	0x3d09c94e	0.033639245
152	0xbf025997	-0.50917953
153	0x3e681343	0.22663598
154	0x3d840c60	0.06447673
155	0xbf9275bc	-1.144218
156	0x3ef68058	0.48144794
157	0xbc088c4a	-0.008334229
158	0x3e7dc677	0.2478274
159	0x3dc77a31	0.09740103
160	0xbf73b50e	-0.9519814
161	0xbf1180ea	-0.5683733
162	0xbefd45f7	-0.4946744
163	0xbe90fa4a	-0.28315955
164	0xbe26bd15	-0.16283067
165	0xbd9d05c2	-0.07667114
166	0xbf4fb273	-0.81131667
167	0x3c6661e7	0.014061428
168	0x3ec34e78	0.38145804
169	0x3eb334b8	0.3500116
170	0xbf74c7c9	-0.9561735
171	0x3eb16216	0.34645146
172	0xbf203963	-0.62587565
173	0x3f13565c	0.5755365
174	0xbe14e32e	-0.14539787
175	0x3f082792	0.5318538
176	0xbf9b7279	-1.2144309
177	0xbfaec536	-1.3653934
178	0xbfe016cf	-1.7506961
179	0xbd56ff0d	-0.05248933
180	0x3f10e944	0.56605935
181	0xbdbc4e29	-0.09194595
182	0xbf8cc264	-1.0996823
183	0xbe1b8e39	-0.15190972
184	0x3e123658	0.14278543
185	0x3ed7e7ea	0.42169124
186	0xbf8e25dd	-1.1105305
187	0xbf822cd8	-1.0169935
188	0xbe38d008	-0.18048108
189	0x3edc8f2d	0.43077984
190	0x3e73eab5	0.23820002
191	0xbdce8914	-0.10084739
192	0x3b766e5f	0.0037602407
193	0xbdc2067e	-0.094738945
194	0xbffab5e7	-1.9586762
195	0x3f3b1a10	0.73086643
196	0xbf402f4b	-0.75072163
197	0x3bc9611f	0.006145611
198	0x3e3b269c	0.18276447
199	0x3f2e046b	0.6797549
200	0xbf96d3cd	-1.1783386
201	0xc0558e64	-3.3368158
202	0xbf0f3a2a	-0.55948126
203	0x3f075453	0.52863044
204	0xbe565640	-0.2093134
205	0x3e410e85	0.18853195
206	0x3f1620d3	0.58643836
207	0xbfb998ca	-1.4499753
208	0xbd067687	-0.03282788
209	0xbeb61f10	-0.35570574
210	0xbe70e4db	-0.23524801
211	0xbf636fd5	-0.8884252
212	0x3eebb850	0.46039057
213	0x3f94936a	1.1607487
214	0xbe19c14a	-0.1501514
215	0x3da7be7f	0.08190631
216	0x3e7affc1	0.24511625
217	0xbe0fed24	-0.14055306
218	0x3ee566ed	0.4480509
219	0xbc7060a1	-0.014671476
220	0xbf4cce2c	-0.80002093
221	0x3bfd94b8	0.007738676
222	0x3d291f46	0.04128959
223	0x3ef4ab60	0.47787
224	0xbf12d4c2	-0.5735589
225	0x3d33cf0f	0.04389864
226	0x3f2704f2	0.6524192
227	0xbfcdefca	-1.6088803
228	0x3c961630	0.018321127
229	0x3e8e118d	0.27747765
230	0x3e193dbd	0.14964958
231	0xbf4fe6b7	-0.8121142
232	0xbfcd6ff5	-1.6049792
233	0xbf157d05	-0.5839389
234	0x3c848a5a	0.016179252
235	0x3ef92d79	0.48667505
236	0xbfc4019c	-1.5312991
237	0x3d7c78ef	0.06163877
238	0x3f3d1717	0.7386336
239	0xbe8afc39	-0.27145556
240	0xbef16004	-0.47143567
241	0x3dd2fbd7	0.10301941
242	0x3e64ab5a	0.2233099
243	0xbea2318c	-0.31678426
244	0xbf5cd357	-0.8625998
245	0x3d09217f	0.03347921
246	0xbcca72ac	-0.024712883
247	0x3f57cf8c	0.84301066
248	0x3f720ee8	0.94553995
249	0x3f33ef67	0.70287174
250	0xbbbb8caf	-0.005723558
251	0xbe7b8330	-0.24561763
252	0x3f7651d7	0.9621863
253	0xbe4131ea	-0.18866697
254	0xbf2eafc5	-0.68236953
255	0xbccae8bd	-0.024769181

l2.bias f4 [256]
0	0x3e7480a4	0.23877198
1	0x3b0e1337	0.0021678933
2	0x3da62f32	0.081144705
3	0xbd54f3c8	-0.0519903
4	0x3db0550d	0.08609972
5	0xbe815ece	-0.25267643
6	0xbd6b9f47	-0.057524946
7	0xbb2007b3	-0.0024418652
8	0x3e318d6b	0.17339103
9	0x3ce53201	0.027977945
10	0x3bed9291	0.007250138
11	0xbb528755	-0.0032124121
12	0xbe03c9ef	-0.1287
13	0xbcad3cc4	-0.02114714
14	0x3c7ca908	0.01542116
15	0xbea2a986	-0.3176996
16	0x3e0af5b6	0.13570294
17	0xbdc0074a	-0.0937639
18	0xbccbb11d	-0.024864728
19	0x3ea33ee0	0.31883907
20	0xbb92542b	-0.0044656
21	0x3e0e57d4	0.13900691
22	0xbd660842	-0.05616022
23	0xbcfcb710	-0.03084901
24	0xbce8e031	-0.028427215
25	0x3c8a1ce5	0.016859481
26	0xbd16a2f0	-0.036776483
27	0xbd5f801b	-0.05456553
28	0x3eb2dc44	0.34933674
29	0x3ea62598	0.32450557
30	0xbc9a7302	-0.018853668
31	0xbb9c272b	-0.0047654114
32	0xbde004c3	-0.10938408
33	0x3d2d46f9	0.042304013
34	0xbc1544ab	-0.00911061
35	0xbc3e2578	-0.011605613
36	0x3e6ac504	0.22926718
37	0xbc7fb949	-0.01560814
38	0x3bf472cd	0.0074599744
39	0xbd33d758	-0.04390654
40	0x3c53ff1e	0.012939243
41	0x3e19fb94	0.15037376
42	0xbc471a8b	-0.012152324
43	0xbb2c00aa	-0.0026245513
44	0xbcfe5877	-0.031048043
45	0x3d5df9b0	0.0541932
46	0xbcbdb350	-0.023156792
47	0xbcaa9777	-0.020824177
48	0x3d20b53c	0.03923534
49	0x3e187a75	0.14890464
50	0xbb31d2d6	-0.0027133725
51	0xbd4cdd7b	-0.050015908
52	0xbd687e3a	-0.056761004
53	0xbd7a55e3	-0.061117064
54	0x3b8144d1	0.003944971
55	0xbe3163f7	-0.1732329
56	0xbd0cfc1b	-0.034420114
57	0xbdc1fceb	-0.094720684
58	0x3dde8de3	0.108669065
59	0x3ef11bc0	0.47091484
60	0xbd884aaa	-0.06654866
61	0x3e1a2966	0.15054855
62	0xbcd6cd04	-0.026220806
63	0xbc582706	-0.013192898
64	0xbcb6a3bb	-0.02229487
65	0xbd03915a	-0.03212104
66	0xbe884e7d	-0.26622382
67	0x3edbf19d	0.42957774
68	0x3e1b4dce	0.15166399
69	0xbb7cea27	-0.0038591714
70	0xbcec9613	-0.028880155
71	0xbd5207f8	-0.05127713
72	0x3cb2001f	0.021728573
73	0xbd2ebfa6	-0.04266324
74	0x3e0104d0	0.12599492
75	0x3b23797a	0.0024944232
76	0xbd77ba12	-0.060480185
77	0xbdacdc17	-0.08440416
78	0xbc3fea2d	-0.011713547
79	0x3eaf0c22	0.34188944
80	0xbd6af80b	-0.05736546
81	0xbd2e8617	-0.042608347
82	0xbcf44891	-0.029819759
83	0xbe5ba0e3	-0.21448092
84	0xbbb9bea1	-0.0056684767
85	0x3cbf3bce	0.023343947
86	0xbc833932	-0.016018484
87	0x3caf2694	0.0213807
88	0xbd0a73e6	-0.033801936
89	0x3bd4c59e	0.0064932844
90	0xbcbe71cc	-0.023247622
91	0xbc86c44c	-0.016451024
92	0xbdc62882	-0.09675695
93	0xbd848dbd	-0.06472347
94	0x3ed896c0	0.42302513
95	0x3bf3c6a2	0.0074394504
96	0x3dd3551d	0.103189684
97	0x3ec311c1	0.38099483
98	0xbd19ab49	-0.037516866
99	0xbd4d56a2	-0.050131448
100	0x3dcefef1	0.1010722
101	0x3e789204	0.2427445
102	0x3e54cc93	0.20781164
103	0xbd5ea88f	-0.05435997
104	0xbd129a78	-0.035791844
105	0x3e57065e	0.20998523
106	0x3c6d3346	0.014477557
107	0xbd520435	-0.051273543
108	0xbccbf6ea	-0.024898011
109	0x3e29055d	0.16505952
110	0xbcefd6ad	-0.02927717
111	0x3be09334	0.0068534855
112	0x3b2b82df	0.0026170535
113	0x3e6bae1c	0.23015636
114	0x3d70b8c7	0.058769967
115	0x3cd6bdf6	0.026213627
116	0xbe9c1d11	-0.30490926
117	0xbd95985d	-0.073044516
118	0xbdc70bed	-0.097190715
119	0xbcbeee4d	-0.02330699
120	0x3e8fe768	0.28106236
121	0xbcb396c7	-0.021922482
122	0xbda6ea24	-0.081501275
123	0x3bf3543e	0.007425814
124	0xbdf2760b	-0.11838921
125	0xbe9da33a	-0.30788594
126	0x3d2cfbb3	0.042232227
127	0x3c0347a7	0.008012689
128	0x3c80cf8d	0.015723968
129	0xbd80fd8f	-0.062983625
130	0xbd849f1f	-0.064756624
131	0xbe3d8114	-0.1850627
132	0xbdcd5a4e	-0.1002699
133	0xbd0e5b13	-0.034754824
134	0xbeadd700	-0.33953094
135	0xbdc0f79b	-0.09422227
136	0xbd8c3380	-0.0684576
137	0x3e582b5a	0.21110287
138	0xbd80d6ad	-0.06290946
139	0xbd9ab165	-0.075533666
140	0xbd4d5bc3	-0.05013634
141	0x3c654ce7	0.013995386
142	0x3ea6ec3d	0.3260211
143	0xbd2467ff	-0.04013824
144	0xbd323a83	-0.043512832
145	0xbd66fe09	-0.05639461
146	0xbc2d44f5	-0.010575523
147	0xbd63ee35	-0.055647094
148	0xbd97a330	-0.074041724
149	0x3e92ac76	0.28647202
150	0xbd2a8c34	-0.041637614
151	0x3d2e768d	0.042593528
152	0xbe26ebf8	-0.16300952
153	0x39e688c8	0.00043970929
154	0x3da17b06	0.07884793
155	0x3e8d0220	0.27540684
156	0x3e011967	0.12607346
157	0xbd318919	-0.043343637
158	0x3c2986af	0.0103470525
159	0xbce5fb57	-0.02807395
160	0xbd106752	-0.035254784
161	0x3b6ceed5	0.0036153097
162	0xba7e4c0e	-0.0009700664
163	0x3bf09c7e	0.007342874
164	0xb9fe5adf	-0.0004851436
165	0x3e1dcacb	0.1540939
166	0xbd565454	-0.052326515
167	0x3e831ebe	0.25609392
168	0x3bb9b5cd	0.0056674243
169	0xbd26852b	-0.040654343
170	0x3c976740	0.01848185
171	0xbe01f97a	-0.12692824
172	0xbd7ffaa5	-0.062494893
173	0xbd2a1dc6	-0.0415323
174	0x3a3525d9	0.0006910242
175	0x3c1fab1d	0.009745386
176	0xbd77a649	-0.060461316
177	0x3eba5dea	0.36399776
178	0xbdf4a052	-0.11944641
179	0xbc211d88	-0.009833701
180	0xbd310695	-0.043219168
181	0x3e336c5a	0.17521802
182	0xbd874265	-0.066044606
183	0xbcf94f30	-0.030433267
184	0x3c704d6b	0.014666895
185	0x3dd9b078	0.10629362
186	0x3ca0702e	0.019584741
187	0xbd165b0d	-0.036707927
188	0x3bcd54ae	0.006266198
189	0xbcf8edb8	-0.03038679
190	0x3de79166	0.113070294
191	0x3ed5011f	0.41602418
192	0xba9a7962	-0.0011785442
193	0xbd10c812	-0.035347052
194	0x3e4f7eef	0.20263265
195	0x3c8501e9	0.016236262
196	0x3ca3a6d0	0.019977003
197	0x3c8a92ed	0.016915763
198	0xbccff1d2	-0.025383864
199	0xbd4c9c2a	-0.049953617
200	0xbd492fd2	-0.04911787
201	0xbd567e2a	-0.052366413
202	0x3e0505c3	0.12990479
203	0xbcc8309a	-0.024437238
204	0x3baae3df	0.0052151526
205	0xbd8d94ba	-0.06913133
206	0xbd5ef0db	-0.054428916
207	0xbc928b3e	-0.017888661
208	0xbcff869f	-0.031192122
209	0x3e03446c	0.1281907
210	0xbebfb78d	-0.37444726
211	0x3b89e97b	0.0042087412
212	0x3e43058c	0.19045085
213	0xbb53712c	-0.00322635
214	0x3d917fa3	0.07104423
215	0x3e0cfc88	0.13768208
216	0x3d0423f6	0.032260858
217	0x3cb5217d	0.022110695
218	0xbcd37e61	-0.025817098
219	0x3c82d664	0.01597137
220	0x3db31d35	0.08745805
221	0x3d3e77fc	0.046501145
222	0xbbf7cd5a	-0.0075623216
223	0x3b85d7b3	0.0040845512
224	0x3c4f2083	0.012642029
225	0xbd1032fd	-0.035204876
226	0xbe2b7a42	-0.16745856
227	0xbd8306b9	-0.063977666
228	0x3d6546e7	0.05597582
229	0x3b7195f4	0.003686306
230	0xbe2a2ea3	-0.16619353
231	0xbd573179	-0.052537415
232	0xbd7f70e4	-0.06236352
233	0xbd58150c	-0.052754447
234	0x3c2387de	0.009981124
235	0x3c13de92	0.009025233
236	0x3cfbb206	0.030724537
237	0xbd1445d7	-0.036199417
238	0x3d72ab4e	0.0592454
239	0x3c0390ae	0.0080301
240	0xbc9f31a3	-0.019432848
241	0xbd2f8086	-0.04284718
242	0xbbcabb29	-0.006186862
243	0x3e4d28ee	0.20035145
244	0x3ca7e7eb	0.02049633
245	0x3e055311	0.13019969
246	0x3f0587c8	0.5216031
247	0x3d5d9a74	0.054102376
248	0x3c4bc054	0.012435991
249	0xbc9d91ec	-0.01923462
250	0xbd8aedbf	-0.06783628
251	0xbd44e27e	-0.048067562
252	0x3d9561bf	0.07294034
253	0x3d83eb0b	0.06441315
254	0xbcd733ec	-0.026269875
255	0xbe12a2af	-0.14319871

l3.weight f4 [3, 256]
0	0xbf5cfdf3	-0.86324996
1	0xbd4bd58a	-0.049764194
2	0xbfdf4c11	-1.7445089
3	0x3ca2869f	0.019839583
4	0xbe430a8e	-0.19046995
5	0x3fe6dc66	1.803601
6	0xbcea35e6	-0.028590154
7	0x3bdb7637	0.006697442
8	0x3ef22ade	0.4729833
9	0x3c76126b	0.01501904
10	0xbeeb87d9	-0.4600208
11	0xbb50da7a	-0.0031868503
12	0x3e67bc5f	0.22630452
13	0x403c3b78	2.9411297
14	0xbc98efac	-0.018668972
15	0xbd2b3fdc	-0.041808948
16	0xbe1c2896	-0.15249857
17	0x3fc72b6c	1.5560126
18	0xc056a60f	-3.3538854
19	0x3f62f57d	0.88655835
20	0x3c52bfcc	0.012863111
21	0xbfa60c20	-1.297245
22	0x3f2df85b	0.67957085
23	0xbd3de64c	-0.046362206
24	0xbcdfda48	-0.027325764
25	0xbd5ce6f2	-0.053931184
26	0x3b14bb97	0.002269482
27	0xbbdad5a3	-0.0066782995
28	0xbf1cbede	-0.6122874
29	0x40007ae7	2.0075014
30	0xbd0d1185	-0.034440536
31	0x3c2bc4df	0.010483949
32	0x4017d6f1	2.372494
33	0xbde03b36	-0.109487936
34	0x3ecbff39	0.39843157
35	0xb930de0a	-0.00016867384
36	0xbf0863f1	-0.532775
37	0xbca81502	-0.02051783
38	0xbcba70e8	-0.022758916
39	0x3f8b7b7c	1.089706
40	0xbc90ff44	-0.017699845
41	0xbf9a117f	-1.2036589
42	0x3c75a181	0.014992119
43	0x3f6ad8bc	0.9173696
44	0x3cccdaef	0.02500674
45	0xbf4e402a	-0.80566657
46	0xba107751	-0.00055109436
47	0xbc3167bb	-0.010827954
48	0xbf7a8662	-0.978613
49	0xbfeddf66	-1.8583801
50	0xbcaf2e36	-0.02138434
51	0xbb65e129	-0.0035076833
52	0xbd7f62bf	-0.06235003
53	0xbd04469e	-0.03229391
54	0x3d2364c5	0.039891023
55	0x3dce1438	0.1006245
56	0xbd3509da	-0.04419885
57	0x3ec2c0c9	0.38037708
58	0xbf4b4700	-0.7940521
59	0xbfec5c60	-1.8465691
60	0x3d2e8fd2	0.042617626
61	0xbf8bab90	-1.0911732
62	0xbd25bc56	-0.040462814
63	0x3d243d88	0.040097743
64	0x3d365684	0.0445161
65	0xbb98b6b5	-0.0046604523
66	0xbf9f7a60	-1.2459221
67	0x3f5c9114	0.8615887
68	0x3fbc35c6	1.470391
69	0xbd17f12a	-0.037095226
70	0x3cd64862	0.026157562
71	0xbcb93980	-0.022610426
72	0x3e5067a6	0.20352039
73	0x3d02d511	0.031941477
74	0x3fece786	1.8508155
75	0xc0a97fde	-5.296859
76	0x3d873ae7	0.066030316
77	0x3ebc4074	0.36767924
78	0xbd515936	-0.05111047
79	0xc023ae27	-2.5575044
80	0x3dc100b3	0.094239615
81	0x3b051143	0.0020304478
82	0x3f8bc1bf	1.0918502
83	0x4008b8a5	2.1362698
84	0xbdbfff2c	-0.09374842
85	0x3bf8df83	0.007595004
86	0x3d0bd983	0.034142982
87	0x3db198c1	0.086717136
88	0xbbbf8728	-0.0058449693
89	0x3c8437cd	0.01613989
90	0xbd0d89f3	-0.034555387
91	0x3d306c6b	0.043072145
92	0x3df0beec	0.117551655
93	0xbc9ef124	-0.019402094
94	0x3cfed8c6	0.031109225
95	0xbd36971a	-0.044577695
96	0x3faa54c1	1.3307115
97	0x3e50ab93	0.2037795
98	0xbc99d376	-0.01877759
99	0x3edbf585	0.42960754
100	0xbff3fc0b	-1.9061292
101	0xbfa97ba5	-1.3240858
102	0xbf875f72	-1.0576003
103	0x3ccc5ea9	0.024947481
104	0x3ecf93b7	0.40542385
105	0x3fa851a9	1.3149921
106	0xbb3ca717	-0.0028786117
107	0xbc7e382d	-0.015516323
108	0xbcc7b14b	-0.024376532
109	0x3f8f05ca	1.1173642
110	0x3c842e33	0.01613531
111	0x3c6b8a28	0.014376201
112	0x3f601ba0	0.8754215
113	0x3f378770	0.71691036
114	0xbfb890a0	-1.4419136
115	0xbe2a1192	-0.16608265
116	0x3f217f44	0.63084817
117	0xbd0fc8c1	-0.035103563
118	0x3fba06ba	1.4533303
119	0xbd22da1b	-0.039758783
120	0xbf7648ce	-0.9620484
121	0x3d0d5548	0.03450516
122	0x3f0176fe	0.5057219
123	0xbfc5f02c	-1.546392
124	0xc04d0275	-3.203275
125	0x40dc04e1	6.8755956
126	0xbfcad084	-1.5844884
127	0x409c1ce7	4.878528
128	0xbf3fb915	-0.7489179
129	0x3c6f9b47	0.014624423
130	0x3fa32259	1.2744857
131	0x402698d4	2.603078
132	0x3fbe823e	1.4883497
133	0x3fd93d8a	1.6971905
134	0x3fea0fa2	1.8286021
135	0x3f2198fa	0.6312405
136	0xbc7ed0c3	-0.015552702
137	0xbe999809	-0.29998806
138	0x3f6761b1	0.9038344
139	0x3d173375	0.036914308
140	0x3d0c1bba	0.03420613
141	0x3d885ec6	0.066587016
142	0x3fb35f2a	1.4013417
143	0x3c91db1f	0.01780468
144	0x3ea9ee0a	0.33189422
145	0x3d351502	0.044209488
146	0xbf845eb5	-1.0341402
147	0x3c3e8193	0.011627573
148	0x3d37cc14	0.04487236
149	0xbe06d85a	-0.13168469
150	0xbc9ffdec	-0.01953026
151	0x3f8ea87e	1.114517
152	0x3fd26777	1.6437825
153	0xbcc5e1bb	-0.024155488
154	0x3ff059d7	1.8777417
155	0x3fbc11e5	1.4692961
156	0x3f23c59d	0.6397341
157	0x3c6f1c26	0.014594113
158	0x3d2e0de6	0.042493723
159	0xbc0e8417	-0.008698485
160	0xbd04c8ab	-0.032417934
161	0xbcafee57	-0.021475954
162	0xbd516cc7	-0.05112913
163	0xbd1963e5	-0.037448782
164	0x3aac9777	0.0013167699
165	0x3f4efeaa	0.80857337
166	0xbd4de559	-0.05026755
167	0x3ffbcddd	1.96722
168	0x3e93e3ee	0.28884834
169	0x3c808b27	0.015691353
170	0xbd0383ab	-0.03210799
171	0x3efa5374	0.48891795
172	0x3c0c45c6	0.008561557
173	0x3be06e82	0.006849111
174	0xbd015a5f	-0.031580325
175	0x3cfbeaaa	0.030751545
176	0x3c935c24	0.017988272
177	0x3ffc969e	1.9733465
178	0x3edac115	0.42725435
179	0xbd2f642b	-0.042820137
180	0x3c67ec61	0.014155478
181	0xbf166131	-0.5874205
182	0xbca1c8be	-0.019749042
183	0x3d538c29	0.05164734
184	0xbf8f88b2	-1.1213591
185	0xc02cc45e	-2.6994853
186	0x3b1a69a7	0.002356151
187	0xbbc68338	-0.006058123
188	0x3c6cbd46	0.014449423
189	0x3f3ba534	0.73298955
190	0xbe8ad40c	-0.27114904
191	0xc044c69f	-3.0746229
192	0x3d498c4c	0.049206063
193	0x40e2f83a	7.092801
194	0xc058840f	-3.3830602
195	0x3c71d709	0.014760741
196	0x3cd3927c	0.025826685
197	0xbd193593	-0.037404608
198	0xbb918aaa	-0.004441579
199	0x3c12eef4	0.008968104
200	0x3b09d52f	0.0021031608
201	0xbd0c2387	-0.03421357
202	0xbcfb2553	-0.030657446
203	0xbd341864	-0.043968573
204	0x3ba99a03	0.0051758303
205	0xbcc49b09	-0.023999708
206	0x3d337bb4	0.043819144
207	0xbd1e1153	-0.03859074
208	0x4074ea13	3.8267868
209	0xbe3d6b85	-0.18498047
210	0xbf15e491	-0.5855189
211	0x3cb99505	0.022654066
212	0x3e82e68b	0.25566515
213	0x3b0fbf6c	0.0021934165
214	0x3f73695b	0.95082635
215	0xbd225a9a	-0.039637186
216	0x3eb614f6	0.35562867
217	0x3fe60709	1.7970897
218	0xbd38db3a	-0.045130946
219	0xbd01dff4	-0.03170772
220	0xc015a964	-2.3384638
221	0x3f76e68a	0.96445525
222	0x3d347af7	0.04406258
223	0xbc779bee	-0.01511286
224	0x3cac5d22	0.021040503
225	0xbaf55074	-0.0018715994
226	0x3eff70fe	0.49890894
227	0x3d55a02c	0.052154705
228	0x3c27b37d	0.010235664
229	0xbcb85bd8	-0.022504732
230	0x3ee78bda	0.45223886
231	0xbd091490	-0.033466876
232	0xbcd5ce5d	-0.026099378
233	0x3a096ec8	0.0005242643
234	0x3d35bc13	0.044368815
235	0x402f7ad2	2.7418714
236	0xbe784d19	-0.2424816
237	0x3f946166	1.1592224
238	0x3e8de8e7	0.27716753
239	0xbb75a8de	-0.0037484686
240	0x3be694ba	0.0070367726
241	0x3b15bd3c	0.0022848388
242	0x3c6ca353	0.014443236
243	0x40bc0888	5.8760414
244	0xbd023646	-0.03179004
245	0xc00a4348	-2.1603565
246	0x4017c17e	2.3711848
247	0x3d2b2807	0.04178622
248	0x39e906bc	0.0004444624
249	0xbd221c41	-0.039577726
250	0xbc29b62a	-0.010358373
251	0x3ce336e4	0.027736135
252	0xbf08a168	-0.53371286
253	0xbf626627	-0.8843712
254	0x3d80459c	0.06263277
255	0x3e3c145b	0.1836714

l3.bias f4 [3]
0	0x3e1a0946	0.150426
1	0x3ed236d8	0.41057467
2	0x3e591230	0.21198344
