saves/Dobot-v3/dpba/seed_0/model/critic.pth (torch, 610661 bytes, 5 tensors)

l1.weight f4 [512, 39]
-0.26426843 0.23460647 -0.04868496 -1.3911335 -0.30537343 0.5502824 0.13142364 -0.24517904
-0.15194775 -0.34868607 0.28114715 -0.2764874 -0.3281817 0.1667212 0.20469132 -0.7247336
-2.8435197 0.2581769 -0.9791018 0.70588046 0.20635751 -3.2970665 1.4502573 -1.0176908
-0.5052721 0.2598219 0.8167658 -0.25799718 -5.560088 2.7299407 -0.5881015 1.3975409
0.33980235 -2.1463606 2.315897 -4.0123854 0.0041280235 -0.002174343 0.006034159 0.3881149
0.061947893 -0.16442302 -0.36616382 -0.28120932 -0.05029778 -0.26953268 -1.0308981 -0.071109824
-0.43104574 -0.04051429 0.07114334 0.058163427 0.1823031 0.10943634 -0.90048295 -1.2332038
-0.23152594 -1.2442122 -0.526991 -0.55419827 -2.1334784 3.309747 0.5198662 0.36776713
0.29713193 -0.07124986 -0.43766463 -2.0462477 -0.72180897 -1.1660329 -0.45018145 -0.9458983
-1.4320236 4.6079197 1.1782235 0.00054966053 -0.0075606382 -0.0027374923 -0.07926944 -0.0821512
-0.16794677 0.08239776 -0.10974472 -0.06565458 -0.08373733 -0.15144078 0.06154682 -0.08063992
0.03221867 -0.13019325 0.05824574 0.13148794 -0.07860408 -0.016324608 0.0007455602 -0.015639305
-0.22387674 -0.06426973 0.1286296 0.10119997 -0.08625715 0.017331524 -0.24568267 -0.07931233
0.14687555 0.040888026 0.09646414 0.17289406 0.03615411 -0.07744466 -0.012572081 -0.06844927
0.11544917 0.061212867 0.067930914 0.06374569 -0.01891984 1.2118666 0.3460868 -1.6467135
-0.3429638 -0.9969923 0.646467 0.6377235 -0.9406633 -0.3316892 -0.10889579 -0.306019
-1.1861019 -0.6681907 0.8397686 0.19224197 4.0421896 -0.65755695 1.2967601 1.0638715
3.1494713 -0.34627402 -1.9961554 1.9266646 0.46598214 -0.4509029 0.73405004 1.1284859
4.9392114 -1.4535156 7.8570313 1.1763296 1.6100677 -1.902891 -1.3912395 2.8335288
2.896699 -0.024210492 0.011766833 0.03753401 0.8364632 0.25273067 -0.006750985 0.02117914
-0.6552699 -0.10440106 -0.5205815 0.6247441 -0.33575225 -0.014988841 -0.32835582 0.01074117
-0.08766366 0.4645086 0.105773345 0.9722821 -0.07822871 0.6848529 -0.8512172 -0.85334885
1.2317001 -0.48621604 2.0143254 0.41211984 -0.25617766 3.2797153 -0.4005225 0.47861576
1.653051 1.6234399 -1.3309852 0.58920467 2.44888 -0.26627082 2.367201 0.64684135
-0.021292679 0.004109022 -0.011272278 0.6526023 -2.4591534 -0.68920714 -0.31920305 0.025893137
-1.232657 -0.36918086 -0.993567 -0.6444292 -0.83497626 -0.35695475 -1.0864924 -0.104673214
0.78547907 0.7328506 2.0565298 -0.8527694 3.1535127 1.2634829 2.4386425 0.4712364
-3.4689548 3.2629523 1.0075517 -0.46440065 1.2166998 1.7131593 2.7379148 -1.1609555
7.3877015 1.8964515 1.4041032 -0.6544177 -1.9593103 1.380697 1.1922473 -0.051728316
0.05998423 -0.004297301 -0.13017952 0.030808346 -0.058884546 -0.11919886 -0.070370264 -0.11733671
-0.07427148 -0.12890558 -0.15571927 -0.0368372 0.06292294 0.11920938 -0.18703282 0.024148056
0.14091538 -0.11820631 0.1354681 0.04851383 0.044117875 0.1527493 0.110370226 -0.13912807
00000000: 314e 87be ae3c 703e e169 47bd aa10 b2bf
00000010: e859 9cbe 4fdf 0c3f eb93 063e 3710 7bbe
00000020: 3198 1bbe fb86 b2be 85f2 8f3e c28f 8dbe
00000030: 6f07 a8be f6b8 2a3e 9a9a 513e 2488 39bf
00000040: 3afc 35c0 c32f 843e 6aa6 7abf 95b4 343f
00000050: 624f 533e 2303 53c0 08a2 b93f b143 82bf
00000060: 8359 01bf 6007 853e 9017 513f 3518 84be
00000070: 3eec b1c0 59b7 2e40 d28d 16bf 9fe2 b23f
00000080: 93fa ad3e f95d 09c0 a837 1440 7665 80c0
00000090: 5f44 873b 6c7f 0ebb 32ba c53b ffb6 c63e
000000a0: 13bd 7d3d 825e 28be d379 bbbe abfa 8fbe
000000b0: 0c05 4ebd 3000 8abe 78f4 83bf 07a2 91bd
000000c0: 07b2 dcbe 50f2 25bd 99b3 913d c63c 6e3d
000000d0: aaad 3a3e 2920 e03d 0d86 66bf 9fd9 9dbf
000000e0: 2315 6dbe 5842 9fbf e2e8 06bf f0df 0dbf
000000f0: e98a 08c0 e5d2 5340 f415 053f f94b bc3e
00000100: ad21 983e 72eb 91bd 9415 e0be b9f5 02c0
00000110: 79c8 38bf 9140 95bf 2f7e e6be 6426 72bf
00000120: 8d4c b7bf 1474 9340 07d0 963f 1817 103a
00000130: 3bbf f7bb 8067 33bb 0458 a2bd e33e a8bd
00000140: 3dfa 2bbe 28c0 a83d d7c1 e0bd e975 86bd
00000150: 7a7e abbd 4b13 1bbe 8518 7c3d 8b26 a5bd
00000160: b9f7 033d 6151 05be 1693 6e3d c6a4 063e
00000170: 2dfb a0bd 2fbb 85bc b371 433a 001e 80bc
00000180: f23f 65be d99f 83bd 7ab7 033e ee41 cf3d
00000190: 97a7 b0bd d7fa 8d3c 3d94 7bbe 816e a2bd
000001a0: 8b66 163e 347a 273d fe8e c53d 240b 313e
000001b0: 5516 143d 4e9b 9ebd 21fb 4dbc 222f 8cbd
000001c0: 9d70 ec3d 58ba 7a3d 5d1f 8b3d 1a8d 823d
000001d0: c8fd 9abc 721e 9b3f 4a32 b13e 82c7 d2bf
000001e0: f498 afbe e33a 7fbf dc7e 253f d941 233f
000001f0: 4fcf 70bf 2bd3 a9be c204 dfbd 86ae 9cbe
00000200: 30d2 97bf 8c0e 2bbf 13fb 563f 14db 443e
00000210: 9e59 8140 a755 28bf 3cfc a53f f12c 883f
00000220: f090 4940 d44a b1be 0582 ffbf f29c f63f
00000230: 3695 ee3e bfdc e6be b4ea 3b3f 3a72 903f
00000240: 050e 9e40 cd0c babf cd6c fb40 f891 963f
00000250: b316 ce3f ef91 f3bf 2314 b2bf 8958 3540
00000260: 8463 3940 1555 c6bc adc9 403c 43bd 193d
00000270: 7422 563f ea65 813e 5e37 ddbb e07f ad3c
00000280: c5bf 27bf 39d0 d5bd d444 05bf 3bef 1f3f
00000290: b8e7 abbe c193 75bc 411e a8be bbfb 2f3c
000002a0: 0189 b3bd 12d4 ed3e b29f d83d 7be7 783f
000002b0: 6036 a0bd 8552 2f3f 5fe9 59bf 1275 5abf
000002c0: 59a8 9d3f 4ff1 f8be b5ea 0040 5f01 d33e
000002d0: b829 83be dbe6 5140 4911 cdbe 200d f53e
000002e0: 2d97 d33f e1cc cf3f b95d aabf 1ed6 163f
000002f0: 73ba 1c40 a654 88be 3980 1740 6597 253f
00000300: fc6d aebc faa4 863b 5caf 38bc f210 273f
00000310: c562 1dc0 e16f 30bf 956e a3be d81d d43c
00000320: b4c7 9dbf 4605 bdbe 685a 7ebf 50f9 24bf
00000330: 01c1 55bf c6c2 b6be 2f12 8bbf e95e d6bd
00000340: 2815 493f 199c 3b3f 2f9e 0340 184f 5abf
00000350: 27d3 4940 cfb9 a13f b812 1c40 e645 f13e
00000360: 5b03 5ec0 36d4 5040 74f7 803f ecc5 edbe
00000370: d2bc 9b3f ce48 db3f ff39 2f40 319a 94bf
00000380: 0d68 ec40 ecbe f23f a7b9 b33f eb87 27bf
00000390: aeca fabf aeba b03f 8f9b 983f 12e1 53bd
000003a0: 06b2 753d 60d0 8cbb c84d 05be c961 fc3c
000003b0: ec30 71bd 881e f4bd 491e 90bd 3b4e f0bd
000003c0: a51b 98bd d3ff 03be df74 1fbe 9be2 16bd
000003d0: bedd 803d 0c24 f43d 8885 3fbe 25d2 c53c
000003e0: 1f4c 103e 2616 f2bd 26b8 0a3e 70b6 463d
000003f0: f2b4 343d 506a 1c3e c909 e23d 9777 0ebe

l1.bias f4 [512]
-0.35436085 -0.18963167 -0.14662604 -0.48124173 -0.44159964 -0.04980426 -0.10748974 -0.04824499
0.023799663 -0.36115623 0.031664968 0.15196522 -0.8786772 -0.740648 -0.36777166 -0.31000414
0.0183362 0.03415563 -0.029206093 -0.84714127 -0.24383233 -0.20390648 -0.17384197 -0.4182275
-0.15981624 0.1905119 -0.1127634 -0.19561875 -0.47099525 -0.4932848 -0.21217129 -0.6318835
-0.5038471 -0.20505919 -0.5227293 0.0894281 -0.22873363 0.44658384 -0.49988884 -0.1715803
-0.036579363 0.060494673 -0.25251463 0.007476703 -0.45614433 -0.28419933 -0.13043575 -0.25701454
-0.008449058 -0.47584882 -0.062298454 -0.09750359 -0.184663 -0.08782682 -0.17784452 -0.18698855
-0.2822325 -0.40036473 -0.256231 -1.1226751 -0.07889462 -0.17976992 -0.79154074 0.021370213
0.077977076 -0.1965458 -0.19475979 -0.7529448 -0.28480524 -0.11177239 -0.5489439 -0.076644234
-0.13666068 -0.15267126 -0.3085806 0.35882568 0.000435312 0.022528835 -0.49767828 -0.33302012
-0.23063758 -0.5991015 -0.78008527 -0.34122312 -0.30753502 -0.20049599 -0.09191634 -0.120359346
-0.06624552 -0.12604715 -0.68136007 -0.7666261 0.1424645 0.019573852 -0.24319021 -0.658381
-0.5161856 -0.049377136 -0.1611939 -0.096763045 -0.17968047 -0.47667634 -0.010461106 -0.23259331
-0.102372035 -0.44682115 -0.20231946 0.0005945828 0.09811423 -0.10340584 -0.5617959 -0.04842122
-0.32026115 -0.7008558 -0.27411684 -0.39971617 -0.42458403 -0.13707897 -0.06096706 -0.2212269
-0.375684 -0.047012173 -0.09744213 -0.34671423 -0.1887611 -0.07904949 -0.2477728 0.0949898
-0.13929862 -0.32248685 0.07763668 -0.28550947 -0.6529017 -0.14393641 -0.20801209 -0.2678871
-0.19947049 -0.15916304 -0.18205447 -0.39435256 -0.3109318 0.10895708 -0.45247135 -0.546644
0.20872161 -0.036579996 -0.2700452 -0.32804212 -0.03659016 -0.4918465 -0.51147175 0.05540637
-0.19684859 -0.60617626 -0.034200087 -0.03910553 -0.57191736 -0.4252423 -0.7692691 -0.18509136
-0.44920218 -0.24514937 -0.12443123 -0.045200616 -0.07998462 -0.8277244 -0.55539834 -0.4513555
-0.15556665 0.17369974 0.11871396 -0.06261593 -0.8325438 -0.06408535 -0.44947907 -0.6932466
-1.2352874 -0.3367038 -0.18104671 0.1636844 -0.09184088 -0.15413816 -0.10066299 -0.077337325
-0.44871578 -0.27521738 -0.1995924 -0.2306354 -0.1369313 -0.56093687 -0.037797403 0.21662554
-0.5482858 -0.2715939 -0.072082795 -0.18629338 -0.11848746 -1.0403931 0.036252595 -0.1913785
-0.7001597 -0.28208286 0.010204679 -0.03450697 -0.4019479 -0.16183044 -0.06990962 -0.05278663
-0.30349714 -0.15400958 -0.1684936 -0.08661379 -0.55331904 -0.28760102 -0.37399876 -0.45620766
-0.37741584 -0.116401084 -0.21641633 0.02759874 -0.038760222 -0.24444674 0.16312157 -0.14954898
-0.28569907 -0.52218366 -0.18014456 -0.3097743 -0.8176979 -0.016885912 -0.983966 -0.35711825
-0.539433 -0.23387417 0.09760938 0.47441706 -0.37963665 -0.22110225 -0.65934503 -0.17862244
0.18676117 -0.6391579 -0.12292757 -0.42871958 -0.14275871 -0.39932287 -0.8323271 -0.12931857
-0.13422003 -0.5029452 0.060035646 -0.21057773 -0.10893009 -0.19047679 -0.022142565 -0.7442618
00000000: c96e b5be ce2e 42be 2325 16be 5165 f6be
00000010: 5919 e2be 8dff 4bbd 9523 dcbd 8a9c 45bd
00000020: 83f7 c23c 78e9 b8be 20b3 013d c59c 1b3e
00000030: fdf0 60bf 1b9b 3dbf 914c bcbe ddb8 9ebe
00000040: cc35 963c c6e6 0b3d 9e41 efbc 40de 58bf
00000050: 2faf 79be dccc 50be a103 32be ea21 d6be
00000060: dea6 23be 8d15 433e 7ff0 e6bd 4850 48be
00000070: 4a26 f1be d38f fcbe 6e43 59be 1ec3 21bf
00000080: 20fc 00bf 09fb 51be 96d1 05bf 1426 b73d
00000090: 2639 6abe a3a6 e43e 6ef1 ffbe bfb2 2fbe
000000a0: 3ed4 15bd 43c9 773d 9949 81be 21ff f43b
000000b0: c08b e9be 9382 91be f390 05be 6997 83be
000000c0: eb6d 0abc 75a2 f3be aa2c 7fbd f6af c7bd
000000d0: 4c18 3dbe 8cde b3bd e01c 36be ed79 3fbe
000000e0: c780 90be 9bfc ccbe b630 83be d1b3 8fbf
000000f0: 8193 a1bd 9b15 38be 6aa2 4abf 9610 af3c
00000100: 72b2 9f3d 4d43 49be 1c6f 47be fec0 40bf
00000110: fed1 91be ece8 e4bd 9687 0cbf a7f7 9cbd
00000120: c7f0 0bbe db55 1cbe 47fe 9dbe 00b8 b73e
00000130: 963a e439 648e b83c b0cf febe 9d81 aabe
00000140: 422c 6cbe b75e 19bf abb3 47bf ccb4 aebe
00000150: 3b75 9dbe d24e 4dbe a23e bcbd f67e f6bd
00000160: bbab 87bd 8112 01be 9d6d 2ebf 9c41 44bf
00000170: 37e2 113e 5859 a03c db06 79be a88b 28bf
00000180: bd24 04bf ae3f 4abd 0410 25be b42b c6bd
00000190: 28fe 37be ec0e f4be 0f65 2bbc f12c 6ebe
000001a0: 6ea8 d1bd bec5 e4be d52c 4fbe c7dd 1b3a
000001b0: 1df0 c83d 71c6 d3bd dbd1 0fbf 5455 46bd
000001c0: 45f9 a3be 496b 33bf 0b59 8cbe 99a7 ccbe
000001d0: 1463 d9be 6e5e 0cbe 99b8 79bd 4e89 62be
000001e0: a759 c0be d68f 40bd bd8f c7bd 8784 b1be
000001f0: 974a 41be b3e4 a1bd 27b8 7dbe 038a c23d
00000200: 4ca4 0ebe ff1c a5be fbff 9e3d 4c2e 92be
00000210: 9124 27bf 1164 13be 1f01 55be 7f28 89be
00000220: fe41 4cbe a3fb 22be 7d6c 3abe 94e8 c9be
00000230: 7432 9fbe e424 df3d 53aa e7be dcf0 0bbf
00000240: 1ebb 553e e8d4 15bd 5d43 8abe 23f5 a7be
00000250: 90df 15bd 4ed3 fbbe d0ef 02bf caf1 623d
00000260: ad92 49be 5e2e 1bbf 6415 0cbd 1f2d 20bd
00000270: 2d69 12bf 5cb9 d9be d2ee 44bf 9788 3dbe
00000280: d4fd e5be 7008 7bbe cdd5 febd 4824 39bd
00000290: face a3bd bfe5 53bf 962e 0ebf 1118 e7be
000002a0: dd4c 1fbe 58de 313e 4e20 f33d c83c 80bd
000002b0: 9721 55bf 2e3f 83bd 1f22 e6be 9c78 31bf
000002c0: e61d 9ebf 7164 acbe 4f64 39be e29c 273e
000002d0: 1217 bcbd 65d6 1dbe 6628 cebd 0863 9ebd
000002e0: 13be e5be 4be9 8cbe f361 4cbe b02b 6cbe
000002f0: b837 0cbe 8f99 0fbf 73d1 1abd 16d3 5d3e
00000300: 755c 0cbf 5b0e 8bbe 25a0 93bd b1c3 3ebe
00000310: 8ea9 f2bd 9a2b 85bf 9a7d 143d baf8 43be
00000320: ab3d 33bf 2a6d 90be 8731 273c 2e57 0dbd
00000330: 1dcc cdbe e1b6 25be c62c 8fbd cb36 58bd
00000340: fa63 9bbe b0b4 1dbe 9689 2cbe 9262 b1bd
00000350: 51a6 0dbf 7140 93be c47c bfbe 0d94 e9be
00000360: a63c c1be b163 eebd 3e9c 5dbe c116 e23c
00000370: 0ac3 1ebd 3f50 7abe 5709 273e 5e23 19be
00000380: 2647 92be d4ad 05bf d177 38be bd9a 9ebe
00000390: a654 51bf 5354 8abc 32e5 7bbf 34d8 b6be
000003a0: 4818 0abf b67c 6fbe 6de7 c73d cbe6 f23e
000003b0: bc5f c2be a168 62be d6ca 28bf cde8 36be
000003c0: 523e 3f3e da9f 23bf 73c1 fbbd 2281 dbbe
000003d0: 572f 12be 0c74 ccbe 6413 55bf 166c 04be
000003e0: fa70 09be 04c1 00bf f0e7 753d b0a1 57be
000003f0: bd16 dfbd 590c 43be 5364 b5bc f187 3ebf

l2.weight f4 [256, 512]
-0.04547397 -0.0008469577 -0.0054462524 -0.06617689 -0.00787866 -0.033514455 0.043312036 -0.013711742
0.022592489 -0.07486448 -0.009483839 -0.027086793 -0.0995893 -0.05417301 -0.07776222 -0.039224993
-0.00016912931 -0.010584613 0.00617523 -0.06564001 -0.044168916 -0.041958533 -0.04724544 0.040938105
-0.040534455 -0.003100271 0.047979347 0.034046993 -0.014056106 -0.012280351 -0.06382418 -0.020526553
-0.016773684 0.03198291 0.004432414 0.013167663 -0.045187633 0.026374813 0.01980996 -0.075219996
0.023409441 -0.010005209 -0.018272217 -0.0012467542 -0.074539416 -0.041051257 -0.024061378 -0.05598955
-0.0065700836 7.28402e-05 -0.04588836 0.034679927 -0.030648064 0.025406754 -0.020811956 -0.07473664
0.0054224515 -0.04914986 -0.013340488 -0.060790673 -0.007911325 0.02805928 -0.008918851 0.020074395
-0.036241446 -0.012509922 -0.040063564 -0.016616698 -0.054537892 0.0076469732 -0.075383656 0.034983058
-0.028118663 -0.021047872 -0.0065423585 -0.028484404 -0.028567579 -0.05709132 -0.02972207 -0.043842796
-0.0337333 0.022397272 -0.042043604 -0.04109456 0.042900212 0.026045691 -0.037923716 0.04542467
-0.01740662 -0.019639185 -0.042460017 -0.03361922 -0.01829201 -0.02235545 -0.04382254 0.0096650375
0.058157172 -0.005538496 0.022301229 -0.041057095 -0.027394176 -0.06474373 -0.015590775 -0.006547883
-0.016977523 -0.006139643 -0.034484066 -0.06138397 0.0128272725 0.035615288 -0.08386374 0.011854859
0.0069940947 0.0016000217 -0.01029422 -0.060718257 0.0027205483 -0.024996936 -0.075044096 -0.017377164
0.0011104688 -0.017167402 0.033179626 -0.05929189 0.03777654 -0.09343555 -0.03506095 -0.045616776
-0.04185585 -0.04065831 0.029865377 -0.06318329 -0.0863518 0.03038854 0.038674977 -0.04315019
-0.040933974 0.007743411 -0.027977651 0.03332447 -0.002826768 0.02372127 0.0604562 -0.03591642
-0.08393227 0.0008322515 -0.033585355 -0.0140893785 -0.02750173 -0.0686781 -0.074775204 0.02377249
-0.04683808 -0.07227804 -0.014616773 0.012078933 -0.035985526 0.044689726 -0.038720205 -0.043969482
0.0025485773 -0.00799929 -0.003796298 -0.011072343 -0.022931684 -0.07381662 0.054082103 -0.05192067
0.021085214 -0.04235908 -0.019893663 0.031236568 -0.058434796 0.029446341 0.012788658 -0.053248238
-0.03631895 -0.007737724 0.0032728324 -0.06754365 -0.034899376 0.022674477 -0.025891734 -0.028970152
-0.03550106 -0.00896083 -0.030755358 -0.014988968 -0.0564601 0.007257272 -0.07643237 -0.022649098
-0.03396673 -0.0020436614 -0.022712655 0.019551959 0.002035048 0.0005259825 0.033563644 -0.022388628
-0.005600272 -0.038908623 -0.040848766 -0.034773305 -0.020909915 -0.032391585 -0.03189427 -0.01787265
-0.07796751 0.0004324232 0.004947603 -0.019295149 -0.020012205 -0.068249755 -0.025102053 0.0042180433
-0.024831107 -0.06743909 0.0102037 -0.00092401437 -0.024887156 -0.0278857 0.0003836494 -0.032187648
-0.03912085 -0.038548876 -0.014291172 -0.05681373 -0.05074698 -0.017327486 -0.017817615 -0.011641258
0.050061766 -0.06573749 0.020092415 -0.04546206 0.011316388 -0.06625535 0.0023414297 -0.027651697
-0.01228646 -0.023631597 -0.021268567 0.05349877 -0.03888791 -0.03601038 -0.060030874 0.028095745
-0.039514147 0.019894749 -0.058637224 0.030335462 -0.014090657 -0.024084816 -0.034518205 -0.009627274
00000000: ea42 3abd 5e06 5eba 7a76 b2bb c087 87bd
00000010: 7f15 01bc 7446 09bd f667 313d 37a7 60bc
00000020: e213 b93c 8c52 99bd 1b62 1bbc 1fe5 ddbc
00000030: 7af5 cbbd 85e4 5dbd cc41 9fbd 63aa 20bd
00000040: 4e58 31b9 166b 2dbc 9559 ca3b 456e 86bd
00000050: 77ea 34bd b6dc 2bbd 6f84 41bd b7ae 273d
00000060: 7507 26bd eb2d 4bbb fe85 443d dc74 0b3d
00000070: 954b 66bc 8633 49bc 40b6 82bd 4d27 a8bc
00000080: f768 89bc 8300 033d c93d 913b 2ebd 573c
00000090: ab16 39bd fe0f d83c 7f48 a23c f10c 9abd
000000a0: 28c5 bf3c e3ec 23bc 9eaf 95bc 216a a3ba
000000b0: 1fa8 98bd 5d25 28bd 5e1c c5bc 4c55 65bd
000000c0: db49 d7bb c9c1 9838 6ff5 3bbd 8a0c 0e3d
000000d0: a611 fbbc d321 d03c d67d aabc 860f 99bd
000000e0: d2ae b13b 5d51 49bd 1092 5abc a4ff 78bd
000000f0: 819e 01bc 93dc e53c 5f20 12bc 0f73 a43c
00000100: e971 14bd 6af6 4cbc b119 24bd be1f 88bc
00000110: 2063 5fbd 7693 fa3b bf62 9abd 654a 0f3d
00000120: 1c59 e6bc 966c acbc 4861 d6bb 2058 e9bc
00000130: 8e06 eabc 97d8 69bd b37b f3bc 8194 33bd
00000140: ee2b 0abd 7c7a b73c ea35 2cbd c552 28bd
00000150: 22b8 2f3d c65d d53c e655 1bbd 380f 3a3d
00000160: 5498 8ebc 5be2 a0bc 8eea 2dbd 4fb4 09bd
00000170: 20d9 95bc c722 b7bc 447f 33bd 1b5a 1e3c
00000180: 3736 6e3d 467c b5bb 11b1 b63c 7c2b 28bd
00000190: c069 e0bc 5c98 84bd 7370 7fbc a08f d6bb
000001a0: 7214 8bbc 0f2f c9bb 2a3f 0dbd c26d 7bbd
000001b0: 7b29 523c 56e1 113d c1c0 abbd e23a 423c
000001c0: b82e e53b d2b7 d13a 17a9 28bc b5b3 78bd
000001d0: 3a4b 323b 60c6 ccbc b8b0 99bd 8e5a 8ebc
000001e0: 268d 913a a7a2 8cbc 5ce7 073d 0edc 72bd
000001f0: 93bb 1a3d 235b bfbd 129c 0fbd a8d8 3abd
00000200: 0a71 2bbd 5489 26bd 3ca8 f43c 3e66 81bd
00000210: 36d9 b0bd 63f1 f83c a769 1e3d 41be 30bd
00000220: 62aa 27bd 71bc fd3b 6331 e5bc 3d7f 083d
00000230: 4c41 39bb 1c53 c23c eca0 773d 191d 13bd
00000240: afe4 abbd 742b 5a3a cc90 09bd 23d7 66bc
00000250: 4f4b e1bc 1ba7 8cbd be23 99bd 86be c23c
00000260: 49d9 3fbd 8206 94bd 317b 6fbc b8e6 453c
00000270: 8f65 13bd 930c 373d 1499 1ebd 5819 34bd
00000280: 0806 273b 740f 03bc 50cb 78bb c668 35bc
00000290: 3adb bbbc 2b2d 97bd 3285 5d3d c5aa 54bd
000002a0: e6ba ac3c b780 2dbd 09f8 a2bc d5e3 ff3c
000002b0: 5359 6fbd 7439 f13c 8587 513c d31a 5abd
000002c0: 2ec3 14bd bc8c fdbb 047d 563b 5354 8abd
000002d0: a6f2 0ebd d3bf b93c e71a d4bc d052 edbc
000002e0: 8f69 11bd 72d0 12bc a9f2 fbbc 4a94 75bc
000002f0: b542 67bd 69ce ed3b 9388 9cbd 9a8a b9bc
00000300: b320 0bbd f3ee 05bb e40f babc 6e2b a03c
00000310: 715e 053b 17e2 093a 087a 093d 5b68 b7bc
00000320: 7d82 b7bb a65e 1fbd 0951 27bd 746e 0ebd
00000330: 454b abbc 0aad 04bd 91a3 02bd aa69 92bc
00000340: 6ead 9fbd dcb6 e239 811f a23b dc10 9ebc
00000350: a3f0 a3bc 87c6 8bbd d2a2 cdbc 8337 8a3b
00000360: 9b6a cbbc 811d 8abd 6b2d 273c 8e39 72ba
00000370: 26e0 cbbc 8d70 e4bc 8d24 c939 32d7 03bd
00000380: 2f3d 20bd 6de5 1dbd 8525 6abc 84b5 68bd
00000390: 11dc 4fbd 5ff2 8dbc 3ff6 91bc faba 3ebc
000003a0: 910d 4d3d 61a1 86bd d998 a43c 6d36 3abd
000003b0: 5f68 393c e3b0 87bd ac72 193b d085 e2bc
000003c0: 264d 49bc 0d97 c1bc 6b3b aebc 8721 5b3d
000003d0: ee48 1fbd 9f7f 13bd efe2 75bd 0c29 e63c
000003e0: 96d9 21bd 50fa a23c 962d 70bd 1382 f83c
000003f0: 80dc 66bc 854d c5bc f662 0dbd b7bb 1dbc

l2.bias f4 [256]
-0.067403056 0.036086474 -0.039485805 0.10709616 0.03087377 -0.07287925 -0.041472785 -0.004418529
-0.63589305 0.029144667 -0.06393651 -0.047034517 -0.07875368 -0.013221834 -0.036505472 -0.046610672
-0.12281706 -0.009651013 -0.06792064 -0.035427228 -0.04010941 -0.008271023 -0.032965466 -0.053473637
0.12806518 0.13127838 -0.05778573 0.08925862 0.011484872 -0.011950655 -0.0039408654 -0.07282865
0.028281296 -0.06772429 0.098960824 -0.02880636 0.9756507 0.018132957 0.067833565 0.08524532
-0.02441937 0.3679376 -0.074548125 -0.22435835 -0.07513146 -0.0809247 -0.011824971 0.067279786
-0.26585668 -0.049402814 0.02155775 0.119337134 -0.023932068 -0.042700738 -0.07213555 -0.038753655
-0.010161577 -0.48632875 -0.07799541 0.06901388 -0.02457396 0.08091161 0.084933214 -0.05938315
0.40106508 0.07190947 -0.02229 0.2305065 -0.076239586 0.008165813 1.200128 -0.048438985
0.20044152 -0.057817318 0.051423557 -0.03951982 0.053599615 -0.066610165 0.0877668 -0.055354822
-0.0590512 -0.009461621 0.008522576 0.024274617 0.01174968 0.108200334 -0.044714313 -0.012808031
0.11698067 -0.03266164 0.04655496 0.053276513 0.054578193 -0.40848392 -0.021911303 -0.056268424
0.1197432 0.068364106 0.15643285 -0.07589841 0.10770882 -0.48460978 0.005923542 -0.044076215
0.06983309 -0.05084151 0.21610287 -0.11751636 0.1236731 -0.031958442 0.055112205 0.045093585
-0.04670985 0.06973637 -0.07152065 0.47522545 -0.06859173 -0.07716211 -0.35686582 -0.007120817
-0.080848135 0.012084984 -0.91849595 -0.055468306 -0.02983722 0.0013803594 -0.35380605 1.1339008
-0.022946814 0.020667858 -0.16160995 -0.08037636 -0.01447484 0.024587117 0.075099915 0.06713919
0.06530174 0.10072386 0.5637474 0.004968662 -0.51322407 0.30053458 0.78696585 0.11303498
-0.034087744 -0.29294437 0.05832904 -0.21399 0.075652145 -0.0037089766 -0.22815526 -0.028721543
-0.01053822 -0.041733354 -0.03195862 0.16111019 -0.08853751 -0.02780578 0.588961 -0.059426542
0.17469984 0.16081418 -0.015360347 -0.02039093 -0.07310652 0.033390794 0.042237394 -0.022455778
0.061325405 0.07214432 0.053511463 -0.07365093 -0.03432817 -0.0028395331 -0.06421511 -0.26733583
-0.21078342 -0.06947214 -0.048400603 0.024851812 0.63790864 0.1327871 -0.049097884 -0.2843327
-0.04108444 0.05751688 -0.018113172 -0.047590386 -0.013990396 -0.026486274 -0.05280615 -0.0020185502
-0.03015186 -0.05768148 0.0012401588 -0.068067566 -0.042616997 -0.050700884 -0.010429508 -0.03324236
0.0026001811 0.04675368 -0.05153229 0.085453324 0.035055105 -0.008534096 0.031753514 -0.07104915
-0.018490208 0.00772193 -0.005296577 0.080504194 -0.030525962 -0.2938447 -0.09052575 0.027377916
0.5212405 -0.06099068 0.06681627 -0.03155989 -0.062639736 -0.02280367 0.89791626 -0.06741467
-0.8776966 0.005246939 0.07124132 -0.21029353 1.1926025 -0.3321454 0.09307242 -0.013354008
0.04831204 -0.016345717 0.019525748 -0.05428224 -0.009153403 -0.4294826 -0.006161299 -0.025884775
0.1509744 -0.055893507 -0.029411115 -0.05201181 0.5306413 -0.07138271 -0.033278048 -0.06453183
-0.1739629 0.26532358 -0.044945724 -0.051906466 -0.6643436 -0.013412589 -0.017910205 0.21088098
00000000: 9d0a 8abd 69cf 133d debb 21bd 3b55 db3d
00000010: fdea fc3c b741 95bd 5edf 29bd 4fc9 90bb
00000020: e3c9 22bf ccc0 ee3c 25f1 82bd 44a7 40bd
00000030: 9c49 a1bd 64a0 58bc c386 15bd d5ea 3ebd
00000040: 8387 fbbd 481f 1ebc fa19 8bbd 241c 11bd
00000050: c449 24bd 2f83 07bc cc06 07bd 2c07 5bbd
00000060: 8523 033e d76d 063e bbb0 6cbd 39cd b63d
00000070: 0b2b 3c3c aecc 43bc 6022 81bb 3027 95bd
00000080: 2dae e73c 08b3 8abd f9ab ca3d 51fb ebbc
00000090: 3fc4 793f 918b 943c 53ec 8a3d 1995 ae3d
000000a0: 210b c8bc 5162 bc3e b0ac 98bd 32be 65be
000000b0: 86de 99bd d9bb a5bd 86bd 41bc fcc9 893d
000000c0: 5e1e 88be 9b5a 4abd e199 b03c 0767 f43d
000000d0: 2f0d c4bc f8e6 2ebd cebb 93bd 27bc 1ebd
000000e0: be7c 26bc 1500 f9be 0fbc 9fbd 2657 8d3d
000000f0: 544f c9bc fcb4 a53d 77f1 ad3d bf3b 73bd
00000100: 6758 cd3e 4645 933d 8599 b6bc e509 6c3e
00000110: 8023 9cbd e7c9 053c cb9d 993f f567 46bd
00000120: 8b40 4d3e dad1 6cbd 82a1 523d 89df 21bd
00000130: 458b 5b3d e96a 88bd 14bf b33d bdbb 62bd
00000140: acdf 71bd ea04 1bbc 46a2 0b3c 90db c63c
00000150: bb81 403c 2398 dd3d 5b26 37bd c7d8 51bc
00000160: 9093 ef3d 36c8 05bd 6ab0 3e3d 7938 5a3d
00000170: 628d 5f3d ce24 d1be 557f b3bc b879 66bd
00000180: ec3b f53d 7b02 8c3d ef2f 203e a070 9bbd
00000190: 7196 dc3d c61e f8be 461a c23b 4389 34bd
000001a0: a704 8f3d 303f 50bd 124a 5d3e 6bac f0bd
000001b0: 5248 fd3d dbe6 02bd 56bd 613d 0db4 383d
000001c0: d452 3fbd f1d1 8e3d 6b79 92bd c050 f33e
000001d0: d279 8cbd 2b07 9ebd 1eb7 b6be be55 e9bb
000001e0: b593 a5bd 1900 463c 8d22 6bbf bc32 63bd
000001f0: 306d f4bc 2ded b43a 1126 b5be a923 913f
00000200: f5fa bbbc a44f a93c 147d 25be 5c9c a4bd
00000210: e127 6dbc ec6a c93c fccd 993d 4680 893d
00000220: ebbc 853d 5048 ce3d c051 103f 28d0 a23b
00000230: a762 03bf abdf 993e 9876 493f e27e e73d
00000240: 979f 0bbd cefc 95be 6eea 6e3d 3220 5bbe
00000250: 83ef 9a3d 4d12 73bb 88a1 69be 7149 ebbc
00000260: 80a8 2cbc 98f0 2abd 0be7 02bd 12fa 243e
00000270: 2753 b5bd f2c8 e3bc 26c6 163f 3f69 73bd
00000280: 84e4 323e 79ac 243e f7a9 7bbc e10a a7bc
00000290: dfb8 95bd c9c4 083d 1e01 2d3d 2ef5 b7bc
000002a0: 5930 7b3d 67c0 933d d62e 5b3d 4cd6 96bd
000002b0: b29b 0cbd 7617 3abb 3683 83bd 3ee0 88be
000002c0: 9cd7 57be 6947 8ebd b63f 46bd 0796 cb3c
000002d0: fb4d 233f 57f9 073e dd1a 49bd 0e94 91be
000002e0: 2848 28bd d296 6b3d 1362 94bc 23ee 42bd
000002f0: f937 65bc bef9 d8bc 434b 58bd a749 04bb
00000300: 0901 f7bc 6a43 6cbd d38c a23a 0267 8bbd
00000310: 298f 2ebd bbab 4fbd 87e0 2abc 2429 08bd
00000320: cd67 2a3b c980 3f3d 8613 53bd 2702 af3d
00000330: f195 0f3d 98d2 0bbc f90f 023d 3782 91bd
00000340: c778 97bc 3e08 fd3b e88e adbb 62df a43d
00000350: 9511 fabc d072 96be 9065 b9bd a747 e03c
00000360: 0470 053f 5dd1 79bd f8d6 883d f144 01bd
00000370: 4349 80bd c3ce babc d7dd 653f b410 8abd
00000380: b9b0 60bf 84ee ab3b f8e6 913d 3057 57be
00000390: 33a7 983f f60e aabe c19c be3d c5ca 5abc
000003a0: d8e2 453d 74e7 85bc 76f4 9f3c 0e57 5ebd
000003b0: 28f8 15bc 25e5 dbbe b9e4 c9bb 4f0c d4bc
000003c0: 0899 1a3e 97f0 64bd 94ef f0bc 560a 55bd
000003d0: 1cd8 073f 1931 92bd 904e 08bd 4429 84bd
000003e0: 5523 32be 7ed8 873e 0219 38bd e09b 54bd
000003f0: 6c12 2abf 7ac0 5bbc 6cb8 92bc 2ff1 573e

l3.weight f4 [1, 256]
0.0065065506 0.030358054 -0.015319663 -0.33735722 0.020674482 0.028403316 0.014644309 0.0028508068
-7.291146 -0.063170604 0.019002229 -0.028147135 -0.0064129797 -0.0065960675 0.023227371 -0.0077403015
0.009415559 -0.025510848 -0.031452242 -6.4662163e-06 0.008811387 0.0091279885 0.023773052 -0.028337464
0.011861091 -0.01823576 -0.0075868554 -0.019859392 -2.3063874 0.009275272 0.007950208 -0.024582576
-0.14692457 0.010757017 0.00846125 0.033373535 -0.14754173 0.025817579 -0.16284081 -6.7199926
0.015195353 -1.2182689 0.0038588387 -0.11887796 -0.0013672194 -0.02907109 -0.0073802983 -0.074120335
0.8312582 0.02208685 0.00327895 -0.023073794 0.0033653027 0.005398372 -0.023491824 -0.0026521394
0.0064903107 -6.3321395 -0.020217424 0.0030332212 0.0049386946 0.03166478 0.017866015 -0.030685905
-2.361447 -0.0029655946 -0.008272192 -1.0291042 0.013992768 0.012293917 -0.34576198 -0.028566713
0.9295203 -0.02322843 -0.0027348949 -0.005595354 -0.008827397 -0.010144335 -0.009604023 -0.020200657
-0.016795201 0.0179095 -0.03647505 0.0023220817 -0.003961623 -0.005484873 -0.0018505274 0.019624637
-0.15138362 -0.011651566 -0.06976189 -0.003385387 -0.025002599 2.6088111 -0.014809128 0.0055544474
-0.029182212 -5.1007466 -4.217366 0.014609162 -0.012345153 0.35973638 0.030806998 0.007228403
-7.6856894 -0.014164075 -0.78537947 -3.466066 0.0030336692 -0.0021373208 -0.0037574084 -0.024848018
0.032022875 -0.014233155 0.02515816 -0.72938913 -0.03711172 -6.8172007 0.014372251 -0.0078993505
0.011156132 0.0017789049 -5.9476337 0.007989678 -0.031301737 1.6709592 -8.62291 -0.3527311
-0.019592542 -0.029358806 -5.541228 6.246971e-05 0.009033728 0.02654129 -0.0057846475 -0.012322315
0.020537317 0.015520603 -0.32043383 -0.083167665 -2.9302638 -4.6004815 -5.109857 -0.025424443
0.019848159 -0.023389548 -0.09847938 0.117637075 -0.016763093 -0.013961533 -5.0243893 -0.016688725
0.010467528 -0.006209109 0.0140200015 3.1172376 -4.147289 0.054815557 -1.0630434 0.0073843254
2.0813668 -6.7006917 -0.042607125 -0.0081137195 -0.027909927 0.029702045 0.03797048 -0.016683325
-0.15855479 -3.8545437 0.008090957 -0.014772798 0.015927363 0.026976092 -0.008382226 -5.158376
0.015511453 -0.0045622843 0.019698933 -0.060134266 2.88721 -3.4992874 -0.031197406 -4.6483583
0.029593976 0.026646543 0.001231063 -0.033901416 0.0051458795 -0.00036442518 -0.010893325 0.021916643
-0.02300601 -0.020845871 0.028018165 -0.019816598 -0.006494416 0.013573199 0.009027471 -0.009742279
0.021686647 -0.041488968 0.010211099 0.003009112 -0.004333429 -0.030960841 -0.00019253232 0.0035194138
-0.024111524 0.021973515 0.017504856 0.013485997 0.0010710591 2.038763 0.009303739 -0.015050892
-2.4696522 0.23517145 -0.028230412 -0.030003019 -0.014235757 -0.020554882 -0.1284212 -0.02740986
-2.7052631 1.0551677 -0.1372945 -5.9347897 -0.35860053 -0.37451363 -6.8395457 0.007898245
-0.014935039 0.00081464817 -0.028831525 0.006675004 0.024132475 -6.6077647 0.019361928 0.023591204
-5.4742875 0.0012376253 -0.00068449025 -0.027638754 -1.4877172 0.04553568 -0.02280022 -0.021916984
-0.0067535797 1.5481737 0.02517718 0.021650063 -7.2098694 -5.028771 0.013793237 -6.1278057
00000000: e734 d53b 74b1 f83c 53ff 7abc 16ba acbe
00000010: 885d a93c 12ae e83c afee 6f3c 9ad4 3a3b
00000020: 1151 e9c0 975f 81bd 90aa 9b3c d294 e6bc
00000030: f923 d2bb d323 d8bb 5447 be3c 5ba2 fdbb
00000040: b743 1a3c 20fc d0bc 11d4 00bd 60f8 d8b6
00000050: a35d 103c 8f8d 153c b4bf c23c f823 e8bc
00000060: 0555 423c 2963 95bc 289b f8bb 2ab0 a2bc
00000070: da9b 13c0 4ff7 173c 9741 023c 6661 c9bc
00000080: 6573 16be 333e 303c 0ea1 0a3c b0b2 083d
00000090: 2e15 17be 637f d33c bebf 26be 2e0a d7c0
000000a0: eef5 783c 3cf0 9bbf 92e4 7c3b 4a76 f3bd
000000b0: 4534 b3ba 7f26 eebc 6ed6 f1bb 67cc 97bd
000000c0: 56cd 543f 7bef b43c a7e3 563b 4105 bdbc
000000d0: 698c 5c3b d4e4 b03b ed71 c0bc 84cf 2dbb
000000e0: acac d43b e3a0 cac0 039f a5bc 02c9 463b
000000f0: c6d4 a13b eeb2 013d c05b 923c 0261 fbbc
00000100: f321 17c0 6c5a 42bb 1788 07bc b0b9 83bf
00000110: ec41 653c 6d6c 493c b707 b1be bd04 eabc
00000120: 0bf5 6d3f 8c49 bebc ec3b 33bb 3b59 b7bb
00000130: c9a0 10bc 6d34 26bc 315a 1dbc d97b a5bc
00000140: 1796 89bc f2b6 923c dd66 15bd 112e 183b
00000150: 81d0 81bb 73ba b3bb 658d f2ba d9c3 a03c
00000160: 4f04 1bbe 36e6 3ebc 52df 8ebd 5edd 5dbb
00000170: 40d2 ccbc c3f6 2640 fca1 72bc 1502 b63b
00000180: 890f efbc 5139 a3c0 aaf4 86c0 445b 6f3c
00000190: 5343 4abc 5e2f b83e f55e fc3c 3ddc ec3b
000001a0: 2bf1 f5c0 7010 68bc a10e 49bf 06d4 5dc0
000001b0: 86d0 463b 4b12 0cbb da3e 76bb 128e cbbc
000001c0: 6b2a 033d 2e32 69bc 7c18 ce3c 3fb9 3abf
000001d0: 7502 18bd 8226 dac0 9779 6b3c 476c 01bc
000001e0: 36c8 363c 252a e93a 0453 bec0 23e7 023c
000001f0: 4036 00bd fee1 d53f 70f7 09c1 2c99 b4be
00000200: 8a80 a0bc e181 f0bc bd51 b1c0 2c02 8338
00000210: 3402 143c 1f6d d93c 248d bdbb 89e3 49bc
00000220: e03d a83c 214a 7e3c e70f a4be cf53 aabd
00000230: 7189 3bc0 2537 93c0 f383 a3c0 ec46 d0bc
00000240: 9b98 a23c 709b bfbc 8faf c9bd b5eb f03d
00000250: c152 89bc eabe 64bc ccc7 a0c0 cbb6 88bc
00000260: ff7f 2b3c c875 cbbb 26b4 653c d280 4740
00000270: 97b6 84c0 4786 603d ce11 88bf 36f8 f13b
00000280: 1d35 0540 116c d6c0 cf84 2ebd 68ef 04bc
00000290: 5ca3 e4bc b451 f33c ef86 1b3d 78ab 88bc
000002a0: 305c 22be d8b0 76c0 ef8f 043c 9b09 72bc
000002b0: 1a7a 823c f7fc dc3c 9b55 09bc 6b11 a5c0
000002c0: c023 7e3c 377f 95bb a85f a13c 594f 76bd
000002d0: 0cc8 3840 53f4 5fc0 b491 ffbc 5abf 94c0
000002e0: 116f f23c da49 da3c 9f5b a13a 36dc 0abd
000002f0: c49e a83b 5210 bfb9 eb79 32bc 888a b33c
00000300: 1a77 bcbc f6c4 aabc 5a86 e53c 6b56 a2bc
00000310: 1ccf d4bb 1f62 5e3c f5e7 133c 149e 1fbc
00000320: 32a8 b13c 56f0 29bd 744c 273c 8634 453b
00000330: 70ff 8dbb 97a1 fdbc 80e2 49b9 f7a5 663b
00000340: 8885 c5bc cd01 b43c 5866 8f3c 5ff4 5c3c
00000350: c862 8c3a 187b 0240 b66e 183c 0498 76bc
00000360: c80e 1ec0 c9d0 703e 7743 e7bc e4c8 f5bc
00000370: 183d 69bc b662 a8bc d980 03be a58a e0bc
00000380: 0823 2dc0 bc0f 873f ee96 0cbe cce9 bdc0
00000390: 7d9a b7be 40c0 bfbe 8fdd dac0 a467 013c
000003a0: 18b2 74bc 1d8e 553a 1730 ecbc feb9 da3b
000003b0: 78b1 c53c cf72 d3c0 e89c 9e3c 5742 c13c
000003c0: 5d2d afc0 d037 a23a 5d6f 33ba ab6a e2bc
000003d0: 846d bebf 9f83 3a3d 87c7 babc 3f8b b3bc
000003e0: 224d ddbb 8e2a c63f 6040 ce3c 795b b13c
000003f0: 40b7 e6c0 b1eb a0c0 07fd 613c fc16 c4c0
