saves/Dobot-v3/aim/seed_0/model/actor.pth (torch, 306007 bytes, 6 tensors)

l1.weight f4 [256, 36]
00000000: 8dd9 bdbc baf0 753d 3034 2abe 9653 bfbd
00000010: e784 83bd a76f 7b3c a82e 58bb df51 073e
00000020: d71a 33bd 965a 933d 01a4 0bbd 85dd 73bd
00000030: eca7 40be 6d21 a7bd e5bb 23bd 6892 0f3d
00000040: 9fb6 c13d 38f6 033e 7a1c acbd dff8 34bd
00000050: 49fb b63d 85db 2a3e 64fe bfbb da3c 1d3e
00000060: 8d05 65bd 5794 3d3d 52bb 013e f515 01be
00000070: 9869 9cbd 9180 96bc 0e7b 14bd d944 303e
00000080: 7476 d3bd 801e 4cbd c4b5 b4bd 69b2 0bbe
00000090: fc1b 8fbe 78be 903d 4e45 00be ef09 2fbf
000000a0: aa1c 19bf 6915 8cbf 4f9c 8abf a7a6 313f
000000b0: b99f 9abe dd18 7abf 57e3 a43e f074 0d3e
000000c0: 03fa 38be 397e 213e 303b 803e 8af7 153f
000000d0: 8852 febd c5d2 143e 7e47 2dbe e7e6 81be
000000e0: e40b 2c3b 89ca f93c d111 3f3e 8010 893d
000000f0: 73bb 4d3e 8a7e 8d3e 8beb abbe 96c3 323f
00000100: 22bd febe 71e6 82be dc73 9a3d b721 5bbe
00000110: c808 9dbe 5c49 173f 8a1b d13d ebd0 6ebe
00000120: 217e 6ebe af25 1c3f 3af2 a6bd e653 863d
00000130: a9ed df3d 063e ff3e ffd1 e6bc 7be8 8cbe
00000140: 6643 8dbe 8d9f a53d 9489 a13e 8d42 f4be
00000150: 566a 59be 73af 5b3e 3690 813b b392 3bbf
00000160: 613f 1f3f e753 b6be 0795 8cbe e865 fe3e
00000170: 7ef3 acbe 7c39 c9be e39c 4f3f 7ba3 3ebc
00000180: afdc 07bf a81a 13bd 2774 843e 11ce f9be
00000190: 0319 343f 9f4c 02be a929 b1be 2c07 8d3e
000001a0: 6367 92bf 2c4d 4cbe 0de4 2f3f 9a6a cb3c
000001b0: 3473 5cbd 0299 cabc 84b9 f1bd d1a3 913d
000001c0: 9881 34be 80fc b13d 53dd be3d 3670 b7bd
000001d0: e139 bbbd f93c 99bc d0f1 863d 3f27 e3bc
000001e0: a13f e93b 68da 8b3d cf79 0bbd d9fd a23d
000001f0: 7430 d1bd 0f09 2fbd 8ddd eebd 488e 7fba
00000200: 5caa 80bc b4c9 07be 01ff d13c a073 ac3d
00000210: 0933 24be 4e05 1a3d 77d6 013e 4c74 d6bb
00000220: 396f 463d 294f 483d 20f6 cfbc afc1 363e
00000230: f5f6 383e 0dac e73d 38e5 4c3e bb0d 2d3d
00000240: 15eb 22bf 120d 883f 9e15 713e 74db f13d
00000250: cd60 d3be 04e9 2dbe e262 69bd 32f6 483f
00000260: b411 713e 34ef 193e 4d55 333f 2ea1 bf3e
00000270: 4cf0 e83c a9a0 d0be 88d4 03bf 2459 ac3e
00000280: 1fad 06bf 4798 6cbe 71dd c0be 80e4 833f
00000290: 2a9f 963b 14c8 18bf e477 c83e 070a 67be
000002a0: fa8f 89bf 8575 08c0 657c afbf f793 523e
000002b0: 7e23 afbf 0673 c5be 6306 bdbe 289c d43f
000002c0: 0006 57bc ce97 0ebf ed8c d73d 24f8 77bf
000002d0: a2b9 febd ee00 d6be 5fae 143e 370b 993e
000002e0: 6625 413e e273 98be 1fd6 4ebe 1106 8f3d
000002f0: a7ff b7be 2ef3 423e caf8 4c3e 075d 2c3c
00000300: 9c6b a4be 0be3 103e 25dd 273e dfcf af3f
00000310: b3c1 063f 9467 0c3e 0d43 303f 1804 aabe
00000320: 54d4 e5bd b4f5 1a3d a153 7dbf 47db 33bc
00000330: 2d77 40bf 1edd 843d 611b 353e 7525 903f
00000340: 6299 313f 471d a1be 613a 963e 8ab3 6bbf
00000350: 080e 34bf 7bfa 52be b549 e6bf b68c f4be
00000360: 5901 1dbe 504b 00be fb97 b13d bc83 a1bd
00000370: 85e8 72bd 34e0 ea3d 1927 df3d af27 d13c
00000380: 2f36 48be ea67 0e3e 6367 bebd f8ae 05bd
00000390: 8d60 ddbd 57aa e83c 44ff 4f3d 42b7 163e
000003a0: 52c8 963d 06c0 4c3e a23b 383d 0e79 67bd
000003b0: b21e 023e 2bed 05be a98f b4bc cccb ce3d
000003c0: 8cf5 833a 8dd8 353e 1417 b6bd c11a 41bd
000003d0: 7bac 083e fc9f 3fbe 0e6c 7b3d 3cae b6bd
000003e0: 8c37 abbc 1ee7 99bd 83aa 33bd acea e5bb
000003f0: f241 afbd 358c 803e 8222 97bd f9ad be3e
-0.023175025 0.060044028 -0.1662147 -0.093421146 -0.064218335 0.015346444 -0.0032986794 0.13214825
-0.04372677 0.07195012 -0.034091953 -0.05953743 -0.18814057 -0.08160672 -0.039974112 0.035051733
0.0945866 0.12886894 -0.08403869 -0.044182654 0.089346476 0.16685303 -0.005859183 0.15355244
-0.055913497 0.046284046 0.12669113 -0.12606032 -0.07637328 -0.018371852 -0.036250167 0.17213763
-0.103253275 -0.049833775 -0.088237315 -0.13642277 -0.27951038 0.07067579 -0.12526438 -0.6837453
-0.5980936 -1.0944034 -1.0828952 0.69394916 -0.30199984 -0.9769419 0.32204697 0.1381414
-0.18064122 0.15770806 0.25045156 0.5858084 -0.12418085 0.14533527 -0.16921803 -0.25371477
0.0026252205 0.030492084 0.1865914 0.066926 0.20091037 0.27635604 -0.33578143 0.6982969
-0.49753672 -0.25566438 0.0754163 -0.2139958 -0.30670762 0.5909631 0.10210331 -0.23321883
-0.23290302 0.60995 -0.0815167 0.06558971 0.10934002 0.49852008 -0.028176306 -0.2752112
-0.27590483 0.080870725 0.31550276 -0.47707024 -0.2123197 0.21453647 0.003953959 -0.7327072
0.62206084 -0.35610887 -0.2745745 0.49687123 -0.3377952 -0.3930167 0.81098765 -0.0116356565
-0.5307111 -0.035914093 0.25869867 -0.4879003 0.70350665 -0.12724541 -0.34602097 0.27544534
-1.1437801 -0.19951314 0.6870735 0.024831105 -0.053820804 -0.024731163 -0.118029624 0.071113236
-0.17627561 0.08690739 0.09319558 -0.089569494 -0.09141899 -0.018705832 0.06589091 -0.027728675
0.007118181 0.06828767 -0.034051713 0.07958574 -0.1021432 -0.04273325 -0.11663351 -0.00097486796
-0.015706234 -0.13260537 0.02563429 0.08420491 -0.16035093 0.037602715 0.12679468 -0.0065446254
0.048445914 0.048903618 -0.025385916 0.17847322 0.18062957 0.11312113 0.20009315 0.042249423
-0.63639957 1.0628989 0.23543403 0.118094355 -0.4128479 -0.1698342 -0.056979068 0.78500664
0.2354191 0.15032655 0.70052034 0.37427658 0.028434895 -0.40747574 -0.5149617 0.3366176
-0.5260791 -0.23104964 -0.37668946 1.0304108 0.0045966106 -0.59680295 0.3915397 -0.22562419
-1.0747063 -2.1321728 -1.3709837 0.20564257 -1.3682706 -0.38564318 -0.36918935 1.6610155
-0.013123989 -0.55700386 0.10524926 -0.9686301 -0.124377504 -0.41797584 0.14519642 0.2989137
0.18861923 -0.29775912 -0.20198868 0.06983579 -0.35937235 0.19038078 0.2001678 0.010520226
-0.3211335 0.1414911 0.16392954 1.3735312 0.5263931 0.13711387 0.6885231 -0.33206248
-0.11222139 0.037831977 -0.9895573 -0.010977573 -0.7518185 0.06487487 0.17686225 1.1261431
0.6937467 -0.3146765 0.29341415 -0.9207083 -0.7033391 -0.20603363 -1.7991244 -0.47763604
-0.15332545 -0.1252873 0.08671566 -0.078864545 -0.05930378 0.114685446 0.10896129 0.025531618
-0.1955192 0.13906828 -0.09297063 -0.032637566 -0.10809431 0.028401537 0.05078055 0.14718345
0.07362427 0.19995126 0.044978745 -0.05651193 0.12707022 -0.13078754 -0.022041159 0.10097465
0.0010067686 0.17758389 -0.088911206 -0.047144655 0.13347046 -0.18713373 0.061382346 -0.08919951
-0.02090051 -0.07514785 -0.043863785 -0.0070165005 -0.085575 0.2510697 -0.07379629 0.37242106

l1.bias f4 [256]
00000000: bd3c c4bd 45f5 80be 0057 8dbe 3ef8 11bd
00000010: 1749 87bd 48c8 60be e2a4 2ebd 97e6 7ebd
00000020: 076a 8cbd 857d abbd 5fb7 8ebd 175a 26be
00000030: 97c3 2fbe 248f f33d 613a 51bc 7825 58be
00000040: 1060 0fbe 4791 e3bd c847 1cbd 91e3 293c
00000050: 08b0 72be 6503 1fbe 89fb 033b d8ef 55bd
00000060: 8aeb 4cbe c9af 1abe 3b01 973d bf94 c63d
00000070: 309a 24bd 9991 86bd d3b3 303d c1d4 d3bd
00000080: 2344 16bd 15cf 1fbd 5eef 683d 1975 f6bc
00000090: 70bd 9fbe d9e3 06be 7385 ba3c 5bbd d23c
000000a0: 6681 6abe d7ba 10be 6d86 4d3d fbb8 26bd
000000b0: 3ecf fdbd f153 2ebd f4ba b2bd 98eb d4bd
000000c0: c7c0 c6ba 93d8 a7bd d2e8 29bd 758b 7f3c
000000d0: 407f b33d 4d7b 98be 52d6 1bbc fdd6 3b3e
000000e0: 7d8a 733d fde1 93bd 40a6 55bd 6ae2 2cbe
000000f0: 34d1 953d 033d 6bbe a992 39bd 1315 c33a
00000100: dbb0 7cbe cb85 b0bd e184 74bd 7770 0dbe
00000110: 2b7a 1fbe 53f3 e5bd 94b0 20be 5cde 2bbd
00000120: b3a0 45bb 967d af3d 588b 0bbe 6645 60be
00000130: 89d3 0ebe 60cc b0bd 34c2 aebd 0d1e 53bd
00000140: bb22 ed3d f19e 27bd 6b29 22be 6a1b 95bd
00000150: 793a 32be 198d 28bd 8ebf dabd f45a c63d
00000160: 5b78 f0bd 76d6 dcbd fa2d 58be 5e5a 5abe
00000170: 737e f3bd 0638 85be 1935 b6bd 3e2b 6d3d
00000180: 0da5 5cbd 5307 833d ae91 d4bd 01a1 fbb9
00000190: 967c 5f3c 48b4 94bd 4a97 afbd ba31 dcbd
000001a0: 46d5 f2bd 01ec 1b3e 92f7 25be 2dbd 18be
000001b0: a9f8 6fbd 7028 b4bd 1df0 f1bd b25a 4fbe
000001c0: c0cf b33c 96e1 35be af42 3ebe bc7f 4a3c
000001d0: a590 093b eee6 91bd af4a 103e acac 1cbe
000001e0: 8786 9c3d ae98 ee3d 7c55 24be 42ea 173d
000001f0: dae5 79be 6c36 0dbe 665b a9bd cb21 ecbd
00000200: 6f38 c23c e2fd abbd 51a2 87bd b8d9 efbd
00000210: df8e 423d 387d 17be f138 4abe af8b ad3b
00000220: 8573 4f3d 6adc b63c 1606 79be ed59 24be
00000230: aa61 b43c a29b 56be 94ca 403d f8b6 f83d
00000240: ba08 eebd 4fa0 8cbe 91fd 473d aa8e 873c
00000250: 17dd aebc d0ac 5b3d 8990 5cbd fc5c 03be
00000260: 992d 9abe cf3e d13d 339b 02be dd1a 0b3d
00000270: d158 0a3e 4f7c 0abe b4d9 57be da78 683d
00000280: 5f8f 9bbd 9723 a0be 96aa 2bbe 051a 15bd
00000290: 9422 1ebe e795 cabe e37b 61bb 5102 30be
000002a0: 177c 21be 80f9 28bd ac8b b1be f8a7 37be
000002b0: 0709 11be be64 293d 6846 c73c bd2e 85bd
000002c0: 1536 0ebe 2132 67bd 1cc1 23bd f919 b2bd
000002d0: 7bba c3bd b3df 30be 17e3 2d3c 4e17 83bd
000002e0: 056b 1cbd c4fa dd3d 20d0 b33c 5291 9d3d
000002f0: 43ed 003d 8a62 b13d 1671 45bd b634 aa3c
00000300: 3feb 9a3d f40c e63d a772 48be cd79 b93b
00000310: 4713 05be 1523 f4bd 16f5 14be 99e3 b0bd
00000320: c28c 583e 1ace c2bb e3ed ebbd a2c1 55bd
00000330: 46db fabb 5beb 573e 6fe5 4a3d ddcf 54be
00000340: 0be8 18be 9bb2 f3bd 2287 8dbc 19f4 5fbe
00000350: 1cd6 0abe a59a 3a3e b242 fbbd fdf5 6bbd
00000360: 6dc7 81bd 17da 5c3d 981e 61be 59c5 3cbe
00000370: 0f37 2e3c 66eb 31be cf25 523e b745 cbbd
00000380: 6f84 26be 89d0 0ebe c7ec e5bd 1044 ce3d
00000390: 2392 4bbe ae7d edbd 8619 44be abc3 8dbd
000003a0: 5ecf 93bd a7c3 a4bd 6dcf 4bbe 49ad a0bd
000003b0: ef2d 1fbe 23e7 92be cd1b 9a3d d039 94bd
000003c0: 1c73 673c 6389 873d cb8d cdbd 3368 a5bc
000003d0: 8ab8 afbb 92e1 09bd 1c0b 7dbe beb8 0abe
000003e0: 53f1 8bbe e0fe e13d 7893 aa3d 58ef e63d
000003f0: 8c94 6ebe d1e6 9ebd b412 523d fc19 9ebe
-0.095818974 -0.25187126 -0.27605438 -0.035637133 -0.06605738 -0.21951401 -0.042637713 -0.062231626
-0.068561606 -0.0837355 -0.06968569 -0.16245304 -0.17164455 0.11892536 -0.012770266 -0.21108043
-0.14001489 -0.11111694 -0.038154393 0.010369197 -0.23699963 -0.15528639 0.002013894 -0.052230686
-0.20011726 -0.15106119 0.073732816 0.0969634 -0.040186107 -0.06570739 0.043140244 -0.10343314
-0.036686074 -0.03901585 0.056868903 -0.030085133 -0.31199217 -0.13172854 0.022768712 0.025725057
-0.22900924 -0.14133774 0.050177027 -0.040703755 -0.12393044 -0.04256052 -0.08727065 -0.103964984
-0.0015163653 -0.08195605 -0.0414818 0.015597214 0.087645054 -0.2978157 -0.009511547 0.1834373
0.059458245 -0.07220838 -0.0521605 -0.16883245 0.07315293 -0.22972493 -0.04530588 0.00148836
-0.2467684 -0.08619269 -0.059697036 -0.13812433 -0.15573947 -0.11228051 -0.15692359 -0.041960105
-0.0030155599 0.085688755 -0.13627374 -0.21901473 -0.13947882 -0.086327314 -0.08533135 -0.05154233
0.1157889 -0.040923063 -0.15836112 -0.072806194 -0.17405118 -0.041150186 -0.106810674 0.09685317
-0.11741706 -0.10783093 -0.21111289 -0.21323535 -0.11889353 -0.26019305 -0.08896846 0.057902567
-0.053868342 0.06397881 -0.10379349 -0.00047994408 0.013640543 -0.072609484 -0.08573778 -0.10751672
-0.11857085 0.15226747 -0.16207722 -0.14915915 -0.05858675 -0.08796775 -0.11813376 -0.20249441
0.021949649 -0.17761835 -0.18580125 0.012359556 0.0020990756 -0.071241245 0.1409099 -0.15300244
0.076428466 0.11650215 -0.16048235 0.03708864 -0.24404088 -0.13790292 -0.08269386 -0.11529883
0.02370855 -0.08398034 -0.06622756 -0.117114484 0.047499534 -0.14793861 -0.19748284 0.0052961926
0.050647277 0.022321898 -0.24318728 -0.16049929 0.022019226 -0.20957807 0.047068194 0.121442735
-0.11622758 -0.27466056 0.048825804 0.01654752 -0.021345658 0.053631604 -0.053848777 -0.1282844
-0.30112913 0.10217058 -0.12754516 0.033961166 0.13510443 -0.13523982 -0.21079141 0.056755878
-0.07595705 -0.31277153 -0.16764292 -0.036401767 -0.15442878 -0.3956749 -0.0034406118 -0.17188384
-0.15769993 -0.041253567 -0.34676874 -0.17935169 -0.141636 0.04135584 0.024325565 -0.06503055
-0.13887818 -0.05644429 -0.039979085 -0.0869636 -0.09557053 -0.17272834 0.0106132245 -0.064009294
-0.038188 0.10838845 0.021949828 0.07693733 0.03147627 0.08661373 -0.04820355 0.020777088
0.07564401 0.11232939 -0.19574986 0.0056602717 -0.12995635 -0.11920754 -0.14546618 -0.08637161
0.21147445 -0.0059449794 -0.11519983 -0.052186616 -0.007655534 0.21085875 0.04953521 -0.20782419
-0.14932267 -0.11899301 -0.01727635 -0.2187046 -0.13558239 0.18223055 -0.122685805 -0.05760764
-0.063368656 0.053918924 -0.21984327 -0.18434657 0.010633244 -0.17374954 0.20522235 -0.099254064
-0.16261457 -0.13946737 -0.11226802 0.10071576 -0.19879965 -0.11596237 -0.19150361 -0.06922086
-0.072172865 -0.0804513 -0.19903345 -0.078455515 -0.15544866 -0.28691968 0.07524834 -0.07237589
0.014126565 0.06618001 -0.100368105 -0.020191288 -0.005362575 -0.033662386 -0.24711269 -0.13547036
-0.27332553 0.11034942 0.08328909 0.1127612 -0.23298854 -0.077588685 0.051287368 -0.308792

l2.weight f4 [256, 256]
00000000: 8cc6 b63c 64f2 00bf 6843 11bf 1b90 5ebd
00000010: 1f71 a4be 6bdb bfbf cfd3 4fbd 326b b3bf
00000020: 69a5 c7bc 25ff d13d 0a8a f8be bbf4 6b3e
00000030: 5c7b 55bd 20ba 06bf 0448 b03d d12d 57be
00000040: 304a 553d 4eef 7abe 3d34 11bf 3b24 a23f
00000050: e8c6 023f 8c88 143e 07d2 7cbd e7cf 80bd
00000060: dbba 063e 829e 99bf 8191 4a3c 6170 54be
00000070: 200e b03f 617c b9bf 82ba d0be 33cb 093e
00000080: 136e 963b 3a85 a23e 70ee 96bf 9ed3 91bd
00000090: ff76 5d3f fd5c 903c 359f 283f bc58 21bf
000000a0: 5502 57be 2953 cbbe 3ec6 b23c ec19 7c3c
000000b0: f282 aabe e02a 76bf 6dc8 8b3f 8e26 703e
000000c0: 2976 bcbf 502d 40be 22a4 553e ad29 03c0
000000d0: 3328 92bf 044f 00be 7a28 d83d 98f6 99be
000000e0: 90f4 133e d063 c4bf 5db2 643e 6bbd dabe
000000f0: 9aea 623f 4418 34bf e326 ae3d 49fd ddbf
00000100: a169 e8be fc6f 83bf 343d 23bf abaa e7bd
00000110: d349 8dbd bad3 773e 3a1a 5cbd 12f3 463d
00000120: d087 68be fd65 a03f 5691 413e afed 23bf
00000130: 0054 59bd af3b 80bf 8336 5ebf 6fa3 90be
00000140: 848d f6be e0fa 4a3d be5e 5cbe 8fe1 1dbd
00000150: cebc fa3e efc4 08bd 57c8 24be 2f45 0bbf
00000160: 4110 b6be 2245 663e 2764 e9be 95ba ab3e
00000170: ce51 0bbe d323 bc3e 7fc7 a5be d566 5a3f
00000180: 7ced ca3c 91a4 c2bc 8060 583a 804a d0be
00000190: 1546 8fbe c492 7abd afa4 783e 5bdd a3bf
000001a0: 29d4 30bf 9906 913e ed13 5e3d 2e64 b3be
000001b0: 8975 483e f820 203d aa14 3dbf 0387 103d
000001c0: afa6 15bf c090 cf3a eb37 9a3e 2a2a 23bd
000001d0: 1fc9 84bd a008 e53b 6b7e b33e 245e 0c3f
000001e0: fa1c adbf da1d 733d 0c80 38c0 44bd 273f
000001f0: 053e 07bd de0c e4bd ac23 eb3c 1d05 fc3d
00000200: 57c3 c7be 1d4b 9cbd b28d 29bd 3b2d 443f
00000210: 9619 8cb9 537d c7ba 51a6 73bd 21cd 273e
00000220: 6699 d13f 4292 ae3b 851a 883f 14e1 74be
00000230: 807e d2be a243 8bbf 5a39 21bf b314 a63d
00000240: a861 e0bf f133 613f dde3 04bf 6819 71be
00000250: 3133 0dbd 0639 093d 0758 a03d 19d1 f1bc
00000260: 500c 1d3f 8bf7 a7bf 0206 7dbf 7971 ea3d
00000270: 89ea fe3c 2766 00bf 5268 993e 57aa 90bf
00000280: 10e7 94bf 050a 6abe 338c e63e 2cb5 a13d
00000290: 3485 0e3f 228a 493e 5857 18ba 8bc8 913e
000002a0: 5a92 eebf 286d 6dbf b7f3 103e 8676 26bc
000002b0: b676 fcbf 618f 7f3e b88f 0cbf 4502 563f
000002c0: 1b7e 40bd ab34 f43e 4fdf a13f 7b76 23bf
000002d0: 0d2e 17bf b5eb a93c c9db 753f ddf0 4d3f
000002e0: 7e34 343e 58bf 453e 96ab babe 3c20 19bf
000002f0: c0b9 65bf 4fe8 b63e ba9e 61bd e2fd fe3c
00000300: 1c45 fb3c dc16 e6bf 20d5 603e 5ee7 9ebe
00000310: af19 273d 5812 cfbc 8c0b 43bd bec7 63bd
00000320: 4683 96bf 613a 1fbf 141a 50bd 51fe 29bf
00000330: d7fc 083c 714b bfbe 8be6 9a3e 6cea 8b3d
00000340: 6ba9 6e3d c052 ca3d c14c 4dbd b64f 17be
00000350: 7f8d 40bf 8fc4 79bf 6405 6d3f 0825 79bf
00000360: 0e94 d4bc 0933 573f 6534 15bd ab37 e63e
00000370: cf70 883d 9be3 8d3e e7e8 68bd 05bd 1fbf
00000380: 2c7b 88be 2d99 633f f4c2 dabe 8fa9 c7be
00000390: cbc6 29bf 149c 56bd 3e30 39be 7a6d abbf
000003a0: 92d8 46bf 267e 203f a798 f1be 2dcf 08c0
000003b0: 244c cebc 2f68 c2bf 16c7 90b9 af31 b93c
000003c0: a27a 05c0 f5f7 913e 5625 9dbf 1bb2 a4bf
000003d0: 898b aabf 7ba0 103f f4d0 383f ce07 b0bc
000003e0: 2a98 9dbe ecbc 63bf 05b2 67bd 1f9e 3fbd
000003f0: 7010 0d3d 5e47 60bf 8416 343b 9eaf c7be
0.022311471 -0.5036986 -0.5674348 -0.05433665 -0.32117555 -1.4988836 -0.050739106 -1.4017088
-0.024370866 0.10253743 -0.48542815 0.23042576 -0.052119598 -0.52627754 0.08607486 -0.21013571
0.052072704 -0.2450535 -0.56720334 1.2667307 0.51084757 0.14505213 -0.061723735 -0.06289654
0.13157217 -1.2001498 0.012363792 -0.20745994 1.3754311 -1.4491082 -0.40767294 0.1345642
0.0045907586 0.3174227 -1.1791515 -0.07120441 0.865097 0.017622465 0.6586793 -0.6302602
-0.20996983 -0.39711884 0.021823045 0.01538704 -0.33303028 -0.9615917 1.092054 0.23452207
-1.472356 -0.18767285 0.20863393 -2.0494187 -1.1418518 -0.12530142 0.10554595 -0.3007095
0.14448762 -1.534296 0.22333665 -0.4272264 0.88639224 -0.70349526 0.08503511 -1.7342921
-0.45393088 -1.026855 -0.63765264 -0.11311849 -0.068988465 0.24201861 -0.05373595 0.048571654
-0.22708058 1.2531124 0.18903098 -0.6403455 -0.053058624 -1.0018214 -0.8680193 -0.2824969
-0.48154843 0.04955566 -0.21520516 -0.038545188 0.48972172 -0.033390936 -0.16092049 -0.5440244
-0.35559276 0.2248731 -0.45584223 0.33540788 -0.13605425 0.36746082 -0.32378766 0.8531316
0.024771444 -0.023760112 0.0008254126 -0.4068184 -0.27983156 -0.061175123 0.24281572 -1.2801927
-0.6907373 0.28325346 0.05421822 -0.3503737 0.19576086 0.03909394 -0.73859656 0.035285007
-0.58457464 0.0015835986 0.30120787 -0.039835133 -0.06483673 0.0069895536 0.35057387 0.5483115
-1.3524468 0.05935464 -2.8828154 0.6552317 -0.03301813 -0.11135267 0.028703533 0.12305663
-0.3901622 -0.07631514 -0.041394897 0.76631516 -0.00026721944 -0.0015219845 -0.059484784 0.16386844
1.6374938 0.005327494 1.0633093 -0.23913985 -0.41112137 -1.0880015 -0.62978137 0.08109417
-1.7529802 0.8796988 -0.5191019 -0.23544848 -0.034472648 0.033501647 0.0782929 -0.02951865
0.6134691 -1.3122419 -0.9883729 0.114474244 0.031117694 -0.5015587 0.29962403 -1.1301984
-1.1633015 -0.22855385 0.4502884 0.07895884 0.55672 0.196816 -0.0005811355 0.28473315
-1.8638413 -0.92744684 0.1415547 -0.010160094 -1.9723728 0.24957038 -0.549068 0.83597213
-0.046995264 0.47696432 1.2646273 -0.6385266 -0.5905464 0.020742277 0.9603849 0.80445653
0.17598149 0.19311273 -0.36459035 -0.5981481 -0.89736557 0.35724112 -0.055083014 0.03112692
0.030672602 -1.7975726 0.219563 -0.31035894 0.04079598 -0.025277302 -0.047618434 -0.05561041
-1.1758811 -0.62198454 -0.05080612 -0.6640368 0.008361063 -0.37362245 0.30254015 0.06831822
0.05826704 0.098790646 -0.050122026 -0.14776501 -0.75215906 -0.9756555 0.9258635 -0.9732213
-0.025949504 0.8406225 -0.03642692 0.44964346 0.066621415 0.27712712 -0.056862738 -0.62397796
-0.26656473 0.889056 -0.42726862 -0.3899655 -0.6631896 -0.05239494 -0.18084809 -1.3392785
-0.7767421 0.6269249 -0.47186777 -2.137645 -0.025182791 -1.5188044 -0.0002761415 0.022606699
-2.08561 0.2850949 -1.2277019 -1.2866853 -1.3323833 0.56494874 0.7219384 -0.021488097
-0.30780154 -0.88960147 -0.056566257 -0.046781655 0.034439504 -0.876089 0.002747924 -0.39001173

l2.bias f4 [256]
00000000: 82d5 48bf 7cd2 46bf 8757 52bd 1ac2 49be
00000010: e53f 3fbd 7d48 403d ca8c 1e3e b4eb f3bd
00000020: 39e9 35be a4bf 25be 5ba9 0abb e78c 84bc
00000030: 6e0f 4ebd c953 bd3d 1ff1 393e b417 d0be
00000040: 3483 e5bd be70 7c3d 2d99 40bf c98f a9be
00000050: ab1b bcbd fe86 8abd 5370 babc 3628 aebe
00000060: 2163 c33c cfd5 aebd 8f17 1fbd e28f c73b
00000070: f881 a1be c8df 503e d9a5 a93b 4246 9cbd
00000080: 0ffd 0fbd 59dc 923d 62c7 87bd d323 ddbe
00000090: c997 f1be 58ac a8bd 7443 773c 1919 b13d
000000a0: 144a 5abe cec6 80be 9463 5fbd 5991 b3be
000000b0: 6fd8 01bf b870 0f3e befb 90bd 4736 533d
000000c0: becf 213c 009c 5dbc 4746 f7bd af53 c5be
000000d0: a518 49be 677d 973c 039e 853e 8a3f 10bf
000000e0: 1980 12be de3a fe3d c194 7abe c995 cc3d
000000f0: 6673 c7be d33e f2be 4ff1 ae3e 584e 403e
00000100: 9253 f13c 7251 423e 90bd 3d3d 56f3 c8be
00000110: 8eca 683d 35a8 843e 771e 5dbc 08f0 523e
00000120: 5438 87bd e890 c43d 8b1a 10be afef 08be
00000130: 3c34 f9bd f922 13be 3d09 4d3e 59a4 51bd
00000140: e5b3 42bd c7df 26be a495 c3bd 6df1 50be
00000150: 0c99 9dbd 9567 26be 1f41 86be 8dd9 0ebf
00000160: 44a9 d2be d1d6 a7bd aa18 16bd 8571 8cbe
00000170: 1be3 1abf 5dca 973d 691f a7bd 36f7 3fbe
00000180: 1e83 5cbd ba43 9d3b 7930 b9be c218 b8bd
00000190: 0feb a2bd 398f 073e 8622 a9bd 873d be3e
000001a0: ba22 ccbd eb60 0ebb 22a3 abbd 3a6b 6b3d
000001b0: 9e49 27be d910 05bf 9bd5 6bbd 5f5c e73d
000001c0: d481 dcbe cc38 913d 3d3e 26be 9231 22be
000001d0: b6ed c3bc a036 b3bc bcc6 52bd 5b97 c5bd
000001e0: 1149 52be e73e 44be cd14 bbbc 1dbb 29be
000001f0: 0278 7bbc cd0c 063e 6f29 363e f32b 2dbe
00000200: ada1 f2be c351 3bbe 9783 44be 70f8 9ebd
00000210: bfe0 823d ce82 b8bd 12e4 17be 44a5 b9bb
00000220: 4025 d8be 45db 22be f359 88bd df4a 23bf
00000230: e639 a2bd d234 34bd def5 28be f4eb 4bbe
00000240: a98c d73c e9dc e5bd df7a c93d 204e 773e
00000250: ded3 b83d 58a6 84be 2fc2 24be d61b 723d
00000260: 7f9c a3be 2b2c 1bbd 79f0 583d 3505 28bc
00000270: 61c5 003e 00c0 d43d f09d bebe cbbd 493d
00000280: d723 fabe b999 4abe 338c c0be 7552 fd3c
00000290: bace 9ebd b56b 15bd c67d 31be 696c 7bbe
000002a0: 90cc bcbe 5a53 69be 19dc 85bd 75f0 c23d
000002b0: 30d3 043d a231 d2be 446c 07bf 2a05 45be
000002c0: 119c aabd 2919 c7bc bfc1 eebe 79c8 0c3e
000002d0: be8a 1ebd 7911 43be 11b6 503e f6af c1bd
000002e0: 0a69 a3bb d7e6 07bd 8c0b 513e 515f 22be
000002f0: 4391 073f 0987 15be d76a 7b3d 80f4 73bc
00000300: b9e2 243e a641 93bd c981 3cbd 8101 78bd
00000310: 0688 24bf 737f dbbe 219e 36bd 589c 9dbe
00000320: 1b0d 8dbe 25fd 893a 3efb 1ebf d26c c5bd
00000330: c4e5 babd ce69 2dbe 3151 9fbd 608d 913d
00000340: 110b f9be a5af 9ebb 8cc2 b2be fedd 48bd
00000350: f12d 853e 9ef3 8abe ed82 9cbd 5faa 5cbd
00000360: 5e5d 7d3d 0d02 1abf b27f 99bd 3bcd 3abe
00000370: ed6f 1ebe 56e3 adbe 60ac 99bd 64c5 7dbe
00000380: 168d 6bbe 39d6 9abc 4aab 84be 21bf 61bf
00000390: e81b 4a3e 6a34 27bd 9df5 94be e179 8cbd
000003a0: 7ce8 1fbd 533f e83c 0059 62be cf5a b9be
000003b0: 9999 183d 8609 e5bd f5b9 58bf 13f4 81bd
000003c0: 7d56 24bf 4464 70be 9214 be3d 546e 7b3c
000003d0: 1f1c b6bd a32f 08be ea25 8bbd 5bd0 9dbd
000003e0: 521d 50bd c645 19bd 7bcd 983e 6e77 b7be
000003f0: 3a16 8a3e f4dc a9bd 5597 bfbc 72b3 bebd
-0.7845079 -0.77664924 -0.051353004 -0.1970295 -0.046691794 0.04694413 0.15483394 -0.11910191
-0.17764749 -0.16186386 -0.0021158073 -0.016180469 -0.050307684 0.092444964 0.18158387 -0.40643084
-0.11206666 0.061630957 -0.7523373 -0.33117512 -0.09184965 -0.06764029 -0.022758638 -0.34015054
0.02385098 -0.085368745 -0.038840827 0.00609015 -0.3154447 0.20397866 0.0051772413 -0.07630588
-0.035153445 0.07170934 -0.06629826 -0.43191394 -0.47186115 -0.08235997 0.015091766 0.08647365
-0.21317321 -0.25151676 -0.054538324 -0.3507183 -0.50720876 0.14007843 -0.07079266 0.051565435
0.00987619 -0.013525963 -0.12073951 -0.38540408 -0.19638307 0.018492414 0.26097116 -0.5634695
-0.14306678 0.12413572 -0.24470808 0.09989507 -0.3895523 -0.47313556 0.3416848 0.18779886
0.029458795 0.18976381 0.04632336 -0.3924815 0.056833796 0.25909582 -0.013496033 0.20599377
-0.066025406 0.09597951 -0.14072625 -0.13372682 -0.12168166 -0.1436881 0.20023055 -0.051182125
-0.047534842 -0.16296302 -0.09550026 -0.20404597 -0.07695207 -0.16250451 -0.26221558 -0.55800706
-0.41144764 -0.0819527 -0.036644615 -0.2743036 -0.60502785 0.074116446 -0.08160288 -0.18746647
-0.05383598 0.0047993334 -0.36169794 -0.08989097 -0.0795499 0.13238229 -0.08258538 0.37156317
-0.09967561 -0.0021725248 -0.083807245 0.057475306 -0.16336676 -0.5197883 -0.057576757 0.11296915
-0.430678 0.07090911 -0.1623468 -0.15839222 -0.02391706 -0.021876633 -0.05145906 -0.096480094
-0.20535685 -0.1916462 -0.022837067 -0.16575284 -0.015348436 0.1309082 0.17789243 -0.16911297
-0.47388974 -0.18292908 -0.19190823 -0.077622294 0.06390523 -0.09009324 -0.14833096 -0.005665453
-0.4221592 -0.15903957 -0.066577815 -0.6378612 -0.079211995 -0.043995686 -0.16500041 -0.19914228
0.02631219 -0.11223776 0.09837889 0.24150896 0.090247855 -0.2590816 -0.160897 0.059108578
-0.31955335 -0.03788392 0.052963708 -0.010255148 0.12575294 0.103881836 -0.37229872 0.049253266
-0.4885547 -0.19785203 -0.37606964 0.030923108 -0.07754274 -0.03647967 -0.17333135 -0.24553074
-0.3687482 -0.22785702 -0.06536121 0.0951852 0.032427967 -0.41053492 -0.52899575 -0.19240251
-0.083305486 -0.02430399 -0.46632192 0.13748349 -0.038706534 -0.19049634 0.20381953 -0.0945739
-0.004986887 -0.03317913 0.20414561 -0.15856673 0.52956027 -0.14602293 0.061381187 -0.014889836
0.16102113 -0.07190256 -0.04602221 -0.06054831 -0.64270055 -0.42870674 -0.044584397 -0.30783343
-0.2754906 0.0010527713 -0.62102115 -0.096398965 -0.091258556 -0.16934893 -0.07779158 0.07107043
-0.48641255 -0.004842716 -0.34914052 -0.049039833 0.26011613 -0.2713899 -0.076421596 -0.053873416
0.06185662 -0.6015938 -0.07495059 -0.18242352 -0.15472384 -0.33962506 -0.07503581 -0.2478233
-0.23003039 -0.018900977 -0.25911933 -0.88182265 0.19737208 -0.04082147 -0.29093638 -0.06859184
-0.039040074 0.028350508 -0.22104263 -0.36202094 0.037255857 -0.11183457 -0.8465875 -0.063453816
-0.6419447 -0.23475748 0.09281267 0.0153461285 -0.088920824 -0.13299422 -0.06794341 -0.07705756
-0.050809212 -0.037420057 0.2984427 -0.35833305 0.26970083 -0.082940966 -0.02338759 -0.0931157

l3.weight f4 [3, 256]
00000000: cc18 4a3f e4c1 c6bf 1de9 18bc a6ca b2bf
00000010: ce6d 20bd ec80 f03e 631b 42bf 6007 783e
00000020: bfdf 343f 24a6 bdbd baf4 fa3a 9266 0abd
00000030: 28b1 4dbb df63 793f ee62 52bb 86f3 b93f
00000040: 46bb 853f 93a9 0f3f f66f 2e40 04f9 9040
00000050: f881 9b3f 927e ec3c a479 8e3e 15a5 2abf
00000060: 1cd8 9b3c ffd1 06bd 258a 60bd 851f c3bd
00000070: a9f2 643e c254 583f fb4a 9bbe 0087 a6bc
00000080: e094 99be c3bc 413b 9930 803c 8392 57bf
00000090: b6d9 8ebf 6bf7 1d3c ccbf ce3e df9b 8938
000000a0: 5ae3 a0bf 9606 20bf 12e2 a33b 11a6 663e
000000b0: 5a44 2fc0 3d82 25bf 02f2 8abe 3d26 e03e
000000c0: 6817 adbb 0970 b93c 08bd cfbf 281e 04c0
000000d0: de8d f8bf 286c 72bf 2765 41bf a28b 6cbf
000000e0: dd5b 85be 4e8d 00bf 2d43 173f 014e 523e
000000f0: 3c8f 54bf 25cf febf 9520 ecbc cef3 8f3d
00000100: b1e3 8b3c c9cc 1fbf ba3c 0abf 2cb2 043f
00000110: cb92 0940 af1f 923f 8493 e73d 8d00 913e
00000120: f09f 0ac0 5a93 a8be 8094 21bd cfbd f8be
00000130: e250 553e 9069 df3d 5beb 263f 254d 13bb
00000140: c2bb 0e3c 466e c73f b1e9 0940 c0f6 343f
00000150: 1ac4 28bf 4558 8b3f db1f 08bd 4403 833f
00000160: 512b a9be d76d 803d 7eb1 64bc e8ba df3f
00000170: c3c0 45bf 3b5e 86bf ee4a 083d 16a4 fa3f
00000180: 1dfd c2bb d0ad 4eba 832d 0c3f ebfb 803c
00000190: 66c4 c2bc 4735 863e 2849 d93b 2fad 74bf
000001a0: 5e62 bf3f b8dd 323c a609 72bc 4495 0a3f
000001b0: fe26 c4be 9dfb 1ec0 0cf4 463d 3af9 c63f
000001c0: 7042 643e 1f45 59be 7891 213f e2c3 22c0
000001d0: 3bc1 afbd 2352 68be 84bf 5e3d 7db5 f83d
000001e0: d799 b93f f375 e63f 24ec c0be 5159 763f
000001f0: ed8a 99bd 8e26 4cbe 0a68 0ebf 7887 1340
00000200: 556e 84c0 d62c b13f 519a 0d3f d66d f6bd
00000210: 8f7f 283f fdfd 493f b6b9 adbf 4131 1abe
00000220: 4f5b 08c0 663d cc3f 8973 bbbf 7778 24c0
00000230: 87eb 1e3f 7150 76bc 3139 2d40 5a16 c23f
00000240: 24fa 353c fd00 a23e 16eb adbc 87c2 fe3e
00000250: 7cd5 8e3c 8882 f9bf ac45 2240 0569 5c3e
00000260: 5b5b 2fc0 6436 cabe 6759 bcbe 3ab0 143c
00000270: 51fb 8e3e f6d2 a7bf f0da 7dc0 dd27 6340
00000280: 88b0 81bf 6362 b73e 40b3 1540 216f 01bf
00000290: 62a2 00be a5e4 083c f0a2 e1be 671f bdbe
000002a0: 5f8f 90bf 83f9 7bbe c5f9 9e3d a52f 603f
000002b0: 5f75 293f bd26 bebf 0f88 ad3c 6a65 dfbe
000002c0: a991 133b 8f2d 133f 114b 173f 2fa4 b4be
000002d0: 2efc 47be d254 a4bf 7b75 903e 4a4f 833e
000002e0: 6e8f 81be 7ab7 d6bd c36c 43bf fdfc 23c0
000002f0: 7726 05be 38cc 3ebf 044d 493f eb97 5c3f
00000300: 84ed 323f 01b1 143d b7a1 0f3d 34e6 273a
00000310: beb5 24c0 2b75 3abe 32b6 8ebc 1b7b 443f
00000320: c736 c23f 6e26 83be 9764 20c0 2ed0 3ebf
00000330: de8d 74be 3121 a73c de8a 663b ccc2 523e
00000340: 87c6 a83f 3a26 e03b e3cf 8540 a748 943e
00000350: fbb2 50be fafb b5bf adc1 afbd 6899 18bb
00000360: 58a0 abbe c1e5 ab3f fefb 9c3a e79a bbbf
00000370: 770b 0abf 6c87 4e3f 4c30 563d 1938 61bf
00000380: 99df 8bbe 2635 213b a537 71bf 22b9 32c0
00000390: 3ceb 7bbe 3f08 1a3c affa bdbf 7b8b ab3b
000003a0: b5b9 503d 3240 6a3f bf07 db3f 0646 403e
000003b0: 3be2 23bf 190b 88bd 2758 94bf df19 32bf
000003c0: 5e5f c23f 455c b7bc 24b4 ec3d 51b7 8d3e
000003d0: 984c 1f3d 838d 2dbc 6603 8e3c 8a20 d4be
000003e0: 54f7 a6ba 4dfd 3a3d 95e9 103e 5b73 8b3e
000003f0: b156 9ebe 10b1 75bd 6f7e 6d3d 4e0b 163f
0.7894409 -1.5527921 -0.009332922 -1.3968093 -0.039167218 0.4697336 -0.7582304 0.24221563
0.7065391 -0.092602044 0.001914642 -0.033789225 -0.003138611 0.97418016 -0.0032102424 1.4527442
1.0447776 0.56118125 2.7255836 4.5303974 1.2149038 0.028868947 0.2782718 -0.66658145
0.019023947 -0.03291511 -0.054819245 -0.09527496 0.22358193 0.8450433 -0.30330643 -0.020328045
-0.29996395 0.0029561974 0.015648173 -0.84207934 -1.116019 0.009641509 0.40380704 6.561702e-05
-1.2569382 -0.6251005 0.005001315 0.22524287 -2.7385468 -0.6465185 -0.27137762 0.43779173
-0.0052823313 0.02263643 -1.6229563 -2.0643406 -1.9418294 -0.94696283 -0.7554497 -0.9240056
-0.2604665 -0.50215614 0.5908688 0.20537569 -0.8303106 -1.9906965 -0.02882413 0.07028924
0.017076345 -0.6242185 -0.5399891 0.5183437 2.1495845 1.1415919 0.11307433 0.28320733
-2.1660118 -0.3292492 -0.03944826 -0.48582312 0.20831636 0.10908806 0.65202874 -0.0022476402
0.008711757 1.5580528 2.1548884 0.7068901 -0.6592423 1.0886313 -0.033233505 1.0235372
-0.3304086 0.0627095 -0.013958333 1.7478914 -0.77247256 -1.0497507 0.033274584 1.9581325
-0.0059505836 -0.00078841764 0.54756945 0.015745124 -0.02377529 0.26212522 0.0066310354 -0.9557676
1.4951894 0.01091712 -0.014772808 0.5413401 -0.38311 -2.4841073 0.048572585 1.5544808
0.22290969 -0.21217774 0.6311259 -2.5432057 -0.08581778 -0.22687583 0.054381862 0.12143991
1.4500073 1.8004745 -0.3768016 0.96230036 -0.07497201 -0.19936582 -0.556275 2.3051434
-4.1384683 1.3841808 0.55313593 -0.12032668 0.6581964 0.7890318 -1.35723 -0.15057851
-2.130573 1.5956237 -1.4644634 -2.5698526 0.62078136 -0.015033827 2.7066157 1.5163071
0.011107001 0.3164138 -0.021230262 0.49757788 0.017435782 -1.949296 2.5355024 0.21524437
-2.739951 -0.39494622 -0.3678696 0.009075219 0.27926114 -1.3111255 -3.966488 3.549308
-1.0131998 0.3581725 2.3390656 -0.50560194 -0.12561944 0.008355294 -0.44069624 -0.3693802
-1.1293753 -0.246069 0.077624835 0.875727 0.6619472 -1.4855572 0.021183042 -0.4363206
0.002251724 0.5749139 0.5909892 -0.35281512 -0.19529793 -1.2838385 0.2821463 0.2564643
-0.2530474 -0.10484214 -0.7633783 -2.5623162 -0.13002954 -0.74530363 0.7863314 0.8616931
0.6989367 0.036301617 0.035066333 0.00064048474 -2.5735927 -0.18208759 -0.017420862 0.76750344
1.5172967 -0.25615257 -2.5061395 -0.74536407 -0.23882243 0.02040157 0.0035177986 0.20582122
1.3185586 0.0068404945 4.181627 0.2896168 -0.20380776 -1.4217522 -0.085818626 -0.0023284797
-0.3352077 1.342949 0.0011976955 -1.4656647 -0.53923744 0.8067539 0.052292153 -0.87976223
-0.2731903 0.002459833 -0.9422553 -2.7925496 -0.24601454 0.00940138 -1.4842128 0.005235133
0.050958354 0.91504204 1.7111739 0.18776712 -0.64017075 -0.06642742 -1.1589402 -0.69570726
1.5185354 -0.022382865 0.115577966 0.27678922 0.038891405 -0.010592821 0.017335605 -0.41431075
-0.0012738504 0.045651723 0.14151604 0.27236447 -0.30925515 -0.059983313 0.057981905 0.58611

l3.bias f4 [3]
00000000: e70c 1ebe 2085 ad3e 00a9 053e
-0.1543461 0.3389063 0.1305275
