saves/Dobot-v4/pbrs/seed_0/model/actor.pth (torch, 606565 bytes, 6 tensors)

l1.weight f4 [512, 36]
00000000: dc78 1bbd fedf 17bb b924 52be a491 903c
00000010: baa4 b0be f07b cf3d e8f7 39bd b2b8 773e
00000020: f3a5 28be d9ea 6d3e 8f05 66bd 34dd c8bd
00000030: 788e 8cbe 98b0 7bbd 475e 30bd 917a a2be
00000040: 4039 a33e 9181 9f3e d91e 5bbf 2511 65be
00000050: f3c7 30be 9870 3a3f f105 8dbe b12a 7d3e
00000060: 28fe 69be afda aa3d fdbc 88be ded1 04bf
00000070: 07d9 9e3e af09 623e e06f 39bf 69dd fcbd
00000080: 47e1 9cbf 3b43 343e 2944 25bf 656b 92be
00000090: 21b5 55bf 082e a23d 08ce 283e 917a 9f3e
000000a0: 2d07 d53e de9d 57be fd53 0a3f b554 983d
000000b0: 07ab ffbd d8d0 9e3e 84ec 2e3f f694 2a3e
000000c0: d6b3 1b3f aaa5 4dbe 32f6 7a3e 41bb bdbd
000000d0: 55c6 fd3c 1d80 c63e 1630 78be 1d75 87bd
000000e0: a328 27be 36cb 3fbf 51ff a9be 9939 cabe
000000f0: a9f7 8e3e 8ec2 10bf af01 f13d 3eee a3be
00000100: f073 c5be fde0 573f 19a3 09bf 4812 a0be
00000110: 3cc9 fbbe 812d bfbe fdf2 3ebf 460e 83bf
00000120: 4f9b 263e 5a94 a83e 45a2 0e3c 70c4 983e
00000130: a0c5 d9bd 1200 10bf abc9 6b3e 57e1 f8bd
00000140: 55a1 61be 294c bb3e bd75 9d3d 9fae b23d
00000150: 42df 343f c36b 343f 61f3 f63d 069c e53e
00000160: e470 713f 9b93 37be ae17 8d3f 82a2 6e3f
00000170: 89bf 5b3e 2696 f23d 71df 743f dd7b 7cbe
00000180: 2664 f83e 2dca 7c3f 66a3 edbe cbf5 bb3e
00000190: 6755 873f 113e 18bf 8f9f 513f 9a89 4c3f
000001a0: e494 eabe e701 05bd ccf4 a63f e6e5 6fbf
000001b0: 3c25 df3d 6bb3 003d 19bd febe 0d8d 973e
000001c0: fa9e 2dbf 8670 3f3e bbd2 8abe 9d5a 463d
000001d0: 6161 02be 83bc 84bd a107 cabc a1f3 0ebe
000001e0: f1d9 843e 4358 7b3f 38c7 bebc b8e3 9c3f
000001f0: ff1d 2e3f 2b1f 683e 6128 62bf b70b 883f
00000200: b45b 6bbe 574d 30bc e855 babe 3ccd 93bd
00000210: ec39 cb3d ab8c 8d3f 08c5 8a3e d715 a33f
00000220: 311e 643f 5cc1 ab3f 68b8 3ebf a5f0 a13f
00000230: 9a14 e9be c2f0 9b3e 1296 e1be 066e f3be
00000240: 4c6b 8cbf c756 383e 5dc8 43bd 0e32 2dbf
00000250: b8ee 04bf d2df 66be d802 4cbf 7317 f23f
00000260: a995 bb3d 46b3 59bf 3f19 a53f 7f49 003e
00000270: 1668 433f 6390 37bf b77a 92be 18dd 47bf
00000280: 79e9 273d 3cba 69bd 812a bb3e 6402 f9be
00000290: e3e0 81bd 4e9b 1a3f 2506 95be 17ce 07bc
000002a0: 240d 413f 782b 3dbf 79f0 06bf 4b2e 03be
000002b0: de39 0f3d 4a9e 5bbd 491a 613f 1ef6 d9be
000002c0: 0ed7 c0be fcfe 613f 4f96 98be cf2a 97be
000002d0: 0cd2 8fbc 7a9f 40bd d98f 15bc 046b 693e
000002e0: 6723 a3be f0b9 3d3d dd3c 96bd dd4d 343e
000002f0: a0aa 8abe f920 143e c891 5d3e 5358 b03e
00000300: e4ff 243f 0742 e6be bddd a73e b951 8ebf
00000310: e8d3 f1be 20b5 033f 5bcd 153c 44ab 253f
00000320: 21a6 2f3e faa6 b43f 4856 ed3e c1be 8f3e
00000330: 16b7 053f 7851 6dbe 642a 263f c430 1fbf
00000340: 5470 edbe 941b db3f 2767 a93d 0cf0 613f
00000350: fa1d 2c3e 4a09 a63f e871 583f 85df 163f
00000360: c4d0 653e 53c5 0bbf 0b48 093e 98e2 debe
00000370: 9fd8 38bd ef5e 873e 773e 6ebe da51 f03d
00000380: 3220 e4be 70e0 f8bd b544 e7be 88eb eabe
00000390: eb87 1dbe 6312 263e 5312 e53e 352a ab3f
000003a0: 5a60 34bf f682 e63e 2484 8dbe b72b 373e
000003b0: f364 c93e b083 0c3d a43e f73e 467f 0f3f
000003c0: fecf 12be ad08 c73e a970 923f a8d4 743f
000003d0: 23a1 e9be 4b7a c13e df17 febd 2a0c b03e
000003e0: b4fb 243f 086d fa3d f432 153f dbea ab3f
000003f0: 0f2d fa3e 25f4 0dbd 3d65 eabe 0fc8 63bd
-0.037957057 -0.0023174281 -0.20521821 0.017647572 -0.34500676 0.10131061 -0.045402437 0.2419155
-0.16469555 0.23234119 -0.056157645 -0.09807816 -0.27452445 -0.06144771 -0.04305866 -0.31734136
0.31879616 0.3115354 -0.85593945 -0.22369821 -0.17263775 0.72828054 -0.27543595 0.24723317
-0.22850859 0.08342492 -0.26706687 -0.5188273 0.31024954 0.22074006 -0.7243633 -0.12346918
-1.2256249 0.17603771 -0.6455713 -0.2859756 -0.83479506 0.07918936 0.16484845 0.31148198
0.41607037 -0.21056315 0.54034406 0.074380316 -0.12483793 0.3101871 0.68329644 0.16658387
0.6082128 -0.20082727 0.24507979 -0.092642315 0.030978361 0.38769618 -0.24237093 -0.066141345
-0.16324095 -0.7491945 -0.33202603 -0.3949707 0.27923325 -0.56546867 0.11767899 -0.32017702
-0.38565016 0.8432768 -0.5376449 -0.31263947 -0.49176967 -0.37339404 -0.7458952 -1.0238731
0.16270183 0.32925683 0.00870568 0.2983737 -0.10633397 -0.5625011 0.23026149 -0.12152355
-0.220342 0.36581543 0.076884724 0.087247126 0.70653164 0.7047693 0.120581396 0.448456
0.9431288 -0.17927401 1.1022851 0.9321672 0.21459784 0.11845045 0.95653445 -0.24656625
0.48513907 0.98745996 -0.46413726 0.36710963 1.0572938 -0.59469706 0.8188409 0.79897463
-0.4581672 -0.032472517 1.3043456 -0.9371017 0.10895774 0.031421106 -0.49753645 0.295998
-0.67820704 0.18695268 -0.271139 0.04842626 -0.1273246 -0.06481268 -0.02466184 -0.13960125
0.25947526 0.9818155 -0.023288354 1.2256994 0.6801452 0.2266814 -0.88342863 1.0628575
-0.229842 -0.010760627 -0.36393666 -0.0721688 0.09923157 1.1058553 0.27103448 1.274104
0.8910857 1.3418384 -0.7450013 1.2651564 -0.4552353 0.3045712 -0.44059807 -0.4754488
-1.0970244 0.18001853 -0.047798503 -0.676545 -0.51926756 -0.22546318 -0.7969184 1.8913406
0.09159405 -0.85039175 1.289833 0.12528037 0.763307 -0.7170469 -0.2860925 -0.7807174
0.04099414 -0.057062373 0.36555865 -0.48634636 -0.06341722 0.60393226 -0.2910625 -0.008288882
0.75410676 -0.73894453 -0.5271068 -0.12810628 0.034967296 -0.053617753 0.8793073 -0.42570585
-0.37664074 0.882797 -0.29802176 -0.29524848 -0.017556213 -0.04702709 -0.009128534 0.2279473
-0.31862947 0.046319902 -0.073358275 0.17607827 -0.27083302 0.14465703 0.21637642 0.34442386
0.6445296 -0.4497225 0.3278636 -1.111869 -0.47231984 0.5144825 0.009143199 0.64714456
0.17153217 1.4113457 0.4635489 0.2807522 0.5223249 -0.23175609 0.6490843 -0.62183785
-0.46374762 1.7117791 0.08271628 0.8825691 0.1680831 1.2971585 0.8454881 0.58934814
0.22442919 -0.5459797 0.13406388 -0.43532252 -0.04512846 0.26439616 -0.23266016 0.11734362
-0.44555813 -0.12152183 -0.45169607 -0.4588282 -0.1538388 0.16217951 0.44740543 1.3372256
-0.7045952 0.4502179 -0.27639878 0.1788777 0.3933483 0.034305274 0.48289979 0.5605358
-0.14337155 0.38873807 1.1440631 0.9563699 -0.4563075 0.37788615 -0.12406897 0.3438428
0.6444657 0.12227827 0.58280873 1.3431047 0.48862502 -0.034656662 -0.45780364 -0.055610713

l1.bias f4 [512]
00000000: 6c5d f9bd 33cf adbd 0f14 71be fa29 77be
00000010: 4c80 b1bc 45de 49bd e49c febd 2eda 0cbe
00000020: f712 24be d9fb 85be 63d5 3cbe 5a25 9abd
00000030: bf56 af3c e993 8bbe 8b17 94bd 248f 62be
00000040: b6aa 59be 6c7b 3bbd ac4d 1cbe b39d afbe
00000050: 611f f0bd 958f 2fbd 6aac 29be 0ab5 67be
00000060: e81b 88be e2e8 b1be 9b40 aebe fa77 45be
00000070: 0cc5 b4be f59a f2bd 03e7 e7bc 958e 67bb
00000080: 7f04 98bd c703 d3bc e458 63bd 6418 b73d
00000090: 52e9 86bd 06fa ccbd 75b8 3bbe b14e d4be
000000a0: 2eda f9bd 6562 8dbe 4e29 c3bc 9baf 43be
000000b0: b060 27be 98ba 6bbd 3118 e2bd b7a0 e2bd
000000c0: 4041 86be a651 93be 561d 6f3c e202 13be
000000d0: 979f 8b3d c847 483d 018b 4bbe 18fa aebc
000000e0: 7c26 ecbd af57 adbd b01a a8be e5bb fa3c
000000f0: 9760 0ebe 0398 46be 1e9d 30be 418b 313e
00000100: 67c8 efbd 8b77 cebe 6eec 673e d0fa 5ebe
00000110: bf08 7dbc 4911 fa3c 36e0 11be 3949 103d
00000120: 32b0 f33d 4eb7 2abe d697 afbe 98df c2bd
00000130: ea6b b5be 3403 76be 20f2 20be b077 acbd
00000140: 15f2 ddbe fcad abbd 6bed fdbd 41fb 3dbe
00000150: 45ec 33bc 8bc7 a9be 9f13 583c b2c3 52be
00000160: b61a b7bd 07a5 1fbe 89cd 9bbe e429 1dbe
00000170: ca8b 6fbe 0b6d fabd cc31 a43c 2a96 6cbc
00000180: 352c e5bd 1882 ccbd e08c 48bd 2c50 c5be
00000190: 0915 54bd 0c30 13be 3ed9 c7bd 22f6 98bd
000001a0: 3784 9cbd 68eb 0e3c 03e5 1abd 72b4 5dbe
000001b0: 5155 bdbe 595d bbbe 1c4e fd3d bec2 15be
000001c0: bed2 223d a004 b73c 2487 fc3c 54ad b2be
000001d0: 0d3a e4bd 5b20 76bd 5b43 16be d9e7 76be
000001e0: 9c0d 0cbe 63d8 e0bd d9ba cbbd f19f 8bbb
000001f0: 7408 a1be 4a80 8fbe 9118 193d 842f 583c
00000200: 54e0 29be f279 40be 5f18 a5bd f0fb 3e3d
00000210: 8068 c03c 4db9 2f3d b54b 5dbe 42a9 9a3d
00000220: fab1 b23d 7ba8 1ebd 9eb2 a4bd 0345 353e
00000230: 4113 273d b1eb 56be 7c52 b0bd 234b 9ebe
00000240: 9ab2 b7be 1d78 6d3c 827e 15be fa38 57be
00000250: 4af0 39be 03fe d8bd 7bf4 ff3d b9f6 72bc
00000260: 2fab 8ebd 54ab 023d cd93 96be 03c3 64be
00000270: b586 01be fd3e 22be 87e6 58be eebf 66be
00000280: 4a55 c4bd e5a3 eb3c f2ab c63d b51f 413e
00000290: 7a97 d43c afd9 43bd 3245 edbd 3992 16be
000002a0: e871 86be b0b7 0bbe b454 85be 85f3 27be
000002b0: 6823 c0be 0e90 91bd 1ec1 c4be 5c4a de3d
000002c0: 4871 70be 9b28 20be a271 67be 2db9 82be
000002d0: fe3c 81be 159c 39bd 171b 153e 80f4 45be
000002e0: 72c2 dcbe c517 2dbe 25a1 e2bd 0327 81be
000002f0: 0f9d ccbd 1fd6 c3be 2b08 323d 5c10 87bd
00000300: 734d 1cbe aaa9 28be 5f4a ddbc 9d9d 64be
00000310: 9305 e4bd da01 29be 960c 08be 177c 59bd
00000320: 404f b1be 49a4 8fbe 9bc5 bcbd 7652 24be
00000330: d924 6dbe 4766 70be 834d 8f3c fe94 96be
00000340: 727e ecbe 1e9e 53be 218a 31be 7dcc 04be
00000350: 50e7 54bc 11e8 a23d 557d 83be 8722 91be
00000360: d741 cfbd 1a4a 15be 2558 d5bd ad7e a5bd
00000370: 954e 47be 97c4 8ebd 4fe1 32be e2aa b0bd
00000380: 35a3 93be ea4c 443b 14ca cabd 5ebd a2be
00000390: f67a 1dbc 1959 8c3d 6062 56bd 20c8 3fbe
000003a0: dc15 20be 9a23 96be 9ed9 f6bd 2d84 bfbe
000003b0: 11f9 55be c22f 1fbe 1dba 05be 5004 df3d
000003c0: a5b5 61be 1694 b43c ef64 2dbe ba1b dfbd
000003d0: 8777 4abe 8497 d5bd 857e ff3d 55d7 82bd
000003e0: ef96 5e3e e5a8 efbd 6f9a 24be a49f 1abe
000003f0: dfb9 b5bd a4f8 18be 7ba2 7fbe e28f cbbd
-0.12176022 -0.08486786 -0.23542808 -0.24137107 -0.021667622 -0.04928424 -0.12432268 -0.13755104
-0.1602286 -0.26168707 -0.18440776 -0.075266555 0.021403668 -0.27261284 -0.07231053 -0.22124916
-0.21256527 -0.045772 -0.15264004 -0.34300002 -0.11724735 -0.04286154 -0.16569677 -0.22627655
-0.2658379 -0.34747988 -0.34033665 -0.19284049 -0.35306585 -0.11845962 -0.028308397 -0.0035332788
-0.074227326 -0.025758637 -0.055504695 0.08940199 -0.06587471 -0.10008626 -0.18332084 -0.41466287
-0.121998176 -0.27614132 -0.023823407 -0.19109957 -0.16345477 -0.057550997 -0.110397704 -0.1106581
-0.26221657 -0.2877323 0.014594397 -0.14356568 0.06817549 0.04889658 -0.19877245 -0.021359488
-0.11530778 -0.0846399 -0.3283286 0.030607173 -0.13904034 -0.19393925 -0.17247435 0.17338277
-0.117081456 -0.4032558 0.22648785 -0.21775365 -0.01544398 0.03052582 -0.14245686 0.03522608
0.11898841 -0.16671488 -0.3429553 -0.095153034 -0.35433894 -0.2402466 -0.15717363 -0.08421266
-0.43348756 -0.08382794 -0.123987995 -0.18552877 -0.010981624 -0.33160052 0.013188272 -0.20582464
-0.089406416 -0.15590297 -0.30430248 -0.15348011 -0.23393169 -0.122278295 0.020043276 -0.014440099
-0.111900724 -0.09985751 -0.048962474 -0.3853773 -0.051777873 -0.14373797 -0.097582325 -0.07468821
-0.076424055 0.008723117 -0.03781606 -0.21650866 -0.36979154 -0.36594656 0.12368414 -0.1462507
0.03975176 0.022341073 0.030826159 -0.34897864 -0.11143885 -0.06008945 -0.14674132 -0.2411188
-0.13677067 -0.109787725 -0.09947748 -0.00426101 -0.31451762 -0.28027564 0.037376944 0.013194922
-0.1658948 -0.18796518 -0.08061289 0.046626985 0.02348733 0.042901326 -0.21610911 0.075518146
0.087253526 -0.038734894 -0.08041881 0.17702107 0.040789846 -0.20988347 -0.08609483 -0.309167
-0.3587845 0.014493969 -0.1459904 -0.21017829 -0.18158069 -0.10595324 0.12497803 -0.014829331
-0.069662444 0.031901672 -0.29409638 -0.22340016 -0.12649043 -0.1584434 -0.21181689 -0.22534153
-0.0958658 0.028764674 0.09700765 0.18859752 0.025951136 -0.04781502 -0.115854636 -0.14704217
-0.2625878 -0.1364429 -0.26041186 -0.16401489 -0.37527013 -0.071075544 -0.38428587 0.10854027
-0.23480713 -0.1564049 -0.22601941 -0.25531903 -0.25241846 -0.045314867 0.14561115 -0.1933155
-0.431171 -0.16903599 -0.11065892 -0.25225076 -0.09990894 -0.382493 0.04346482 -0.06594917
-0.1526392 -0.16470972 -0.027013002 -0.2232575 -0.11133876 -0.16504613 -0.13286051 -0.053096857
-0.34630775 -0.28055027 -0.09217378 -0.16047081 -0.23158588 -0.23476516 0.017493015 -0.29410547
-0.4619022 -0.20665786 -0.17337848 -0.12968631 -0.012994602 0.079544194 -0.25681558 -0.28346655
-0.1011998 -0.14579049 -0.10417203 -0.08080802 -0.1946357 -0.0697109 -0.17468761 -0.08626343
-0.28835455 0.002995307 -0.099018246 -0.317851 -0.009611836 0.068529315 -0.05233991 -0.18728685
-0.15633339 -0.29324037 -0.12053226 -0.3740553 -0.20895793 -0.15545562 -0.13059278 0.108894944
-0.22041948 0.02204327 -0.16933034 -0.1089396 -0.19772159 -0.1042929 0.124753036 -0.063887276
0.21737264 -0.11702136 -0.16074537 -0.1509996 -0.08873343 -0.14938599 -0.24964325 -0.09939553

l2.weight f4 [256, 512]
00000000: 5fee 2cbe 8670 593e 7739 84bc 06dc b0bf
00000010: 7bdf d33e 6077 12c0 9f08 3a3f d692 a43b
00000020: 5254 4dbf 2d0e cdbd bf77 c1bf 62f0 e33e
00000030: 7fdf 733d c5f1 bb3e 4023 033f 3903 ae3d
00000040: 681c 0ebd 32da debe 06a0 0bbe 1126 293e
00000050: 66d8 093f 7752 973e 6d99 013c d398 7e3e
00000060: 2cb4 543f 8780 64bd 5c67 603d 63f2 243f
00000070: 32e4 56bf cd05 b5bc b5bf 933e 5537 24bc
00000080: 3fd4 343f 6b2f 08c0 6742 d0bf 5860 013f
00000090: 60f2 a63e d3b5 46bf bab0 9d3e 8328 08be
000000a0: 8918 46be 8bc4 70bf 5ace 1ebf fa52 963e
000000b0: 6f81 5a3f 2ccb 4dbd 10be 503b eb18 87bf
000000c0: 99a5 303e 2221 d8bf 38d5 10bf 804f f6be
000000d0: 5baa e5bd 971d e03d 4076 17bc 0d62 edbe
000000e0: 23a9 9bbe 8164 a9bf 6fc8 c7be b29f abbd
000000f0: f9b4 b0bc 8dea 58be 4950 b43e db65 d0be
00000100: 08ef 133f 6f10 133e c17e 4abe 02a7 023e
00000110: af53 9bbe b216 17bd 825f 2f3d 6a89 93be
00000120: 3628 d33e 5c2a 323f 27eb 453f 42be 393f
00000130: 8a04 4abf c9da 91bf e64b 363d 22d4 71bd
00000140: 39ee 51bf 7aae 093f b813 87bf fb75 bebf
00000150: c624 c23e 97ad 6bbf ef1e 8ebe ebb8 e63d
00000160: 5b5b 0c3d c272 eebe 5574 803e 7249 4fbf
00000170: db04 38bf 1bad 4a3e 19c2 21bf 8fd4 0b3e
00000180: 2adb f5bd 8fd0 a53e 22e9 553c 8b89 e43e
00000190: e52b 2abe ebbb ef3b 3c0a 9b3c 7e84 38bf
000001a0: 7ea9 c8be 8a61 0bbe ed09 03c0 c261 6bbe
000001b0: 19b4 93be 992e 13be edc9 dd3d 1ced 07bd
000001c0: 7bfa 043f bbd6 303f b59e ffbc 6ee8 1a40
000001d0: 919d c2bf e6f6 193d b5d8 36bd 2ad8 62bf
000001e0: 90b8 453a 3f7e 76be ec21 b73d 98f8 e8bf
000001f0: 3e17 143f b011 fa3e 1885 fb3a 1e80 01bc
00000200: 7ef1 8ebe ea6e 6fbf 4da4 113e 76a1 6cbf
00000210: 7cc9 f5be 12ca 4f3e 8a0f fe3e e2f0 bcbe
00000220: 6224 713e 915e ca3d 8d85 bcbd 2484 6abf
00000230: 41ff 803e 2724 2fbf da2c 203e 428a 623e
00000240: a0bd fdbe 6fe1 8e3b b020 493a 863d bfba
00000250: 7d71 13bf 72c2 c0be 4708 103f 73ab 78be
00000260: b4cd d9be f067 c53e eb9a 02bf bb3e 96bf
00000270: 00b2 f43d c597 24bf 612d ba3e 89fd 393e
00000280: dfc4 a13d 89d0 983e ee46 3d3f fc40 103f
00000290: 6413 e03e bc48 e2bd 9855 a8bc 6c08 51bf
000002a0: c5c3 eabe bf7e 91bf cb9e 5b3f 4c32 883e
000002b0: 2edf 2cbd 957f febb a5b7 ffbe 0b84 b13e
000002c0: 75d4 6cbe 78c8 393c d18e 2ac0 1817 68be
000002d0: fad3 d83e 5c15 82be 4177 f93e f12d 10bf
000002e0: 685b f9be fb7d 133e 7ce9 b93e 5774 0cbf
000002f0: 2e41 8dbb 72f8 d73e 955b 253d 438d 5fbe
00000300: b7c2 d0be 9c51 8ebe ad94 43bf 451b 4d3d
00000310: ba90 dbbf d701 25bd dda1 253d e322 273f
00000320: 54a7 4bbe a654 3c3d 38b0 29bb ade6 4ebf
00000330: 6599 93bf 65ee 84be bade 44be 308e 383d
00000340: 7eb5 ea3e 0c78 4a3e d3fe 51bd f72c d2be
00000350: 0bb3 33be 66a5 73bd 5f26 bcbf f9bb 5bbf
00000360: 376d 30bf 3e01 1bbf fe47 5ebe 0f62 1f3e
00000370: 6232 d8be 71e4 b13e 2cfc 19bf 4d78 8f3e
00000380: 103b 7cbc bcef 94bf 9892 c33e 3621 d0be
00000390: 37c8 6dbe bf7c 073e b29b 923d 89c0 46bd
000003a0: 680c 01bd 43e9 38bf eeee febd e95d 3ebf
000003b0: d46e e9be 7ab8 edbd 0846 883e ed9b 03bf
000003c0: 0c71 c13e c347 493e 951d 763e 0901 753e
000003d0: ffd4 b7be 6683 b73d e51a 5a3f 074d 473f
000003e0: 596b 233f 71f1 183f bc73 bc3d cc5a 203c
000003f0: b184 b1be 0da6 89bc 070c 26bd ed45 08bd
-0.16887806 0.2123433 -0.016140683 -1.3817146 0.4138144 -2.288536 0.72669405 0.005022387
-0.8020679 -0.100124694 -1.5114669 0.44519335 0.059539314 0.36707893 0.5122566 0.084967084
-0.03469506 -0.43525845 -0.13635263 0.16518427 0.5384582 0.29555103 0.007910115 0.24862985
0.8308742 -0.055786636 0.05478607 0.6443235 -0.8394195 -0.022097493 0.28857198 -0.010022958
0.7063636 -2.1278942 -1.6270264 0.50537634 0.32606792 -0.7762119 0.30798894 -0.13296704
-0.19345297 -0.940499 -0.6203362 0.2936018 0.8535375 -0.050242588 0.0031851567 -1.0554479
0.1725067 -1.6885111 -0.56575346 -0.4810753 -0.11214133 0.10943144 -0.009244502 -0.4636387
-0.3040248 -1.3233796 -0.39020106 -0.08380069 -0.02157067 -0.21183224 0.35217503 -0.4070271
0.5778661 0.14361738 -0.19774915 0.12759021 -0.30337283 -0.03688688 0.042815693 -0.28815776
0.41241616 0.69595885 0.7731194 0.72555935 -0.78913176 -1.1394893 0.044505976 -0.059040196
-0.82004124 0.53781855 -1.0552893 -1.4879755 0.3791868 -0.9206175 -0.27757975 0.11265739
0.03426681 -0.46571928 0.25088754 -0.80971444 -0.7188241 0.19792597 -0.63186795 0.13655303
-0.12004693 0.3238568 0.0130560715 0.44636187 -0.16618307 0.0073161027 0.018925779 -0.7207717
-0.39191812 -0.13611427 -2.0474808 -0.2298651 -0.2884834 -0.14373244 0.1082953 -0.03318511
0.519447 0.6907765 -0.031203607 2.4204364 -1.5204335 0.037588976 -0.04464026 -0.8861109
0.00075424556 -0.24071597 0.08942017 -1.8200865 0.57847965 0.4884162 0.0019189445 -0.007904081
-0.2791862 -0.93528616 0.14222832 -0.9243387 -0.48005283 0.20291927 0.4962123 -0.3690253
0.23549035 0.09881318 -0.0920516 -0.9160788 0.25194743 -0.6841454 0.1564211 0.22123054
-0.49558735 0.00436037 0.00076724123 -0.0014590479 -0.57595044 -0.3764835 0.5626263 -0.24284153
-0.42539752 0.3855586 -0.51017636 -1.1737894 0.11948013 -0.6429408 0.36362746 0.18163122
0.07898878 0.298466 0.73936355 0.5634916 0.43764794 -0.11049029 -0.020548627 -0.81653476
-0.45852485 -1.1366805 0.85789174 0.26600873 -0.04220503 -0.007766674 -0.49944797 0.34671053
-0.23127921 0.011339299 -2.6649668 -0.2266506 0.42349225 -0.2540692 0.48723796 -0.563201
-0.4870255 0.14403526 0.36310947 -0.5486502 -0.0043107485 0.42181736 0.040370543 -0.21831231
-0.40773556 -0.27796638 -0.76398736 0.050074834 -1.7153542 -0.040284958 0.040437568 0.6528761
-0.1988805 0.045979165 -0.0025892388 -0.80820733 -1.1531187 -0.2596313 -0.19225588 0.045057476
0.45841593 0.19772357 -0.05126841 -0.4104993 -0.17548768 -0.059483908 -1.469921 -0.858337
-0.6891665 -0.6054877 -0.2170715 0.1556475 -0.4222594 0.347446 -0.6015041 0.2802147
-0.015394941 -1.1635661 0.3819778 -0.40650338 -0.23220907 0.1323118 0.07158603 -0.04852346
-0.031505972 -0.7223093 -0.12447916 -0.74362046 -0.45592368 -0.11607452 0.2661593 -0.514098
0.3778156 0.19656281 0.24034722 0.23926176 -0.3590469 0.08960609 0.8519729 0.7785191
0.63835675 0.5974341 0.09201762 0.009787273 -0.34671548 -0.016802812 -0.040538814 -0.03326981

l2.bias f4 [256]
00000000: e0b6 12bd 089e 943e 687b 063f a85a 8abd
00000010: 660d 0ebd 231e 2cbc d8ad 22bf 3d02 38be
00000020: 3d0f f4bb 813b 0abe 7cfa 0cbe 1f67 f83c
00000030: 2d3c 70bd b3bc 8abe af56 3a3e 263f 14be
00000040: 55a8 babe 9983 16be d263 97be bf93 ac3d
00000050: d6df 3f3d 03af 3d3e 040d 93bd 2f03 9dbd
00000060: 8e05 7fbd 13c5 b7bd 1366 8e3e 2e0b c6be
00000070: 353c 26bd 1dfb 47be 4075 fbbd 6a41 f8bd
00000080: 26ee d3bc e876 dcbd b554 29bd cad3 77bc
00000090: 9238 b43d 7295 c1be 9f10 a6bd fa72 253d
000000a0: 35c3 b13d aae3 58be 4b1c bf3e 2be0 44bd
000000b0: d124 70bc 701e 973b d2d0 1fbe 554e 843c
000000c0: c5e1 13be c82f 8dbd 481a abbd 6b5c 3e3e
000000d0: c34c 9b3d 093b 4b3e 313c ccbd ee72 96bc
000000e0: 2335 cfbe 0646 5bbc babe 46be c816 d1bc
000000f0: b857 74bd 906c 3dbe 8f41 debd efc2 c2be
00000100: b106 82bd 81dd 65bd d2f7 763d 653e ac3d
00000110: 8fa1 703c 94c8 df3e c42d 5a3e 6de2 873e
00000120: d462 7b3d b2da 853d b98b 02bc d0a8 313e
00000130: c981 7abe e687 17bd 1a87 133f fb9c 10be
00000140: 96ce acbc 8089 e3bb 78fd eabd 691e 9ebe
00000150: b633 59bd 169b 5cbd 18c7 1bbe e16d 0c3e
00000160: d6e3 ddbc ee0e b53e 6468 2b3d 0b08 d4bc
00000170: 4ee8 25bb 9819 4ebd d1ce d6bc 3eca cabe
00000180: 0abc 5cbd c206 ad3e f3fa 893e 5d65 21bc
00000190: 1f3e 31bc 0a6d 7b3a 93a4 33be 9d5d 64be
000001a0: e07e 233e 2387 b33e 0145 f9be 3364 f53d
000001b0: ce79 6dbd 0627 6fbd c91f 243d e382 14bd
000001c0: e2e8 7bbe 8f24 ae3e 3900 3dbe c97f 05be
000001d0: a83f 0fbb 8afe f7bc 037b 1ebc e9f1 57be
000001e0: fadf 60bd 182c e3b8 225b 09bd 7102 f3bc
000001f0: a69f 493d 645d 513b 806c f53b f420 8d3e
00000200: ebfc 33be cfdf efbd 5d50 753e 1b03 cb3d
00000210: f359 893e ec40 a63e 6a0d c13d 1e2d 5cbd
00000220: 1549 14bd c4f5 c7bd 7f33 283d 44c5 523e
00000230: f3ba 113f 3940 853e 34f7 413e 9689 873e
00000240: 85b3 e6bd 10f0 04bd 55a3 a3bc 09aa 14be
00000250: bb8d 003e dccd a73d 6006 53bb d4db 06be
00000260: 4375 77bd 7755 cebe 112c 7e3e 5e45 353e
00000270: c553 7abe a070 273c 1f67 4f3e 3de9 3d3d
00000280: 5e59 933e 5d0f 59bd 698e 37bd 70bd 93be
00000290: 82e4 18bd bb35 81bd 7593 a8be 96ff 5ebd
000002a0: b320 80be 37b8 a1be 0419 0fbf c600 c03d
000002b0: 99e1 403e 541c 4fbc 9a1d bcbc ce5d 493e
000002c0: 0efa 063e 529f d5be 67de e9be 0fb5 6abb
000002d0: bb53 36bc a94a 8cbd b694 ecbc e11f 083e
000002e0: 2372 b8be d779 0bbe 7458 bdbe b3b8 55bd
000002f0: e10c 183e a963 90be 5966 703d 7806 003e
00000300: 77a5 8abe 8643 cd3d 2b91 c5bc 6e6d 89be
00000310: 44a0 a0bc 3301 1ebd 4984 edbd 1b81 a5bd
00000320: 3b7c 423e 65a1 4fbd d56f 29be 3820 cd3d
00000330: 3d2f be3e dc74 b0bc 3d47 febd a92c 7dbd
00000340: 8169 ebbd 4721 ddbe 103b 19bb a714 2bbd
00000350: b3e7 b73d 069f 7dbd bdf8 923d 21f5 cebd
00000360: 571e aebe 086a 14bc 6e4c 95be d350 4b3e
00000370: e930 a7be d6d6 b2be a9ee be3e e111 d8bc
00000380: ad96 9b3e 1a44 e7bd 0b41 d4bc fb42 83bc
00000390: 8f44 103e 18d5 5d3c 14c5 abbc eaea 3ebe
000003a0: dc8b 30bd 9be9 4abd 7d7c 1b3e 108f 76be
000003b0: 08e6 1ebd ad0b b1bd aba8 ffbb 1e72 6fbe
000003c0: 97a0 0abe db76 943e a2b6 4abe b563 29bd
000003d0: 7d6c a1be e0a5 77be 8654 4bbc ec47 84bb
000003e0: f12e 88bc ff27 e73d 8cdf d43d 641d 23bc
000003f0: 13cf 383e 6be3 e6bd 8e6e 523e 5cad 7cbe
-0.035818934 0.29026818 0.52532053 -0.067555726 -0.034680746 -0.010505232 -0.63546515 -0.17969604
-0.0074481056 -0.13499261 -0.13767427 0.03032261 -0.058651138 -0.2709709 0.1819713 -0.14477214
-0.36456552 -0.14698638 -0.29568344 0.08426618 0.046844326 0.18523793 -0.07180217 -0.07666623
-0.062261157 -0.08973136 0.2781225 -0.38680404 -0.04058476 -0.19529386 -0.12278223 -0.12121852
-0.025870394 -0.10764867 -0.04134055 -0.015126178 0.087998524 -0.3780933 -0.08108639 0.040392853
0.08679811 -0.21180597 0.37326273 -0.048065346 -0.014657215 0.0046117827 -0.15607002 0.016150633
-0.14441593 -0.06893879 -0.08354622 0.18589942 0.075830005 0.19846739 -0.09972418 -0.01836535
-0.40470228 -0.013383394 -0.19408694 -0.025523558 -0.059653968 -0.18498445 -0.10852348 -0.38039348
-0.063489325 -0.056119446 0.060294934 0.08410338 0.014686956 0.43707716 0.2130652 0.26539937
0.061373547 0.065358534 -0.007967883 0.17349553 -0.24463572 -0.036994837 0.57628024 -0.14122383
-0.021094602 -0.0069438815 -0.114741266 -0.30882576 -0.05302783 -0.05385884 -0.15212667 0.1371379
-0.02708618 0.35362953 0.0418476 -0.025882741 -0.0025315466 -0.050317377 -0.026221665 -0.39607424
-0.053890266 0.33794218 0.26949272 -0.009850827 -0.0108180335 0.0009591138 -0.17543249 -0.22301336
0.15966368 0.3506404 -0.48685458 0.11982002 -0.05797749 -0.058386825 0.040069375 -0.036257636
-0.24600556 0.34012267 -0.18457116 -0.13037027 -0.002185801 -0.03027274 -0.009672883 -0.21088375
-0.0549011 -0.000108324166 -0.033534177 -0.02966425 0.04922452 0.0031946534 0.007489741 0.27564204
-0.1757695 -0.1171261 0.23956437 0.09912702 0.26826438 0.32471406 0.09426387 -0.053753965
-0.03620251 -0.09763673 0.041064736 0.20583063 0.56925887 0.2602556 0.18941957 0.26472157
-0.112647094 -0.032455504 -0.019975344 -0.14517988 0.12554066 0.081935614 -0.0032199845 -0.13169795
-0.060414564 -0.4029958 0.24821497 0.17702243 -0.24446018 0.010219723 0.20254181 0.04636501
0.2877912 -0.052993167 -0.044813547 -0.28855467 -0.037327297 -0.063090764 -0.32925 -0.054442964
-0.25024948 -0.31585857 -0.55897546 0.093751475 0.18836059 -0.012641031 -0.022963334 0.1966469
0.13181326 -0.41723114 -0.45677492 -0.0035813486 -0.011128361 -0.06850178 -0.028879505 0.13293411
-0.3602458 -0.13620697 -0.36981547 -0.052178096 0.14848663 -0.28201035 0.058691356 0.12502468
-0.27079365 0.10022645 -0.024117073 -0.268413 -0.01960767 -0.038575362 -0.11597497 -0.080812655
0.18992703 -0.050691027 -0.16546567 0.10015911 0.37145415 -0.021540098 -0.124159314 -0.06181017
-0.11494733 -0.4318945 -0.0023381151 -0.041767742 0.0897974 -0.061919235 0.07176349 -0.101053484
-0.34007522 -0.009058483 -0.29159874 0.1985505 -0.32654503 -0.34929532 0.37291458 -0.026375713
0.30388394 -0.11292286 -0.025909921 -0.01602315 0.14088653 0.013539575 -0.020967998 -0.186443
-0.04310213 -0.04953919 0.15184207 -0.24078012 -0.038793594 -0.08644805 -0.007802089 -0.23383376
-0.13537823 0.2899693 -0.19796231 -0.041354854 -0.31528082 -0.2418437 -0.012410289 -0.004036894
-0.016623946 0.112869255 0.10394201 -0.009955738 0.18047743 -0.11273845 0.20549986 -0.24675506

l3.weight f4 [3, 256]
00000000: 67de eabf 73b1 32c0 95c5 73bf 4eb1 283d
00000010: f7bc a7bc 40c3 f53c 4850 d8bf e577 8c3f
00000020: 6be0 c23e 35a8 8b3e b811 df3f 1a7b 10c0
00000030: 8801 0cbc f011 1140 04c0 1a3f 7a01 d2bd
00000040: 6544 2540 3645 1ac0 4bd1 0640 4d02 30bf
00000050: 1b3a d83e 4753 81bf 68ef e2bc bcd1 0c40
00000060: fc8a f23c 6d23 e93f ada3 0dc0 0483 2440
00000070: 8c3f e1be a6d4 6d3f 5c78 bebe 3ef9 2140
00000080: d6e5 16bc a8d7 a63f 8653 51bc 00c2 c0bb
00000090: d861 20c0 7c2f f93e 9fd1 1840 bb85 1cc0
000000a0: a233 fe3e 74f9 e43e 70e2 863f 7a1b 86bd
000000b0: 0772 8fbe 1abf d2bc d860 ecbb eab0 e1bc
000000c0: 38c2 1e40 af05 63ba 646d 9bbf d52c fdbf
000000d0: ce13 1940 4cce bcbf 5900 6ebf 060d ebbc
000000e0: a737 09c0 34eb ba3c db4c 6abe 4aa6 ca3c
000000f0: e2f9 ab3b 8770 873f e6a6 5e40 5fd3 adbe
00000100: 482c 01bd 976c 123d 52c5 b23f 17f4 a53f
00000110: 9d65 62bf cf0b b3be ebca 1b40 1e46 c1bf
00000120: 68f8 573f 511c ddbf 0c62 fb3b 8fc6 fa3e
00000130: 24e8 f73f 5af8 0c3b a79d 4d40 fa39 39bf
00000140: eacb 18bd 75b0 40bc e450 7340 bdf3 a4bf
00000150: 2a91 7f3e 6bb7 4940 ceb4 83bf 39f1 eabf
00000160: 257b 4cbd 092c debf 7935 0c40 ce73 703d
00000170: cba7 cabb b035 3b3d e869 be3c 668d 1c40
00000180: 7881 8f3d bad4 99bf 994b b03f 53c6 d7bf
00000190: 9c5c 313c 973a fbbc dda4 983f 4f68 343f
000001a0: 516d a3bf dedd 2e40 6464 1740 8367 383f
000001b0: 8d00 143c 3fd4 633c 0fae a63f d1c6 84c0
000001c0: 7967 883f b6cc f7bf ab1e 20bd 888f 54bf
000001d0: 36fb f738 03e7 623d d0f6 73bb c582 0abe
000001e0: d3b6 d73e 96b7 c13c 1f4b 5cbf c2e1 943b
000001f0: 2d5b 513f 8f61 833c 74a2 84bc 18e4 c3bf
00000200: 696b 823f c702 c1bf 3c12 41bf 4be5 07c0
00000210: 83b6 8fbf 8baa 15c0 0b51 94bc 3d50 483c
00000220: 0d39 bbbb bdf1 e4bf 3774 5e3f 3903 78be
00000230: 72b1 2c3f d12b 4440 4d32 1040 5c00 423f
00000240: 740a ad3f 5b08 3a3c 9948 92bb ed61 d3be
00000250: 0884 a3be 10f0 16bf 0f2d 06bd 2e80 1ebc
00000260: 3a2c 3abb 8e64 3540 43bc 0bc0 fec9 c83e
00000270: e668 2a40 26e2 ecbc 8a12 353d f438 efbe
00000280: 8b2e d23f 6d58 22bd 2bfe f23c aaab c83f
00000290: 0fee 6a3d 6999 f0bc 24b8 873f ed28 88bc
000002a0: d802 77bf 40e7 aabf 66fe c7bd 056f 0bc0
000002b0: bddb 7a3f e644 65bc d1e8 b93f 2e5b 3140
000002c0: af53 3cbf 2413 1c40 e505 1ac0 d22a ab3a
000002d0: bfaa 64bd 2ee8 fdbc 9bc5 ec3c 531b 06bf
000002e0: 06d5 8140 39ac 893f 40b5 cb3e f0bc 64bd
000002f0: 1cc1 e2bc e13e 04bf a3b9 75bf bf13 e43f
00000300: 6ee5 dc3e f722 b53e 5de2 143d 66fe 10bf
00000310: 2806 bbbf 0dfe c638 1a11 94bf 2fd7 eebf
00000320: 07f2 edbe 43f0 953c 6bb4 ab3f 93c6 6340
00000330: 1d26 0340 f164 8cbc 1d97 593f e622 5bbf
00000340: 2266 3dbf 8c9a fa3f 5b57 59bf 4831 15bd
00000350: a7bd 8a3f 316c 96bc 6204 29bf 33fe 75c0
00000360: b049 d33f 9721 c63c 9e91 cf3f 245f 1ebf
00000370: efc7 fd3e d4c8 23bf 7dd6 40bf aea1 c23f
00000380: c51b 2440 6d1b f73e 6617 6cbd dbf8 ce3b
00000390: 2bde c5bf 34b9 4abe 21b0 943c 2574 c9bf
000003a0: 1faa 563d 4bbb 1fbc 07fe 383f e3ed e03e
000003b0: 86d2 afbc 9106 f7bf 0296 4abf c623 55bf
000003c0: 4772 0cc0 8124 2abf cde8 0ac0 4d95 9c3c
000003d0: b93c 2a40 d698 cfbc d57c f6bc 6fe5 0f3d
000003e0: dd63 5ebd 0e1e 6cbe e7e1 c8bf 94c4 7fbb
000003f0: 94d7 2c3f ca9f f83d 24fe e0bf 9525 2840
-1.8349122 -2.7920806 -0.9522336 0.041184716 -0.020475848 0.030000329 -1.68995 1.0974089
0.38061842 0.2727677 1.7427282 -2.2575135 -0.008545287 2.2667198 0.6044924 -0.10254188
2.5822995 -2.4104743 2.1065242 -0.6875351 0.4223183 -1.0103539 -0.027702048 2.2003012
0.029607289 1.8213936 -2.213115 2.5704966 -0.43993795 0.929026 -0.37201202 2.5308375
-0.009210071 1.3034563 -0.012776261 -0.0058825016 -2.505972 0.4866904 2.3877943 -2.4456623
0.49648768 0.44721568 1.0537853 -0.065482095 -0.28016683 -0.02572589 -0.007213693 -0.02755018
2.4806042 -0.000866021 -1.2142758 -1.9779307 2.3918338 -1.4750457 -0.9296928 -0.028692733
-2.1440217 0.022817232 -0.2288088 0.024737496 0.005248294 1.0581216 3.4789367 -0.33950326
-0.03153637 0.03574809 1.3966467 1.2965115 -0.884363 -0.34969947 2.4342601 -1.5099523
0.8436341 -1.7274266 0.0076716 0.48979613 1.9367719 0.0021510334 3.2127473 -0.7235409
-0.037303843 -0.011760821 3.8018122 -1.2886883 0.2495772 3.15182 -1.0289552 -1.8354865
-0.049922127 -1.7357188 2.1907637 0.05870419 -0.0061845533 0.045705497 0.02324386 2.4461303
0.07007116 -1.2018044 1.377307 -1.6857399 0.010825302 -0.030667586 1.1925312 0.7047166
-1.2767736 2.7322917 2.3655024 0.72032946 0.009033334 0.013905584 1.3021868 -4.1492696
1.0656577 -1.9359348 -0.039091747 -0.8303151 0.000118246695 0.05539609 -0.003722597 -0.13526447
0.4213167 0.02364711 -0.86052126 0.004543514 0.8177975 0.01603773 -0.016190745 -1.5303984
1.0189029 -1.5078973 -0.7541845 -2.12337 -1.1227573 -2.338534 -0.01810505 0.012226162
-0.005713588 -1.7886273 0.8689608 -0.2421998 0.6745826 3.0651743 2.25307 0.757818
1.3518815 0.011354531 -0.0044642207 -0.4128565 -0.3193667 -0.58960056 -0.032757815 -0.009674115
-0.0028407709 2.8342624 -2.1833656 0.39216608 2.6626525 -0.02891643 0.044207133 -0.4672314
1.6420454 -0.03963511 0.029662212 1.5677388 0.057355937 -0.029370027 1.060307 -0.016621077
-0.96488714 -1.3351822 -0.097653195 -2.178651 0.97991544 -0.013993477 1.4524175 2.7711902
-0.7356519 2.4386683 -2.4066098 0.0013059026 -0.0558269 -0.030994501 0.02890282 -0.52385443
4.057254 1.0755683 0.3978672 -0.055844247 -0.027679972 -0.51658446 -0.95986384 1.7818526
0.4314379 0.3537824 0.03634869 -0.5663818 -1.4611254 9.4886964e-05 -1.1567719 -1.8659419
-0.46473715 0.018303042 1.3414434 3.558995 2.0492013 -0.017137976 0.84996206 -0.85600126
-0.7398397 1.9578414 -0.8489892 -0.03642395 1.0839127 -0.018362137 -0.6602231 -3.84364
1.6506863 0.024185939 1.6216314 -0.61863923 0.495666 -0.63978314 -0.75327283 1.5205591
2.564195 0.48263112 -0.057639502 0.006316287 -1.5458425 -0.19797212 0.018150391 -1.573857
0.052408334 -0.009749244 0.72262615 0.43931493 -0.02146269 -1.9298879 -0.79135144 -0.8325771
-2.194475 -0.6646195 -2.170459 0.01911416 2.6599562 -0.025341433 -0.030088821 0.035130914
-0.054294456 -0.2305834 -1.569394 -0.0039027082 0.67516446 0.12139852 -1.7577558 2.6272938

l3.bias f4 [3]
00000000: 670c 3dbe ec12 a2bc ddea 8c3e
-0.18461762 -0.019784413 0.27522936
