saves/Dobot-v4/pbrs/seed_0/model/critic.pth (torch, 610661 bytes, 5 tensors)

l1.weight f4 [512, 39]
0	0xbfd0ac37	-1.6302556
1	0x3da350d3	0.079744
2	0x3e95d9b2	0.2926765
3	0x3f4d96da	0.80308306
4	0x3f092cf1	0.535842
5	0x3e68ca7a	0.22733489
6	0x3f826aa1	1.018879
7	0x3f6bdb0a	0.921311
8	0xbe3d8623	-0.185082
9	0x3f9dd800	1.2331543
10	0x3fbff67d	1.4997097
11	0xbf63eff4	-0.89038014
12	0x3ee2ce41	0.44297984
13	0x3fe7c479	1.8106834
14	0x3f277033	0.6540558
15	0x3e9fccea	0.31211025
16	0x3edf0e77	0.43565723
17	0x3ebe2b89	0.3714259
18	0x3d081121	0.03321946
19	0x3f6aacb9	0.91669804
20	0xbb8c2c26	-0.004277724
21	0x4069ffae	3.6562304
22	0xc01697bc	-2.3530111
23	0xbeaa84d0	-0.33304453
24	0xbe5b49ca	-0.21414867
25	0x3fdacb0c	1.7093215
26	0x4031c51f	2.7776563
27	0x3d25afb0	0.04045075
28	0xbaf672e1	-0.0018802547
29	0x40297f49	2.6483939
30	0xbefb4411	-0.49075368
31	0x3e89ac92	0.26889473
32	0xbfa571d4	-1.2925363
33	0x404ee9bb	3.2330158
34	0xc0d81e19	-6.753674
35	0xc00d419e	-2.20713
36	0x3bcd0430	0.0062566027
37	0xbc9c73dd	-0.019098217
38	0xbaef913d	-0.0018277537
39	0xbf9c8835	-1.2229067
40	0x3e66d676	0.22542748
41	0xbe1e9ce8	-0.15489542
42	0xbfa97c1c	-1.3241
43	0xbece0a1d	-0.4024209
44	0x3f3caab3	0.73697966
45	0xbf1ab916	-0.6043867
46	0x3f66c5ee	0.90145767
47	0xbea2f65f	-0.3182859
48	0xbfb77605	-1.4332892
49	0x3fd09a77	1.6297139
50	0xbfbaca04	-1.45929
51	0x3e33995b	0.17538969
52	0x3ff45f9c	1.9091678
53	0xbdaff817	-0.08592241
54	0xbf87b6c6	-1.0602653
55	0x3fd6712f	1.6753291
56	0x3f692b96	0.9108213
57	0xc02b4337	-2.6759775
58	0x3f8e1328	1.1099596
59	0x3df68af2	0.120382205
60	0x402cc527	2.6995332
61	0xbed15438	-0.40884566
62	0x3eee1103	0.46497354
63	0x3fafec04	1.3743901
64	0x3f69a092	0.91260636
65	0xbe3d48b6	-0.18484768
66	0x3eb0ba91	0.3451734
67	0x3f160ef4	0.58616567
68	0x404c7762	3.1947865
69	0xbf917e62	-1.1366694
70	0x3e958c10	0.29208422
71	0x3e9467fa	0.28985578
72	0x402c0943	2.6880653
73	0xc0104795	-2.254369
74	0x3ffeb35e	1.9898489
75	0xbc44ab26	-0.012003696
76	0x3bb7b534	0.005606318
77	0x3d01b141	0.031663183
78	0xbe8d2976	-0.27570695
79	0xbd8bcc0f	-0.068260305
80	0xbdd4dfb2	-0.10394229
81	0xbd6ebff3	-0.058288526
82	0xbc899863	-0.016796296
83	0x3d25832b	0.040408295
84	0xbde15d1b	-0.110040866
85	0xbd73e16a	-0.059541143
86	0xbe55525a	-0.20832196
87	0x3dcb2d82	0.09920789
88	0x3e09de90	0.13463807
89	0xbdc450f5	-0.09585754
90	0x3da51872	0.08061303
91	0x3e6adca6	0.22935733
92	0x3d88017d	0.06640909
93	0x3ce31cb4	0.027723648
94	0x3e4543f3	0.19264202
95	0x3d263c3f	0.0405848
96	0x3d641f67	0.05569401
97	0x3e7f504f	0.24932979
98	0x3d11d855	0.0356067
99	0x3ba93925	0.005164283
100	0x3e66ad05	0.22526939
101	0x3d40cf7a	0.047072865
102	0x3c139101	0.00900674
103	0xbc9514d2	-0.018198404
104	0x3e90c05b	0.28271756
105	0xbd56f3c3	-0.052478563
106	0x3e6a18b7	0.2286099
107	0x3daaea54	0.08345476
108	0xbb934836	-0.004494692
109	0x3cacc2b2	0.021088932
110	0x3e2c78ad	0.16842909
111	0xbce5a6fc	-0.028033726
112	0xbccb60b8	-0.024826393
113	0x3e8c4b03	0.2740098
114	0x3cedd621	0.029032769
115	0xbd310856	-0.04322084
116	0x3d4ed8a0	0.05049956
117	0xbe322f92	-0.17400959
118	0x3f48df69	0.78465897
119	0x3ed6bb45	0.4193975
120	0x3d19a8ce	0.0375145
121	0xbf1146fa	-0.56748927
122	0x3ecd63d0	0.40115213
123	0xbfc61b7f	-1.5477141
124	0x3f229cf5	0.6352075
125	0x3e1efc6c	0.15525979
126	0xbe06f447	-0.13179122
127	0xbdffcc55	-0.12490145
128	0x3f209093	0.627206
129	0xbf3cc975	-0.737449
130	0x3fd2a035	1.6455141
131	0xbeb81562	-0.35953814
132	0x3f79f18a	0.97634184
133	0xbf1d9a96	-0.61564004
134	0x3ec1369e	0.37736982
135	0x3f786b71	0.9703894
136	0xbf18e46e	-0.59723556
137	0xbdbb33be	-0.091407284
138	0x3fe73dcf	1.8065737
139	0x4028edda	2.6395173
140	0x3e4902ef	0.19630025
141	0xbf3026bd	-0.6880911
142	0x401f0d58	2.4851894
143	0xc002b390	-2.0422096
144	0x3f0b240c	0.5435188
145	0xbf1ebbd9	-0.6200538
146	0x4010dde4	2.2635431
147	0x3ea02034	0.3127457
148	0xbf0474b0	-0.5174055
149	0xbf8770a2	-1.0581248
150	0x3fa3b0dd	1.2788349
151	0x408cebe5	4.4037957
152	0x3fb09735	1.3796145
153	0xbcc024da	-0.023455072
154	0x3b85f180	0.004087627
155	0xba8e222a	-0.0010843922
156	0x3ef66abb	0.48128304
157	0x3f05d33b	0.5227544
158	0xbf1928ce	-0.5982789
159	0xbd8b170e	-0.06791507
160	0xbf7e9892	-0.99451554
161	0xbf06df0e	-0.52684104
162	0xbeb0a3f4	-0.34500086
163	0x3e597b93	0.21238546
164	0xbea4b275	-0.32167402
165	0x3eac240b	0.3362125
166	0xbecb30ff	-0.3968582
167	0x3f86ca22	1.0530436
168	0x3f0039c9	0.50088173
169	0xbf9b4e18	-1.2133207
170	0x3f972271	1.1807386
171	0xbda81b79	-0.08208365
172	0x404f5fb2	3.2402158
173	0x3f3c890a	0.73646605
174	0x4046b120	3.1045609
175	0x3f23c49c	0.6397188
176	0x3f186059	0.59522015
177	0xbff0f8e3	-1.8825954
178	0x3f210b1c	0.62907577
179	0x3f825ed3	1.0185188
180	0x3d840f64	0.06448248
181	0x3e36e58a	0.17861
182	0x3ff563ab	1.9171041
183	0xbee204b1	-0.44144204
184	0x4096bac7	4.7103
185	0xbf37d3a5	-0.7180732
186	0x402e5c02	2.7243657
187	0x4006f5ba	2.108748
188	0x3e55b98d	0.20871563
189	0xc000ad35	-2.0105717
190	0x3fd1b638	1.6383734
191	0x3fa3b3f1	1.2789289
192	0x3b56c198	0.00327692
193	0xbc549056	-0.0129738655
194	0xbbbca7dc	-0.005757315
195	0xbede2eda	-0.4339512
196	0x3dce63e0	0.100776434
197	0x3b0b0ccd	0.0021217347
198	0xbca5f20f	-0.020257024
199	0xbf994ad5	-1.1975962
200	0x3ec83785	0.39104858
201	0xc07464c0	-3.8186493
202	0x3f13e8fb	0.57777375
203	0xbdeaa3e3	-0.1145704
204	0xbfdb3d08	-1.7128
205	0x3e32790f	0.17428993
206	0xbf1fd83c	-0.6243932
207	0x3f0a3008	0.5397954
208	0x3e918a1e	0.28425688
209	0x3eb0b2e6	0.3451149
210	0x3edf9e22	0.43675333
211	0xbd88b9e7	-0.06676083
212	0xbef0b57f	-0.4701347
213	0x402642d6	2.5978293
214	0x3f5ef531	0.8709288
215	0xbe2ffdd6	-0.17186674
216	0xbfeb3ab9	-1.8377296
217	0x3e00c330	0.12574458
218	0x3f0914f1	0.5354758
219	0x3f17b5b8	0.59261656
220	0x3ea0ba1d	0.31391993
221	0x4003fbad	2.062236
222	0x3f38c8b1	0.7218123
223	0xbf1649ee	-0.5870656
224	0xbfc4443f	-1.5333327
225	0x4084911e	4.1427145
226	0x3f3cb9bf	0.73720926
227	0xbf87b9f5	-1.0603625
228	0xbfd91fc5	-1.696282
229	0xbec95e77	-0.39329883
230	0x4037def3	2.8729827
231	0x3b8a1fcb	0.004215216
232	0xbcf0a0e2	-0.02937359
233	0x3ca63c0c	0.020292304
234	0xbf33ab95	-0.7018369
235	0xbed76d6c	-0.4207567
236	0xbfa9e598	-1.3273191
237	0x3fbdea7e	1.4837186
238	0xbf2175ad	-0.63070184
239	0x3eebbb36	0.46041268
240	0x40183b44	2.3786173
241	0x3f91c52d	1.1388298
242	0xbef9998f	-0.48749968
243	0x400e027a	2.2189012
244	0x3f5b6235	0.8569673
245	0xc02939e6	-2.6441588
246	0x3f263775	0.6492837
247	0x3f9b2c89	1.2122966
248	0xbe8fe062	-0.28100878
249	0x40532046	3.2988448
250	0x3f315fb5	0.6928666
251	0x3f108290	0.5644922
252	0xbfbd54ae	-1.4791467
253	0x40bb44dc	5.8521557
254	0xbf00bdfb	-0.5028989
255	0xbeec5de0	-0.4616537

l1.bias f4 [512]
0	0xbe4889bf	-0.19583796
1	0xbed501cf	-0.41602942
2	0x3c29a7c5	0.010354941
3	0xbe2803c5	-0.16407688
4	0xbee3b5db	-0.44474682
5	0xbe67d9dc	-0.226417
6	0xbf0cc04f	-0.5498094
7	0xbf253f77	-0.64549965
8	0xbd024747	-0.031806257
9	0xbf012901	-0.5045319
10	0xbee29d61	-0.44260696
11	0xbf836373	-1.0264724
12	0xbed25094	-0.410771
13	0xbe45dde6	-0.19322929
14	0xbebc0dd8	-0.36729312
15	0xbeed4210	-0.46339464
16	0x3d7855cf	0.06062871
17	0xbe54bc9e	-0.20775077
18	0xbf041fb1	-0.5161086
19	0xbc764065	-0.015030001
20	0xbdf061fc	-0.11737439
21	0xbdb06bcb	-0.0861431
22	0xbde07cb9	-0.10961289
23	0xbe23a905	-0.15982445
24	0xbe89502d	-0.26818982
25	0x3e9346b9	0.28764895
26	0xbe631337	-0.22175299
27	0xbddcdb33	-0.107839964
28	0xbc9328f8	-0.017963871
29	0xbe9bb990	-0.3041501
30	0xbcd27213	-0.02568916
31	0xbed49390	-0.4151883
32	0xbf3186b0	-0.6934614
33	0xbe01729b	-0.12641375
34	0x3cedbdcb	0.029021164
35	0xbea0c073	-0.31396827
36	0xbe9350e8	-0.28772664
37	0xbe148a09	-0.14505781
38	0xbe6398ed	-0.22226305
39	0xbd8c73a8	-0.06857997
40	0xbe6b79e0	-0.2299571
41	0xbdff7ad9	-0.12474603
42	0xbe1dbd5c	-0.15404266
43	0xbeebe194	-0.4607054
44	0xbdd55429	-0.10416443
45	0xbe879ebe	-0.26488298
46	0xbe83d70c	-0.25750005
47	0xbf0dd4bc	-0.5540273
48	0xbc27589e	-0.010213999
49	0xbd4b8320	-0.049685597
50	0xbe0a9a6c	-0.1353547
51	0xbea54c42	-0.32284743
52	0xbf17ea55	-0.5934194
53	0xbeb4a8e3	-0.352851
54	0xbd895167	-0.067049794
55	0x3de4a905	0.111650504
56	0x3db5c4fe	0.08875464
57	0xbe148fbd	-0.14507957
58	0xbf1f8f53	-0.6232807
59	0xbeca7c3e	-0.39547914
60	0xbed3f19a	-0.41395265
61	0xbe977cd8	-0.29587436
62	0xbe3eaf2d	-0.18621512
63	0xbd8cfb96	-0.06883924
64	0xbd685268	-0.056719214
65	0xbdae5d51	-0.085138924
66	0x3db0af80	0.08627224
67	0xbf28e6c9	-0.6597715
68	0xbea4638a	-0.32107192
69	0xbd914848	-0.07093865
70	0xbf593d53	-0.848592
71	0xbd94af60	-0.072600126
72	0xbe0b8a45	-0.13626964
73	0xbed09613	-0.40739498
74	0xbeb650a2	-0.35608393
75	0x3ed02286	0.4065134
76	0xbe43115f	-0.19049595
77	0xbed83c27	-0.42233393
78	0x3cb3d0d0	0.021950155
79	0xbe60b049	-0.21942247
80	0xbd90f8d3	-0.070787095
81	0xbe819727	-0.25310633
82	0xbf883cfa	-1.0643609
83	0xbefed59e	-0.49772352
84	0xbe3acfd2	-0.1824334
85	0xbde34ec8	-0.11099011
86	0xbee9d2b0	-0.45668554
87	0xbf1a9e2e	-0.60397613
88	0xbcd85486	-0.026407491
89	0xbebdcb22	-0.3706904
90	0xbdb3db8e	-0.08782111
91	0xbf3f5173	-0.74733657
92	0xbe89ebe6	-0.2693779
93	0xbdfdbcf0	-0.123895526
94	0xbdc3f5b3	-0.09568348
95	0xbe83a9d9	-0.2571552
96	0xbe4f3fad	-0.20239134
97	0xbf319f40	-0.6938362
98	0xbe4fa485	-0.20277603
99	0xbe7fe86f	-0.2499101
100	0xbe1973dc	-0.14985603
101	0xbe886093	-0.2663618
102	0xbdaab310	-0.08334935
103	0xbe42cafc	-0.19022745
104	0xbefd892a	-0.4951871
105	0xbed42054	-0.41430914
106	0xbe45238d	-0.19251843
107	0xbca9ac78	-0.020712122
108	0xbeb6eebf	-0.35729024
109	0xbe20db91	-0.15708758
110	0xbf079fe8	-0.5297837
111	0xbe934db6	-0.28770226
112	0xbd35673f	-0.044287916
113	0xbdec9735	-0.11552278
114	0xbd834910	-0.0641042
115	0xbfabec06	-1.3431404
116	0xbe10e206	-0.14148721
117	0xbd1e142d	-0.03859346
118	0xbe3963c6	-0.18104467
119	0xbe9308ea	-0.28717738
120	0xbe2ddd60	-0.16978979
121	0xbf038149	-0.5136915
122	0xbef962b7	-0.48708126
123	0xbf082f96	-0.5319761
124	0x3e826262	0.25465685
125	0x3ccb8586	0.024843942
126	0xbe6d7b23	-0.23191504
127	0xbe7d9535	-0.24763949
128	0xbf0a0e21	-0.5392781
129	0xbc9d32b6	-0.01918922
130	0xbefdef65	-0.49596706
131	0xbeaf88e1	-0.34284118
132	0xbe533bcb	-0.20628278
133	0x3ec792d8	0.3897922
134	0xbe3a0c70	-0.18168807
135	0xbeea8cd0	-0.45810556
136	0xbdd8a461	-0.10578228
137	0xbf068c83	-0.52558154
138	0xbd925cb3	-0.07146587
139	0x3ea39658	0.3195064
140	0xbd452604	-0.048131958
141	0xbb6fc908	-0.003658833
142	0xbde4b670	-0.1116761
143	0xbd6bf7e4	-0.057609454
144	0xbdda8317	-0.10669535
145	0xbdfc846b	-0.12329944
146	0xbe3dcbae	-0.18534729
147	0xbf21f55d	-0.6326502
148	0xbe815416	-0.25259465
149	0x3c894eef	0.016761271
150	0xbe5ba6fd	-0.2145042
151	0xbefe5eb5	-0.4968163
152	0xbf07d269	-0.53055435
153	0xbeab3d0c	-0.33445013
154	0x3dd6de85	0.10491661
155	0xbd33bf1c	-0.043883428
156	0xbecd614d	-0.40113297
157	0xbf2dfc75	-0.67963344
158	0xbd9e74fd	-0.077371575
159	0xbe6c34c4	-0.23067003
160	0xbd98e3cd	-0.074653246
161	0xbe64743f	-0.2230997
162	0xbe402c91	-0.18767
163	0xbe093b92	-0.1340163
164	0xbcf1a275	-0.02949641
165	0xbeafcbeb	-0.34335265
166	0xbe33d91a	-0.17563286
167	0xbd2e2d6a	-0.04252378
168	0xbe3c04e1	-0.18361236
169	0xbef4e090	-0.47827578
170	0xbdb58507	-0.088632636
171	0xbeb2f895	-0.34955278
172	0xbf411ab1	-0.7543135
173	0xbed6168b	-0.41814074
174	0xbe7347d5	-0.2375787
175	0xbe4d2d36	-0.20036778
176	0xbec94cda	-0.39316446
177	0x3e223000	0.15838623
178	0xbe1d6bba	-0.15373126
179	0xbe425ca5	-0.18980654
180	0x3ceb04b9	0.028688775
181	0xbe82412c	-0.25440347
182	0xbe270be8	-0.16313136
183	0xbe671833	-0.22567825
184	0xbc359b2e	-0.011084361
185	0xbf01cc98	-0.5070281
186	0xbd2b5ee2	-0.041838534
187	0xbe57138e	-0.21003553
188	0xbf046211	-0.5171214
189	0xbe3517b8	-0.17684829
190	0xbc959486	-0.018259298
191	0xbea7eb0c	-0.32796514
192	0xbe28c093	-0.16479711
193	0x3dfdd172	0.12393464
194	0xbf0a9c3a	-0.5414463
195	0xbd52b7d7	-0.051444855
196	0xbf3c62da	-0.73588336
197	0xbe9558b4	-0.29169238
198	0xbf2ac2e6	-0.6670364
199	0xbe672118	-0.22571218
200	0xbe3e9788	-0.18612492
201	0xbe989632	-0.2980209
202	0xbe8e3473	-0.2777439
203	0xbf2874cd	-0.65803224
204	0xbcee10d6	-0.029060762
205	0xbef0e455	-0.47049204
206	0xbd132134	-0.035920337
207	0xbf0bcc51	-0.5460864
208	0xbe924934	-0.28571475
209	0xbe805f9a	-0.25072938
210	0xbd09030f	-0.033450183
211	0xbeab9824	-0.33514512
212	0xbe88f895	-0.26752153
213	0xbe830fa5	-0.25597873
214	0xbe6b9413	-0.23005705
215	0x3e244751	0.1604283
216	0xbeb1deb6	-0.34740227
217	0xbebd5607	-0.36979696
218	0xbd3193d9	-0.04335389
219	0xbf44ef29	-0.7692743
220	0xbf82b1eb	-1.0210546
221	0xbe4cef7b	-0.2001323
222	0xbd41dbc0	-0.04732871
223	0xbfdef3ca	-1.7418149
224	0xbdc4f921	-0.0961783
225	0xbe87ba1d	-0.2650918
226	0x3c080fcb	0.008304547
227	0xbe506be9	-0.20353664
228	0xbea38236	-0.3193528
229	0xbde5f4ed	-0.112283565
230	0xbf196202	-0.59915173
231	0xbe5a8a15	-0.21341737
232	0xbeba9782	-0.36443716
233	0xbd93062f	-0.07178914
234	0xbec2d019	-0.3804939
235	0xbe80ad67	-0.25132295
236	0xbe2efb8b	-0.17088144
237	0xbe7b1168	-0.24518359
238	0xbe4cbbf5	-0.19993575
239	0x3e9a4139	0.30127886
240	0xbe9b6ceb	-0.30356535
241	0xbf6f3dd9	-0.9345375
242	0x3d2d74b1	0.042347614
243	0xbf2fe6f3	-0.68711776
244	0xbe32cd8c	-0.17461222
245	0xbf3586d8	-0.7090888
246	0xbf01c493	-0.50690573
247	0xbec6545d	-0.3873624
248	0xbf35d30c	-0.71025157
249	0xbe00ca4a	-0.12577167
250	0xbeb9fa82	-0.36323935
251	0xbf0a57e6	-0.5404037
252	0xbe317284	-0.1732884
253	0xbe5e1b8c	-0.21690196
254	0xbe09cb7b	-0.13456528
255	0xbf5bac71	-0.8581

l2.weight f4 [256, 512]
0	0x3bcd4404	0.0062642116
1	0x3d0f185d	0.034935344
2	0xbd419e88	-0.047270328
3	0xbda168f8	-0.07881349
4	0xbd55785e	-0.052116744
5	0xbc0f588f	-0.008749141
6	0x3d167702	0.03673459
7	0xbb8901f0	-0.004181139
8	0xbaf9dcef	-0.0019063036
9	0x3ca1db6f	0.019757954
10	0xbda48e05	-0.080349006
11	0xbd5b4184	-0.053529277
12	0xbd0fbbba	-0.03509114
13	0xbc4e2f50	-0.012584522
14	0xba6a9894	-0.00089491275
15	0x3b98f777	0.004668172
16	0xbb1bdb0d	-0.0023781687
17	0xbc91ea73	-0.01781199
18	0xbd451517	-0.048115816
19	0xbcd4207f	-0.025894402
20	0x3b8262ac	0.0039790478
21	0xbc1723f6	-0.009224882
22	0xbb45429d	-0.003009952
23	0xbb473c1d	-0.003040082
24	0xbd46a708	-0.048499137
25	0xbcceff9d	-0.02526837
26	0x3bd6d050	0.0065555945
27	0xbd060749	-0.03272179
28	0xbd3aa081	-0.045563225
29	0x3bde6451	0.006786861
30	0xb9acc58d	-0.00032953583
31	0xbbc2b230	-0.0059416518
32	0x3cd115d5	0.025523106
33	0x3b5c8a59	0.0033651798
34	0xbd18da10	-0.037317336
35	0x3c85a603	0.016314512
36	0xbd94d624	-0.072674066
37	0xbc574bd6	-0.013140639
38	0x3ba12ab9	0.004918423
39	0xbd1ceaa0	-0.038309693
40	0x3d2f0d03	0.04273702
41	0xbc35f6b2	-0.01110618
42	0x3c8d28de	0.017231401
43	0xbc1461c7	-0.009056515
44	0xbccad77f	-0.02476096
45	0x3c924d14	0.01785902
46	0x3cc6b349	0.024255412
47	0xbc1ec1a9	-0.009689727
48	0xbd00f0e0	-0.031479716
49	0x3cf2f659	0.029658483
50	0x3d0f71ef	0.035020765
51	0xbd138805	-0.03601839
52	0x3a1992e4	0.0005858375
53	0xbd20864f	-0.039190587
54	0xbd02d7f7	-0.03194424
55	0xbd4ef440	-0.050525904
56	0xbc530921	-0.0128805945
57	0xbc4f0339	-0.012635046
58	0x3a6fa413	0.00091415754
59	0xbd202bce	-0.039104275
60	0x3ca7a95c	0.020466499
61	0x3ce834da	0.028345514
62	0x3af569e8	0.0018723579
63	0xbc31895b	-0.010835971
64	0x3be0d3d0	0.0068611875
65	0xbb51a759	-0.0031990616
66	0xbccc58fc	-0.024944775
67	0x3b10b7df	0.0022082252
68	0xbd14c9d5	-0.036325295
69	0xbd26eb28	-0.040751606
70	0xbd332d07	-0.043744113
71	0x3cc8ce71	0.024512501
72	0xbc63b5a9	-0.013898292
73	0xbd43f69f	-0.047842618
74	0xbd4261b5	-0.047456462
75	0xbc8608f3	-0.01636169
76	0xbbd76927	-0.0065738144
77	0x398ffaac	0.0002746185
78	0x3d2d211c	0.042267904
79	0x3b858f5a	0.0040759267
80	0xbc290186	-0.010315305
81	0xba7230e4	-0.00092388527
82	0xbc66dcb4	-0.014090706
83	0xbb64242c	-0.00348116
84	0xbc4d2b60	-0.012522548
85	0x3b177414	0.002310996
86	0x3c91a466	0.017778587
87	0x3b2d339d	0.002642847
88	0xbcc7d2b9	-0.024392473
89	0x3c2729a3	0.010202798
90	0x3c9f9173	0.019478535
91	0xbd493e39	-0.049131606
92	0x3c6beb40	0.01439935
93	0xbc947979	-0.018124329
94	0xbc9d3372	-0.01918957
95	0xbd97c652	-0.074108735
96	0xbd21ee9c	-0.039534196
97	0x3a38d118	0.00070502004
98	0xbd471453	-0.048603367
99	0x3bc0a427	0.0058789435
100	0x3ca2c46c	0.019869052
101	0xbbd3ebd2	-0.006467321
102	0x3a1d87b7	0.0006009298
103	0x3c31457e	0.010819791
104	0xbd7a7b0b	-0.0611525
105	0x3d20a702	0.03922177
106	0xbd269a3b	-0.04067443
107	0xbbe59f82	-0.00700754
108	0xbd07d69b	-0.033163648
109	0xbd2b7d23	-0.041867387
110	0x3c68855c	0.014191952
111	0x3cf2d756	0.029643696
112	0x3cb64e8d	0.022254253
113	0xbc9b5f03	-0.018966204
114	0xbc8fd5f7	-0.017558081
115	0xbc7f70aa	-0.015590826
116	0xbcf73c33	-0.030180072
117	0x3d066efc	0.032820687
118	0xbd18d518	-0.037312597
119	0xbcc545bc	-0.024081104
120	0xbd1c6711	-0.03818423
121	0x3ceeaf1b	0.029136231
122	0xbc1cfc0f	-0.00958158
123	0xbda2a3cc	-0.07941398
124	0xbcf606ea	-0.030032594
125	0x3d2e2379	0.042514298
126	0x3d29652c	0.04135625
127	0x3ccbe6f4	0.0248904
128	0xbc659d9d	-0.014014629
129	0x3cc3734c	0.023858689
130	0xbcfd33dd	-0.03090852
131	0x3cffc117	0.031220002
132	0xbc6e00f6	-0.014526596
133	0xbd02bbfe	-0.031917565
134	0xbcb40155	-0.021973291
135	0xbc59c2bd	-0.013291058
136	0x3cf2c6a1	0.02963573
137	0xbd1c54a8	-0.038166672
138	0xbce933fc	-0.02846717
139	0xbd23085c	-0.039802894
140	0xbc84a828	-0.016193464
141	0x3cf7d5a4	0.030253239
142	0xbd0c2ef9	-0.034224484
143	0x3b9aecd1	0.0047279377
144	0x3cb9dee2	0.022689287
145	0xbd34ae3e	-0.044111483
146	0x3d2f481e	0.042793386
147	0xbce89135	-0.028389553
148	0xbcee85e1	-0.029116573
149	0xbd10c8ab	-0.035347622
150	0x3d06e15d	0.032929767
151	0xbcb9739a	-0.022638131
152	0xbcc16eea	-0.023612458
153	0xbcf05d0d	-0.029341245
154	0xbd2c4984	-0.042062297
155	0x3d11a8aa	0.03556124
156	0xbcacc645	-0.021090636
157	0x3a05af74	0.0005099692
158	0xbbbe71e6	-0.0058119176
159	0xbd7ee00f	-0.062225398
160	0x3d277727	0.040885117
161	0x3c6285bc	0.01382583
162	0xbbc55144	-0.0060216505
163	0x3d1bc902	0.038033493
164	0xbd16a48c	-0.036778018
165	0x3c866d13	0.016409433
166	0xbcbb1074	-0.022834994
167	0x3cf20252	0.029542122
168	0x3ce5d5db	0.028056076
169	0xbcd166d9	-0.025561737
170	0xbcb87456	-0.02251641
171	0xbcadc646	-0.021212708
172	0xbd05323f	-0.03251862
173	0x3c0077f1	0.007841096
174	0x3ce6516b	0.028114995
175	0xbc4e52a5	-0.012592946
176	0xbd858d1f	-0.06521057
177	0xbcfb723b	-0.030694118
178	0xbc8195aa	-0.015818436
179	0xbd08dd64	-0.03341426
180	0x3b4fccd1	0.0031707773
181	0xbd1aafff	-0.0377655
182	0x3cc95fbe	0.024581786
183	0x3c17250c	0.009225141
184	0xbc95eeba	-0.01830231
185	0xbc02d970	-0.007986411
186	0x3c111c08	0.008856781
187	0x3cb073c5	0.021539578
188	0xbd4b4cc6	-0.049633764
189	0xbd28f339	-0.04124758
190	0xbc16ca08	-0.009203441
191	0xbcc72e27	-0.024314
192	0xbcc98ea7	-0.024604155
193	0xbd08abf4	-0.033367112
194	0x3c7fe82b	0.015619318
195	0xbd25e25d	-0.04049908
196	0xbcf567a4	-0.029956646
197	0x3d207a09	0.03917888
198	0xbd8a7b15	-0.06761757
199	0xbccd45e1	-0.025057735
200	0x3cf7a71f	0.030231057
201	0x3b62e9cb	0.0034624215
202	0xbc528fbc	-0.012851652
203	0x3b0fc567	0.002193773
204	0xbc8808b9	-0.016605722
205	0xba1c9133	-0.0005972564
206	0x36969d1e	4.488639e-06
207	0x3c197482	0.0093661565
208	0xbb96aeda	-0.0045984806
209	0xbcbeee3f	-0.023306964
210	0xbca8aa7a	-0.020589102
211	0xbd8e11dc	-0.06937
212	0xbc59d8ef	-0.01329635
213	0x3d1fb06d	0.038986612
214	0xbd3b127e	-0.045671932
215	0xbd3acdbe	-0.045606367
216	0x3caa1b46	0.020764958
217	0x3ce3ea26	0.027821612
218	0xbc835622	-0.016032282
219	0x3c2456d8	0.010030471
220	0xbd2fad68	-0.042889982
221	0xbd2560a2	-0.04037536
222	0x3d19f0bf	0.03758311
223	0xbc071e2f	-0.008246942
224	0x3bf9f6d2	0.0076283
225	0xbcf484fe	-0.029848572
226	0xbd5d0831	-0.05396289
227	0xbc00b3a9	-0.007855334
228	0xbbacc835	-0.00527289
229	0xbc10a197	-0.0088275885
230	0xbd1628f5	-0.036660153
231	0xbb074d73	-0.0020645529
232	0x39f09955	0.00045890608
233	0xbbeabf42	-0.007163913
234	0xbba6aebb	-0.0050867475
235	0xbcc535f1	-0.024073573
236	0x3d199daa	0.037503876
237	0xbd3657b3	-0.04451723
238	0xbc8b74e6	-0.017023515
239	0x3d045fe3	0.032318007
240	0xbc680304	-0.014160875
241	0x3c90a877	0.017658455
242	0x3c38ffa1	0.011291415
243	0xbb9f9b5a	-0.0048708143
244	0xbc8cd80b	-0.017192861
245	0x3c53a505	0.012917762
246	0x3caed6cc	0.021342658
247	0xbcfa4d00	-0.030554295
248	0x3ce800a3	0.028320616
249	0xbd29c581	-0.04144812
250	0xbbe2e629	-0.00692441
251	0xbc4f5015	-0.01265337
252	0xbc0e5b06	-0.008688694
253	0xbccd0818	-0.025028273
254	0xbd3df7c6	-0.046378873
255	0xbcf3d704	-0.029765613

l2.bias f4 [256]
0	0xbd1633ce	-0.0366705
1	0xbd9b1d96	-0.075740024
2	0xbb441c22	-0.0029923995
3	0x3c4341d7	0.011917553
4	0xbad05844	-0.0015895446
5	0xbd0b9a2e	-0.034082584
6	0xbc345751	-0.011007146
7	0xbcdb18c8	-0.026745215
8	0xbd01529d	-0.031572927
9	0xbd968cff	-0.073511116
10	0xbbe3af60	-0.0069483966
11	0x3f13e41c	0.5776994
12	0x3e1fe0a1	0.15613033
13	0xbd17b3d9	-0.03703675
14	0xbdcaa099	-0.09893913
15	0xbe1d68dc	-0.15372032
16	0xbdc704b7	-0.09717696
17	0x3f111330	0.566699
18	0xbca9eb7b	-0.020742169
19	0xbd543d1f	-0.051816102
20	0xbd985953	-0.07438912
21	0xbd097f3f	-0.033568617
22	0x3c8bf33a	0.017083753
23	0xbcd8ac63	-0.026449388
24	0xbd21fb6a	-0.039546408
25	0xbde15e85	-0.11004356
26	0xbc52fa6c	-0.012877088
27	0xbcf79117	-0.030220551
28	0xbe0dff11	-0.13866831
29	0xbebed996	-0.3727538
30	0x3f04a6e3	0.5181715
31	0xbdb32ec3	-0.087491535
32	0xbd5883ca	-0.05286006
33	0x3ffb8f9e	1.9653203
34	0x3b47efb8	0.0030507874
35	0xbcdbb375	-0.02681897
36	0x3feb334a	1.8375027
37	0xbd8352e4	-0.064122945
38	0xbcfe26a7	-0.03102429
39	0xbda48bc2	-0.08034469
40	0xbd9ad79f	-0.07560658
41	0xbdb8b946	-0.09019713
42	0x3e623181	0.22089197
43	0xbd94764c	-0.07249126
44	0xbdf1725e	-0.11789392
45	0xbdebb06e	-0.11508261
46	0xbd9daec9	-0.07699353
47	0xbc365ec7	-0.011130995
48	0xbcc3af2c	-0.02388724
49	0xbdb4a17d	-0.08819864
50	0xbf8d42f5	-1.1036059
51	0x3ecab246	0.39589137
52	0xbbc0f9df	-0.005889162
53	0x3d17b25f	0.037035342
54	0xbc9b0a62	-0.01892585
55	0xbcf471fa	-0.029839505
56	0x3b296f62	0.0025853743
57	0xbd00bf8e	-0.03143268
58	0xbc5246cc	-0.012834262
59	0x401bcdca	2.4344354
60	0xbeabe91f	-0.33576295
61	0xbc716669	-0.014733889
62	0xbd724921	-0.059151772
63	0x3f4705d3	0.7774326
64	0xbcf057a4	-0.029338665
65	0xbdb47fb7	-0.08813422
66	0xbdf79e33	-0.12090721
67	0xbdd36aeb	-0.10323127
68	0xbd3f2d2c	-0.04667394
69	0xbe85245a	-0.26004297
70	0xbd57d8b8	-0.052696913
71	0xbd44202a	-0.047882237
72	0xbd63f6f4	-0.055655435
73	0x3edbe1b5	0.42945638
74	0xbd156823	-0.036476266
75	0xbdbead77	-0.093104295
76	0x3b03deb0	0.0020121746
77	0xbcb02933	-0.02150402
78	0xbe5437ee	-0.2072446
79	0x3f538262	0.82620823
80	0x3ae54514	0.00174919
81	0xbf32c8db	-0.6983773
82	0xbc96b30c	-0.018395923
83	0x3e4ee4c7	0.20204459
84	0xbe02f988	-0.12790501
85	0xbc95c25a	-0.01828115
86	0xbd9f3e15	-0.07775513
87	0xbd8293d3	-0.063758515
88	0x3d0b8230	0.034059703
89	0xbcf096f1	-0.02936885
90	0x3b40cbe1	0.0029418396
91	0xbd38d9c3	-0.04512955
92	0xbd1ca2ce	-0.0382412
93	0x3c0f7a05	0.008757119
94	0xbcbccf99	-0.023048209
95	0xbedc5d37	-0.43039867
96	0xbe4f4728	-0.20241988
97	0xbdc489b2	-0.09596576
98	0x3ec745ad	0.38920346
99	0xbd3bbef7	-0.045836415
100	0xbd552f13	-0.052046847
101	0xbdd0846f	-0.1018151
102	0xbd36d770	-0.04463905
103	0xbe2008a0	-0.1562829
104	0xbf575f44	-0.8412974
105	0xbd6e400e	-0.058166556
106	0xbc0f2242	-0.008736195
107	0xbd8b7794	-0.06809917
108	0xbd6b09ce	-0.057382397
109	0xbda07a54	-0.07835832
110	0x3b457382	0.0030128662
111	0x40149829	2.321787
112	0x3675f312	3.664933e-06
113	0xbd40057b	-0.046880227
114	0xbcbc8fbd	-0.023017759
115	0xbaa0e78d	-0.0012276039
116	0x3db5c152	0.088747635
117	0x3d623d26	0.055234097
118	0x3b1e9b67	0.0024201514
119	0xbd8d7aba	-0.06908174
120	0xbd3875fb	-0.04503439
121	0x3e90cedf	0.2828283
122	0xbd75c2ce	-0.060000233
123	0xbd6771ce	-0.056505017
124	0xbd5bc153	-0.053651165
125	0xbf3f37a0	-0.7469425
126	0xbd85878a	-0.06519993
127	0xbd78e796	-0.060767733
128	0xbcaba4ae	-0.020952549
129	0x3cfb8230	0.030701727
130	0x3d8966c3	0.06709053
131	0xbe17dae5	-0.14829595
132	0xbd31454c	-0.043278977
133	0xbd0af7b4	-0.033927634
134	0xbcf6717a	-0.030083407
135	0x3ecc5a26	0.39912528
136	0xbd2b9944	-0.041894212
137	0xbcb2952f	-0.021799652
138	0x3e1675f7	0.14693438
139	0xbdb26277	-0.08710187
140	0xbcb9bd49	-0.022673266
141	0xbd030a5a	-0.031992294
142	0xbd791bc9	-0.060817514
143	0xbdc2c0d6	-0.09509437
144	0x38482fcf	4.772824e-05
145	0xbd267e59	-0.04064784
146	0xbb31030f	-0.002700988
147	0xbd8ba897	-0.06819265
148	0xbc374a8c	-0.011187207
149	0xbde172bd	-0.11008213
150	0xbdafc583	-0.08582594
151	0xbeb3145c	-0.3497647
152	0xbda35500	-0.07975197
153	0xbe1da05a	-0.153932
154	0xbe3a2e12	-0.18181637
155	0xbd1f2991	-0.038858
156	0x3c0e9dde	0.008704631
157	0xbd366cf5	-0.044537503
158	0x3efa2f6b	0.48864302
159	0x3f844193	1.0332512
160	0xbf6d2962	-0.9264127
161	0x3b4fe1da	0.0031720311
162	0xbd11b250	-0.035570443
163	0xbd33ea96	-0.04392489
164	0x3e84ce05	0.2593843
165	0xbd93a359	-0.072088905
166	0xbd66839c	-0.056277856
167	0xbf70235d	-0.9380396
168	0xbc8257f9	-0.01591109
169	0xbd0970c5	-0.03355481
170	0xbd810fc5	-0.06301836
171	0xbdb4b775	-0.08824054
172	0xbd85706b	-0.06515583
173	0xbd3bd37a	-0.045855977
174	0xbb8b5862	-0.0042524794
175	0xbd73eb54	-0.0595506
176	0x3ea4e6b5	0.32207265
177	0xbd71cf27	-0.059035446
178	0xbe3a6a96	-0.18204722
179	0x3c3d3ec6	0.011550611
180	0xbd8d5b39	-0.06902165
181	0xbd6ceb75	-0.057841737
182	0xbd0dbcf5	-0.03460403
183	0xbc2d2be0	-0.010569543
184	0x3e6aea73	0.22940998
185	0xbd824a36	-0.06361811
186	0xbdee646d	-0.116402484
187	0x3f3f2f40	0.7468147
188	0xbcb46187	-0.02201916
189	0xbd6da7bb	-0.05802129
190	0x4021e42e	2.529552
191	0xbc631377	-0.013859621
192	0xbc364ccf	-0.011126711
193	0xbb72f7df	-0.0037074012
194	0xbca53cf8	-0.020170674
195	0xbe8bfd6d	-0.27341786
196	0xbda98b95	-0.08278576
197	0xbd845c7b	-0.06462952
198	0xbc121f42	-0.008918585
199	0xbc8a2d70	-0.01686737
200	0x3b9020a1	0.004398421
201	0xbdd09f24	-0.10186604
202	0x3b4800db	0.0030518088
203	0x3db30376	0.087408945
204	0x3eed9767	0.46404573
205	0x3b6bb4b1	0.0035965855
206	0xbd4f42b3	-0.05060072
207	0xbe7cff58	-0.24706781
208	0xbdfd00bd	-0.123536564
209	0x3c7b75fb	0.015347953
210	0x4000cd04	2.0125132
211	0xbd2d9dae	-0.042386703
212	0x3e0821d6	0.13294157
213	0x3d1e13c9	0.038593087
214	0x3a9db03f	0.0012030675
215	0x3ebf81c1	0.37403682
216	0xbc9451b3	-0.018105363
217	0x3cf2b768	0.02962847
218	0xbc496d61	-0.012294144
219	0xbd680d21	-0.056653146
220	0xbda678cf	-0.08128511
221	0xbd673ec4	-0.056456342
222	0xbe038ac9	-0.12845911
223	0xbedc0d26	-0.4297878
224	0x3aca0982	0.001541421
225	0xbd1fb35b	-0.038989406
226	0xbcabf2fb	-0.020989886
227	0xbd1b688e	-0.037941508
228	0xbd98f459	-0.074684806
229	0xbd2475a7	-0.040151265
230	0xbe0a5707	-0.13509761
231	0xbd8aeaf7	-0.06783097
232	0xbd5fd6ba	-0.05464814
233	0xbcf4cccc	-0.029882811
234	0xbd2f7d47	-0.042844083
235	0xbfb29b72	-1.3953688
236	0x402816c4	2.6263895
237	0x3f0342b8	0.5127368
238	0xbd65c7e0	-0.05609882
239	0xbd2811de	-0.041032664
240	0xbda8a5c5	-0.08234743
241	0xbce8ad79	-0.02840303
242	0xbccb2d13	-0.024801766
243	0xbc03e26a	-0.008049587
244	0x3f18f50c	0.5974891
245	0xbd9e44fd	-0.07728002
246	0xbda39276	-0.079869196
247	0xbcd710a4	-0.026253052
248	0xbdce78c3	-0.10081627
249	0xbd9b4650	-0.075817704
250	0x3e50f181	0.20404626
251	0xbdc94c60	-0.098290205
252	0xbe4678cf	-0.19382022
253	0x4003006a	2.0469003
254	0xbbbb0c43	-0.005708249
255	0xbdb777c5	-0.08958391

l3.weight f4 [1, 256]
0	0xbceb6771	-0.028735848
1	0x3d069a98	0.032862276
2	0x3bf0571c	0.007334603
3	0x3c1be3e8	0.009514786
4	0xbcbd9788	-0.023143545
5	0x3b1298c7	0.0022368894
6	0xbcb7d1d9	-0.02243893
7	0xbbb7d30d	-0.005609876
8	0x3cbfad56	0.023398083
9	0x3adc492f	0.0016806478
10	0x3cc886f6	0.024478417
11	0xc081cd33	-4.0562987
12	0xc089aa0a	-4.3020067
13	0x3cfb0bad	0.030645216
14	0x3c28d079	0.01030361
15	0xbb0c0efd	-0.0021371238
16	0x39b44b83	0.00034388536
17	0xc0d4f8ae	-6.6553564
18	0x3c259d5e	0.01010832
19	0xbcfb8b9f	-0.030706225
20	0xbbcc13a4	-0.0062279273
21	0xbcd5a22c	-0.026078306
22	0x3b86e163	0.0041162237
23	0xbcc8cd20	-0.024511874
24	0xc08ceba4	-4.4037647
25	0xbbbd8ed3	-0.0057848482
26	0xbc1ae382	-0.009453656
27	0xbcf271a5	-0.029595206
28	0xbc9c3b02	-0.019071106
29	0x3fadd28c	1.3579879
30	0xc084f355	-4.1547036
31	0x3d076cf7	0.0330629
32	0xbcf83e65	-0.03030319
33	0xbf0ee635	-0.5582002
34	0x3d5277ba	0.05138371
35	0x3c783ef1	0.015151725
36	0xbf5babc1	-0.8580895
37	0x3cadb936	0.02120648
38	0x3cb6db99	0.02232151
39	0x3c5b4bea	0.013384799
40	0x3ca50da8	0.020148113
41	0x3d74b55c	0.05974327
42	0xc0728957	-3.7896326
43	0xbce6649e	-0.02812415
44	0x3b43fe4a	0.0029906207
45	0x3ca7737c	0.02044081
46	0x3e41e855	0.18936284
47	0x3d210341	0.039309744
48	0x3c646d3c	0.013942059
49	0xbb530dbc	-0.0032204231
50	0x3f63573b	0.8880498
51	0xc0964a9d	-4.696608
52	0x3b6a74ed	0.003577526
53	0xc0602b46	-3.5026412
54	0xc011a7ed	-2.2758744
55	0xba9bf476	-0.0011898417
56	0x3c105bb8	0.00881093
57	0xbb1d95c0	-0.0024045557
58	0x3cebe0cd	0.028793717
59	0xbeabf691	-0.33586553
60	0x3f97aad0	1.1849003
61	0xbc6f486a	-0.014604667
62	0xbc261806	-0.010137564
63	0xc093cfa5	-4.619097
64	0xbc3cbc2c	-0.011519473
65	0x3e175d89	0.14781775
66	0x3d9c2f15	0.07626168
67	0x3cbd658b	0.023119709
68	0xbd67578f	-0.056479987
69	0xc028bdf7	-2.6365945
70	0xbc56e358	-0.013115726
71	0x3c5ef17d	0.01360738
72	0x3cdbc229	0.026825981
73	0xc0db8f84	-6.861269
74	0x3c9ee9f8	0.019398674
75	0x3d9497b9	0.07255501
76	0x3ba0bf46	0.004905614
77	0x3c912ed2	0.017722521
78	0xc0a60e93	-5.189279
79	0xc09c0c79	-4.8765225
80	0x3cb5411b	0.022125771
81	0xc087b6b4	-4.2410526
82	0xc0c9ce6a	-6.306447
83	0xc06b23d2	-3.6740613
84	0xc05887c3	-3.3832862
85	0xbc950823	-0.018192356
86	0xbc1ac3c9	-0.009446093
87	0x3c2c2a32	0.010508107
88	0x3c1d6581	0.00960672
89	0x3ca8297f	0.0205276
90	0xbbd255c5	-0.006418916
91	0x3ccfcaa4	0.025365181
92	0xbbeb8b35	-0.0071882256
93	0x3ce150b2	0.027504299
94	0xbb68608b	-0.0035457935
95	0x3fa16238	1.2608099
96	0xc0bed0d1	-5.9629903
97	0x3c8051b3	0.015663957
98	0xc083cbcb	-4.118627
99	0xbc21a4e3	-0.009865972
100	0x3c940a6c	0.018071376
101	0xbcd25f9e	-0.02568036
102	0xbb3c423f	-0.002872601
103	0xc0a519b1	-5.159386
104	0x3f293e71	0.66110903
105	0x3c3ca4ec	0.01151393
106	0x3b152d16	0.002276247
107	0xbad3dae9	-0.0016163263
108	0x3cef4b8d	0.02921083
109	0x3fb1a0aa	1.3877156
110	0xbc1ca566	-0.009560918
111	0xbe5b6612	-0.21425655
112	0xbaafe397	-0.0013419267
113	0x3c357515	0.011075278
114	0x3b7bc2a2	0.003841557
115	0x3d543f46	0.051818155
116	0xc0a2e242	-5.0901194
117	0x3fed5ff2	1.8544905
118	0x3b3a7a12	0.0028454107
119	0x3cc1f95a	0.02367847
120	0xbc4150bb	-0.011799033
121	0xc0c39c6d	-6.112845
122	0xbc6208b1	-0.0137960175
123	0x3d0961ba	0.033540465
124	0x3cbbe903	0.022938257
125	0xc05225c6	-3.2835555
126	0xbccae664	-0.024768062
127	0x3c0d8374	0.008637298
128	0xbc9baad5	-0.019002357
129	0x3cafd0db	0.021461895
130	0xc09d44ac	-4.914633
131	0xbe6e101d	-0.23248334
132	0x3d10d06f	0.035355028
133	0x38b126c3	8.4472376e-05
134	0x3d029b10	0.03188616
135	0xc0876fc3	-4.232393
136	0xbc4e9f03	-0.012611154
137	0x3d115487	0.035481002
138	0xc0956196	-4.6681623
139	0x3af38677	0.0018579502
140	0xbbd27e05	-0.006423714
141	0xbc874134	-0.016510583
142	0xbc93258e	-0.017962243
143	0x3c033a46	0.008009499
144	0x3caf9523	0.021433419
145	0xbcde805f	-0.027160821
146	0x3ca4b616	0.020106357
147	0x3c26c334	0.010178376
148	0xbb91015d	-0.0044252113
149	0x3da77126	0.08175878
150	0xbace3b1e	-0.0015734171
151	0xbf3f55e9	-0.74740463
152	0x3cf8c384	0.030366667
153	0x3c54cf44	0.012988869
154	0xbfbebe5c	-1.4901843
155	0x3c3e9a9b	0.0116335405
156	0xbc6ac117	-0.014328263
157	0xbc64e161	-0.01396975
158	0xc050b1d3	-3.2608535
159	0xc0977e5a	-4.734174
160	0x3f570e38	0.8400607
161	0xbc590a95	-0.013247152
162	0xbce47330	-0.027886957
163	0x3cb89006	0.022529613
164	0xc0becda2	-5.9626017
165	0xbdb24142	-0.08703853
166	0x3c67c2aa	0.014145533
167	0x3f129e79	0.5727306
168	0xbcfe560b	-0.031046888
169	0x3c4aa4ba	0.012368375
170	0x3c158c4d	0.009127689
171	0xbc64eee7	-0.013972974
172	0xbbda3f78	-0.006660398
173	0xc0a035fc	-5.00659
174	0xbc52a3f6	-0.012856474
175	0x3c187847	0.00930602
176	0xc0829253	-4.080362
177	0x3d1babac	0.038005516
178	0xbe1e7767	-0.15475236
179	0xbc9d6081	-0.019211056
180	0x3c4ea0ea	0.012611607
181	0x3cc11e04	0.023573883
182	0xbcc12050	-0.023574978
183	0xbb0b3e0c	-0.00212467
184	0xc08b8ff8	-4.3613243
185	0xc0cf2182	-6.4728403
186	0xc045fd06	-3.0935683
187	0xc0a1dbb4	-5.058069
188	0x3ce7b00c	0.028282188
189	0xbc5dfa11	-0.01354839
190	0xbefbb671	-0.4916263
191	0xbc164066	-0.009170627
192	0xbcbf717c	-0.023369543
193	0xc06fcd99	-3.7469237
194	0x3d34c58a	0.0441337
195	0xc0bbbb1c	-5.8665905
196	0xbc905f9a	-0.017623711
197	0x3cdffbea	0.027341802
198	0x3bef0559	0.0072943387
199	0xbd242e13	-0.040083002
200	0x3bf629e8	0.00751232
201	0x3a0c28a4	0.0005346632
202	0xbca0d12d	-0.019630993
203	0xc09f5538	-4.9791527
204	0xc07936d2	-3.893971
205	0xbac82073	-0.001526846
206	0xbcb77d16	-0.022398513
207	0xc0df8915	-6.9854836
208	0x3ba8c75a	0.0051507177
209	0x3ceae27e	0.028672453
210	0xbf2edbef	-0.6830434
211	0x3c19a958	0.009378754
212	0xc0e09592	-7.018258
213	0xc0553232	-3.3311887
214	0x3c05eb9f	0.008173852
215	0xc026406a	-2.5976815
216	0xbc0c15fd	-0.008550164
217	0x3bb45438	0.0055032037
218	0x3bb6222e	0.0055582738
219	0xbcc1521f	-0.023598729
220	0x3cf08a3b	0.029362788
221	0xba71a44c	-0.00092179026
222	0xbcfb89a4	-0.03070528
223	0xc0050cff	-2.0789182
224	0xbac74359	-0.0015202566
225	0xbcc9b9bd	-0.0246247
226	0xbd09f611	-0.033681933
227	0x3cf0ef32	0.029410932
228	0x3cc1cac2	0.023656253
229	0xbccf9829	-0.02534111
230	0x3cd8b1b7	0.026451929
231	0x3cba2d46	0.022726666
232	0xbcf88fd4	-0.03034202
233	0x3cbe63b4	0.023240902
234	0xbc0283ca	-0.007965991
235	0x3f3bcc21	0.7335835
236	0xbf267db1	-0.6503554
237	0xc0587554	-3.3821611
238	0xbb217138	-0.0024634134
239	0xbb7debd6	-0.0038745306
240	0xbd088dc3	-0.03333832
241	0xba38f1ee	-0.00070550933
242	0x3b5adf1f	0.003339715
243	0xbccc05ec	-0.024905168
244	0xc0453324	-3.0812464
245	0xbcc809cb	-0.024418732
246	0xbcd0df0f	-0.025496988
247	0x3d3a7d39	0.045529578
248	0xbc713c6a	-0.0147238765
249	0x3c136ba6	0.008997833
250	0xc0ee9c47	-7.456577
251	0x3d5664fd	0.052342404
252	0xbc3f7bc9	-0.0116872275
253	0xbe8a42c9	-0.27004078
254	0x3c3dd78d	0.011587036
255	0x3e42cdec	0.19023865
