saves/Dobot-v4/dpba/seed_0/model/critic.pth (torch, 610135 bytes, 5 tensors)

l1.weight f4 [512, 39]
000000 c9 86 33 3f b7 ab 44 be 0d 9c 89 be c3 9c 0f bf
       0.7012754 -0.19206129 -0.2687687 -0.56098574
000010 37 cf 30 bf c4 d3 de be 2e ec 93 3e 77 63 d1 bd
       -0.69066185 -0.4352094 0.28891128 -0.102240495
000020 42 11 d2 be c4 8f 0e be ba 73 0c bf 1b 8e 56 be
       -0.41028792 -0.1392203 -0.54864085 -0.20952646
000030 76 11 17 3f d4 23 9d be b7 ed 6a 3f bb 6c 61 bf
       0.5901102 -0.30691397 0.91768974 -0.88056535
000040 28 44 03 3f 07 69 cd bf 8b 5f d3 3f 9b 6b 8b bf
       0.51275873 -1.6047677 1.6513532 -1.0892214
000050 b5 48 64 3f 05 fd 54 3f ef 24 ea 3f e5 ec 3f bf
       0.8917344 0.8319858 1.8292521 -0.7497085
000060 3d 7f eb 3e 13 a5 22 3f 73 14 78 3f 4e 59 12 bf
       0.45995513 0.63533133 0.96906203 -0.5716752
000070 01 92 02 40 8a 19 79 c0 76 96 9e 3f 02 0e 54 be
       2.0401614 -3.8921838 1.2389667 -0.20708469
000080 1b a7 38 3f 2a 79 4c 3f 58 72 5b 40 cf 86 10 c0
       0.7212998 0.7987238 3.428854 -2.258228
000090 b3 13 9e 3c 0f c4 e0 bb e3 35 ff 3b 71 ad 63 3f
       0.019296503 -0.0068593095 0.007788406 0.88936526
0000a0 05 5a 8b bd b2 8e aa be 17 e3 ad 3f fe 9f 03 bf
       -0.06804279 -0.33311993 1.3584927 -0.51416004
0000b0 aa bd 5c bd f2 b3 73 3e a3 f4 c2 be 22 a3 d4 be
       -0.053891815 0.23799112 -0.38077268 -0.4153071
0000c0 60 39 78 3f 49 61 2d bf 0b 13 a5 be 3c e7 2e bf
       0.9696255 -0.6772657 -0.3224109 -0.68321586
0000d0 15 e6 8f bf f9 73 6a 3f 8f 5c 76 3f 8e 9d 16 c0
       -1.124209 0.9158321 0.96234983 -2.3533664
0000e0 2b a2 c0 3d 93 f3 b9 3f 08 f4 88 3f aa 35 ba be
       0.09405931 1.4527458 1.0699472 -0.36369067
0000f0 fb 6c d3 3f e5 c2 36 40 de 50 5c 3f 70 67 a1 bf
       1.6517633 2.8556454 0.86060894 -1.2609692
000100 2c 3b 01 3f bf 1b 96 3f c9 40 8e 3e 29 d3 47 bf
       0.50480914 1.1727217 0.27783802 -0.7805658
000110 ed 12 15 bf 33 a2 64 3f 9d ae f4 3f 9c 90 d5 bf
       -0.58232003 0.89309996 1.9115788 -1.6684756
000120 bb ff 8c 3f a3 1f aa 40 c2 4c a2 3f b7 e0 88 3c
       1.1015543 5.316362 1.2679675 0.016708715
000130 7f 75 ce 39 3b 11 7d bc 61 2f e0 bd a6 b2 4b bd
       0.00039378923 -0.015446003 -0.10946537 -0.04973092
000140 41 12 d3 bd 77 37 48 bd f4 11 e6 bd 43 9b d6 3d
       -0.10306216 -0.04888102 -0.11233893 0.104788326
000150 4e d1 ec bd bf e9 a2 3d 44 c6 29 bd 83 02 b7 3d
       -0.11563359 0.0795474 -0.041448846 0.08936026
000160 dc 6d b3 bd 70 64 82 bc 6e 4e cf bc 5a 9c 25 3e
       -0.087611884 -0.015917033 -0.025305953 0.16172925
000170 34 bd ae 3c 10 97 e8 bd 0d 96 57 3e dd f3 d9 3a
       0.021330453 -0.11356938 0.21053334 0.0016628463
000180 cf 50 a3 3d 5b e2 41 3e 1c 76 ff 3d e4 8e bf bd
       0.079743974 0.18934004 0.124736995 -0.09353426
000190 6a a6 ae bd e7 29 41 3e 42 0a e1 bd 9c 64 39 3e
       -0.08527835 0.1886364 -0.10988285 0.18104786
0001a0 f8 32 2e 3e d3 6a 38 3c fa 6b 2d 3e 4a e5 19 3e
       0.1701163 0.011255938 0.16935721 0.15028873
0001b0 34 80 a1 bd a4 af 06 3e b6 46 2e 3e 6a 5f 23 3e
       -0.07885781 0.13152939 0.17019162 0.15954366
0001c0 c0 80 19 3d 90 d8 e1 3d 22 85 88 3d 09 67 8b bd
       0.0374763 0.11027634 0.06666018 -0.06806762
0001d0 d9 8b cf bc 8e 2c 8e 3f 71 0b b5 3e 7d 0b 79 be
       -0.02533524 1.1107347 0.35360292 -0.24320789
0001e0 81 69 a8 3d 2e 3b d1 bf 72 7b 37 bf a4 55 51 3f
       0.08223248 -1.6346185 -0.7167274 0.817713
0001f0 98 bf 2f 3f e7 de 0b bd c9 9b e8 3e ac 54 87 be
       0.68651724 -0.034148123 0.45431355 -0.26431787
000200 e0 c7 d0 3e 5e 77 43 3f 76 1e 8f bf 06 61 3a 3e
       0.40777493 0.76354015 -1.1181171 0.18201074
000210 99 7a e0 3f cd 53 2f bf d7 f7 16 3f 4c ab 59 3f
       1.7537414 -0.68487245 0.58971924 0.85027003
000220 56 0f 33 40 d0 25 b7 be 93 fb 18 3f 58 da 19 bf
       2.797811 -0.35771036 0.5975887 -0.6009879
000230 bf af 2f 3f 42 3b 7e 3f 50 76 0b 3f 21 27 5b 3e
       0.6862754 0.9930917 0.54477406 0.21401645
000240 97 42 93 3f f1 a4 e0 3f 28 d4 64 3e 99 f1 28 3f
       1.1504697 1.7550336 0.22346556 0.6599365
000250 c8 5b 9e 40 d0 7c fd bf b6 6b e7 3e 9d 05 da 3f
       4.948704 -1.9803715 0.45199364 1.7032963
000260 93 ba 2a 3e 42 4d 35 3d 08 dc da 3b a1 cd ab 3a
       0.16672735 0.044263132 0.006679062 0.0013107547
000270 32 bd 4e 3c 8e b2 50 bf 21 c2 8f bd 67 3d 36 3f
       0.01261835 -0.8152245 -0.07019449 0.7118744
000280 4a 81 24 be b0 0b 5d 3d 9a ea 9c 3f 4a ee 04 3f
       -0.16064945 0.053966224 1.2259095 0.519261
000290 d2 47 93 be 70 0a 86 3f 58 1b f1 3c f3 58 a7 be
       -0.28765732 1.0471935 0.029431984 -0.3268505
0002a0 c6 5b e3 3e 58 b6 fb be 37 16 1c 3c 09 4f bf 3d
       0.44405955 -0.49162555 0.009526781 0.09341247
0002b0 f1 01 55 be bc ae 31 3f 38 a2 cd bd 72 04 98 be
       -0.20801522 0.6940725 -0.100407064 -0.29690892
0002c0 22 96 18 be 16 7c 98 3e 74 40 b3 be 46 e4 6a 3e
       -0.14901021 0.2978217 -0.3501011 0.22938642
0002d0 46 d1 b2 be 3e 9d 33 bf 18 c0 d3 be 71 6a dc bd
       -0.34925288 -0.7016181 -0.41357493 -0.107624896
0002e0 a1 21 aa be 4e 83 53 3f ea fb 24 bf d4 1e 2e bf
       -0.33228782 0.8262223 -0.6444689 -0.6801579
0002f0 7c cc c8 be 46 62 04 be 79 cc 3a be c3 5a 15 3c
       -0.3921851 -0.12928113 -0.18242063 0.009115878
000300 04 e8 00 bf 36 44 03 3e 15 6c 47 bd a8 78 32 3f
       -0.5035403 0.12818989 -0.04868706 0.69715357
000310 31 bb 35 3f 09 21 13 bf 14 2e 82 3d a9 cb ec be
       0.70988756 -0.5747228 0.06356445 -0.4624913
000320 1c 54 e9 be 91 95 4e 3e 2f e3 7b bf 03 65 aa bd
       -0.45571983 0.20174243 -0.9839353 -0.08320048
000330 d3 e2 de bd 27 5c 55 bf 8f e9 a4 3d 8c a6 c7 bf
       -0.10883107 -0.8334374 0.0805236 -1.5597701
000340 f7 c1 6c bd 91 b9 a3 be ca a1 2d bf cb b7 04 40
       -0.057802167 -0.31977513 -0.67824996 2.0737178
000350 c1 7f 0d 3f 1d 4d 4a 3d cc 09 05 c0 35 6b f9 3f
       0.5527306 0.049389947 -2.078723 1.9485842
000360 be e0 9b bf 1b 1c 2c 40 f1 e8 ad bc f2 a4 c6 bf
       -1.2177961 2.6892154 -0.02122924 -1.5519087
000370 c0 ac b0 3f 6b 9f 9a bf e1 29 c6 be 17 cf 46 40
       1.3802719 -1.20799 -0.38703826 3.1063898
000380 d5 5c 65 3e 06 3b 4e 3e 8c 3b 23 c0 0f ae 85 40
       0.22398694 0.20139703 -2.5505095 4.1774974
000390 3e 0c 37 bf 66 c1 98 40 40 61 45 bf 37 73 c7 3c
       -0.71503055 4.773608 -0.77101517 0.02434693
0003a0 f4 13 93 bb 86 a6 55 bc e8 84 b3 be 5b 18 02 bf
       -0.0044884626 -0.013040191 -0.35062337 -0.50818413
0003b0 08 a8 a5 3e 5d 81 60 bf 15 35 0a 3e 97 f2 d9 be
       0.3235476 -0.8769739 0.13496812 -0.42567894
0003c0 a0 52 fb 3d 60 20 94 3f 4e fb 8e be 35 8b 31 be
       0.12271619 1.157238 -0.27926105 -0.1733826
0003d0 fe 36 38 3f 87 4f 98 be bf 84 70 bf a1 41 58 bf
       0.7195891 -0.29748175 -0.93952554 -0.8447514
0003e0 e4 58 d0 3f 4b be b4 3f 84 69 d6 bf 8f ce 02 3f
       1.6277127 1.4120573 -1.6750951 0.51096433
0003f0 f4 be 43 c0 6a 82 65 bd 1a 05 2e 3f f6 4c f3 3f
       -3.0585299 -0.056032576 0.67976534 1.9007862

l1.bias f4 [512]
000000 5e f0 c8 be 17 48 23 bf bd 4f 1e bd 56 b1 b7 be
       -0.39245886 -0.63781875 -0.038650263 -0.35877484
000010 ec 0c 23 be 87 0d d6 be e3 1b 9e be 44 86 65 3e
       -0.15922898 -0.41807196 -0.3088065 0.224145
000020 6d 42 e2 be 0c f6 0f be 79 69 d7 be 24 ef 71 bd
       -0.44191304 -0.14058703 -0.42072657 -0.059065953
000030 8d 44 94 3d 4a e2 c0 be eb bb 87 be b6 92 96 be
       0.072396375 -0.37672645 -0.26510558 -0.29408807
000040 ef b5 6c be ca a8 36 be 80 93 32 bf a6 37 cc be
       -0.23116277 -0.17837825 -0.6975632 -0.39886206
000050 e0 61 15 be a7 93 2b be aa 6e 0d bf a7 b3 3f be
       -0.14588118 -0.16755544 -0.55246985 -0.18720876
000060 23 ca e7 be ed 94 be bc a9 14 8c be c5 94 7c be
       -0.45271406 -0.023264373 -0.27359512 -0.24666126
000070 29 75 21 bf 47 61 2c bf 38 43 86 be e2 9b f0 be
       -0.630694 -0.67335933 -0.2622316 -0.4699393
000080 c3 5f 0e 3e b0 f2 67 be 38 c9 05 bf 62 52 c7 be
       0.13903718 -0.22651172 -0.5226016 -0.3893004
000090 4c d8 e3 bd e2 f1 49 3c 58 cd 6e be 61 9a 80 bf
       -0.1112524 0.012325736 -0.2332052 -1.0047113
0000a0 6c bb e0 be 0e c5 35 bf a2 65 ac be 2f ff 5e 3e
       -0.43892992 -0.71003807 -0.3367129 0.21777032
0000b0 7e 27 14 bf 22 a1 4e be ed ff a1 be c0 00 35 bf
       -0.5787276 -0.20178655 -0.31640568 -0.7070427
0000c0 9a b4 c2 be ce aa c6 be 39 66 2a be 4d 8c 2a bf
       -0.38028413 -0.3880219 -0.16640557 -0.6662033
0000d0 e9 89 7a be 6f 86 e1 be 10 0a 0d be ff 7e 2a bf
       -0.24466671 -0.44047877 -0.1377337 -0.6660003
0000e0 cb cf 59 bf 03 a6 a5 be 41 56 ae be b8 91 ba bd
       -0.8508269 -0.3235322 -0.34050182 -0.09109825
0000f0 1a f3 27 bf 44 0a 81 bf 32 58 a9 be c4 c5 12 be
       -0.6560532 -1.0081258 -0.330751 -0.14333254
000100 56 d2 d9 be c5 87 11 bf 85 83 94 be 7e b8 1d bf
       -0.42543286 -0.5684779 -0.2900659 -0.6160964
000110 25 b4 53 be c4 2d ff bd 61 5c 30 bf 28 69 0c 3d
       -0.20674188 -0.12459901 -0.6889096 0.034279972
000120 2c e2 d3 be bc 64 0a bf 93 b1 4f be 70 20 e4 be
       -0.41383493 -0.5405996 -0.20282583 -0.44555998
000130 38 db 3b be 5b 21 91 be 98 59 0c bf 6c 19 a2 be
       -0.18345344 -0.2834576 -0.5482421 -0.3166002
000140 3f 96 0a bf 97 56 26 bf 37 57 4c be 98 08 fb be
       -0.5413551 -0.64975876 -0.19955145 -0.49029994
000150 03 26 d0 be 1a b2 78 bf 35 c9 7c be d1 18 9d be
       -0.40654 -0.9714676 -0.2468613 -0.30682996
000160 3c 71 47 bf e9 69 01 be 55 4b 09 3f 32 ee c7 be
       -0.77907157 -0.12638058 0.5363057 -0.39048916
000170 77 f8 1f be 67 b9 f0 bd bd 91 43 be 9d 8e 30 bf
       -0.15622126 -0.11754113 -0.19098563 -0.6896761
000180 81 6a 74 bd cf 33 35 be 19 7f 24 bf 08 bc 0c bf
       -0.059671883 -0.17695545 -0.64256436 -0.5497441
000190 e3 45 4d be 98 33 45 be cc 7c e7 be 50 b1 e3 be
       -0.20046191 -0.19257963 -0.452124 -0.44471216
0001a0 3e 93 e0 be 3f d7 50 bf 31 e3 fb be 0e 5d 9e be
       -0.43862337 -0.8157844 -0.4919677 -0.3093037
0001b0 81 f5 0c bf 00 27 bd be f5 99 c1 be fc ad 85 3d
       -0.5506211 -0.36943817 -0.37812772 0.065273255
0001c0 6b 8d 09 bf e3 e5 a1 be fe 59 93 be 84 28 94 be
       -0.5373141 -0.31620702 -0.28779596 -0.2893716
0001d0 4f e5 74 be 49 f8 03 bf 50 8c 0a 3e 1a 20 08 bf
       -0.239156 -0.5155073 0.13530087 -0.53173983
0001e0 3f 08 2d be cf 39 80 3e d6 1d 11 3d 57 0a c7 be
       -0.16897677 0.25044104 0.035428844 -0.38875076
0001f0 bb 68 83 bd 21 66 1a bf 1c 88 bf 3d 93 4c 95 be
       -0.0641646 -0.60312086 0.09352133 -0.29159984
000200 7d 89 05 bf dc e2 e2 bd 3f 02 0f bf c2 99 46 be
       -0.52162915 -0.11078426 -0.558628 -0.19394591
000210 75 01 19 3e e9 a6 f1 be 27 44 90 be 3d fa e2 be
       0.14941962 -0.47197655 -0.28176996 -0.44331542
000220 e2 f4 b9 be 3c 89 00 bf 01 63 6d be cc 66 11 be
       -0.36319643 -0.50209403 -0.23182298 -0.1419937
000230 eb 87 08 bf 5c 9a 64 be 53 d2 f8 bd aa f6 8b be
       -0.53332394 -0.22324508 -0.12149491 -0.27336627
000240 d3 bf 10 bf 8d f6 6f be 1a 38 57 be 0b eb 1c be
       -0.565427 -0.23433895 -0.21017495 -0.15324037
000250 17 9c e0 be 9a 89 d2 be 83 ec 4b be b3 6d 08 bf
       -0.43869087 -0.41120607 -0.19914441 -0.5329239
000260 d8 cb b5 be 6f d7 b1 be 70 ad f9 be 0a 95 8f be
       -0.35507083 -0.34734675 -0.48765135 -0.28043395
000270 98 38 c4 be 42 f3 25 bf 11 1b f7 be e0 72 de be
       -0.38324428 -0.64824307 -0.48262838 -0.43447018
000280 5c d0 95 be 57 47 13 be 76 95 cd be 23 26 5f be
       -0.29260528 -0.14382683 -0.40153092 -0.21791892
000290 a0 07 7d bf 90 e9 27 bf 90 87 39 bf 86 b0 e5 be
       -0.9883976 -0.65590763 -0.72472477 -0.4486124
0002a0 e9 08 12 bf 91 00 8c bf a7 bd f8 be 45 dc 29 bf
       -0.57044846 -1.0937673 -0.48582193 -0.6635173
0002b0 84 bf dd bc 51 f9 83 bd 9e b4 c5 bc e2 d6 d0 be
       -0.02706886 -0.06444038 -0.024133977 -0.40788943
0002c0 55 66 82 be e0 0d 03 bf b9 c0 2e bf 1f 3e 0b bf
       -0.25468698 -0.51193047 -0.6826282 -0.54391664
0002d0 25 d0 09 bf 11 6e cf be 22 7e 25 3c 9f 13 9c be
       -0.5383323 -0.40513662 0.010100873 -0.3048372
0002e0 8d 98 09 bf 27 96 c2 be bd d4 b4 be 0e ef 2d bd
       -0.537484 -0.38005182 -0.35318556 -0.04246431
0002f0 79 14 39 be 4f d7 22 bf 4e 2b e8 3c 03 5a df 3d
       -0.18074216 -0.63609785 0.028340962 0.1090584
000300 8f dd 93 bd 9e cc aa be a7 6d e5 3d 3e 93 4b 3d
       -0.07219993 -0.33359236 0.11202555 0.049700968
000310 33 95 a4 be 3b 81 db be 1d bc 99 be da 99 ed be
       -0.3214508 -0.42872033 -0.30026332 -0.46406442
000320 16 4a 87 be a7 12 26 bf 3f 74 1e be f0 75 07 3d
       -0.2642371 -0.6487221 -0.15474032 0.03307146
000330 ed 80 e2 be f5 91 a8 be 5d 3a c6 3d fd 88 2f be
       -0.44238988 -0.32923856 0.09679101 -0.171421
000340 76 aa 54 bf 43 c2 98 be 8f 3d e0 bd d7 ad 95 be
       -0.830726 -0.2983571 -0.10949241 -0.29234192
000350 30 41 4d bf 16 41 f5 be db db f0 be 21 19 1d bf
       -0.80177593 -0.4790122 -0.47042736 -0.6136647
000360 32 83 54 be 6e 35 3d bf 30 cf b2 bd df ab 83 bf
       -0.20753172 -0.7390965 -0.08730924 -1.0286826
000370 2d a5 58 be a3 cf a9 be 11 c1 83 be 42 d2 4b be
       -0.2115676 -0.33166227 -0.25733235 -0.19904426
000380 1a e9 0b bc c3 f8 e8 be 45 78 a2 be bb 88 85 bf
       -0.008539462 -0.4550229 -0.31732383 -1.0432352
000390 5b ba 5f be 10 20 a2 be 7c 86 db be cf b9 f2 be
       -0.21848433 -0.31665087 -0.4287604 -0.47407386
0003a0 93 66 6b be 56 d6 35 bf f4 70 a2 be 29 1d 1a bf
       -0.22988348 -0.71030176 -0.317268 -0.60200745
0003b0 3f ce 04 be 2c 1d ae bd d7 41 1f bf 89 8c a3 be
       -0.12969302 -0.08501658 -0.6220984 -0.31943157
0003c0 b1 b2 1d bf b6 eb 88 be 66 da e3 bd 6d f6 0f be
       -0.61600786 -0.26742333 -0.111256406 -0.14058848
0003d0 99 fa ee be a0 c1 5e be b9 2d 2b bf 56 44 27 3e
       -0.46675566 -0.2175355 -0.6686664 0.16334662
0003e0 8f 3c 7f be 5d e4 5d be d9 b5 f7 bc f7 53 99 3d
       -0.24925445 -0.21669145 -0.030238079 0.07486718
0003f0 bc fa 5f be 92 f5 2b be c5 9e 43 bf d6 87 83 be
       -0.21872991 -0.16792896 -0.7641414 -0.25689572

l2.weight f4 [256, 512]
000000 91 38 06 c0 72 ac 95 c0 5d fd 76 39 d2 a3 c9 bd
       -2.0972025 -4.6773005 0.00023554773 -0.09845699
000010 28 0d 02 3f 2d 30 a2 bf ef 62 bf bf 96 b5 e2 be
       0.50801325 -1.2670952 -1.4952067 -0.44279164
000020 36 03 27 3f f6 7b b4 3c a8 c2 6b 3c 25 d5 42 3e
       0.65239275 0.022031765 0.014389671 0.1902662
000030 87 31 f9 3f 6e 76 a2 bf 8b df a7 3d b7 c9 c8 be
       1.946824 -1.2692392 0.08196934 -0.39216396
000040 d7 11 c2 3f 72 16 27 bd 67 4e 3e bf 21 db 2d bd
       1.5161694 -0.04079289 -0.7433838 -0.042445306
000050 3d 3f 36 be ba 5c e2 bc c0 b3 14 40 ed 09 55 3f
       -0.17797561 -0.027632106 2.323471 0.8321827
000060 30 3f d3 bf 90 fe be 3f 9b 0e 9c 3e d3 67 ad 3a
       -1.6503658 1.4921436 0.30479893 0.0013229795
000070 67 58 5a c0 86 d8 83 3f 23 3c 06 3f bb 9b 32 c0
       -3.4116457 1.0300453 0.5243551 -2.790755
000080 e4 cb 57 be 7c c3 47 bd 2f 91 08 bf ee 8f 37 3f
       -0.21073872 -0.048770413 -0.5334653 0.71703994
000090 f9 9b c1 bf c9 1e 38 c0 a2 cd 80 3f 5f 8b be 3e
       -1.5125724 -2.876879 1.0062754 0.37215707
0000a0 4b fe 75 be 9e d8 a6 be 81 63 20 3e 32 30 de c0
       -0.24022786 -0.3258714 0.15662958 -6.943383
0000b0 ed cb 4d 3e e6 17 bc be e8 1e 16 bf eb 05 35 c0
       0.20097323 -0.36736983 -0.5864091 -2.8284862
0000c0 5d 71 83 3e 94 49 85 be f2 3c 35 40 31 d4 21 c0
       0.25672427 -0.26032698 2.8318448 -2.5285761
0000d0 31 5d 20 3d d9 62 dd be d0 c2 0b 3e bf 6d 37 c0
       0.039151374 -0.43239477 0.13648534 -2.8660734
0000e0 86 3c 65 c0 2b 53 46 c0 63 02 2d 3f f2 44 a4 bd
       -3.581819 -3.0988262 0.67581767 -0.08020963
0000f0 23 86 2e 40 72 1a 8e 3e ff 54 83 bf e8 1d 36 3e
       2.726937 0.2775455 -1.0260314 0.17784846
000100 2b 56 4d bf 51 58 d2 3e 15 3b 52 c0 72 6f 68 be
       -0.80209607 0.41083005 -3.284856 -0.22698763
000110 1c 69 0d c0 33 e7 bc 3b 79 50 a8 3d c5 5d 01 bd
       -2.2095404 0.005764866 0.08218474 -0.031583566
000120 5f 92 17 bf dd 58 98 be 10 5f 5f 3f dc a1 86 bf
       -0.5920772 -0.29755297 0.8725443 -1.0518146
000130 15 cc e1 bb 72 b6 83 3f ba 15 2f bf 1a c4 8e c0
       -0.0068907836 1.0290053 -0.6839253 -4.461438
000140 cc 80 e8 bf 0a d9 2f c0 0c d7 46 be 99 9c 54 bf
       -1.8164306 -2.747622 -0.19417971 -0.8305145
000150 47 7a 7b c0 2f 72 d4 3e cb e1 03 bf 78 2b 19 40
       -3.9293382 0.41493365 -0.5151641 2.3932781
000160 b4 b2 14 40 4a 07 f0 be a0 88 f5 bf 1c 72 30 c0
       2.3234072 -0.4688056 -1.918232 -2.7569647
000170 b6 80 f0 bf dd 8f d6 bd d2 e2 59 3e 15 ad 3a bf
       -1.878928 -0.104766585 0.21277931 -0.7292035
000180 17 17 17 c0 b0 cd 18 c0 f7 85 6f bf df 7d 12 c0
       -2.3607843 -2.3875542 -0.9356379 -2.2889326
000190 ba c9 1b 3d 30 34 54 3f 9f 9c 2b c0 81 35 19 bf
       0.03803418 0.8289213 -2.6814344 -0.59847265
0001a0 d7 f3 3a c0 a2 e1 98 3f 0a 4c e2 bf a4 3a e0 be
       -2.9211328 1.1943858 -1.7679455 -0.4379474
0001b0 5c 5b 0b 3e 91 f9 9c 3e 6e ef eb 3e f2 96 d4 be
       0.1360907 0.30659154 0.46081108 -0.41521412
0001c0 33 eb 88 3f 62 f9 e6 3e 56 8e 0b 3f b8 10 b4 bc
       1.0696777 0.4511214 0.5451406 -0.021980628
0001d0 0f ad 6d c0 2e c2 4b 3f 76 8d 52 bf f1 2f da 3e
       -3.7136877 0.7959317 -0.822471 0.426147
0001e0 6c 9a 09 3f 38 34 20 be 09 cd 12 be 2d cf 1b 3e
       0.53751254 -0.1564492 -0.14336027 0.1521575
0001f0 e3 69 a2 bf 07 3c 0f c0 b7 92 c3 bf 18 11 b1 bf
       -1.2688564 -2.2380388 -1.5279149 -1.3833342
000200 d7 20 e4 3e 60 68 90 3c 5e de 0e bf 0b 27 f2 bc
       0.44556305 0.017627895 -0.55808055 -0.029559633
000210 75 b0 e1 bd 37 93 ca 3e 3c 5f ba be b8 14 7a bf
       -0.11019985 0.3956544 -0.36400783 -0.97687864
000220 80 53 32 bf 9d 87 48 40 29 9d a3 3f 60 85 25 bd
       -0.6965866 3.1332772 1.2782336 -0.0404104
000230 ed f2 ec 3e b8 54 d5 3f 0a 12 90 3f f3 b0 e6 bf
       0.46279088 1.6666479 1.1255505 -1.8022751
000240 67 39 50 c0 7e 32 0f 3f e4 4a 49 bf 76 59 9c 3e
       -3.2535036 0.5593642 -0.786299 0.30537003
000250 dd 0d 64 3f 66 9f 05 bf eb 85 c2 bf 03 57 68 be
       0.89083654 -0.5219635 -1.5197119 -0.22689442
000260 78 dc 08 3f 26 6a 80 3c 5c ff df 3d ed 41 1f 3d
       0.5346141 0.015675616 0.10937378 0.03888123
000270 e4 b2 0a be f3 01 8b bd 94 73 7a bf 0e 4f df 3d
       -0.13544804 -0.06787481 -0.9783261 0.1090375
000280 64 58 b8 3f 44 24 b0 3c 63 5f 9d c0 02 18 b1 3f
       1.4401975 0.021501668 -4.917894 1.3835452
000290 01 45 06 c0 e1 b8 b3 bf 1e 20 c2 3d 31 4c a7 bf
       -2.0979617 -1.4040796 0.09478782 -1.3070127
0002a0 af 39 a2 be 6c b6 6c bf 2b 68 23 bd 7c 5e 8a 3e
       -0.31684634 -0.92465854 -0.039894264 0.2702521
0002b0 e0 c4 68 bf 2f b1 a1 3e 08 1f 84 bf a8 90 b7 c0
       -0.9092541 0.31580493 -1.032197 -5.736408
0002c0 a8 c8 ad 3e 8f 9b 82 bf 26 c3 00 c0 00 45 37 c0
       0.3394215 -1.0203723 -2.011911 -2.8635864
0002d0 49 39 53 3f e5 33 4c bf 9c 09 45 be a9 0f 21 3e
       0.82509285 -0.79766685 -0.19241947 0.1572863
0002e0 4f 8c 88 3f 8f 8a e3 be 01 2d 2c 3f 24 b4 64 3f
       1.0667819 -0.4444165 0.6725617 0.8933737
0002f0 11 46 60 bf da 5b b0 be 53 16 79 bf db a8 20 40
       -0.8760691 -0.34445077 -0.9729969 2.5103061
000300 4a 32 0b 40 b3 da 10 40 81 b7 cb bb 28 01 64 3e
       2.1749444 2.2633483 -0.0062169437 0.22266066
000310 a6 64 0c c0 96 56 b6 bf aa 76 96 bf 1f 31 06 c0
       -2.193643 -1.4245174 -1.1754963 -2.096748
000320 46 fb c5 3a 9d bb d6 3d 1f 0c 07 3f 2d 63 16 3f
       0.0015104793 0.10485003 0.5275287 0.5874508
000330 30 c0 5d bf d7 94 ee bd c2 66 21 c0 10 84 0e bd
       -0.8662138 -0.11649483 -2.5218968 -0.034793913
000340 5f 45 12 c0 80 93 9e bf ae f0 c4 3b 26 56 78 3d
       -2.285484 -1.2388763 0.0060101366 0.060629033
000350 2c b1 0b bf 0d 62 34 3f 26 3e 3c c0 1a a1 04 40
       -0.5456722 0.70462114 -2.9412932 2.0723329
000360 da af e7 3d c6 1a 06 c0 a0 e2 2f bd 56 2f e3 bf
       0.11312838 -2.0953841 -0.042940736 -1.7748821
000370 99 cf 98 ba 18 10 86 3e 5a 4f 17 c0 45 5a 8d 3c
       -0.0011658549 0.26184154 -2.3642182 0.017254958
000380 0b c4 74 bd fd 0c 90 bf e8 27 a8 3f fa 03 74 c0
       -0.059757274 -1.1253964 1.3137178 -3.8127427
000390 1a e8 26 3c fc 7e bd 3e 1b 3d 1f c0 a8 b1 97 bf
       0.010187173 0.37010944 -2.4881046 -1.1851091
0003a0 c2 68 e0 3d 02 1e 10 bf 16 1a b8 bf 1f e3 97 c0
       0.10957481 -0.5629579 -1.4382961 -4.7464747
0003b0 43 53 c8 bc 2c 58 10 bf dd 29 98 bf af 4a af c0
       -0.024453765 -0.5638454 -1.1887776 -5.4778666
0003c0 9c 06 69 c0 42 56 42 3c 04 65 4c bc 5b 84 90 3d
       -3.6410284 0.011861386 -0.012475256 0.07056495
0003d0 6b 56 8f 3e 20 e3 06 bd 25 ed 19 be 36 a1 2a 3f
       0.2799562 -0.032931447 -0.1503187 0.6665224
0003e0 bb 43 95 3f 3b e3 3f bf 14 33 8e bf da ee ae 3e
       1.1661295 -0.749561 -1.1109338 0.34166604
0003f0 44 79 c3 be 75 e7 6f bf 72 f1 18 3f b6 4d 4a bf
       -0.38178456 -0.9371255 0.59743416 -0.7902483

l2.bias f4 [256]
000000 eb 37 57 3f ad ba 16 bd 2f 60 67 bd fa b4 2d bd
       0.840697 -0.03679912 -0.056488212 -0.04240892
000010 8c 24 f9 bd be 72 4a bc 2d 1a 45 bd 2c 9a 26 be
       -0.12165174 -0.012356458 -0.048120666 -0.1626975
000020 47 ec d9 bc ea 40 3b 3f 96 55 91 bc 8b 07 2c bf
       -0.026601924 0.73145926 -0.017741006 -0.6719901
000030 ca 94 91 3e 8a b1 02 bf f3 4b 2c bd 54 a8 2e 3f
       0.2843383 -0.51052153 -0.04206462 0.682256
000040 62 eb 8e bd 29 c8 fb be ce 58 05 3f dd 99 65 bc
       -0.069784895 -0.49176148 0.5208863 -0.014013735
000050 f6 75 64 3e 7c 18 5f bd 6a 09 46 bf 02 ed 85 3e
       0.22310624 -0.05446671 -0.77358115 0.26157385
000060 8a 08 b2 bc 05 3a 29 bd aa 66 27 be 11 d6 2c 3f
       -0.021732587 -0.041315097 -0.16347757 0.6751414
000070 52 74 07 3f f1 09 00 bd c2 c8 39 3e fb c5 ad bd
       0.52911866 -0.03125948 0.1814299 -0.084850274
000080 52 40 90 bd 46 57 ab bd c2 b7 1c 3f b2 2e 3c bd
       -0.07043518 -0.083662555 0.6121789 -0.04594297
000090 d2 1c ff bc 6d b9 5e bd 89 b8 ee 3e 19 e4 d9 3e
       -0.031141672 -0.054376055 0.46625164 0.42556837
0000a0 c0 78 6b be c1 4d 0d 3c 8c 76 57 3f cb ac 5c 3c
       -0.22995281 0.008624495 0.84165263 0.013468931
0000b0 b8 67 27 3e 47 e5 1d 3e e4 74 b4 bc a5 e4 80 bc
       0.1634816 0.15419494 -0.022028394 -0.015734026
0000c0 49 0f 78 be a9 0a d2 3e 97 10 a9 bd 19 69 b6 bd
       -0.24224581 0.41023758 -0.082551174 -0.089067645
0000d0 35 d1 83 3e de 8e 0d bd 5d bf 10 3f 5e 1d 55 3f
       0.2574555 -0.034560077 0.56542 0.83247936
0000e0 50 88 78 bc 8a 43 ac 3e 0b 77 e2 bc 3a 36 54 bd
       -0.015169218 0.33645278 -0.027644655 -0.051809527
0000f0 78 80 88 3d 21 d3 8c 3f 82 68 a0 bd 92 28 1c 3f
       0.066651285 1.1001931 -0.07832433 0.60999405
000100 5e ec 66 3e f8 50 c2 bd cb a2 04 3f e1 64 58 bd
       0.22551104 -0.094881 0.518109 -0.05283058
000110 16 c7 5c bd 84 4c 9c bd f8 ed 3b 3f 82 d3 27 bd
       -0.0539008 -0.07631782 0.73409986 -0.040973194
000120 3a d1 55 3f c3 bf 87 bc 3c 51 db bc 8a 55 e9 bc
       0.8352238 -0.016570931 -0.026772134 -0.028483171
000130 1c e5 b9 3e 5f f8 5e bd ae 08 5f bc 1f 99 8f bd
       0.3630761 -0.054436084 -0.013612909 -0.070116274
000140 3e 0d e7 bd 91 36 8e bd e6 d5 e4 bd d3 c2 9d bd
       -0.112818226 -0.069440015 -0.111736104 -0.077031754
000150 76 ad 6c 3e f7 2d 1a 3d 27 e3 05 3f 99 7d 6f bc
       0.23113045 0.03764149 0.5229973 -0.014617347
000160 0f b1 1a 3f 43 6a 43 be a0 fe 0e 3e 42 6b b2 bd
       0.6042642 -0.19083504 0.13964319 -0.08711864
000170 09 83 6e bc 27 09 3f 3e 29 0b 0b 3f 33 85 1d bd
       -0.014557608 0.18655835 0.54313904 -0.038457107
000180 65 87 08 3e 4f 1e 24 bd 93 af c7 be 52 e7 7c 3f
       0.13332899 -0.040067967 -0.3900114 0.98790467
000190 b9 b6 62 bd ea f4 84 bd 4d 36 d8 bd 05 31 8e bd
       -0.05535004 -0.06492026 -0.10557232 -0.069429435
0001a0 c0 03 97 3f d6 68 45 3f 33 45 71 3f af c6 08 bf
       1.179802 0.7711309 0.94246215 -0.5342817
0001b0 0c bd 56 bd 63 83 e1 bd fa b5 1d bd 39 c0 5e bd
       -0.052426383 -0.11011388 -0.038503624 -0.054382537
0001c0 21 9f 8a bd 38 4e 99 3d 19 05 a5 bd 35 d8 1f bd
       -0.06768633 0.07485622 -0.08057613 -0.03902455
0001d0 5a 77 e7 bc 1c ea b5 3e b7 66 2c 3f 55 7c a5 bd
       -0.028255153 0.35530174 0.6734423 -0.08080355
0001e0 72 76 e8 be 0c 65 aa bc 02 7e dc bc 46 44 66 be
       -0.45402867 -0.020800136 -0.026915554 -0.22486982
0001f0 79 d8 76 bd 6e ca 55 3e c5 9f 57 bd 22 87 ae bd
       -0.06026504 0.20878002 -0.052642602 -0.08521868
000200 d4 7d b5 bd 0b 80 51 3f c2 08 d5 bb 09 c0 10 3f
       -0.088618904 0.81836003 -0.006501288 0.5654302
000210 31 7c 31 bd 22 ca a4 be e3 61 0a 3b 30 83 1e bd
       -0.04333133 -0.32185465 0.0021115474 -0.03869933
000220 01 71 0b bd 12 0d d0 3d 6c f8 7c bd 4f 58 9a 3f
       -0.034043316 0.10158743 -0.06176035 1.20582
000230 6a f5 ce 3b ed 99 33 bd 58 18 61 bd 96 d1 4d 3f
       0.0063158767 -0.043847967 -0.054954857 0.8039793
000240 a6 c6 85 3f 8c 57 43 3f 0f 94 5d bd 32 5a 9c bd
       1.0451248 0.7630546 -0.054096278 -0.07634391
000250 97 fa a7 ba bb ee bb bd de 13 64 3f ee 75 6c 3e
       -0.001281577 -0.091763936 0.89092815 0.23091862
000260 95 86 7c bd e9 4e c3 bc af 84 9e be cf 0f 2e be
       -0.061651785 -0.023841338 -0.30960605 -0.16998218
000270 61 ec 27 3f f4 09 70 bd a7 b1 22 bc 73 28 9d bd
       0.6559506 -0.058603242 -0.009930051 -0.07673731
000280 1a 10 11 bc 8e f1 a9 3e 7b 03 13 3f 0e 04 03 bd
       -0.008853937 0.33192104 0.57427186 -0.03198629
000290 5b 5e 8f bd 55 b6 f4 3e 08 9e 93 3f 72 8b bd bc
       -0.07000419 0.47795358 1.1532602 -0.023137782
0002a0 df 75 5b be 3c 01 ad bc 9f f5 d4 3d f1 47 30 3f
       -0.21431683 -0.021118753 0.10398411 0.68859774
0002b0 14 e0 b4 bc 82 10 37 bd ca b5 92 be 1f 8e 80 be
       -0.022079505 -0.044693477 -0.2865432 -0.2510843
0002c0 95 fc 7f bd 90 8c 3b bd 91 fd 4c bd 73 80 f0 be
       -0.06249674 -0.045788348 -0.050046507 -0.46973
0002d0 21 57 25 3f ce 0a 75 bd 08 94 f5 be 30 77 68 bd
       0.64586073 -0.059824757 -0.479645 -0.05675429
0002e0 38 69 e5 bb d1 68 c4 bd 56 44 f8 3e de c7 ed ba
       -0.0070010684 -0.09590305 0.48489636 -0.001814123
0002f0 c5 bf be bd a2 7b 55 3e d6 b9 ee 3e 02 08 82 bd
       -0.09313921 0.20847943 0.46626157 -0.063491836
000300 5f 33 8b bd b4 06 5d bd 2f 9b 89 bd b8 b5 07 3f
       -0.06796908 -0.05396147 -0.06719052 0.53011656
000310 c6 94 3c be 59 e3 54 3e 4b 7c 65 bd 37 ee 86 be
       -0.18416128 0.20789851 -0.056026738 -0.26353619
000320 ef ec 98 bd 33 b6 d9 bc 1f cf ae 3e b1 49 21 bd
       -0.074670665 -0.026576137 0.34142396 -0.03937692
000330 f6 30 c3 ba 57 43 3e bc 26 6b 31 bc 58 a4 3e 3f
       -0.0014891911 -0.011612735 -0.010828769 0.7446952
000340 2a 92 0a bd 7b 56 1b 3f 11 4a 43 bd 8e b1 60 bd
       -0.0338308 0.60678834 -0.047678057 -0.05485683
000350 b2 dd 88 3f 44 33 17 bd a9 38 66 3f ba 69 d2 bd
       1.0692656 -0.036914125 0.89930207 -0.10274072
000360 84 bc 1c 3c 92 82 25 3f 01 e0 a1 3e ab 25 e6 bc
       0.00956643 0.6465236 0.31616214 -0.028094133
000370 86 9b 47 bd 1f 32 07 3d d0 ae 05 3f 2d 35 e6 bc
       -0.048732303 0.033006784 0.5221987 -0.028101528
000380 22 31 af bd ae 14 1f 3d 69 e8 1a be 3a ac b1 3e
       -0.08554293 0.03883808 -0.1512772 0.3470171
000390 05 85 45 3f 09 2f 5c 3f 93 d6 70 3e 96 70 95 3f
       0.77156097 0.8600927 0.23519354 1.1674984
0003a0 2f 72 90 bd 20 e1 d4 3e 0f fa 1c 3f 7e a7 75 bd
       -0.07053029 0.41578007 0.6131906 -0.059974186
0003b0 57 fb 44 3e 7c 77 cf 3e 1f 95 06 bd 19 e3 84 bc
       0.19236504 0.40520847 -0.032857057 -0.01622157
0003c0 dd d3 01 bf 74 ff 32 bf a9 5c 46 bc a6 03 85 bf
       -0.507139 -0.6992104 -0.012107053 -1.0391738
0003d0 15 ec 3f 3d 42 31 f2 3e db 54 a8 bd 4b 26 91 bd
       0.046856005 0.47303206 -0.0821931 -0.07087382
0003e0 c3 92 89 bd 23 e6 18 bb 94 d0 97 bc 99 6c 36 be
       -0.06717446 -0.0023330532 -0.018532075 -0.17814864
0003f0 b6 b5 21 3f a4 01 1e bc f6 8b e9 b9 09 3a 11 bd
       0.63167894 -0.009643946 -0.00044545502 -0.035455737

l3.weight f4 [1, 256]
000000 14 a3 8b c0 67 91 ed bc 78 62 2e bc d1 56 ed bd
       -4.363657 -0.028999997 -0.010643594 -0.115888245
000010 eb 3f 3c bc a4 94 74 3c c7 ba 74 3c 8e d9 a6 c0
       -0.011489849 0.014928017 0.014937109 -5.214057
000020 52 c5 38 bc c9 1c 8d 40 1b 5d bb 3b 22 c7 e3 c0
       -0.011277514 4.409764 0.005717886 -7.118058
000030 63 62 4e c0 45 8f f7 c0 08 c1 98 3c 8f e1 65 c0
       -3.224755 -7.736239 0.018646732 -3.591892
000040 4b b2 20 3d a0 37 c2 c0 4c 9d 91 c0 b2 11 e1 bb
       0.039232533 -6.06929 -4.5504513 -0.0068685645
000050 76 40 ee c0 c0 75 8d bc e4 ab b8 c0 71 ae 9d 3f
       -7.445369 -0.017268062 -5.7709827 1.231886
000060 5c d2 2d bc 91 cf b3 bc 09 ab 5c c0 d3 9a 3d 40
       -0.010609236 -0.021949561 -3.4479392 2.9625747
000070 01 f3 c0 40 79 a7 9c 3b 0c a0 f3 c0 29 3b 93 3c
       6.0296636 0.0047807065 -7.613287 0.017972546
000080 80 01 80 3c c8 2b 80 3c e0 0d 67 40 24 d6 6f bc
       0.015625715 0.015645877 3.6102219 -0.014638457
000090 21 3e 39 3c f1 9b 98 bc d6 9c be 3f dc 05 ca 40
       0.011306317 -0.018629046 1.4891613 6.3132153
0000a0 12 26 45 c0 09 0c 6a bc 43 9d 4a c0 ff 29 76 40
       -3.0804486 -0.014285096 -3.1658485 3.8463132
0000b0 01 b3 78 c0 cf 5e 46 40 32 3e 8c bc fe c2 6c 3c
       -3.8859255 3.0995367 -0.0171195 0.014450787
0000c0 8b eb 9b c0 a6 44 73 c0 40 da 55 bb 94 96 32 bc
       -4.872503 -3.801065 -0.0032631308 -0.010900158
0000d0 af 3f f1 3f fd 4f f8 bc e2 d7 ad 3f 4a f3 cd 40
       1.884756 -0.030311579 1.3581507 6.4359484
0000e0 16 5c e3 bc 4d 2a 95 c0 2d 0d e5 bb cb 1f 65 bc
       -0.027753871 -4.6614137 -0.006990096 -0.013984631
0000f0 37 36 ba c0 e5 bb fe c0 8a 4c d7 bc 33 22 e8 bf
       -5.819118 -7.9604363 -0.026281614 -1.8135437
000100 85 8f 31 c0 0b 76 55 3c e0 96 0d 40 4a 01 22 3d
       -2.7743847 0.013028632 2.2123337 0.03955201
000110 32 20 c7 3c 48 eb de 3c 2c 87 6c c0 c6 48 41 3c
       0.024307344 0.0272118 -3.6957502 0.011797136
000120 e2 52 84 c0 90 17 32 bc ba 16 66 3c f7 50 d3 bc
       -4.1351175 -0.010869876 0.014043504 -0.025795443
000130 4f 04 af c0 43 11 ff bc 10 64 41 3c 95 22 8b 3c
       -5.469276 -0.03113616 0.011803642 0.016984263
000140 a4 38 a5 c0 bb 62 57 c0 92 02 c2 bb 7b f1 ab 3b
       -5.163164 -3.365401 -0.0059207166 0.0052472926
000150 1d 11 9e c0 47 f3 26 c1 44 2c b9 c0 f2 5a 53 bb
       -4.939589 -10.434394 -5.7866535 -0.0032250253
000160 8b fe 2e bf b6 d5 77 3c d3 10 81 c0 99 d7 8b bb
       -0.6835715 0.015126636 -4.0333037 -0.0042676446
000170 2a 98 6a 3c dc e3 4d 40 63 69 3b bf fd a0 4b 3c
       0.014318505 3.2170324 -0.7320768 0.012428519
000180 e8 cc 7c c0 a0 1b ac bc c8 c0 c9 c0 b8 67 36 c0
       -3.9500065 -0.021009266 -6.304783 -2.8500805
000190 49 16 b9 c0 f4 90 9a 3b 2f e4 c4 bc 97 b4 87 3c
       -5.7839704 0.004716987 -0.024034588 0.016565604
0001a0 d8 5f c2 be 9e 92 d8 c0 98 7d 6c c0 19 36 c1 c0
       -0.37963748 -6.7678976 -3.6951656 -6.0378537
0001b0 30 b5 fa bc 41 70 b1 c0 6a 65 de bb d7 57 00 bc
       -0.030603975 -5.544953 -0.006786992 -0.007833443
0001c0 77 4a 70 3c 96 d4 e2 bf fa 0e 2f bc 9d de b9 3c
       0.014666191 -1.7721126 -0.010684723 0.022689158
0001d0 5b 91 aa 3f 48 cb 69 c0 6f d2 92 c0 b7 81 2e bc
       1.3325609 -3.6530323 -4.5881877 -0.010651044
0001e0 be aa 7c c0 1c 65 55 bc 6a bb cf bc f7 0c 79 3b
       -3.9479213 -0.013024595 -0.02535792 0.0038002112
0001f0 73 6c 8a bc ef 88 c7 3f 0f 50 b4 bc 90 09 91 bc
       -0.016897416 1.5588664 -0.022010831 -0.017704755
000200 a4 c7 60 bc 40 28 4b bf f5 35 d1 bc 07 67 ea c0
       -0.013719473 -0.7935829 -0.025538424 -7.3250766
000210 6b cb 3a 3d 2c a2 92 c0 73 2b 3c 3c 5b 4c 95 3c
       0.04560415 -4.5822964 0.0114849685 0.018224886
000220 63 1b bd bc da fe 2a 40 d7 cb 64 c0 61 e2 44 40
       -0.023084348 2.671805 -3.5749414 3.076317
000230 ff 78 de 3f 79 25 84 bc 1a 54 5f 40 55 2e 3b c0
       1.7380675 -0.01613115 3.4895082 -2.924703
000240 86 3e 4d c0 af 1b 73 c0 e9 9f 4f 3d c4 79 c1 bb
       -3.2069411 -3.7985647 0.05068961 -0.005904408
000250 a6 c8 81 ba b9 fb 98 bc cd 40 60 c0 20 52 81 c0
       -0.0009901717 -0.018674718 -3.5039551 -4.041275
000260 18 a6 fa bc 96 c1 0c bc f0 a3 d9 3c a7 ba f9 bf
       -0.030596778 -0.008591076 0.02656743 -1.9510087
000270 2e 43 a8 40 5e e8 02 bd e8 46 66 3c 53 56 65 bb
       5.2582006 -0.031959884 0.014054991 -0.003499408
000280 f7 e7 ba bb aa 51 cf 3f 1e 61 92 be 23 19 5f 3c
       -0.005703922 1.6196797 -0.2858972 0.013616833
000290 67 f9 14 bb b4 fb e9 bf 20 ce c4 c0 ec c5 df 3c
       -0.0022731663 -1.8279939 -6.1501617 0.027316056
0002a0 17 a5 e5 bc cc 82 b0 bc 90 21 78 c0 b2 58 58 c0
       -0.028032823 -0.021546744 -3.8770485 -3.3804135
0002b0 8c 7e 87 3c 17 87 45 c0 0e bc ba c0 51 c3 13 c0
       0.016539834 -3.0863702 -5.835456 -2.3087962
0002c0 ef a3 10 bd 59 7c 2a 3c bf eb 90 bc b7 6d 01 c1
       -0.03531259 0.010405623 -0.017690537 -8.089286
0002d0 cb c6 12 c0 9f cd 86 3c 21 aa ef c0 28 b4 ab bc
       -2.2933834 0.01645547 -7.4895177 -0.020959929
0002e0 16 49 c5 3c 5e 54 89 bc dd a5 81 bf b7 17 f5 3c
       0.024082702 -0.016763862 -1.0128742 0.029918535
0002f0 12 ea c8 3c 74 3e 81 c0 34 08 91 3f ee d1 0c 40
       0.024525676 -4.0388737 1.1330628 2.200313
000300 39 69 01 bc b6 2b c2 bc 0a 28 18 bb 16 bb 52 40
       -0.007898622 -0.023702484 -0.0023217225 3.2926688
000310 c3 6c 3a 3c 9d 46 aa c0 c3 3d b9 3b a5 84 8f c0
       0.01137847 -5.32112 0.0056531145 -4.484942
000320 9d 94 6b bb bd 5e 4a bc f8 aa 97 c0 6c 8c 83 3c
       -0.0035946735 -0.012351689 -4.73962 0.01605817
000330 75 cb 24 ba 5f 46 53 bb ae 9c cb bc 08 a9 b7 3f
       -0.0006286421 -0.003223799 -0.024854984 1.4348459
000340 10 18 66 3c e7 ac 3b c0 05 33 77 bc 72 67 36 3c
       0.014043823 -2.9324281 -0.015087848 0.011133062
000350 9f b9 bd 40 28 b6 f1 3c 91 a6 16 c0 92 04 56 3c
       5.928909 0.029505804 -2.3539164 0.013062613
000360 4e c1 2d 3c 67 e5 90 3f 5b 1e 0e c0 59 49 43 bc
       0.010605169 1.1320008 -2.2206028 -0.011919343
000370 7c 4f 83 bb e7 9b 91 c0 00 b8 5f bf 3b 09 3d bc
       -0.004007278 -4.550281 -0.87390137 -0.011537845
000380 7a b8 fe ba 8e 8d cc 3f 5f a7 a0 c0 cd 6e b1 3f
       -0.001943364 1.5980699 -5.020431 1.3861939
000390 c9 fa 73 bf 0a f2 af 3f 70 f1 a5 c0 ba 11 91 40
       -0.9530454 1.374574 -5.1857224 4.533414
0003a0 2d 66 f0 bb 53 23 97 3f c3 30 9f c0 3f c2 9a bc
       -0.007336399 1.1807655 -4.9747024 -0.018891452
0003b0 07 db 41 c0 f0 92 e3 40 69 ff 0f 3d e8 b3 c9 c0
       -3.0289934 7.1116867 0.035155687 -6.303211
0003c0 3e 52 bd c0 7e 3d b3 c0 d0 b6 0a bc 12 fe ca c0
       -5.9162893 -5.6012564 -0.008466437 -6.3435144
0003d0 17 0a dd c0 2f 5b 43 bf 4d f5 d2 bc 7a f4 4c bc
       -6.9074817 -0.7631101 -0.025751734 -0.01250946
0003e0 ec 80 dc 3c 21 3b 7a 3c 00 a9 e0 3c d5 21 9b c0
       0.026916943 0.0152728865 0.027424335 -4.84788
0003f0 99 9c 73 c0 8d 86 1b 3b c3 80 af bc be d1 06 3b
       -3.806433 0.0023731322 -0.021423703 0.0020571793
