saves/Dobot-v2/pbrs/seed_0/model/critic.pth (torch, 585559 bytes, 5 tensors)

l1.weight f4 [512, 27]
00000000: 019e b3be 9b4d c1be bcef 7ebe 7a14 5c3e
00000010: 6b24 00be 4832 533d f53e e13e 59ac be3e
00000020: f66f a1be c082 9a3e 9da0 863d e716 23be
00000030: 64c6 c23e a94c 193f f9f9 93bd 555e f13b
00000040: cfd2 fa3e e649 35bf 0a3b b63d 2119 893e
00000050: 8019 bc3e 79b6 593d 80d3 443e f265 95bc
00000060: 0423 35be 0a55 32bd fa0a 673e 9212 7cbd
00000070: e03b 79bd 2265 c1be f9dd b43d 5d5f 7fbe
00000080: cd54 113e d1de 91be bb86 2a3c a4ca f0bc
00000090: 4002 023d f378 393e ae30 99be ea7c 273e
000000a0: b329 933e 0cd2 583e fd82 d1bd 6458 00be
000000b0: 38fb 213e 6788 e93c 7f25 493e 2401 e03d
000000c0: 3977 863b 0fb2 8a3e ecb1 013e d1df 01be
000000d0: 0c33 853d 80b2 773d 9c52 6dbd 3ae2 b7be
000000e0: 0121 d2bd f1f9 8b3d e266 633d 8155 17bb
000000f0: 3807 8bbd 2e3d 603e c5e7 b0bd 9957 f5bd
00000100: 1a57 b23a bfff d6bc a64e 033e 92e8 73bd
00000110: 2660 093e bb20 433e 4ead 43be 4f3f 7b3e
00000120: 2202 89bd 442e 563e cc70 a53e 1405 efbb
00000130: de5e 383d 1711 713e 647a 3b3d 0ddc c0bd
00000140: fb21 f9bb 9329 8cbc cadf 11bf e0bb 2dbe
00000150: b0c2 2abe 0708 13be 9dff 0f3e cc20 1a3e
00000160: 4d7d 8dbd 48e3 abbe 527c 833d 8838 89bd
00000170: 7b53 edbe e9f1 5bbe 9284 d53d ee8c 3f3e
00000180: aa42 163e 26c4 8b3e dc5d de3e c542 b5be
00000190: 09bd 8e3d 8b00 8e3e 5e8b 55be 2482 9b3e
000001a0: 9fb4 c83e d4ec cc3b 52b7 7c3c 7819 243b
000001b0: 35f6 2ebe b1d1 9fbd 8946 6ebe 1bc4 cdbd
000001c0: 1307 983d 8d83 0dbe 8eb8 ee3b 0e19 cd3d
000001d0: 69cd 1ebe 0599 b13c 0f13 4f3e 6c14 15be
000001e0: f790 2a3d 8212 033c 0db5 a6bd 6795 ce3a
000001f0: cc37 883e 5bbc 0f3e ed94 08bd fa78 813d
00000200: 5593 b4bd 19cd 16be 6fa9 893e 0192 00bd
00000210: 9d23 f7bc 368e 7dbd 3519 113e 1459 b93c
00000220: 6df6 afbe 70aa 12be 672b c43c afcc 95be
00000230: 0646 283d 7b15 813d 9c1d 833e d52f b4bd
00000240: d7a0 a3bd bc68 0b3e b9fa 39be c85e bcbd
00000250: e5b9 f53d 2c13 5e3d 5b92 d03d 790f 8d3d
00000260: 488e 753c ed78 00be 5223 213e 504a e53d
00000270: f4d6 03bd 5f82 0b3e c57f 02be ce2b a6bd
00000280: 963b 80bd 5756 acbc 314b 99bd cb99 f2bc
00000290: b5a3 42be 7168 6c3d 8659 57bb 4981 f83d
000002a0: 12b8 03be 78da d7bd c5bc 88be cad7 e13d
000002b0: e29f 933d 584c 163e 7023 253e de4d 053e
000002c0: 8230 70bc 3e33 4fbe e189 afbd 053f bf3d
000002d0: a036 c8bd da5b f83d 4c0b ff3d f6a2 d1bd
000002e0: b151 8f3e 89db aabd 2976 a9bd fdf1 803b
000002f0: a4fe 463d 17c4 f53b eba2 fbbf 4da3 d3be
00000300: 26bf f63f bc35 94be 628b dabf fcc5 0140
00000310: 9146 4f3d ff9e 63bf dfc6 e73f 5686 0a3d
00000320: edcc 20bf 2d4c 5cbf 4d49 bc40 fb1c e73f
00000330: 42d1 7abf 62e3 c93f 9bea 2c40 36c0 6a40
00000340: db75 633f 138a 993f f503 253e 9e39 2c40
00000350: 5423 b1ba 6b09 8bbd 069c 9dbb 7d52 eebe
00000360: 45f7 243f edb0 e43e fb3d 253f 3093 9ebc
00000370: 891a 0d3f f697 f83e fe15 113e 4538 35be
00000380: e967 ea3e e7f6 d43c 2dda 14be a22f 3b3f
00000390: f845 00be 9171 bebe 80e8 0dbf 9ed8 3bbd
000003a0: 5235 103e e99b 85bf 848d 7d3e 966d 6cbd
000003b0: c8d2 19bf 8758 353d fdf5 25be 4eba c33e
000003c0: 1260 5f3c 9188 0a3e 75e4 5bbe ddcc 58bd
000003d0: bcbb 9dbe 01b3 17bd 4780 abbd 949f 7fbd
000003e0: 3691 08be cbc9 dd3d 4a06 71bd 49e4 cd3a
000003f0: 8e3f b7bd b0fb 473d 9012 8abe 1cf0 70bd
-0.35081485 -0.3775452 -0.24896139 0.21492186 -0.12513892 0.051561624 0.43993345 0.37240866
-0.31530732 0.3017788 0.06573603 -0.15926705 0.38041985 0.598826 -0.07225413 0.0073659816
0.4898896 -0.70815885 0.088979796 0.26776984 0.36738205 0.053152535 0.19221306 -0.018237088
-0.17689139 -0.04353813 0.22562781 -0.061541148 -0.060848117 -0.3777247 0.088314004 -0.24938722
0.14192505 -0.28490308 0.010408099 -0.029393502 0.031740427 0.18112545 -0.29919952 0.16356245
0.2874275 0.21173877 -0.10230062 -0.12533718 0.15818489 0.028507425 0.1964321 0.109377176
0.004103568 0.27088973 0.12665528 -0.12683035 0.06503877 0.060472965 -0.05794011 -0.35914785
-0.10260201 0.06834782 0.05551804 -0.0023091736 -0.06788486 0.21898338 -0.086379565 -0.119795986
0.001360628 -0.026244996 0.12822971 -0.05954797 0.13415584 0.19055454 -0.19109079 0.24535869
-0.0668986 0.20916086 0.3231262 -0.0072943065 0.045012347 0.23541676 0.045771018 -0.09416971
-0.0076029277 -0.017109668 -0.569821 -0.169662 -0.1667583 -0.14358531 0.14062352 0.15051574
-0.06908665 -0.3357184 0.064201966 -0.067002356 -0.46352753 -0.21479 0.104256764 0.18706104
0.14673868 0.27298087 0.43430984 -0.35402504 0.06969649 0.2773479 -0.20853946 0.30372727
0.39200303 0.006253818 0.015424566 0.0025039595 -0.17086108 -0.07803667 -0.23269095 -0.1004717
0.07423224 -0.13819714 0.007285184 0.100145444 -0.15508045 0.02167941 0.20222114 -0.14558572
0.041642155 0.008000018 -0.081400014 0.0015761078 0.2660507 0.14036696 -0.03334515 0.063219026
-0.08817164 -0.14726676 0.2688708 -0.03138924 -0.030168349 -0.0619032 0.14169772 0.022625484
-0.34367695 -0.14322829 0.023946477 -0.29257724 0.041082405 0.06302925 0.25608528 -0.08798186
-0.07989662 0.13614172 -0.1816205 -0.091977656 0.11998347 0.054217502 0.10184165 0.06887717
0.014987536 -0.1254613 0.1573613 0.111958146 -0.032187417 0.13623951 -0.12744053 -0.08113824
-0.06261365 -0.021037264 -0.07485045 -0.02961435 -0.19007762 0.05771679 -0.0032859757 0.12134034
-0.12863186 -0.105397165 -0.2670652 0.110274866 0.072082296 0.1467756 0.161268 0.13017985
-0.014660003 -0.20234391 -0.0857122 0.09338192 -0.09776044 0.12126894 0.124533266 -0.102361605
0.27992013 -0.08342654 -0.082744904 0.0039350973 0.048582688 0.0075001824 -1.9659094 -0.41335526
1.9277084 -0.28947246 -1.7073786 2.027709 0.050604407 -0.88914484 1.8107566 0.03381952
-0.6281269 -0.86053735 5.883948 1.8055719 -0.9797555 1.5772517 2.7018192 3.6679816
0.8885171 1.1995262 0.1611479 2.6910167 -0.0013514557 -0.06788906 -0.004809859 -0.4654731
0.64439803 0.44666234 0.645477 -0.019357294 0.55118614 0.48553437 0.14168546 -0.17697246
0.45782402 0.025996638 -0.14536352 0.73119557 -0.12526691 -0.3719602 -0.5543289 -0.04586088
0.1408284 -1.0438205 0.24761015 -0.057721697 -0.6008725 0.04427388 -0.16207118 0.38228077
0.013633745 0.13528658 -0.21473868 -0.052929748 -0.30807292 -0.037035946 -0.08374076 -0.062408045
-0.13336644 0.108295046 -0.05884389 0.0015708293 -0.08947669 0.048824012 -0.26967287 -0.058822736

l1.bias f4 [512]
00000000: 5b1c 35be 3a06 71bd 361a 7bbe 7335 d1bd
00000010: c8c7 ddbd ee92 5dbe 7b31 18be 568b 20bf
00000020: 9a19 3e3f aa1b 6cbe d9ca 17be 8661 b8be
00000030: 631a 333d 3378 adbe 1548 9bbe 14ba 45be
00000040: 3b43 93be b5ba fcbd aae1 febd 2853 843d
00000050: f322 7fbe f377 c0be d62a 53be 3131 47be
00000060: c087 78be 0737 84bf 82f1 c9be 3252 04be
00000070: 1c4a 233e 7e26 f5bd 5a76 60be a680 60be
00000080: 5f63 42be 01e6 06bd f815 08bf c5e4 3a3e
00000090: 4609 9abd 0dc2 52bc 6f36 b1be bdaa 90be
000000a0: 3b92 f0bc 9e4d dcbd 9890 94be efd2 23be
000000b0: 3e73 5ebd 1987 b0be eeb3 aebe fe9e 78be
000000c0: 2dac 91be 6440 72be 1811 98be c08f 98be
000000d0: 7171 93be c1a0 54be fbba 45bf 2002 05be
000000e0: ac20 413d 8787 1ebe 8745 f8bd 04c1 d83c
000000f0: caa9 88bd 73ce 98be 1e03 23bc 15f1 dbbd
00000100: 8e47 acbe 9b75 5fbd 1cd8 76bf 6294 90be
00000110: 39d9 02be 31cf d2be c984 1ebe 74dd 143f
00000120: 0f1d d4be ce36 b5bd 531a 52be e19a e3be
00000130: 57c5 b4be b916 91be c528 3bbe bb48 a3bd
00000140: 0c9f 68be a10e bbbe 6a02 63be 9626 4bbe
00000150: 6c9d 59be a974 d3be 2d7f 2abe 510c 18bd
00000160: 1d89 adbc 7766 2abd 6971 15bf 9837 d4bd
00000170: c25c 9d3c f2a1 c4bd 6b74 973b 238a 08be
00000180: c06b 97be 6376 d6be 7cda 473e a03b 79be
00000190: 6dd3 cf3d 0241 92be 3227 943d 6039 39be
000001a0: c7ae 97be fd48 e7bd 2ec1 50be 6bb8 27bd
000001b0: 1ca8 f53c d509 57bd 9b85 ecbe 84a0 b4bd
000001c0: 89cf 2b3f 7049 98be ab60 0dbf b29d eebe
000001d0: 1bbf 89be 11bc 533d 5262 d2bd bee1 82be
000001e0: 3c1f 06be f273 9ebe 83c5 ca3e a40b 68be
000001f0: fc59 59be 2662 11be 36d7 85be 1104 333d
00000200: 32da 72bd 708f e53e 99c2 1abd 2c6a b4be
00000210: e9da 8fbd 2d25 f5be aec0 14bd 0741 39be
00000220: 9537 4ebe 712d 06be 6474 e2be 82ba f23b
00000230: 68f3 b6bd e3a4 81be 5948 9fbd ec9e 78be
00000240: c275 56be 8ddc a3be e652 9cbe 6fe8 69bd
00000250: 21ee 5bbd 189c 14bf 4770 54be c7eb 3ebe
00000260: 267e 79bc 5383 3bbd 8ae9 86be 5e2b 34be
00000270: 3722 b0bd 6176 9cbe 0d79 9fbe c7f7 7f3d
00000280: 4f56 5abe 7f41 09bf 1fe6 30bf 56ed 7abd
00000290: 6be3 f3bc 9454 cfbe 8f45 b43e 021a 32be
000002a0: 3ac3 4fbe 062e 03be 7f60 0bbf e950 2fbd
000002b0: 3582 83be 3c1f 61be aff7 0abf 9379 33be
000002c0: 88ed 26bf 93b7 4bbe cf44 a9be a98d 883c
000002d0: e946 9dbd 5465 4f3f 8319 293d 394e 14be
000002e0: bdb6 bfbe 6c01 f1bd ae50 babd ae90 3abe
000002f0: cdf4 c9be e5a1 0bbe a8e3 cebe 3064 e1be
00000300: 3ace 12be 50b3 8abd 5159 dbbd 0a11 4ebe
00000310: 5149 1dbe 866f a9be 976f 0cbe 8113 e13e
00000320: d3a9 50be 3829 3bbe 6696 92be ff6f 53bd
00000330: e01c 36be fa25 85be feca 9abd 91d0 90be
00000340: f2e8 33be 0e99 51be 3b7b 9cbe cc75 98be
00000350: 14b1 503d 467f 03be 1f5b 23be e2e8 ffbe
00000360: 47dc 4abe c765 c4be fa10 cf3d be68 29be
00000370: fe24 333c bb4a d0be 6eb9 26be 9ef3 13be
00000380: ba3a 22bf de7f 2dbe 2a8e 95bd 2455 dbbe
00000390: 5f2e 993d bf4c acbd a36d 7dbe 1764 a83c
000003a0: d02a 0abf bb46 77be 6d09 f3bd bf44 3cbe
000003b0: a2c5 7ebd 635f 6ebe a7a2 94be 54c2 1fbe
000003c0: 6589 c63c 22bb a33e 3792 9dbe 04e6 3abf
000003d0: 2fb0 8bbe ef70 babd 6e97 aabe 5d15 3bbf
000003e0: 9c34 11bf 78d3 f7bd 17f0 6fbe 2322 82be
000003f0: e910 b3be dfbe 6cbe 62f4 28be 0027 1fbe
-0.17686598 -0.05884383 -0.24521717 -0.10215273 -0.10829121 -0.2163808 -0.14862625 -0.6271261
0.74257815 -0.23057428 -0.14823474 -0.36011904 0.043726336 -0.33880767 -0.30328432 -0.19309264
-0.2876223 -0.12340299 -0.12445386 0.06461173 -0.24915676 -0.37591514 -0.2062181 -0.19452359
-0.24270535 -1.0329293 -0.39442068 -0.1292198 0.15946239 -0.119702324 -0.21920148 -0.21924075
-0.1898322 -0.032934193 -0.5315852 0.18251331 -0.075213 -0.012863648 -0.34611842 -0.28255263
-0.029366603 -0.10756992 -0.29016566 -0.15998434 -0.054309122 -0.3447807 -0.3412165 -0.242794
-0.28451672 -0.23657376 -0.29700541 -0.29797173 -0.28797486 -0.20764448 -0.77238435 -0.12989092
0.0471503 -0.15481387 -0.12122636 0.026459225 -0.0667301 -0.29845008 -0.009949474 -0.10739342
-0.33648342 -0.054555517 -0.96423507 -0.28238207 -0.12778176 -0.411737 -0.15480341 0.5815041
-0.4142842 -0.08848344 -0.20517854 -0.444541 -0.35306808 -0.2833765 -0.18277271 -0.079728566
-0.22716922 -0.36534598 -0.2216889 -0.19838938 -0.21251458 -0.41299942 -0.16650076 -0.03712112
-0.021183545 -0.041601624 -0.58376175 -0.10362166 0.01920927 -0.09601201 0.0046220324 -0.13333945
-0.29574394 -0.41887197 0.19516939 -0.24339151 0.10147748 -0.28565222 0.072340384 -0.18088293
-0.29625532 -0.11293218 -0.20386192 -0.04094736 0.029987387 -0.05249961 -0.46195683 -0.088196784
0.6711355 -0.29743528 -0.5522563 -0.46604687 -0.26903614 0.051693026 -0.10272659 -0.25562853
-0.13097852 -0.30947834 0.39603814 -0.2266069 -0.21225733 -0.14197597 -0.26140755 0.04370505
-0.05929012 0.44835997 -0.03778324 -0.35237253 -0.07024176 -0.47879925 -0.036316566 -0.18091212
-0.2013839 -0.13103272 -0.44229424 0.0074074874 -0.08933145 -0.2532111 -0.07777471 -0.24279374
-0.20943359 -0.32004204 -0.30531996 -0.05710643 -0.053693894 -0.5805068 -0.20745955 -0.1864463
-0.01522783 -0.045779537 -0.2635005 -0.17594668 -0.08600276 -0.30559066 -0.31147042 0.06249216
-0.21321987 -0.53615564 -0.69101137 -0.061261497 -0.029771527 -0.40494215 0.3520932 -0.17392734
-0.20289317 -0.12810525 -0.54444116 -0.04280177 -0.25685278 -0.21984571 -0.54284185 -0.17526846
-0.65206194 -0.19894247 -0.3306031 0.016669111 -0.07679541 0.8101399 0.041284095 -0.14482965
-0.37444106 -0.11767849 -0.0909742 -0.18219253 -0.3944458 -0.13635977 -0.40408063 -0.4402175
-0.14336482 -0.067724824 -0.10710395 -0.20123687 -0.15359999 -0.33092898 -0.13714443 0.43960193
-0.20377283 -0.18277442 -0.2863037 -0.05162048 -0.17784452 -0.26005536 -0.07558249 -0.28284124
-0.1756933 -0.20468542 -0.30562767 -0.29777372 0.050950125 -0.1284152 -0.15952729 -0.49982363
-0.19810592 -0.383589 0.1011066 -0.16543862 0.010934113 -0.40682015 -0.16281673 -0.14448401
-0.6337086 -0.16943309 -0.07302506 -0.42838395 0.07479548 -0.08413076 -0.24748854 0.020555539
-0.53971577 -0.24148075 -0.11867032 -0.183856 -0.062200196 -0.23278575 -0.29030344 -0.15601474
0.024235437 0.31978709 -0.30775616 -0.73007226 -0.27282855 -0.091035716 -0.33318657 -0.7307947
-0.567209 -0.12100881 -0.23431431 -0.2541667 -0.3497384 -0.23119687 -0.16499475 -0.15542221

l2.weight f4 [256, 512]
00000000: c5e0 ae3c b3f7 37bd 7267 94bc f661 9dbb
00000010: 7c4d b53c fdcf 993c 5aec fc3c 31bb 3dbc
00000020: 724d 47bb b583 933b 0fdb f8bc bd75 d43c
00000030: 9d3b 363c 264c 43bb 6133 d8bc d3ca 0e3d
00000040: 169c bd3c 4b20 21bd 9e4e 293d 7ae8 de3b
00000050: 25b4 b03c 4f78 9ebc ead3 88bc d7b7 9fbc
00000060: f76b 82bc 46fc 53bd 4415 f5bc a383 0a3d
00000070: 6c92 9abd a877 d13a 3c43 973c 0007 e83c
00000080: cea9 fbbc 79ae 253d 1e16 0d3c 2aeb fd3c
00000090: 0ebd d2bc 993b 0fbd af11 70bc ca42 b5bc
000000a0: 9d55 073d cb80 b3bc 8b70 98b9 8ad9 81bb
000000b0: 4559 213c b396 b4bc 7577 fa3c d475 88bc
000000c0: 900c 08bd 014a 9dbc edb1 2bbd ca8d febb
000000d0: c536 59bd d771 203d 29d2 023a 047d d83b
000000e0: ba8d 70bd 0847 6d3c 653e 953c bb9c d33c
000000f0: 6299 243d 8ecb 4f3c aba9 f43c c695 00bd
00000100: 3bbc 31bd 3336 4fbd 3bc3 0c3d 3323 edbc
00000110: fe2d 0fbc 4030 ed3c 4622 233d bc4a c4ba
00000120: d21e 28bc 3de4 9bbc 719f 7a3c ac1b 19bd
00000130: 82c8 b93c 4c8e 08bc 336c b8bc 3d56 18bd
00000140: cb2e 133d 1a5b 5dbd 4a4a a03a 49c6 0f3c
00000150: 2a4c babc de1d 563c 2f73 f73c 5373 01bd
00000160: 9885 abbb e262 a7bc 642b ca3b 23b4 27bd
00000170: 24f9 d8bc f54f 9ebb 03cc 13bd 9508 093d
00000180: d8dd 8739 4583 073d ba85 aebd c8a6 8d3c
00000190: 5dd0 3abd 0b27 29bd 168e c33c 6996 1d3b
000001a0: 219d 083d 8094 2fbc 0207 48bc a435 5abd
000001b0: 3a45 1abd 766d e0bc 8141 01bb c66d 9fbd
000001c0: 96c7 c9bc 338f e73a 3548 7fbc c457 5cbd
000001d0: 2b54 1a3b ce14 5bbd 9bd3 2b3d 77d3 863c
000001e0: 362b 25bd 10e3 32bd 07c8 82bd 4469 92bd
000001f0: 2960 d23c 09e8 57bc 3a74 ad3c 78c3 b43b
00000200: e517 27bd 6cf8 0b3b 6030 12bc 26c9 70bb
00000210: a999 eb3b 436d 913c 779e 123c f017 33bd
00000220: b817 9b3c a7dd c93a 87ca 2bbd 3cd5 22bd
00000230: b6ed b1bc 2a8b a1bb 9333 9bbb 6231 35bc
00000240: 129f f53c 8df8 a4bc 4792 883c 8aa2 86bd
00000250: b0bf 883c a64b f23c a10c d0bc bc90 e1bc
00000260: 40ad 2cbd aec8 91bd 6e9d c5bc 29b5 bcbc
00000270: 5145 dd3b 2d69 1bbd 1139 253c 4804 cebc
00000280: b7c6 11bd b34b 98bc 5f3f 5c3b e691 48bc
00000290: c0d2 c93c 5012 a23c 9952 05bd 172a 083d
000002a0: 54a9 2b3a 45fc 06bd 4612 a0bc a501 dfbc
000002b0: c42f 0b3b 3356 44bd 6153 9cbd 5226 02bc
000002c0: 867d b83a 18ea 293c 439b 043d f4bd b7ba
000002d0: a2b9 a53c 0c36 51bd 58f3 bbbc 77b4 c7bc
000002e0: 6eeb 60bb 411c eb3c 1566 7e3c a184 80bc
000002f0: 0955 7fbc 3e79 99bc 5eee 4dbd 32dd a8bc
00000300: 664c ca3c dde0 f03a b24c 7d3b 75a1 c5bc
00000310: 9740 35bc b7cf 14bd f6bb 833c df3f 203b
00000320: 2eef 7cbc 6416 3abd 5dc5 d23b b6cd b63c
00000330: 30ae 073c 4684 a03b 2e8b 40bd 76db 903c
00000340: 4680 063d 611b 6f3c 57a8 693b 46ce 113c
00000350: 15ec 22bd 8895 9b3c 036b e03a a678 a33c
00000360: 6da1 9ebc 48e2 52bc db4d 9e3b 1a23 3c3c
00000370: 015e ec3b 9ae4 053d c978 273c b51d 22bc
00000380: 99b6 b3ba 2207 ae39 a214 1ebd 4db1 82bc
00000390: 3d69 d6bc 90ab 54bd 9ffe 1abc 27b6 16bc
000003a0: d3d8 b23c 9012 b9bc f9ef 553c e5f6 a1bc
000003b0: 5a7d 53bd 060e d6bb 8407 40bd 4b20 e8bb
000003c0: 2d85 533c fcb1 013d 0466 38bc b99d afbc
000003d0: 387c 023d 037b bcbc 4bb7 183c 7f8d f2bc
000003e0: b71a ac3c 504b 743c 9500 23bd 3b1d e43c
000003f0: 40ad 323c 5539 bcb9 4ffa ac3c 7e26 313c
0.021347413 -0.04491396 -0.018115733 -0.0048029376 0.022131674 0.018775934 0.03087442 -0.011580274
-0.0030411151 0.0045017847 -0.030377893 0.025935048 0.011122611 -0.0029800027 -0.026391687 0.034861397
0.023145717 -0.039337438 0.04133474 0.0068026157 0.021570275 -0.019344477 -0.016702611 -0.019496841
-0.015920622 -0.05175426 -0.029917367 0.033816945 -0.07547459 0.0015981095 0.018464677 0.02832365
-0.030720618 0.040449593 0.00861123 0.030995924 -0.025724914 -0.034968946 -0.014652654 -0.022126574
0.03304063 -0.021912 -0.0002907555 -0.0039627003 0.009847944 -0.022044515 0.03057454 -0.016657747
-0.033215106 -0.019200327 -0.04191773 -0.0077683674 -0.053030748 0.039171066 0.0004990423 0.0066067
-0.05872891 0.014482267 0.018218229 0.02583157 0.04018534 0.012682809 0.02986606 -0.031392835
-0.0433924 -0.050588798 0.034365874 -0.028947448 -0.008738993 0.028953671 0.039827608 -0.0014975886
-0.010261254 -0.01902973 0.015296803 -0.037379906 0.022678617 -0.0083347075 -0.02251253 -0.03719162
0.035933297 -0.05404196 0.0012229171 0.008775302 -0.022741396 0.013068644 0.030206291 -0.031604122
-0.0052344315 -0.020432893 0.0061697233 -0.040943276 -0.026485987 -0.004831309 -0.036083233 0.03345545
0.00025914493 0.033084173 -0.085216 0.017291442 -0.045608867 -0.041297 0.023871463 0.002404595
0.033352975 -0.0107165575 -0.012208702 -0.053273812 -0.037663676 -0.027395945 -0.0019722881 -0.077846095
-0.024631303 0.0017666578 -0.01558118 -0.053794637 0.0023548703 -0.053486638 0.04194985 0.016458256
-0.040324412 -0.043673575 -0.063858084 -0.07148984 0.025680618 -0.01317788 0.021173585 0.0055164658
-0.040794272 0.0021357788 -0.008922666 -0.0036740988 0.0071899486 0.017752295 0.008948914 -0.043724
0.018932208 0.001540114 -0.041941192 -0.039754137 -0.021719795 -0.0049299197 -0.0047363727 -0.011059137
0.029983077 -0.02013805 0.016671313 -0.065739706 0.016692966 0.029577088 -0.025396647 -0.027534835
-0.04215741 -0.07118355 -0.02412292 -0.023035603 0.006752648 -0.0379421 0.0100844065 -0.025148526
-0.0355899 -0.018590784 0.0033607108 -0.012241816 0.024636626 0.019784123 -0.032549474 0.033243265
0.0006548364 -0.032955427 -0.019539963 -0.027222464 0.0021238187 -0.04793377 -0.07633091 -0.007943707
0.0014075495 0.010370754 0.03237463 -0.0014018402 0.020230118 -0.051076934 -0.022943184 -0.024378045
-0.0034320015 0.028699996 0.015527268 -0.015688242 -0.015584239 -0.01873457 -0.050276153 -0.020613287
0.024694633 0.0018377561 0.003865045 -0.02412484 -0.011062763 -0.036330905 0.016080838 0.0024452133
-0.015437884 -0.04543151 0.006432219 0.022314887 0.008281276 0.0048985807 -0.047007732 0.017682772
0.032837175 0.01459393 0.0035653317 0.008899277 -0.039775927 0.0189922 0.0017121736 0.01995499
-0.019364083 -0.0128713325 0.0048310584 0.011482978 0.0072133546 0.032688715 0.0102216685 -0.009894778
-0.0013711035 0.0003319318 -0.038593896 -0.015953684 -0.026173228 -0.051921427 -0.00946012 -0.009198702
0.021831905 -0.02259186 0.013057702 -0.019771049 -0.051633216 -0.0065324334 -0.046882167 -0.0070839277
0.01291017 0.03166388 -0.011254791 -0.021437513 0.031856745 -0.023007875 0.009321044 -0.029608486
0.021008832 0.014910534 -0.039795477 0.02784597 0.010905564 -0.0003590087 0.02111545 0.0108124

l2.bias f4 [256]
00000000: 3e45 c2bc e3e8 56bd 07af 8abd 88b5 e33e
00000010: 534d 343f c4a4 e73f 0d2e 7bbf 7a0e 93bd
00000020: 66aa a93c b5e2 96ba 7732 a13c 7ebd 9bba
00000030: e9bd 30bd 6c71 04bc 758c acbd a1cc 953c
00000040: d55b 72bd 731d 3bbc fe62 acbd b418 5bbc
00000050: 33df 333f 56cf ae3f 983c 79bd 576b 83bd
00000060: 39d5 413e 5602 19be 2288 49bd b080 48bd
00000070: 3b9b 12bd 31da 88bc fdf6 8c3f 63e4 8e3e
00000080: 50d6 05bd 7756 c0bc 8310 8abc 1237 3dbc
00000090: 9c76 80bc 21c2 993a 40f8 f5bb e152 87bd
000000a0: 5034 98bd 31a6 823f 11a2 7e3c 91a5 633f
000000b0: b23d 0ebe adde 1f3e 2631 86bd c59f 8c3f
000000c0: 97f1 ce3b caab 563c 08c3 04bd 8b40 743f
000000d0: fff0 08be 3e8a 843c b234 74bd 9580 0ebf
000000e0: 8566 babb f152 923f 538d ebbb 7b90 c5bd
000000f0: c6fe a2bd 4468 0f3f 7658 ac3c 6d3d 0a3b
00000100: d68e a3bd 4e7d 59bc ca93 fdbc 4434 c53e
00000110: 4b98 fb3c 4695 18be 2a8c 613e e746 fcbc
00000120: 9725 f4bd 157a ed3c e819 a9bd c239 1ebd
00000130: 89b0 8bbc 3c97 343c fc6b 583c 1305 373d
00000140: 1011 d8bc ba5d ecbc 4706 69bc 78cc f3bb
00000150: f91d 3abd 232b 06bf 80f3 8a3c b5be 28bd
00000160: 8fe6 0fbc 7e8f 9c3f f266 fd3e 7ab1 41bd
00000170: 882a aabd 86c0 8f3e 4a41 8abd 892d 953f
00000180: 5657 a3bd 7591 8d3f 0796 a0bc 584d 2cbf
00000190: a356 b53c dd96 47bd b9da 0bbd 80f6 aabd
000001a0: 649b 6bbc 62fa bdbc 4766 eabc 2eb6 77be
000001b0: 499e 86bd 49bf 0abf ad8d 553f 10d7 c03e
000001c0: 3513 87bc bd8f 74bd 5e66 aabc 97c9 9fbb
000001d0: 3d7d 0dbd dcd3 8d3b 9b97 0f3f cd72 e73b
000001e0: bc80 1540 c470 87bd d170 7bbc 924b ef3f
000001f0: 8701 a3bd e184 06bd beb8 ea3f 197f 94bc
00000200: e447 7bbd 0442 3dbc 547b fa3f bf71 013f
00000210: cd54 e6bc f2b6 f7bc e266 713f 0e80 f1bd
00000220: 175f a83f 62ea e83b bd5d 8fbd 5957 0fbd
00000230: 7eba a43a 3199 283d 9b57 48bd 54c2 4b3c
00000240: fc09 293d bc82 5cbd c142 27bd 77b7 613f
00000250: 8105 5dbd d13a 0bbc 9302 e7bd 8025 433c
00000260: e4ef 2dbd d5ce 1ebd 7f6a ef3f 10bb 9ebd
00000270: ae74 373f a173 393e 1c9e 4ebd 4a31 8f3f
00000280: 313b e2bc 0a01 133e f0ed e4bc 349e c0bd
00000290: 14f1 70bf b1de 73bd f2fa e33c ce75 f13f
000002a0: cece c8bc 8c11 0eba 7e2b d9bc 4939 d0bc
000002b0: c35a 17bd 26aa 633e 6aa7 1bbd 4d70 97bd
000002c0: e693 4ebd cce8 e3bd 8f17 d0bc be18 f63e
000002d0: 1b09 efbc 7c4c f0bc 1215 47bb 4ca1 fd3f
000002e0: 43c8 923f c858 b0bb 8d8b e33f 0555 8abd
000002f0: 7c0f 7d3f a10e 97bd e3b3 a5bb 3fca 553f
00000300: 7562 ceba e28d 00be c044 f83a 024c 67bd
00000310: 18b5 66bb ae30 f63f f8c5 7fbd 7c01 a43c
00000320: bb8d f2bc 73e6 0f3f fed9 32bc 8a0b 67bd
00000330: 7b50 ec3c 6e16 f83b 3b65 0f3c 7f46 0fbd
00000340: 6eb6 a5bc 7b74 903e a2ca 6abd 4232 5dbd
00000350: 4c53 6dbd cac2 ab3f 9a86 88bd 267c ddbb
00000360: ac8a 163b 46d5 803d e90c b0bb fc1e c5bc
00000370: db74 22bc 7b57 263f 5051 b23c f3bc 4ebc
00000380: 989f 5bbd 3006 32bd 1900 5bbd d876 15bd
00000390: 55b3 a4bd 1537 d0bc 9d60 1bbd 8932 58bd
000003a0: 3434 973c 4129 99bd bf75 9bbc 0449 e73d
000003b0: 3a9e aebc 7dbc 88bf ec63 fabc 1f44 303c
000003c0: 4294 5ebc c053 953e 6ed6 abbd e598 2ebf
000003d0: 18c4 ff3f 9497 e23f 0e5b 83bc 24f7 4abd
000003e0: a8c1 a03f 9f37 8d3b 2bfb 73bc aea7 8abd
000003f0: 2efb 98bc 01e8 52bd b0ad 3a3b 1343 a93e
-0.023714658 -0.05246819 -0.06771665 0.44474435 0.7043049 1.8097157 -0.9811714 -0.071804956
0.020711135 -0.0011511656 0.019677384 -0.0011882035 -0.043149862 -0.0080836825 -0.084252276 0.018286051
-0.05916961 -0.011420595 -0.08417319 -0.013372589 0.7026245 1.3657024 -0.060848802 -0.06416958
0.18928994 -0.14942297 -0.049202092 -0.04895085 -0.03579257 -0.016705604 1.1012875 0.2790862
-0.032675087 -0.02347873 -0.016853577 -0.011548774 -0.015681557 0.0011730829 -0.0075064003 -0.06607605
-0.07431853 1.0206968 0.015541569 0.8892451 -0.13890722 0.15612288 -0.06552343 1.0986258
0.006315421 0.013102481 -0.03241256 0.95410985 -0.13373183 0.0161792 -0.059620567 -0.5566495
-0.005688491 1.1431562 -0.007188478 -0.09646698 -0.079587504 0.5601847 0.021038275 0.0021093742
-0.07986228 -0.013274504 -0.03095426 0.38516438 0.030712267 -0.14900693 0.22026125 -0.030795528
-0.11921232 0.028988877 -0.08256894 -0.0386293 -0.017051952 0.011022385 0.013209339 0.044682574
-0.026375324 -0.028853286 -0.014222688 -0.007440146 -0.04543874 -0.5240957 0.016961813 -0.041197497
-0.008782997 1.223129 0.49492604 -0.047288395 -0.083088934 0.2807657 -0.06750734 1.1654521
-0.079756424 1.1060015 -0.019602789 -0.6730552 0.022136038 -0.04872786 -0.034144137 -0.083477974
-0.01438031 -0.02319068 -0.028613223 -0.2419059 -0.06573159 -0.5419813 0.83419305 0.3766408
-0.01648865 -0.059707392 -0.020800766 -0.0048763263 -0.034543265 0.004328234 0.56090707 0.007063246
2.3359823 -0.06613305 -0.015346722 1.8694937 -0.07959276 -0.032841567 1.8337629 -0.018127011
-0.061347857 -0.011551384 1.9568887 0.5056419 -0.028116608 -0.030238602 0.9429761 -0.117920026
1.3154019 0.0071080187 -0.07000301 -0.03499541 0.0012567786 0.04116172 -0.048911672 0.012436468
0.041269287 -0.053835616 -0.040835146 0.8817057 -0.053960327 -0.00849791 -0.11279788 0.011910796
-0.042465106 -0.03877147 1.8704375 -0.07750523 0.71662414 0.18110515 -0.050443754 1.1186917
-0.027616115 0.14355865 -0.027945489 -0.09405175 -0.94117856 -0.059538547 0.027829621 1.8864076
-0.024512675 -0.0005419485 -0.026509997 -0.02541794 -0.03695179 0.22232875 -0.038001455 -0.073944665
-0.050434016 -0.11128387 -0.025401859 0.48065752 -0.029179147 -0.029333346 -0.003037755 1.9814849
1.1467365 -0.0053816773 1.7776963 -0.067544974 0.9885175 -0.07375837 -0.0050568446 0.8351173
-0.0015745895 -0.12554124 0.0018941388 -0.05646897 -0.0035203155 1.9233606 -0.062444657 0.020020239
-0.029608598 0.5621101 -0.010916231 -0.05640749 0.02884697 0.007571033 0.008752163 -0.03497934
-0.02022859 0.28213868 -0.057322152 -0.054003008 -0.057940766 1.341882 -0.06666298 -0.0067591844
0.0022970838 0.06290679 -0.0053726328 -0.024062626 -0.009915556 0.64977235 0.021767288 -0.012618291
-0.053618997 -0.043462932 -0.05346689 -0.03649029 -0.08042017 -0.02541689 -0.037933934 -0.05278257
0.01845751 -0.07478572 -0.018977044 0.112932235 -0.021315683 -1.0682522 -0.030565225 0.010758429
-0.013585152 0.2916546 -0.083905086 -0.6820205 1.9981718 1.7702508 -0.01603463 -0.049552098
1.2559099 0.004309609 -0.014891426 -0.067702636 -0.01867446 -0.051490787 0.0028484873 0.33058986

l3.weight f4 [1, 256]
00000000: 851a c53c b196 b03c 1e70 5bbb ad32 73bf
00000010: be90 6d3c 934a f3bd 8872 083f 9c54 a4bc
00000020: 365b fa3c dbf3 28bc b6d4 a43b 5d2a d7be
00000030: caf4 eebd b0e6 33bc 91ae e3bc d1c3 04c0
00000040: 1259 31c0 a095 fa3c 6b7f 033b e6e3 353d
00000050: c5ca 24c0 cf62 84bd e04f 103c ac3d 97bc
00000060: fbdb 48c0 ca5b b83e cc51 0bbd fc1b af3c
00000070: 31b2 f43c 07b5 753c 0ef7 0cc0 6c0f a0c0
00000080: 7327 51c0 2955 0d3c 3eef 893b f380 193c
00000090: 5760 ab3b e663 57c0 ce18 7c3c b1fa b33c
000000a0: 4953 acbc 90ea b4be 7368 cf3c 4ec0 28be
000000b0: 6c2a c3bf beff f0bf 4cc3 193c 1217 9dbe
000000c0: f2ce 52be 6692 223c 39dd f3bc 6781 9dc0
000000d0: 8b77 023e ee53 b33c d7c6 58bc 4545 9a3e
000000e0: c7ed 333d b5e7 8bbf 28c8 8939 f314 c43c
000000f0: 08d7 253c 83d9 61c0 6b96 c93c d0ca d1be
00000100: f023 0e3d 03f2 94bc 5997 ea3a 4fb0 9fc0
00000110: 3144 093c ac89 dfbf 4aed d2bf 1050 0a3c
00000120: c11e d83c 3de5 8ebe 60dc ce3c 41ec 96bc
00000130: d4c0 9b3b a82b ecbb fe03 243d d16c f7bd
00000140: 3e34 38bc de35 c0bc ab06 3dbc 24cf 653c
00000150: 1dd7 b2c0 c120 833e 1def c53c 63b4 413d
00000160: 62bf eebc 13d5 b7bf 6047 ce3c 18d4 443d
00000170: 23d8 e73b e6be ee3e 255f 893b 2853 d2bf
00000180: f09b 88bb c4a3 7ebe 5f30 7d3c 8ddd 1c3e
00000190: cdae bf3c 8178 6abc 7153 0bbc adea 99bc
000001a0: 31f6 993c 7c79 f8bc 0003 d93c cecb 863e
000001b0: a60a 86bc 8769 c93d 4807 91bf a01d 62c0
000001c0: 5ed0 bc3c 13c3 ed3c 0e65 873c c6da 84bc
000001d0: 4f9e c9bc 4b2a d63c fff8 68be b7e1 fcbe
000001e0: 7452 31bf 3fdb fdbf 7c49 e43c b809 72be
000001f0: 0953 a2bc 4b75 68c0 caf6 03be 0e74 eebc
00000200: 91ed c13c dbdf b33b 0d67 5ebe e31f 8dc0
00000210: 3ce3 ff3b 0b13 1e3d b850 04c0 b708 d4be
00000220: 0ab7 61be b2b7 d43b 5e38 fd3b 7d5d a9bb
00000230: 2565 84bb 1324 6a3e 32d9 183c d076 84c0
00000240: 43cd 27bd a4ea 51bc 0e02 f13c cbfb eebf
00000250: d29a 3dbc 1fdf d0ba 72d9 6cc0 4360 f8bb
00000260: b6d8 403c b71d c23c 3642 1fbe 360a 5c3c
00000270: a28a 59c0 cb39 093f 17bc c73b 9dab 29be
00000280: 3e91 2f3d 8730 ea3e 9bc7 7c3a d8d2 f2bc
00000290: 4614 ca3e 6fa2 ea3b a666 b73c 7f22 2cbe
000002a0: edc8 cbbc 024e 95bb 48c2 c23b 5404 ba3c
000002b0: 85ae a13c 225c 55c0 dc63 44bc 0c1a b03b
000002c0: 5fa0 71c0 26e9 333c 415a 0a3d 13a8 ae3e
000002d0: 3702 90bb 415a 303c 5e59 87bc 6f36 80be
000002e0: 05a0 37be 5742 a03a 9d55 bcbd 703a 08bd
000002f0: 64c6 0dbe 9d25 c73c 83ed e03c 3d5d b0c0
00000300: 6b01 b5bc edc5 24c0 a135 c93a 956e c5bf
00000310: 4c3e 13bc 963d 48be 9f5e 0d3b 7781 45bd
00000320: 71aa b13c f6db bc3d c82f 903c d705 e3bc
00000330: 1171 9f3a 4be6 353c 0c81 863c 165c dcbb
00000340: 3ead 3fbb 0dcc b53f 38a5 b43b ea5e bfbc
00000350: 1889 8abb 0da1 a2bd 1200 df3c 9990 493c
00000360: b15a 133d 9aa9 16bf 56e3 f83c 9e88 97bc
00000370: 496f 723c f21c 97c0 35d8 2e3d 8d04 3f3d
00000380: e19e c2bc 8843 c33c 1c16 f63b eb5b d63b
00000390: 9cc3 5a3c d47e 15be 1e9d 003d c3c0 943c
000003a0: ace0 1bbc ba91 90bb 8015 1cbd 4624 bcbf
000003b0: 0c4e e1bb 8fc1 d93d ba16 a03c d469 043b
000003c0: 479b 0f3c 6aec 91bd 260c aebc b721 d83e
000003d0: 8861 7bbe 5374 e8bd cdc6 9c3c 1e6a 6d3c
000003e0: 9246 4abe 494f 49bb ce48 bfbb 1db1 b53b
000003f0: 64f6 933c 05be 213c b66a 003d 0de2 9abb
0.024060497 0.02155623 -0.0033483575 -0.949992 0.014499841 -0.11879458 0.5329976 -0.020059876
0.03056107 -0.010312046 0.00503024 -0.42024508 -0.116677836 -0.010980293 -0.0277932 -2.0744517
-2.7710614 0.030588925 0.002006496 0.044406794 -2.574876 -0.06464159 0.008808106 -0.018462025
-3.1384265 0.3600753 -0.034013554 0.021375649 0.029870125 0.014996774 -2.202579 -5.0018826
-3.2680328 0.008626261 0.004209428 0.009369123 0.0052299905 -3.3654723 0.015386773 0.021970125
-0.021035807 -0.35335207 0.02531836 -0.16479608 -1.5247321 -1.8828046 0.009384941 -0.30681664
-0.20586756 0.009922599 -0.029768573 -4.922046 0.12740915 0.021890607 -0.013231001 0.30130973
0.043927934 -1.0930086 0.00026279804 0.02393577 0.010122068 -3.5289009 0.024607858 -0.40975046
0.03470224 -0.018181806 0.0017897888 -4.990272 0.0083780745 -1.7463889 -1.6478665 0.00844194
0.026381852 -0.2790927 0.025251567 -0.018423202 0.0047532115 -0.0072073527 0.04004287 -0.12081302
-0.011242924 -0.023463186 -0.011537234 0.014026437 -5.588759 0.25610927 0.02416187 0.04729117
-0.029143993 -1.43619 0.025180519 0.04805383 0.007075326 0.4663002 0.0041922503 -1.6431627
-0.00416898 -0.24867159 0.015453427 0.1531889 0.023398781 -0.014310957 -0.008503781 -0.01878866
0.018794151 -0.030331366 0.026490688 0.26327366 -0.0163625 0.09834581 -1.1330347 -3.5330582
0.023048576 0.029023683 0.016527679 -0.0162176 -0.02461162 0.026143214 -0.22751234 -0.49390957
-0.6926644 -1.9832534 0.027867071 -0.2363652 -0.019814985 -3.632159 -0.12887111 -0.029108074
0.02367285 0.005489332 -0.21718998 -4.4101424 0.007809071 0.03859238 -2.0674267 -0.414129
-0.2204248 0.0064916248 0.0077276668 -0.0051686154 -0.0040403777 0.22865324 0.009329127 -4.1395035
-0.040967237 -0.01281229 0.029419925 -1.8670591 -0.011572557 -0.0015935636 -3.7007718 -0.0075798347
0.011770418 0.02369581 -0.15552601 0.013430169 -3.3990865 0.5360381 0.00609542 -0.16569372
0.042863123 0.45740148 0.00096427806 -0.029641554 0.39468592 0.007160477 0.022387814 -0.16810034
-0.024876082 -0.0045564184 0.0059435703 0.022707142 0.019736538 -3.3337483 -0.011986699 0.005374199
-3.7754133 0.01098088 0.03377748 0.34112605 -0.0043947953 0.010763706 -0.016522106 -0.2504153
-0.17932136 0.0012226802 -0.09196017 -0.033258855 -0.13845211 0.024309928 0.027457004 -5.5113816
-0.022095403 -2.5745804 0.0015351066 -1.5424372 -0.008987021 -0.19554743 0.002157129 -0.04821917
0.021687718 0.09221642 0.017600909 -0.027712746 0.0012164434 0.011102269 0.016418956 -0.0067248447
-0.0029247547 1.4202896 0.0055128597 -0.023360688 -0.0042277686 -0.07940874 0.027221713 0.012302541
0.035975162 -0.5885254 0.03038184 -0.018497761 0.01479704 -4.7222834 0.04268666 0.0466352
-0.0237574 0.023835912 0.00750996 0.006541719 0.013352301 -0.14599162 0.03139984 0.018158322
-0.009514015 -0.004411903 -0.03810644 -1.469857 -0.006875759 0.106326215 0.019542087 0.002020468
0.008765048 -0.071251705 -0.021246027 0.42213222 -0.24548924 -0.11350312 0.019137764 0.014490632
-0.19753483 -0.0030717424 -0.0058375364 0.005544795 0.018061824 0.009871964 0.031351767 -0.0047266544
