saves/Dobot-v3/pbrs/seed_0/model/actor.pth (torch, 606565 bytes, 6 tensors)

l1.weight f4 [512, 36]
-0.09351417 -0.21111041 0.09953351 1.154024 -0.048851814 -0.07540481 1.6381555 0.06321034
-0.18145807 1.2356901 -0.05958468 -0.24458708 -0.44003955 0.33733612 0.11049351 0.2976254
1.0020427 -0.1516108 1.093609 0.197578 -0.149645 1.2149844 0.7510862 0.5031392
-1.1883247 0.33909374 0.0799312 -0.12451577 1.0825112 -0.42770675 0.4113838 0.19913048
-0.15012038 0.47698826 0.8141645 0.85876447 -0.0384104 -0.008470542 -0.065291815 0.46148685
0.015134357 0.3039793 0.7491539 0.09531458 -0.19087073 0.56827843 0.003708116 -0.34801304
-0.2748267 0.20765844 0.12827486 0.06551914 0.8510172 -0.073362656 0.3080713 1.1977274
0.17124598 -0.14027794 1.9952582 -0.11793101 -0.4526388 0.8131033 0.59768116 -0.114303894
0.37158507 -0.068146005 0.18353812 1.2961721 0.72482413 -0.5738059 1.8529438 -0.21631582
0.38427427 0.11412303 -0.3575799 0.062496588 0.06854066 0.11424636 -0.10487385 -0.057148535
-0.21076968 -0.05505796 -0.22087623 -0.42069945 0.010317273 0.44006607 -0.0052146045 0.2850584
-0.38903973 -0.5109374 0.2954325 0.96402 0.57353806 0.010526466 -0.35239142 0.40266764
0.050704144 1.0552297 0.4461824 0.19442151 0.26665527 -1.4800868 0.24492289 1.5215005
2.3923473 0.20084484 0.3025747 1.2175463 0.07011545 -0.12162986 -0.13594268 0.1006968
-0.029526195 -0.064970575 0.08754788 -0.04018178 -0.1258415 -0.068908796 -0.017948985 -0.050435327
0.04253453 -0.04520599 0.1658575 0.062660694 -0.08380008 -0.09272866 -0.069632016 0.10143523
-0.06230303 0.007169485 0.12795715 -0.048208516 -0.011965772 -0.08631148 0.14074084 0.05700485
-0.020359319 -0.07505407 0.13561216 0.08945279 0.051177245 0.08704178 0.14107156 0.061331253
-0.19241212 -0.20517476 0.18601584 0.66398865 0.1182606 -0.08379561 0.5061261 -0.30345953
0.04462551 0.55683357 -0.051090747 0.1362815 -0.053381298 0.11430083 0.26170635 0.76979697
0.5094319 0.08373846 -0.4303087 0.099133015 -0.06625217 0.7938142 0.72902507 0.19291408
-0.5526759 -0.038198717 -0.14245254 0.102900214 0.7038413 0.3554029 -0.7130522 -0.09378143
-0.33735448 0.33854067 0.19058985 0.3511387 0.18135488 -0.09370208 0.23230517 0.3842274
0.010784174 0.028550113 0.4523826 -0.2578749 -0.15913302 0.7004171 -0.059082847 0.09640701
-0.03300713 0.27111182 0.26653475 1.7014257 0.38926744 -0.04202371 0.82934767 0.51985544
0.60423994 -0.085511744 -0.36000276 0.5189713 -0.4424669 0.88155305 -0.36107227 1.2345713
0.41514587 -0.9029703 0.49827105 1.0609146 2.1043336 -0.73770934 -0.14686064 0.50037074
0.22228107 -0.17051886 -0.15657687 -0.7111197 0.20907982 0.25314233 -0.9483481 -0.41881984
-0.18698817 -0.72499794 -0.2778624 -0.5211366 -0.06163031 0.3827576 0.023218073 -0.061244093
1.264803 -0.27705604 -0.6447885 0.68556905 0.21974134 -0.736064 0.042360205 0.48309416
0.099854596 0.825979 0.8675088 0.08020348 1.2407256 -0.8707732 -0.39344963 1.2413331
1.2556934 -0.28820658 -0.19494344 1.6385622 -0.4092257 0.35383603 0.14596404 -0.7059811
00000000: 5b84 bfbd 542d 58be 3ad8 cb3d 0fb7 933f
00000010: d718 48bd d66d 9abd 14af d13f 6c74 813d
00000020: 25d0 39be 182b 9e3f 110f 74bd 0975 7abe
00000030: dd4c e1be 52b7 ac3e 6c4a e23d 5b62 983e
00000040: ef42 803f dd3f 1bbe 61fb 8b3f e351 4a3e
00000050: 8a3c 19be 9c84 9b3f 2f47 403f bbcd 003f
00000060: 061b 98bf b29d ad3e f8b2 a33d 2002 ffbd
00000070: ba8f 8a3f 61fc dabe e6a0 d23e dce8 4b3e
00000080: 28b9 19be ce37 f43e 166d 503f fdd7 5b3f
00000090: 3954 1dbd 07c8 0abc b7b7 85bd 0148 ec3e
000000a0: 18f6 773c 2da3 9b3e 8dc8 3f3f 4a34 c33d
000000b0: 9e73 43be b27a 113f dd03 733b c42e b2be
000000c0: 16b6 8cbe 6aa4 543e 7c5a 033e e62e 863d
000000d0: 43dc 593f 293f 96bd 85bb 9d3e 224f 993f
000000e0: 1b5b 2f3e 05a5 0fbe 9f64 ff3f d085 f1bd
000000f0: 46c0 e7be 8a27 503f a201 193f 2918 eabd
00000100: 6640 be3e 2290 8bbd 6bf1 3b3e f8e8 a53f
00000110: 138e 393f f2e4 12bf 432d ed3f e581 5dbe
00000120: 99bf c43e 56b9 e93d b614 b7be 6cfc 7f3d
00000130: 0c5f 8c3d fff9 e93d 1ac8 d6bd 9514 6abd
00000140: 02d4 57be 7584 61bd 612d 62be eb65 d7be
00000150: c809 293c 5750 e13e 46df aabb 2df3 913e
00000160: 3730 c7be cbcc 02bf ee42 973e 04ca 763f
00000170: 64d3 123f 3377 2c3c a66c b4be 742a ce3e
00000180: 26af 4f3d c411 873f 0572 e43e 6f16 473e
00000190: 0a87 883e 7c73 bdbf 11cd 7a3e 87c0 c23f
000001a0: 381c 1940 45aa 4d3e 12eb 9a3e 8fd8 9b3f
000001b0: b098 8f3d 1319 f9bd 8f34 0bbe 203a ce3d
000001c0: ebe0 f1bc 4b0f 85bd 4e4c b33d a695 24bd
000001d0: 98dc 00be 0e20 8dbd c009 93bc 4695 4ebd
000001e0: b038 2e3d eb29 39bd 8cd6 293e 4054 803d
000001f0: 609f abbd 86e8 bdbd 3b9b 8ebd 46bd cf3d
00000200: 7631 7fbd 00ee ea3b 3307 033e 4b76 45bd
00000210: 160c 44bc 13c4 b0bd 5e1e 103e eb7d 693d
00000220: 96c8 a6bc f3b5 99bd eadd 0a3e 0633 b73d
00000230: 3b9f 513d f642 b23d 1075 103e 7b36 7b3d
00000240: af07 45be 5519 52be f07a 3e3e 29fb 293f
00000250: 9d32 f23d 089d abbd 7b91 013f 0c5f 9bbe
00000260: 3dc9 363d a58c 0e3f 8844 51bd 618d 0b3e
00000270: 59a6 5abd 8e16 ea3d 60fe 853e 6a11 453f
00000280: 216a 023f 127f ab3d 6c51 dcbe 4006 cb3d
00000290: 38af 87bd 6837 4b3f 63a1 3a3f 458b 453e
000002a0: 2b7c 0dbf 4276 1cbd 14df 11be 59bd d23d
000002b0: f22e 343f 5ef7 b53e 978a 36bf 7a10 c0bd
000002c0: bab9 acbe 3455 ad3e fc29 433e 74c8 b33e
000002d0: 18b5 393e e0e6 bfbd 68e1 6d3e 74b9 c43e
000002e0: 1bb0 303c ede1 e93c b19e e73e 2e08 84be
000002f0: c4f3 22be 894e 333f db00 72bd 0a71 c53d
00000300: 7c32 07bd 2bcf 8a3e 3e77 883e 51c8 d93f
00000310: 104e c73e 0e21 2cbd 2150 543f 3f15 053f
00000320: 78af 1a3f c820 afbd 4852 b8be 4edb 043f
00000330: 068b e2be 76ad 613f 77de b8be 6f06 9e3f
00000340: 008e d43e 1029 67bf 621d ff3e 0dcc 873f
00000350: 67ad 0640 85da 3cbf a362 16be 4c18 003f
00000360: a69d 633e 7f9c 2ebe b055 20be f10b 36bf
00000370: 0519 563e df9b 813e f1c6 72bf 8e6f d6be
00000380: d479 3fbe 7799 39bf fb43 8ebe 3569 05bf
00000390: 1070 7cbd cef8 c33e d433 be3c 16db 7abd
000003a0: 11e5 a13f 4ada 8dbe dc10 25bf 7481 2f3f
000003b0: e003 613e b16e 3cbf e581 2d3d 1e58 f73e
000003c0: 9180 cc3d 5c73 533f 0f15 5e3f b941 a43d
000003d0: 19d0 9e3f feea 5ebf 3b72 c9be 01e4 9e3f
000003e0: 90ba a03f d08f 93be 419f 47be 68bc d13f
000003f0: 0886 d1be ff29 b53e 9977 153e 2dbb 34bf

l1.bias f4 [512]
-0.17665906 -0.11021043 -0.29166126 -0.063294336 -0.13985367 -0.009306365 -0.07610941 0.30031568
-0.15706709 -0.09220273 -0.41289818 -0.11090529 -0.18256694 -0.20262344 -0.15507276 0.13748528
-0.44565502 -0.15372977 -0.075950645 -0.16821012 -0.14680853 -0.06852781 -0.04244388 -0.22354755
-0.13242269 -0.17377391 -0.21352988 -0.028804705 -0.0061750263 0.34031358 -0.119968235 0.16734391
-0.066545345 0.088101245 -0.20950799 -0.10176953 -0.093504936 -0.16509403 0.06691871 -0.05605715
-0.2520068 0.21518324 -0.14262967 -0.2205948 0.23122641 -0.10452362 -0.026896663 0.24129295
-0.10946169 -0.08726378 -0.15268846 0.09383403 -0.15235263 -0.0031154072 -0.15531863 -0.23206441
-0.17990698 0.31528217 -0.15519333 -0.07931001 -0.14850914 -0.32393146 -0.2231261 -0.07071753
-0.021216711 -0.16321152 -0.21549031 -0.18405631 0.026032884 -0.030904613 -0.09076092 -0.08586937
-0.24147104 -0.053882547 -0.14923586 -0.0322783 -0.13732421 -0.064650185 -0.4016836 -0.032539748
-0.16899078 -0.42502645 0.13355118 -0.29606768 0.079185724 -0.17183451 -0.143188 -0.11508097
-0.11304472 -0.40637746 -0.23602225 -0.0041100136 0.07286589 0.05545721 -0.2131063 0.04688635
-0.09345896 0.06373653 -0.21547513 -0.07028061 0.0067433035 -0.22683063 -0.09833525 -0.076649256
-0.10297302 -0.11759655 -0.17857169 0.041773997 -0.120315954 -0.20784713 -0.25540957 -0.3070223
0.035721574 -0.028277757 -0.07784775 0.112568535 0.006718437 -0.041384127 -0.04689788 -0.23882699
-0.10859698 -0.26753625 -0.19416694 -0.3442276 -0.011447316 -0.027627554 -0.031798538 -0.051564865
0.10320306 -0.055791005 -0.07905158 -0.0017755284 -0.19182418 -0.09981257 -0.31961668 0.01916061
-0.2679407 -0.14634952 -0.0690563 -0.06930572 -0.014021794 -0.13072386 -0.2384723 -0.07704684
-0.0071262387 -0.024677834 -0.044867903 -0.024850003 -0.17991532 -0.10110936 0.16266084 -0.256477
0.12699859 -0.0039538923 -0.31201097 -0.3582291 -0.18849419 -0.14019229 -0.05857764 -0.047095574
0.061796002 -0.15232235 -0.092244685 -0.23921052 0.03940026 -0.02886912 -0.14840223 0.12075283
-0.09672417 -0.17841431 -0.19528352 -0.27491406 -0.20282951 -0.032401543 -0.17579032 -0.17203592
0.039264087 0.0011664379 -0.13772288 -0.009753049 -0.011385844 -0.19103788 -0.17819957 -0.074134946
-0.09269289 0.15220638 0.09251233 0.07117048 -0.058720198 -0.1210051 -0.16948922 0.15212855
0.05672056 -0.12902409 -0.22309195 -0.09331024 -0.16980039 -0.01421419 -0.2539938 -0.3410738
-0.14717203 -0.38939053 -0.11835668 -0.05860896 0.29430673 -0.32207903 -0.25808933 0.4823111
-0.25900728 -0.34419432 -0.0643973 -0.14966439 -0.21423507 -0.35100585 -0.04508561 -0.002286336
-0.047594566 -0.22734423 0.114492774 -0.12047018 0.20154919 -0.3796754 -0.032693077 -0.0065740943
-0.11772442 -0.00924718 -0.15313703 0.04554714 -0.16687529 -0.03194938 0.4313859 -0.046705533
0.02509824 -0.031083968 -0.13891897 -0.091868035 -0.019145401 0.055629626 -0.13373181 -0.06625681
-0.11915381 -0.006751207 0.08410529 -0.01837822 -0.12402317 -0.1402259 -0.28833273 -0.1803022
-0.06741975 -0.23518936 0.012528568 -0.020206308 0.033819415 -0.15982458 -0.1641842 0.10001277
00000000: 1de6 34be 02b6 e1bd a054 95be 76a0 81bd
00000010: cd35 0fbe b979 18bc 40df 9bbd fac2 993e
00000020: 32d6 20be c9d4 bcbd 6467 d3be 5022 e3bd
00000030: d4f2 3abe 857c 4fbe 65cb 1ebe f1c8 0c3e
00000040: e52c e4be 566b 1dbe 038c 9bbd 463f 2cbe
00000050: fa54 16be 4f58 8cbd a2d9 2dbd a6e9 64be
00000060: d099 07be caf1 31be 94a7 5abe d8f7 ebbc
00000070: e057 cabb 953d ae3e e8b1 f5bd 345c 2b3e
00000080: ed48 88bd 6d6e b43d 4389 56be 8b6c d0bd
00000090: 847f bfbd 690e 29be ad0c 893d 2f9c 65bd
000000a0: 0907 81be ff58 5c3e 830d 12be 9ae3 61be
000000b0: 9ec6 6c3e 7b10 d6bd 6456 dcbc 8015 773e
000000c0: 732d e0bd 5ab7 b2bd 5d5a 1cbe 0e2c c03d
000000d0: 5402 1cbe dc2b 4cbb d90b 1fbe 4ba2 6dbe
000000e0: 8939 38be aa6c a13e 00eb 1ebe 496d a2bd
000000f0: c812 18be 58da a5be 2b7b 64be 5ad4 90bd
00000100: abce adbc ec20 27be 7ea9 5cbe 4279 3cbe
00000110: ea42 d53c ac2b fdbc dce0 b9bd 48dc afbd
00000120: 2f44 77be f2b3 5cbd 49d1 18be 4036 04bd
00000130: b89e 0cbe 5167 84bd 79a9 cdbe 6648 05bd
00000140: eb0b 2dbe 119d d9be a4c1 083e 2f96 97be
00000150: 202c a23d 63f5 2fbe e09f 12be 92af ebbd
00000160: fd83 e7bd b510 d0be d1af 71be 4bad 86bb
00000170: b63a 953d 1927 633d 8a38 5abe e70b 403d
00000180: 6967 bfbd 4c88 823d 83a5 5cbe 48ef 8fbd
00000190: eef6 dc3b 4a46 68be fe63 c9bd 49fa 9cbd
000001a0: 85e3 d2bd 76d6 f0bd 7fdb 36be 361b 2b3d
000001b0: 3668 f6bd e1d5 54be 0bc5 82be 0732 9dbe
000001c0: c950 123d c1a6 e7bc a46e 9fbd 558a e63d
000001d0: 5626 dc3b 6782 29bd fe17 40bd 108f 74be
000001e0: 1868 debd 83fa 88be b3d3 46be 9a3e b0be
000001f0: 868d 3bbc 2e53 e2bc 2f3f 02bd ae35 53bd
00000200: 205c d33d 1c85 64bd cbe5 a1bd d9b8 e8ba
00000210: 8f6d 44be 886a ccbd cca4 a3be b6f6 9c3c
00000220: 862f 89be a6dc 15be 646d 8dbd 28f0 8dbd
00000230: abbb 65bc 7adc 05be 1532 74be bcca 9dbd
00000240: 3983 e9bb 2b29 cabc 68c7 37bd 3c92 cbbc
00000250: b93b 38be 6d12 cfbd 9090 263e f450 83be
00000260: eb0b 023e a78f 81bb e7bf 9fbe ce69 b7be
00000270: 9f04 41be 918e 0fbe 1cef 6fbd 4ae7 40bd
00000280: ce1d 7d3d 64fa 1bbe c8ea bcbd 9af3 74be
00000290: 2b62 213d ef7e ecbc c1f6 17be 424d f73d
000002a0: 5217 c6bd 3eb2 36be 67f8 47be 89c1 8cbe
000002b0: 8ab2 4fbe 7bb7 04bd 6102 34be 2f2a 30be
000002c0: 61d3 203d 29e3 983a 3a07 0dbe 41cb 1fbc
000002d0: b18b 3abc 6f9f 43be f379 36be 10d4 97bd
000002e0: c5d5 bdbd fddb 1b3e 1b77 bd3d d4c1 913d
000002f0: 9784 70bd 86d1 f7bd 958e 2dbe 96c7 1b3e
00000300: d153 683d e41e 04be 3772 64be 7019 bfbd
00000310: 27e0 2dbe a2e2 68bc 7a0b 82be 3aa1 aebe
00000320: 44b4 16be 325e c7be fd64 f2bd f30f 70bd
00000330: 5faf 963e 8be7 a4be 4924 84be 7bf1 f63e
00000340: 9a9c 84be 3d3a b0be bbe2 83bd 9f41 19be
00000350: 7060 5bbe 0ab7 b3be b0ab 38bd 5ad6 15bb
00000360: 85f2 42bd edcc 68be 307b ea3d 12b9 f6bd
00000370: e962 4e3e d064 c2be 2de9 05bd 806b d7bb
00000380: 8019 f1bd 7c81 17bc f4cf 1cbe a38f 3a3d
00000390: 5be1 2abe 5add 02bd 9dde dc3e 4d4e 3fbd
000003a0: d39a cd3c cea3 febc c640 0ebe 4f25 bcbd
000003b0: d1d6 9cbc e4db 633d fef0 08be a7b1 87bd
000003c0: ea06 f4bd 3b39 ddbb 653f ac3d ec8d 96bc
000003d0: dcff fdbd 6197 0fbe 59a0 93be 24a1 38be
000003e0: 5e13 8abd 7bd5 70be 9f44 4d3c b387 a5bc
000003f0: 3a86 0a3d 0ea9 23be e71f 28be 7fd3 cc3d

l2.weight f4 [256, 512]
0.1428878 0.48632863 -0.16582325 -0.02226745 0.14897971 -0.23027277 -0.2686322 0.052431483
0.035515644 -0.62833637 0.7996541 -0.007808594 -0.19194233 -0.44666982 -0.39250138 0.73271227
-0.5098648 -1.0268021 -0.06507846 0.014007406 0.2521239 -0.49174628 -0.237726 0.111893386
-0.032001484 -0.20095807 0.4531374 0.73458874 -0.2776302 0.26827252 0.4955219 -0.013086974
0.4751815 -0.51639503 -0.02685919 0.023236627 -0.4729315 -0.0060170107 0.057477616 -1.4978533
-1.39018 -0.44885555 0.033672262 0.4902628 -0.22361475 1.7046186 -0.052524984 0.33063668
-0.68552005 -0.91840714 -0.64216405 0.21810593 0.10961163 0.03107351 0.038849037 0.7948473
0.03101996 -0.3644459 -1.4826533 0.29642704 -0.026292585 -1.1397923 -0.32915577 -0.62912065
-0.34807006 0.0006296423 0.5434137 0.24765693 -0.9248284 -1.0328982 -0.29635736 -0.26654196
-2.043869 0.10959639 -1.0859846 -0.04896326 -0.017425124 0.12355954 0.08060566 0.029719597
-0.4534987 -0.46136913 0.2836596 -0.2967583 -0.9228664 -0.7675997 0.032381732 0.17142415
-0.34246272 0.46601325 -0.28977436 -0.03900827 0.6720639 0.56567794 0.007245484 -0.13515216
0.53402346 0.11419433 -1.2491881 0.35453114 -0.61461055 0.26604107 -1.6621916 -0.56416225
-0.31288517 0.549092 -0.65706336 0.5944993 -1.0725429 -0.4944338 -0.8268751 -0.6878954
0.119774 -1.5234027 0.7208289 0.33271274 -0.009400518 -0.07436193 -1.0262873 -0.20406832
-0.061716326 0.92480356 -1.0676304 0.40170234 0.475294 -0.16331646 -0.04030444 -0.7063294
-1.2529258 0.028412526 -0.55464983 0.09723873 -0.49277803 0.03435096 0.24927789 -2.1271214
-0.3551185 -0.030600866 0.25550306 0.02992216 -0.01697863 -0.03421523 -0.18266763 0.7324283
-0.054739542 0.22510344 -0.7695953 -0.052967545 -0.07598991 0.65371567 -0.45873767 0.20035109
-0.7397511 -1.3758662 -2.7306254 0.08315312 0.012964211 0.7407419 -0.8721855 -0.12551247
-0.3276768 -0.35395035 -2.0827744 0.4611508 -0.70097405 -0.44870174 -0.64769477 -0.15307233
0.5807201 -1.2590958 -0.08035974 0.61446095 -0.38849223 -0.046548884 -0.743079 0.70159656
0.022460219 1.038677 -0.043314684 0.34669358 -0.10908014 -0.0018594644 -0.23493637 0.020953573
-0.51639754 -0.6869565 -0.30197066 -0.4571694 -0.83627635 -0.027475825 0.0010204279 -0.6843685
-0.048139643 -0.38960305 -0.60108066 -0.72991896 -0.014658105 0.3055229 0.4992044 0.20907956
0.037783414 -0.034055658 0.09652939 0.17884076 0.067211956 0.567451 0.2768314 0.49454108
-0.015581659 0.369944 -0.13492939 0.021571463 -0.5756433 -1.3171479 -0.34915268 -0.005484528
-0.30814296 -0.09325515 -0.33861917 0.13348983 0.03326489 0.042564616 -0.3796441 -0.6180152
-0.014597776 -1.1071923 -0.31580228 0.6485104 -0.15933241 -0.8297186 0.084952556 -0.13742493
-0.7142301 2.0602374 -0.022910615 0.25871903 -0.06849883 -0.015091317 0.39672118 -0.014025833
0.041274477 -2.0090888 0.052347135 -0.8037528 -0.50416267 -2.038122 0.2477302 -0.24654748
-0.23139676 -0.4469484 -0.8941547 -0.763915 -0.2223748 0.011708853 0.79846877 0.30629542
00000000: 2e51 123e 1100 f93e 92cd 29be 3a6a b6bc
00000010: 238e 183e a0cc 6bbe 298a 89be 65c2 563d
00000020: da78 113d a7da 20bf 22b6 4c3f 3cdf ffbb
00000030: 888c 44be e8b1 e4be f1f5 c8be 0893 3b3f
00000040: 8086 02bf 406e 83bf db47 85bd 527f 653c
00000050: 6216 813e 2bc6 fbbe 726e 73be 5c28 e53d
00000060: fd13 03bd f4c7 4dbe a001 e83e 020e 3c3f
00000070: 8c25 8ebe 045b 893e 0cb5 fd3e bf6a 56bc
00000080: fd4a f33e 7732 04bf ce07 dcbc bd5a be3c
00000090: 1424 f2be 582a c5bb a66d 6b3d a8b9 bfbf
000000a0: 6bf1 b1bf 65d0 e5be edeb 093d ba03 fb3e
000000b0: 44fb 64be f130 da3f 7024 57bd 3649 a93e
000000c0: 3e7e 2fbf bb1c 6bbf dd64 24bf 2957 5f3e
000000d0: 107c e03d e08d fe3c 2b20 1f3d 1d7b 4b3f
000000e0: 921d fe3c a798 babe 95c7 bdbf 49c5 973e
000000f0: 8c63 d7bc b7e4 91bf 1b87 a8be 0d0e 21bf
00000100: 3d36 b2be 940e 253a 291d 0b3f c799 7d3e
00000110: 8ec1 6cbf 0236 84bf 27bc 97be 3078 88be
00000120: c0ce 02c0 1274 e03d 8b01 8bbf b38d 48bd
00000130: 22bf 8ebc c90c fd3d 9514 a53d 8376 f33c
00000140: fb30 e8be 9338 ecbe d53b 913e b4f0 97be
00000150: f940 6cbf 6a81 44bf b5a2 043d d089 2f3e
00000160: 4657 afbe 4a99 ee3e 4e5d 94be 23c7 1fbd
00000170: 610c 2c3f 45d0 103f 866b ed3b 5465 0abe
00000180: c3b5 083f b8de e93d 65e5 9fbf 1b85 b53e
00000190: 1e57 1dbf 8936 883e b2c2 d4bf f06c 10bf
000001a0: 7c32 a0be 4b91 0c3f 4e35 28bf 1b31 183f
000001b0: 1649 89bf 6d26 fdbe 16ae 53bf ea19 30bf
000001c0: 124c f53d dcfe c2bf 3e88 383f 5359 aa3e
000001d0: a104 1abc 114b 98bd 625d 83bf 49f7 50be
000001e0: 42ca 7cbd edbf 6c3f 1da8 88bf eeab cd3e
000001f0: bc59 f33e 6e3c 27be 4516 25bd 01d2 34bf
00000200: df5f a0bf 63c1 e83c 88fd 0dbf 1925 c73d
00000210: 674d fcbe 98b3 0c3d b442 7f3e c222 08c0
00000220: 18d2 b5be abae fabc 4cd1 823e 511f f53c
00000230: c516 8bbc 4525 0cbd 390d 3bbe 6c80 3b3f
00000240: 9236 60bd 8481 663e 3304 45bf 7ff4 58bd
00000250: 99a0 9bbd e959 273f aadf eabe d628 4d3e
00000260: 5460 3dbf 621c b0bf 91c2 2ec0 2f4c aa3d
00000270: d867 543c 43a1 3d3f 8d47 5fbf 5786 00be
00000280: 41c5 a7be fb38 b5be 2d4c 05c0 f51b ec3e
00000290: 0973 33bf 3cbc e5be 53cf 25bf febe 1cbe
000002a0: 13aa 143f 0d2a a1bf a693 a4bd 504d 1d3f
000002b0: 74e8 c6be 0baa 3ebd 6d3a 3ebf d59b 333f
000002c0: 7efe b73c 5ef3 843f bd6a 31bd d281 b13e
000002d0: 6965 dfbd 46b9 f3ba 2993 70be d4a6 ab3c
000002e0: a132 04bf 62dc 2fbf e69b 9abe 1c12 eabe
000002f0: 3516 56bf fb14 e1bc e1bf 853a c632 2fbf
00000300: 132e 45bd 0d7a c7be 6ce0 19bf f8db 3abf
00000310: 8c28 70bc 7f6d 9c3e b897 ff3e f418 563e
00000320: c8c2 1a3d f27d 0bbd 33b1 c53d 0822 373e
00000330: 6ca6 893d 7844 113f d8bc 8d3e 7d34 fd3e
00000340: 374a 7fbc 4d69 bd3e ee2a 0abe a3b6 b03c
00000350: 5c5d 13bf 4d98 a8bf 24c4 b2be 8eb7 b3bb
00000360: eac4 9dbe 8efc bebd 7e5f adbe 8fb1 083e
00000370: c440 083d 3c58 2e3d b660 c2be 3f36 1ebf
00000380: 832b 6fbc 7ab8 8dbf d6b0 a1be c704 263f
00000390: 0928 23be 7068 54bf 9bfb ad3d 1fb9 0cbe
000003a0: c9d7 36bf eeda 0340 0baf bbbc d276 843e
000003b0: 1d49 8cbd 9241 77bc 0a1f cb3e 9ccc 65bc
000003c0: 6d0f 293d e994 00c0 f369 563d bec2 4dbf
000003d0: ce10 01bf 9770 02c0 fcac 7d3e f176 7cbe
000003e0: 46f3 6cbe 6cd6 e4be 53e7 64bf ef8f 43bf
000003f0: 38b6 63be 7dd6 3f3c 7368 4c3f c1d2 9c3e

l2.bias f4 [256]
-0.26296994 -0.16586518 -0.049476717 -0.06485977 -0.30352914 -0.107434854 -0.20266494 -0.017186899
0.19352795 0.11215234 0.3055482 0.00095071126 0.11124445 -0.036311273 -0.5303501 -0.029404782
-0.020125477 -0.08096226 -0.03847879 -0.0009977032 0.06557763 0.33578703 -0.12793401 -0.30417207
-0.1699267 0.42896327 -0.051470567 0.46719056 0.023005454 0.025836576 -0.15040162 0.12672995
-0.032607343 -0.61923933 0.091188304 -0.032052558 0.35986754 0.012039623 -0.18012947 -0.08144504
0.1776764 0.50921184 -0.13560481 -0.2967432 0.3027565 -0.007951677 -0.0518068 -0.3950737
0.03344883 -0.025653534 -0.0019940822 0.008979993 -0.002059296 -0.0068558427 -0.16092505 -0.11352156
-0.24348253 0.0010849172 0.23552905 0.1643782 -0.048041534 -0.046073776 -0.028516846 -0.070291504
-0.011700074 -0.05390066 -0.008561776 -0.07696719 -0.25841317 -0.21482144 -0.052196532 -0.19826071
0.13433205 0.15838297 -0.016687969 -0.48551917 -0.24106884 -0.033077624 -0.082794785 -0.03837291
-0.05157079 0.039138906 -0.014640928 -0.04378262 -0.3003107 0.107234396 -0.03414217 -0.061094735
0.42188728 -0.013125169 -0.055198155 0.03275981 -0.026413962 -0.0041045425 0.090571366 -0.169645
-0.13317952 -0.16039343 -0.63247955 -0.22246727 -0.030504683 -0.071033664 -0.05180921 -0.37707415
0.32702103 -0.39229506 -0.12107526 -0.04852959 -0.0042884275 -0.47147468 -0.004328966 -0.051419407
-0.050765134 0.09974917 -0.0076724635 -0.15055029 -0.33160576 -0.0070569157 -0.62965 -0.056563307
-0.0426864 0.06940041 -0.02111975 0.22644873 0.29755697 -0.16145621 -0.023870595 0.53162205
-0.07922219 -0.0264575 0.36229247 -0.018382555 0.26086062 -0.2904251 0.059382536 0.012786031
-0.4433634 -0.0775142 0.5340223 0.0010918222 -0.16726786 -0.33636323 -0.064037494 0.044717412
-0.11675544 0.061844457 0.18095687 -0.04350784 0.05508186 0.10210391 0.009253422 -0.05553619
0.20935494 0.05393429 -0.45194283 -0.04933753 0.19223747 -0.080184326 -0.16263631 -0.054378983
0.21615967 -0.013877491 -0.035703786 -0.34165215 -0.025070645 -0.067796774 -0.15467015 -0.02663557
-0.23551853 -0.3133021 -0.07031505 0.010991769 -0.03150715 -0.32459855 -0.2881985 -0.029926667
0.65151143 0.047650844 0.27030376 -0.06827619 0.16125306 0.029161083 -0.08576781 -0.05406909
-0.1412409 -0.07676316 -0.0850309 0.21625718 -0.11452883 -0.18326181 -0.029658142 0.2728992
-0.027277008 -0.0075825234 -0.07417681 -0.043522526 -0.28388292 -0.17911735 -0.35805225 -0.23234232
-0.007709076 0.12341253 -0.11041766 0.016119927 -0.04333649 -0.0856985 -0.04682042 -0.047245137
-0.26822403 -0.056746885 0.0005783183 -0.00016702089 -0.15722646 -0.05392975 0.17399012 -0.4316393
0.11289244 0.08868513 -0.3136206 -0.22080097 -0.008047875 -0.0618271 -0.057324983 0.07643606
0.41062254 0.20838115 -0.055745788 0.079727285 -0.015329217 -0.08896745 -0.59392405 -0.24655321
0.23787378 -0.13590169 -0.08031885 0.023089174 -0.04987523 -0.04703213 -0.30670387 -0.042122204
-0.04733492 0.026398726 -0.052043732 0.16328487 -0.036268264 -0.004572299 -0.061026003 -0.20276727
0.06914949 0.31569785 -0.23305403 -0.03468743 0.4077468 -0.04838539 -0.085169464 -0.29128376
00000000: ffa3 86be 90d8 29be 19a8 4abd 33d5 84bd
00000010: 2c68 9bbe ce06 dcbd 6687 4fbe 8acb 8cbc
00000020: 312c 463e 20b0 e53d d070 9c3e 2739 793a
00000030: 21d4 e33d 21bb 14bd 06c5 07bf 4ce2 f0bc
00000040: 2fde a4bc 8bcf a5bd f09b 1dbd 5dc5 82ba
00000050: 914d 863d 47ec ab3e 2201 03be 71bc 9bbe
00000060: 4401 2ebe 13a1 db3e cdd2 52bd 9a33 ef3e
00000070: ef75 bc3c 3aa7 d33c e202 1abe 7fc5 013e
00000080: 478f 05bd 7886 1ebf efc0 ba3d 8b49 03bd
00000090: 8f40 b83e d741 453c dc73 38be a8cc a6bd
000000a0: cdf0 353e b55b 023f fddb 0abe baee 97be
000000b0: e602 9b3e c047 02bc 5e33 54bd 1a47 cabe
000000c0: a401 093d 5c27 d2bc 26af 02bb d220 133c
000000d0: 41f5 06bb faa6 e0bb 89c9 24be fe7d e8bd
000000e0: 7c53 79be c833 8e3a 872e 713e c252 283e
000000f0: 33c7 44bd dbb7 3cbd 299c e9bc fef4 8fbd
00000100: abb1 3fbc f0c6 5cbd b146 0cbc f9a0 9dbd
00000110: bb4e 84be 27fa 5bbe 08cc 55bd db04 4bbe
00000120: 578e 093e 252f 223e 35b5 88bc f895 f8be
00000130: c0da 76be 677c 07bd 5090 a9bd ea2c 1dbd
00000140: e53b 53bd 1e50 203d 81e0 6fbc 6855 33bd
00000150: 53c2 99be b59d db3d a9d8 0bbd 793e 7abd
00000160: 9c01 d83e f30a 57bc 7617 62bd 272f 063d
00000170: 1862 d8bc 667f 86bb 7b7d b93d 6bb7 2dbe
00000180: 3660 08be 2d3e 24be 2eea 21bf 76ce 63be
00000190: f5e4 f9bc 197a 91bd e535 54bd dd0f c1be
000001a0: 4d6f a73e e6da c8be 4ef6 f7bd f7c6 46bd
000001b0: f085 8cbb 2165 f1be 00da 8dbb 289d 52bd
000001c0: 1aef 4fbd 4b49 cc3d 4a69 fbbb db29 1abe
000001d0: 3bc8 a9be b33d e7bb be30 21bf edae 67bd
000001e0: efd7 2ebd cd21 8e3d 5303 adbc 2de2 673e
000001f0: 6359 983e c754 25be 448c c3bc 6218 083f
00000200: 3e3f a2bd 66bd d8bc 667e b93e 0397 96bc
00000210: 868f 853e 99b2 94be 1a3b 733d 807c 513c
00000220: 8700 e3be c4bf 9ebd afb5 083f 791b 8f3a
00000230: 4448 2bbe cd37 acbe 1726 83bd 9b29 373d
00000240: 7a1d efbd 9d50 7d3d c24c 393e 4735 32bd
00000250: 849d 613d db1b d13d aa9b 173c ea79 63bd
00000260: 2461 563e 34ea 5c3d 0d65 e7be 2616 4abd
00000270: e6d9 443e ae37 a4bd 228a 26be 7fbc 5ebd
00000280: f658 5d3e 6a5e 63bc 223e 12bd 08ed aebe
00000290: f460 cdbc 09d9 8abd da61 1ebe d732 dabc
000002a0: c52b 71be 2269 a0be 5601 90bd d216 343c
000002b0: a40d 01bd c831 a6be c18e 93be c528 f5bc
000002c0: 74c9 263f 882d 433d 4165 8a3e 63d4 8bbd
000002d0: 861f 253e 39e3 ee3c 09a7 afbd 8d77 5dbd
000002e0: 74a1 10be 0136 9dbd ae24 aebd 8672 5d3e
000002f0: 178e eabd fca8 3bbe a2f5 f2bc 72b9 8b3e
00000300: 0874 dfbc d176 f8bb 03ea 97bd ad44 32bd
00000310: 1a59 91be 8a6a 37be a052 b7be 25eb 6dbe
00000320: 6b9c fcbb b5bf fc3d a722 e2bd f00d 843c
00000330: 9a81 31bd b282 afbd c5c6 3fbd 1e84 41bd
00000340: a954 89be 6c6f 68bd 499a 173a 5422 2fb9
00000350: f9ff 20be 71e5 5cbd 772a 323e d4ff dcbe
00000360: 2734 e73d 8da0 b53d e192 a0be a619 62be
00000370: 3cdb 03bc 6a3e 7dbd 9acd 6abd 828a 9c3d
00000380: 1e3d d23e de61 553e b255 64bd 0f48 a33d
00000390: 6527 7bbc 9134 b6bd 680b 18bf 7278 7cbe
000003a0: 2f95 733e d029 0bbe 367e a4bd 8225 bd3c
000003b0: f849 4cbd c3a4 40bd 4a08 9dbe 5588 2cbd
000003c0: 43e2 41bd 2442 d83c cf2b 55bd 2634 273e
000003d0: 088e 14bd 39d3 95bb 67f6 79bd 39a2 4fbe
000003e0: 3f9e 8d3d 26a3 a13e b7a5 6ebe 6814 0ebd
000003f0: 30c4 d03e c22f 46bd 546d aebd 2523 95be

l3.weight f4 [3, 256]
-0.97736704 2.8447297 -0.0020446063 -0.029770082 0.1964338 1.5755303 -3.574777 2.3217409
-0.8901487 -3.4590158 1.1518204 -0.022643639 -0.7913542 0.084116794 -0.5438685 -0.9311675
-0.03544784 0.063411735 1.5359628 -0.105506316 -0.93639517 2.2112963 -0.73040825 0.363408
0.8425631 1.9679562 0.026018629 -1.2375062 -0.18703008 0.49087298 -0.7430432 2.613793
0.043087926 -0.36287498 -0.45606053 -0.006529003 0.7919878 -0.41500065 -1.5730126 0.17129803
-2.993792 -1.0581814 0.0110863885 -0.98255944 -0.5025076 1.2017317 -0.028932156 2.6843512
0.96714556 1.5596015 0.015535753 0.01885052 -0.15200987 1.8308761 0.4099157 1.6380997
-0.061969824 0.018476916 1.9249262 -2.2810986 -0.021939032 0.032687657 -1.2505683 -0.011261128
-0.037603274 0.041411176 -0.0018833189 -0.019359153 -2.155201 -1.0618991 -0.033921167 3.1234932
1.4863253 -2.4956524 0.04143894 1.4283962 -1.0579935 0.10118505 0.27267373 0.01745289
-0.003293933 -2.7451243 0.033228055 -0.010322348 1.5940713 0.49594992 -0.029593593 1.7835306
1.0100956 -0.03456167 -0.4086756 0.6685919 0.04719102 0.02512796 -0.13257359 1.6629486
-0.6905148 0.7709413 -0.9681311 0.61271733 0.012737642 -0.03955394 0.0025468143 -1.2517825
0.16979739 -0.9128035 0.856152 -0.002593727 0.029545309 -0.5155609 0.02021346 0.010868171
0.021318821 -0.19702744 -0.04495131 0.3440148 -1.5543332 -0.014263849 0.5262799 -1.5401168
-0.002201814 0.9312171 -2.6147735 0.35729727 -0.97127104 -2.8553274 -0.28614834 -2.7720718
-0.77126133 0.2651934 -0.55446285 -0.017818026 -0.7464146 0.7625096 -0.11574816 -0.019519664
0.4112658 1.3055 0.94977695 0.00039755134 1.4153734 0.3843547 -0.027003221 0.88300663
-0.5174167 -2.0595407 2.1053548 -0.0017565945 2.298747 1.2299205 0.01602679 -0.29486033
1.4970621 -0.23695844 -0.8601939 -0.022041915 -1.4816444 -0.06119326 1.5574601 0.023044558
-2.702851 0.61230046 0.3975207 1.4029183 0.033552937 0.08517919 1.5250169 0.015799345
-1.1630064 -0.7450523 1.3593026 2.3263938 -0.025998836 -1.2636468 1.0524782 -3.5181825
-2.0906458 -4.880094 0.75979257 -0.05396694 2.0059981 1.0367135 -0.9730211 -0.029417912
-0.7859723 0.029757913 -0.6026824 -0.5196201 0.10920576 2.7226355 -1.3383195 -0.5023117
0.008671244 2.2827692 0.009755646 -0.024372967 -0.7907165 0.14159904 -0.7267886 -1.172141
0.020580208 0.5342313 0.9064825 1.8139648 0.1314371 -0.02703233 0.18889655 -0.04032023
0.74024487 -0.03334279 -0.019186806 -0.03911214 0.97710496 -0.050149176 2.0303879 0.4018592
-0.8937346 1.5373828 -2.9843557 -0.16726431 0.8450501 -1.3713514 -0.017539183 -1.4069434
-1.4680421 1.1273646 -0.021849131 2.4518068 0.877377 1.7212387 -0.1811472 -0.36979166
1.1163411 1.7666146 -0.36596975 -0.82960624 0.0036488306 0.19999307 -0.3523617 -1.3237199
-1.5279099 0.28960267 0.012024863 1.8570107 0.015907668 0.06949374 -0.03898712 0.44919822
1.4608086 -0.7009613 0.39191714 0.0663913 -1.6412224 0.0006149449 -0.3632746 -1.2758446
00000000: ba34 7abf 0d10 3640 cdfe 05bb 63e0 f3bc
00000010: f125 493e faaa c93f 25c9 64c0 6797 1440
00000020: c9e0 63bf 8460 5dc0 da6e 933f 277f b9bc
00000030: 3096 4abf 6d45 ac3d f73a 0bbf fe60 6ebf
00000040: c131 11bd 03de 813d 6e9a c43f b213 d8bd
00000050: 98b7 6fbf e185 0d40 09fc 3abf 9d10 ba3e
00000060: 37b2 573f fde5 fb3f 0525 d53c 9a66 9ebf
00000070: d084 3fbe b453 fb3e 1438 3ebf 6248 2740
00000080: f77c 303d c0ca b9be c480 e9be 3ff1 d5bb
00000090: b6bf 4a3f f77a d4be 7a58 c9bf c068 2f3e
000000a0: 4a9a 3fc0 7d72 87bf afa3 353c 0489 7bbf
000000b0: 57a4 00bf 58d2 993f 2103 edbc 69cc 2b40
000000c0: da96 773f 06a1 c73f ac89 7e3c 686c 9a3c
000000d0: 7aa8 1bbe 265a ea3f 78e0 d13e 40ad d13f
000000e0: 12d4 7dbd e75c 973c fb63 f63f 85fd 11c0
000000f0: 7cb9 b3bc 7ee3 053d 9f12 a0bf 9880 38bc
00000100: e405 1abd c49e 293d b2d9 f6ba 1697 9ebc
00000110: d0ee 09c0 4fec 87bf ecf0 0abd 50e7 4740
00000120: e83f be3f c5b8 1fc0 e1bb 293d b0d5 b63f
00000130: 556c 87bf 1c3a cf3d e49b 8b3e 5df9 8e3c
00000140: 07df 57bb 1eb0 2fc0 241a 083d 111f 29bc
00000150: 870a cc3f 26ed fd3e 436e f2bc bb4a e43f
00000160: d04a 813f 8a90 0dbd ee3d d1be d728 2b3f
00000170: 5f4b 413d 27d9 cd3c 5fc1 07be 80db d43f
00000180: 94c5 30bf 695c 453f 71d7 77bf 0bdb 1c3f
00000190: 8bb1 503c 5003 22bd 74e8 263b 693a a0bf
000001a0: 5edf 2d3e 7dad 69bf c72c 5b3f 85fb 29bb
000001b0: 0109 f23c cdfb 03bf b396 a53c 6a10 323c
000001c0: cfa4 ae3c 90c1 49be dd1e 38bd b522 b03e
000001d0: 64f4 c6bf ebb2 69bc 48ba 063f 8c22 c5bf
000001e0: 4f4c 10bb 3e64 6e3f 7358 27c0 abef b63e
000001f0: 38a5 78bf afbd 36c0 0982 92be a069 31c0
00000200: 6271 45bf 6ec7 873e 47f1 0dbf 1cf7 91bc
00000210: 0715 3fbf d433 433f 5f0d edbd b4e7 9fbc
00000220: 6e91 d23e a01a a73f 9524 733f 706e d039
00000230: f52a b53f 24ca c43e dc35 ddbc b90c 623f
00000240: 6c75 04bf 84cf 03c0 22be 0640 883d e6ba
00000250: ac1e 1340 096e 9d3f 9d4a 833c eff7 96be
00000260: bb9f bf3f 3ca5 72be ab35 5cbf 3f91 b4bc
00000270: 86a6 bdbf c9a5 7abd da5a c73f f1c7 bc3c
00000280: 83fb 2cc0 b9bf 1c3f d587 cb3e d492 b33f
00000290: ce6e 093d 6d72 ae3d c133 c33f a16d 813c
000002a0: 65dd 94bf bfbb 3ebf a1fd ad3f a3e3 1440
000002b0: 83fb d4bc 2ebf a1bf 9bb7 863f e729 61c0
000002c0: 24cd 05c0 bb29 9cc0 c481 423f 700c 5dbd
000002d0: 4662 0040 07b3 843f e917 79bf d5fd f0bc
000002e0: 7b35 49bf dec6 f33c 6549 1abf d305 05bf
000002f0: 45a7 df3d a93f 2e40 0e4e abbf 8097 00bf
00000300: d511 0e3c e418 1240 25d6 1f3c d1a9 c7bc
00000310: 666c 4abf 57ff 103e d10e 3abf b708 96bf
00000320: d397 a83c 62c3 083f 3d0f 683f 0030 e83f
00000330: 7297 063e e872 ddbc 196e 413e d326 25bd
00000340: b080 3d3f 7392 08bd a62d 9dbc 0d34 20bd
00000350: 8d23 7a3f 3969 4dbd e0f1 0140 7dc0 cd3e
00000360: cacb 64bf f6c8 c43f afff 3ec0 5647 2bbe
00000370: 3455 583f 7188 afbf 55ae 8fbc b916 b4bf
00000380: cee8 bbbf 7c4d 903f f3fc b2bc 67ea 1c40
00000390: c79b 603f 8d51 dc3f a77e 39be 5555 bdbe
000003a0: 44e4 8e3f 6d20 e23f 6360 bbbe 1361 54bf
000003b0: 3821 6f3b fcca 4c3e c168 b4be a76f a9bf
000003c0: 8d92 c3bf cd46 943e ee03 453c 87b2 ed3f
000003d0: cc50 823c bc52 8e3d f5b0 1fbd 4ffd e53e
000003e0: c7fb ba3f 3372 33bf 5da9 c83e 29f8 873d
000003f0: 9313 d2bf 4134 213a 21ff b9be e04e a3bf

l3.bias f4 [3]
0.16398327 0.056642283 -0.20107795
00000000: 3beb 273e bd01 683d 61e7 4dbe
