saves/Dobot-v3/pbrs/seed_0/model/critic.pth (torch, 610661 bytes, 5 tensors)

l1.weight f4 [512, 39]
0.054175053 -0.007146433 -0.27391422 -0.040526535 0.08691181 0.08082294 0.14463511 0.051768046
-0.17151824 0.07465363 0.05829747 -0.00082139333 -0.13881692 0.15938704 0.25208575 -0.08104916
0.21956517 0.2115231 0.06729974 0.3010306 0.11431414 -0.13998951 0.11596499 0.30846193
-0.34076804 0.10901924 0.09666042 -0.10146875 0.13828418 0.15563954 -0.023902845 0.19758041
-0.10301704 0.11484916 -0.063192256 0.11339849 -0.035965502 0.018476315 -0.066888675 0.063852414
-0.25727305 -0.1340233 -0.012195633 -0.16500303 -0.07122599 -0.16113092 -0.18567735 -0.21888876
0.090997264 0.10893942 -0.06527058 -0.15678741 0.25317317 0.27250293 -0.042051278 0.22640868
0.13856536 0.08366644 0.1138548 0.058542605 -0.112144575 0.15705016 0.15094766 -0.031009935
0.02813128 0.10579967 -0.1584223 -0.053519186 0.09479576 -0.04420733 0.18506472 0.17074363
-0.18293881 0.10497466 -0.09318201 -0.17461151 -0.019105557 -0.022315785 -0.09435922 -0.02802454
-0.16763063 0.074011825 -0.1104724 -0.07576483 -0.102516934 -0.10257422 0.07687538 -0.09419668
0.0086932 -0.045944043 0.07062263 0.15162413 -0.09810084 -0.016069945 0.049372066 -0.041077383
-0.13830361 -0.033311956 0.10164122 0.096436925 -0.07397658 0.0005498791 -0.17645982 -0.04773768
0.08698152 0.052165184 0.1426943 0.116156735 0.08237191 -0.0375927 -0.059545625 -0.05198031
0.14359424 -0.017080313 0.05624475 0.060849246 -0.029774534 -0.018181331 -0.18821101 -0.1841082
0.11431885 0.03381767 0.119007505 -0.04769407 -0.0076702116 -0.2697132 -0.0094686 -0.0106790075
-0.12463388 -0.29479083 0.05248354 0.19232872 -0.038313247 0.33051276 0.12163123 0.01640168
0.33806545 0.26450047 -0.057363983 0.24107458 0.040015087 -0.17345515 0.070524424 0.18803251
-0.013839859 0.13590695 0.15882139 0.013945192 0.11452363 0.10690779 0.00227428 -0.015153127
0.25277472 -0.022167567 0.04862188 -0.020753456 -0.12905806 -0.2828412 -0.24734622 -0.10501343
-0.20295353 0.19002901 -0.07234999 0.20582624 -0.5026976 -0.10965951 0.366463 -2.2393095
-0.17072998 0.419308 0.309564 0.04175551 0.11141151 0.28889456 0.1488251 0.22342941
0.327616 0.08839881 0.5899065 0.5548109 -0.18142176 0.08412743 0.52867734 -0.0032869582
-0.18959229 0.49498132 -0.23212898 -0.15946965 0.74247134 0.24006554 -0.057302482 0.7962495
0.32480252 0.11107433 -0.5362696 -0.15260707 -0.1613957 -0.3510099 -0.058994602 0.031139238
0.037122134 -0.079386555 -0.0033873327 -0.1405064 -0.040229224 0.08508541 -0.21602295 -0.1241525
0.11325085 0.10008374 0.11966656 0.096892364 0.2251689 0.05795574 0.14713718 0.16452767
-0.18431808 0.2597964 0.19095494 -0.26393214 0.027963478 0.19796379 0.02763191 0.15482014
0.07082962 -0.11784159 -0.008209833 0.3481667 0.13602912 0.24201041 -0.09294635 0.009660282
0.18000047 -0.14830089 -0.10382666 -0.008687517 -0.10370411 -0.07906256 -0.06302661 -0.17490122
-0.09756614 -0.12888947 -0.18257122 -0.012569192 0.0357812 0.09393431 -0.21276177 0.049057532
0.16604789 -0.09918424 0.15836579 0.06502055 0.041209076 0.18129328 0.13671768 -0.12399406
00000000: a9e6 5d3d a02c eabb 7c3e 8cbe 27ff 25bd
00000010: d2fe b13d 7f86 a53d 3a1b 143e bb0a 543d
00000020: 7aa2 2fbe 01e4 983d 54c9 6e3d c652 57ba
00000030: 0626 0ebe 5b36 233e 6211 813e 1afd a5bd
00000040: b1d5 603e 8399 583e 72d4 893d af20 9a3e
00000050: 881d ea3d 6959 0fbe 0d7f ed3d b9ee 9d3e
00000060: 2679 aebe 7b45 df3d e6f5 c53d d9ce cfbd
00000070: 5e9a 0d3e f95f 1f3e e6cf c3bc 8552 4a3e
00000080: 99fa d2bd 0936 eb3d f16a 81bd 783d e83d
00000090: 9050 13bd a45b 973c eefc 88bd 0ec5 823d
000000a0: 4bb9 83be 673d 09be 31d0 47bc 8ef6 28be
000000b0: efde 91bd 81ff 24be 3422 3ebe 6024 60be
000000c0: c65c ba3d a11b df3d 95ac 85bd e18c 20be
000000d0: ea9f 813e 8185 8b3e f63d 2cbd add7 673e
000000e0: 14e4 0d3e 4f59 ab3d b52c e93d 5fca 6f3d
000000f0: 0eac e5bd c2d1 203e 0692 1a3e 8c08 febc
00000100: 9273 e63c 7fad d83d 7539 22be ef36 5bbd
00000110: 4824 c23d bf12 35bd 9b81 3d3e 6bd7 2e3e
00000120: 5054 3bbe f4fc d63d 36d6 bebd 5ccd 32be
00000130: 4283 9cbc 98cf b6bc 683f c1bd b893 e5bc
00000140: 5da7 2bbe 8393 973d 5b3f e2bd 972a 9bbd
00000150: 66f4 d1bd 6f12 d2bd d770 9d3d 30ea c0bd
00000160: ec6d 0e3c d22f 3cbd 99a2 903d 5b43 1b3e
00000170: 18e9 c8bd 1ea5 83bc 5d3a 4a3d c240 28bd
00000180: 769f 0dbe 1e72 08bd 4629 d03d b980 c53d
00000190: 0881 97bd c325 103a e2b1 34be 9688 43bd
000001a0: 5e23 b23d 29ab 553d 741e 123e 95e3 ed3d
000001b0: 9bb2 a83d cefa 19bd 1de6 73bd 4ee9 54bd
000001c0: 5e0a 133e 03ec 8bbc e560 663d 0f3d 793d
000001d0: b9e9 f3bc 04f1 94bc 63ba 40be dc86 3cbe
000001e0: 0020 ea3d 6684 0a3d 35ba f33d db5a 43bd
000001f0: 6656 fbbb d917 8abe 3022 1bbc 01f7 2ebc
00000200: 0c40 ffbd d3ee 96be fbf8 563d d2f1 443e
00000210: 5aee 1cbd f838 a93e cb19 f93d d15c 863c
00000220: ea16 ad3e 9b6c 873e 7ff6 6abd 41dc 763e
00000230: dce6 233d 3a9e 31be 1c6f 903d 988b 403e
00000240: 93c0 62bc 312b 0b3e 13a2 223e 607a 643c
00000250: 5d8b ea3d 79f2 da3d 160c 153b d244 78bc
00000260: b06b 813e c298 b5bc bd27 473d 2703 aabc
00000270: cc27 04be 90d0 90be 5448 7dbe 4811 d7bd
00000280: 0dd3 4fbe f796 423e 3b2c 94bd 1dc4 523e
00000290: cab0 00bf 2a95 e0bd 0aa1 bb3e d950 0fc0
000002a0: d7d3 2ebe 8aaf d63e 2c7f 9e3e d307 2b3d
000002b0: b82b e43d fde9 933e 9b65 183e aeca 643e
000002c0: 49bd a73e 6f0a b53d 1d04 173f 1608 0e3f
000002d0: a0c6 39be 014b ac3d 6657 073f 026a 57bb
000002e0: 7b24 42be 316e fd3e 38b3 6dbe 034c 23be
000002f0: 9a12 3e3f bed3 753e 02b6 6abd 02d7 4b3f
00000300: 844c a63e f07a e33d f748 09bf 0745 1cbe
00000310: ea44 25be 92b7 b3be 53a4 71bd b717 ff3c
00000320: 610d 183d 6b95 a2bd 03fe 5dbb e9e0 0fbe
00000330: 66c7 24bd 4241 ae3d 1f35 5dbe aa43 febd
00000340: 10f0 e73d b4f8 cc3d be13 f53d 816f c63d
00000350: ad92 663e ff62 6d3d 21ab 163e f179 283e
00000360: e1bd 3cbe 0904 853e b189 433e 1d22 87be
00000370: aa13 e53c 05b7 4a3e 515c e23c 2c89 1e3e
00000380: 1f0f 913d ee56 f1bd 8982 06bc e842 b23e
00000390: 384b 0b3e 94d1 773e a85a bebd 2946 1e3c
000003a0: 0b52 383e 30dc 17be 12a3 d4bd 1656 0ebc
000003b0: d262 d4bd 8deb a1bd 1814 81bd 4e19 33be
000003c0: c2d0 c7bd 9afb 03be f3f3 3abe 03ef 4dbc
000003d0: 4f8f 123d a260 c03d 39de 59be 8df0 483d
000003e0: 7508 2a3e 1b21 cbbd a42a 223e 7e29 853d
000003f0: d9ca 283d f2a4 393e b8ff 0b3e 99f0 fdbd

l1.bias f4 [512]
-0.24280067 -0.2762585 -0.14955182 -0.11350242 -0.44266036 -0.04295642 -0.14697954 -0.46130574
-0.009362547 -0.28738838 -0.1733927 -0.032123096 -0.24501507 -1.1553335 -0.49671164 -0.47018334
-0.3182194 -0.61038584 0.45688304 -0.54433525 -0.30551064 -0.22523029 -0.20309956 -0.37445349
-0.14792189 -0.22321065 -0.4292768 -0.19091263 -0.17627907 -0.13908297 0.4033048 -0.0630479
-0.5948705 0.6301073 0.3391464 0.33728367 -0.47061104 -0.23385365 -0.15425925 -0.08241128
-0.025027636 -0.10180788 -0.22375293 -0.11008805 -0.86122024 -0.25974414 -0.15045595 0.013939412
-0.038010202 -0.28867614 -0.248799 -0.77165115 -0.21831791 -0.206953 -0.19595285 -0.34114
0.10253483 -0.2665731 -0.1961133 -0.2901905 -0.045135252 -0.38611248 -0.6094953 0.076692715
-0.0766389 -0.02634203 -0.75874424 0.40970576 -0.08049365 -0.7943631 -0.8131076 -0.05489082
-0.14233528 -0.17443702 -0.460255 -0.040927235 -0.11717876 -0.5395062 -0.30744502 -1.0474331
-0.23694685 -0.16916089 -0.15744257 -0.2031279 -0.15745337 -0.19242543 -0.12727341 -0.61249894
-0.4414324 -0.20941286 -0.10114217 -0.7534087 -0.46968982 -0.16226101 -0.47495547 -1.0708196
-0.024141062 -0.061064433 -0.37998345 0.087155215 -0.0136671215 -0.1992297 -0.0033005683 -0.43810263
-0.059733212 -0.37400684 -0.13863884 -0.20594242 0.22749312 -0.0679808 0.040712606 -0.030194718
-0.4996344 -0.16189268 -0.6210072 -0.22438267 -0.21782464 -0.22931384 -0.17803617 -0.07109966
-0.6693846 -0.0785914 -0.08103379 -1.2169814 -0.12040972 -0.48213673 -0.6898949 -0.5010193
-0.13051334 -0.097659856 -0.565224 -0.21542571 -0.701763 -0.13850021 -0.19035602 -0.36391145
-0.0045921397 -0.00057497167 -0.292973 -0.67842215 -0.18331 -0.26369166 -0.020220391 -0.31400073
-0.49200574 -0.5467503 -0.28273088 -0.03364783 0.013592962 -0.22967404 -0.8779976 -0.2769023
-0.37777537 -0.23418252 -0.043247435 -0.043749478 -0.18921724 -0.5394769 -0.08925204 -0.3254041
-0.6336288 0.10899582 -0.12068711 -0.010969586 -0.09354213 -0.13717419 0.026437813 -0.52971536
-0.42530042 -0.32541996 0.06574827 -0.1766845 0.37299997 -0.04313175 -0.2747215 -1.1644893
-0.21919085 -0.026878703 -0.30533054 -0.624321 -0.11482947 -0.13020076 -0.30306175 0.26657143
-0.17617045 -0.40530503 -0.20461822 -0.14833616 -0.011886377 -0.41138372 -0.11131874 0.5287021
-0.48933095 -0.29834303 -0.1061601 -0.7365236 -0.48424795 -0.40406674 -0.59102756 -0.20815761
-0.20715207 -0.18431829 -0.30395153 -0.2976763 -0.016677476 -0.21049786 -0.23416594 -0.15446663
-0.17903087 -0.15803666 -0.22540085 -0.2761644 -0.013426168 -0.7890519 -0.16538772 -0.06627611
-0.31053737 -1.0444928 -0.24295862 0.025279304 -0.06082921 -0.5014475 -0.49755323 -0.16268589
-0.16713709 -0.024372524 -0.17198092 -0.1663871 -0.395177 -0.180568 -0.88648736 -0.03214891
-0.1410717 -0.13130976 0.042689297 -0.7058442 -0.23178254 -0.37262157 -0.24918105 -0.33986935
0.07397279 -1.1765532 -0.44997936 -0.3650308 -0.23014021 -0.38082144 -0.74835545 -0.27171633
-0.2130343 -0.15805475 -0.9498343 -1.1037543 -0.62604713 -0.091107205 -0.106136695 -0.26631978
00000000: bda0 78be c171 8dbe 1d24 19be f573 e8bd
00000010: 61a4 e2be 12f3 2fbd ce81 16be 4430 ecbe
00000020: 5e65 19bc 9224 93be db8d 31be 8293 03bd
00000030: 3be5 7abe f8e1 93bf fd50 febe dfbb f0be
00000040: a7ed a2be 3f42 1cbf 93ec e93e 8e59 0bbf
00000050: e46b 9cbe c5a2 66be 55f9 4fbe 5eb8 bfbe
00000060: d678 17be 5591 64be 2bca dbbe 9a7e 43be
00000070: 8082 34be c46b 0ebe f77d ce3e 421f 81bd
00000080: 6f49 18bf b64e 213f 99a4 ad3e 72b0 ac3e
00000090: eef3 f0be 5577 6fbe 23f6 1dbe 3fc7 a8bd
000000a0: c206 cdbc a680 d0bd 7d1f 65be d875 e1bd
000000b0: ee78 5cbf 2ffd 84be 2011 1abe 2262 643c
000000c0: 96b0 1bbd 5ccd 93be 2ac5 7ebe ee8a 45bf
000000d0: bb8e 5fbe 7deb 53be dda7 48be e7a9 aebe
000000e0: c8fd d13d 457c 88be edd1 48be d993 94be
000000f0: bedf 38bd 89b0 c5be e207 1cbf 1211 9d3d
00000100: dbf4 9cbd 3ecb d7bc 103d 42bf f4c4 d13e
00000110: dbd9 a4bd 615b 4bbf d227 50bf 32d5 60bd
00000120: 57c0 11be 9e9f 32be 8ba6 ebbe 51a3 27bd
00000130: 6bfb efbd 141d 0abf 6f69 9dbe 4a12 86bf
00000140: 32a2 72be 8338 2dbe a038 21be c300 50be
00000150: 753b 21be 2c0b 45be f653 02be bbcc 1cbf
00000160: 6d03 e2be 5370 56be a023 cfbd 64df 40bf
00000170: 2f7b f0be c027 26be 5d2d f3be 9e10 89bf
00000180: 7ac3 c5bc b31e 7abd 318d c2be 6f7e b23d
00000190: 10ec 5fbc df02 4cbe 594e 58bb fd4e e0be
000001a0: d0aa 74bd d37d bfbe 57f7 0dbe 92e2 52be
000001b0: f5f3 683e 8539 8bbd 43c2 263d ea5a f7bc
000001c0: 14d0 ffbe 32c7 25be 54fa 1ebf 92c4 65be
000001d0: 6c0d 5fbe 3fd1 6abe 1d4f 36be b39c 91bd
000001e0: ca5c 2bbf 87f4 a0bd 0bf5 a5bd 0cc6 9bbf
000001f0: 5f99 f6bd a0da f6be f49c 30bf cd42 00bf
00000200: 4aa5 05be e401 c8bd 85b2 10bf 8f98 5cbe
00000210: bda6 33bf 00d3 0dbe b0ec 42be 9a52 babe
00000220: a979 96bb b2b9 16ba 8f00 96be 13ad 2dbf
00000230: 9eb5 3bbe 9802 87be 3ca5 a5bc b4c4 a0be
00000240: 2de8 fbbe d4f7 0bbf 1ac2 90be 4fd2 09bd
00000250: 04b5 5e3c ac2f 6bbe 73c4 60bf 23c6 8dbe
00000260: c66b c1be 8bcd 6fbe 3924 31bd a732 33bd
00000270: 2ac2 41be 281b 0abf c6c9 b6bd 5e9b a6be
00000280: 7f35 22bf 3339 df3d ce2a f7bd c7b9 33bc
00000290: 0493 bfbd 6477 0cbe 1d94 d83c 6d9b 07bf
000002a0: fac0 d9be 729d a6be 07a7 863d c8ec 34be
000002b0: daf9 be3e ebaa 30bd 4ca8 8cbe fc0d 95bf
000002c0: 9173 60be ba30 dcbc 4954 9cbe 80d3 1fbf
000002d0: b72b ebbd 5953 05be e92a 9bbe 0d7c 883e
000002e0: 0766 34be 2484 cfbe 7087 51be 6fe5 17be
000002f0: 14bf 42bc e3a0 d2be 14fb e3bd 0559 073f
00000300: 9689 fabe 6bc0 98be 776a d9bd d08c 3cbf
00000310: 59ef f7be d6e1 cebe 954d 17bf 4527 55be
00000320: ac1f 54be efbd 3cbe 899f 9bbe 0769 98be
00000330: 349f 88bc c08c 57be 32c9 6fbe 802c 1ebe
00000340: de53 37be 5dd4 21be 7bcf 66be 6c65 8dbe
00000350: 6ef9 5bbc 4eff 49bf 665b 29be c5bb 87bd
00000360: c1fe 9ebe f1b1 85bf 25ca 78be 8b16 cf3c
00000370: 0d28 79bd dd5e 00bf 4cbf febe 2197 26be
00000380: fc25 2bbe e3a8 c7bc c41b 30be 6161 2abe
00000390: a454 cabe d1e6 38be d6f0 62bf 93ae 03bd
000003a0: 1a75 10be 1176 06be f9da 2e3d 35b2 34bf
000003b0: 6758 6dbe 41c8 bebe 5129 7fbe 5b03 aebe
000003c0: 0c7f 973d 4c99 96bf b263 e6be 51e5 babe
000003d0: e0a9 6bbe 07fb c2be 3994 3fbf 671e 8bbe
000003e0: aa25 5abe 1bd9 21be 5728 73bf d247 8dbf
000003f0: a044 20bf 6a96 babd 325e d9bd 115b 88be

l2.weight f4 [256, 512]
-0.033850167 0.030680168 -0.0054462524 -0.03459084 0.010221728 -0.0009962834 0.043312036 -0.014114679
0.022648595 -0.040907636 0.02224455 0.007643265 -0.04472883 -0.032046854 -0.04604075 -0.019813066
0.03307117 -0.0062316675 -0.02030425 -0.054027278 -0.015147653 -0.009850584 -0.017109323 0.018530836
-0.040534455 0.030525323 0.0156451 0.034046993 0.017723685 -0.046557754 -0.065539055 0.0086634075
-0.0037132462 0.006422432 0.007055408 0.0043310444 -0.03465451 -0.02330178 0.010550235 -0.04366401
0.023161411 0.014848679 -0.018272217 0.00528486 -0.08137735 -0.012770658 -0.024061378 -0.02785108
-0.006549272 0.03128169 -0.04597918 0.034671362 -0.030452833 0.011468838 -0.022568272 -0.048543803
0.011591466 -0.017128326 -0.041961387 -0.020976612 0.024680495 -0.00037993945 0.021780781 0.020143747
-0.009048126 -0.03906017 -0.04031602 -0.007472237 -0.0015831237 0.007065864 -0.03872745 0.03500428
0.0012660703 0.010692485 -0.032439172 -0.020642055 -6.5090535e-05 -0.017434876 -0.0016927194 -0.006393155
-0.034125384 0.012552108 -0.010177837 -0.016813446 0.01160749 0.026092434 -0.038108554 0.0028763206
-0.04123847 -0.019708214 -0.020275708 -0.030676117 0.018102642 0.020170448 0.0038436803 0.03670977
0.035202827 -0.005520436 0.027474629 0.0008082629 -0.049916133 -0.041031003 -0.015882514 0.008794816
-0.016966684 0.027947025 -0.014290157 -0.026006646 -0.013639223 0.02854007 -0.039944395 0.011341026
0.007018579 0.006833641 -0.027082877 -0.037927903 -0.010150179 -0.024996936 -0.038660534 -0.05632434
0.020791134 -0.017167402 0.032114103 -0.016979257 0.02855125 -0.056717332 -0.035082947 -0.018672599
-0.04185585 -0.0069598327 -0.014534955 -0.026261115 -0.035488117 0.02992118 0.03600798 -0.043172635
-0.0021330584 -0.010880101 -0.027977651 0.033339277 -0.002826768 0.0021898723 0.036239617 -0.0032539968
-0.04725996 0.027950626 -0.024020026 0.0032791507 -0.02750173 -0.037026774 -0.04486841 -0.0016993129
-0.04304773 -0.024702195 -0.016307345 0.011631617 -0.0043112035 0.02381107 -0.033333223 -0.013967606
0.0078116287 0.01460915 -0.015463953 0.01576365 -0.022931684 -0.04049896 0.03475972 -0.041577633
0.015851222 0.0014576893 -0.0015797798 0.031126779 -0.051406965 0.013994002 0.037762284 -0.019191045
-0.011384804 0.035671577 0.003025708 -0.050356362 -0.034899376 -0.0054491586 -0.02409796 0.008031272
-0.0015210112 0.00469132 -0.033326898 -0.014988968 -0.023657948 -0.021157296 -0.02777301 -0.018152906
-0.00023738104 -0.02992568 -0.024376208 0.019551959 0.0020530517 0.0033226197 0.033563644 0.014764863
0.023751613 -0.02441712 -0.015169104 0.0036533596 0.011947557 -0.032391585 -0.025649365 -0.01787265
-0.04740137 0.0004339765 -0.02813583 -0.031176908 0.0019491652 -0.06488958 -0.012312783 0.031379715
-0.047701318 -0.040272433 0.0102037 0.029694973 -0.024887156 -0.02806091 0.0049454686 -0.032187648
-0.039120622 -7.557983e-05 -0.014414849 -0.0210441 -0.048741404 -0.01282605 -0.01690606 0.022312094
0.028450957 -0.033993874 0.020092415 -0.008816945 0.010730124 -0.03801392 0.0008046816 0.008221404
0.02566921 -0.029248318 -0.021265121 0.022027764 0.008123325 0.010201437 0.0023542214 0.018919446
-0.039667908 0.03497731 -0.027131291 0.030346131 -0.010598596 -0.018436965 -0.00085549714 0.01841408
00000000: 79a6 0abd fa54 fb3c 7a76 b2bb 20af 0dbd
00000010: 0979 273c b995 82ba f667 313d 4141 67bc
00000020: 8c89 b93c c48e 27bd 343a b63c 5b74 fa3b
00000030: 9435 37bd 9043 03bd 3a95 3cbd 034f a2bc
00000040: a375 073d 0433 ccbb 1955 a6bc b54b 5dbd
00000050: dd2d 78bc 5864 21bc da28 8cbc fbcd 973c
00000060: 7507 26bd 3e10 fa3c 272a 803c dc74 0b3d
00000070: 4331 913c 58b3 3ebd 5739 86bd f7f0 0d3c
00000080: ef59 73bb 4473 d23b 0d31 e73b 6feb 8d3b
00000090: e3f1 0dbd 60e3 bebc e5da 2c3c 08d9 32bd
000000a0: 00bd bd3c e047 733c 9eaf 95bc 9e2c ad3b
000000b0: 2ba9 a6bd 063c 51bc 5e1c c5bc f327 e4bc
000000c0: 479b d6bb 3b21 003d aa54 3cbd 8f03 0e3d
000000d0: 3878 f9bc cbe7 3b3c 19e1 b8bc ded5 46bd
000000e0: 22ea 3d3c b450 8cbc b4df 2bbd 25d7 abbc
000000f0: c02e ca3c 9c32 c7b9 9c6d b23c 8004 a53c
00000100: 973e 14bc 8ffd 1fbd 6922 25bd abd9 f4bb
00000110: d180 cfba c388 e73b ada0 1ebd a660 0f3d
00000120: 45f2 a53a 882f 2f3c f0de 04bd 8719 a9bc
00000130: 3781 88b8 96d3 8ebc 3dde ddba ac7d d1bb
00000140: 0fc7 0bbd 5ba7 4d3c f1c0 26bc 5abc 89bc
00000150: 572d 3e3c cdbf d53c b717 1cbd a780 3c3b
00000160: abe9 28bd 1f73 a1bc 3e19 a6bc 7b4c fbbc
00000170: fe4b 943c 7f3c a53c 41e6 7b3b fc5c 163d
00000180: d730 103d c6e4 b4bb 7912 e13c 9be1 533a
00000190: dc74 4cbd 2010 28bd 0c1c 82bc 2218 103c
000001a0: b7fd 8abc 29f1 e43c 4321 6abc e40b d5bc
000001b0: 0c77 5fbc ddcc e93c bc9c 23bd b6cf 393c
000001c0: 1cfc e53b bcec df3b e9dc ddbc 4a5a 1bbd
000001d0: f04c 26bc 60c6 ccbc 825a 1ebd 5ab4 66bd
000001e0: 2b52 aa3c a7a2 8cbc 148a 033d 1518 8bbc
000001f0: 50e4 e93c 6f50 68bd 23b3 0fbd 47f7 98bc
00000200: 0a71 2bbd 4f0f e4bb 0524 6ebc 8d21 d7bc
00000210: fd5b 11bd 431d f53c 1b7d 133d cad5 30bd
00000220: c8ca 0bbb 7342 32bc 6331 e5bc c48e 083d
00000230: 4c41 39bb f683 0f3b fe6f 143d 0241 55bb
00000240: a993 41bd b6f8 e43c a5c5 c4bc 05e7 563b
00000250: 4f4b e1bc 63a9 17bd f0c7 37bd 7bbb deba
00000260: d152 30bd 425c cabc fb96 85bc 8a92 3e3c
00000270: ff44 8dbb 6f0f c33c 6b88 08bd 63d8 64bc
00000280: b1f8 ff3b 375b 6f3c 855c 7dbc c522 813c
00000290: 3adb bbbc 3de2 25bd 3560 0e3d 4f4d 2abd
000002a0: 6cda 813c f00f bf3a 9d10 cfba 96fd fe3c
000002b0: 1c90 52bd 1947 653c a0ac 1a3d 8a36 9dbc
000002c0: 5487 3abc 5c1c 123d f54a 463b 7942 4ebd
000002d0: a6f2 0ebd db8e b2bb 1669 c5bc 9995 033c
000002e0: ab5c c7ba a5b9 993b c981 08bd 4a94 75bc
000002f0: 50ce c1bc 1152 adbc 3984 e3bc 67b5 94bc
00000300: 7de9 78b9 b326 f5bc 9db0 c7bc 6e2b a03c
00000310: 7e8c 063b 4fc0 593b 087a 093d 53e8 713c
00000320: be92 c23c 6906 c8bc d587 78bc 346d 6f3b
00000330: b0bf 433c 0aad 04bd 9e1e d2bc aa69 92bc
00000340: f027 42bd 5787 e339 1d7d e6bc b766 ffbc
00000350: 227b ff3a d4e4 84bd 8ebb 49bc 0488 003d
00000360: 7562 43bd b5f4 24bd 6b2d 273c df42 f33c
00000370: 26e0 cbbc fedf e5bc 990d a23b 32d7 03bd
00000380: f23c 20bd 9d80 9eb8 422c 6cbc ad64 acbc
00000390: 11a5 47bd 5a24 52bc 947e 8abc dac7 b63c
000003a0: fb11 e93c 293d 0bbd d998 a43c f374 10bc
000003b0: 67cd 2f3c 7cb4 1bbd 45f1 523a 11b3 063c
000003c0: 3c48 d23c 2b9a efbc 3134 aebc 9273 b43c
000003d0: b217 053c ee23 273c 4849 1a3b f4fc 9a3c
000003e0: d17a 22bd 5e44 0f3d 7142 debc 7398 f83c
000003f0: bca5 2dbc 1e09 97bc 7143 60ba 20d9 963c

l2.bias f4 [256]
-0.06518795 0.043917935 -0.034843557 0.04551444 0.063547105 -0.048929267 -0.034470677 0.0049183834
0.05778944 0.027325004 -0.03274073 -0.015880115 -0.08387054 -0.0073455083 -0.04713725 -0.07105573
-0.056721535 0.02249891 -0.07643156 -0.04784208 -0.008137116 0.08585359 -0.018610315 -0.04382072
0.07982909 0.054945122 -0.057658333 0.02386336 -0.30411714 -0.011692579 0.012213994 -0.05596571
-0.0107477745 -0.088462844 0.07878648 -0.059639085 1.7288218 1.7034148 -0.013451591 0.013312838
-0.038826622 0.5841381 -0.07479985 0.032233115 -0.07029373 -0.049329497 -0.012533087 0.048995342
1.7224604 -0.07801882 -0.05694484 0.0746865 -0.0265172 -0.0126153 -0.056737773 -0.035638742
0.009560364 0.064732306 -0.046812676 0.011435964 0.46471193 0.056784272 0.060602766 -0.06800272
1.743545 0.031862553 -0.006190069 0.06121806 -0.075956985 0.012487379 0.0031306597 -0.009704481
-0.036916304 -0.06695364 -0.047122356 -0.012762572 0.033376954 -0.077122875 -0.003980037 -0.042483453
-0.059058953 -0.025738485 0.54907674 0.0039666155 -0.0008852105 0.06988907 -0.076105975 0.019119805
0.023440268 -0.030209867 0.03838574 -0.007991372 -0.16782486 -0.025888257 -0.01849776 -0.038364332
0.07452535 -0.0064430335 -0.00711108 -0.07590117 0.05072982 0.0026854326 0.023433264 -0.011625594
0.440295 -0.03648291 -0.017374884 0.018355377 0.07268699 -0.031983316 0.046512373 0.0402085
-0.049886767 0.050750654 0.016297223 1.7213181 -0.07185806 1.7610682 1.092726 -0.018969145
-0.094929576 -0.014390073 -0.03671786 -0.025353588 -0.0041334885 -0.53185266 -0.013929759 -0.06291517
-0.017156053 0.03145659 -0.019097157 -0.08032981 -0.016109318 -0.031161774 0.06541188 0.03130748
-0.10427861 0.07212019 1.7430564 -0.0041593867 -0.016668066 0.04524347 0.0008200979 0.09455385
-0.04422436 0.0765533 0.0109936325 0.029753694 -0.047547996 0.00036549164 0.02325936 -0.029071458
-0.06322506 -0.090237126 -0.030284425 -0.028743701 -0.036434744 -0.059177082 0.5745181 -0.059617527
-0.06475646 -0.10868122 0.018311549 -0.00602698 -0.09191035 0.011603059 0.5151749 -0.022592997
0.05519616 -0.09758734 0.36049268 -0.05317304 -0.013083702 -0.00837951 -0.043287754 -0.031214302
0.016006574 -0.068665296 -0.8620367 0.08101966 0.48638117 0.07124318 -0.02787491 -0.094443135
-0.040068578 0.014226 -0.06156187 -0.046481352 0.025586654 -0.060110833 -0.021016618 0.009638113
-0.021489497 0.6607224 0.034513514 -0.043189872 -0.02871808 -0.057988264 -0.08746582 -0.019120175
-0.028427424 -0.0019768504 -0.051415358 0.034691665 0.026931465 -0.035384677 0.56492656 -0.07138517
-0.018801061 0.018430866 0.015432296 -0.05736224 -0.030580819 -0.011019599 -0.10502208 0.041306928
1.6964005 -0.019148605 0.011534889 -0.025991477 -0.052716065 -0.009970458 -0.04053923 0.87828076
0.060131118 -0.017825995 0.012159122 -0.17427051 0.6746162 0.060803343 -0.025257688 -0.025588186
-0.018080516 -0.062021814 -0.070330694 -0.03888016 0.0171218 0.07199289 0.0017896856 0.3794757
1.6761082 -0.07216608 0.009695193 -0.020529354 -0.048077922 -0.08164767 -0.03975059 -0.045573886
-0.07217179 0.009586155 -0.053449932 -0.025940305 -0.028883984 -0.02886393 -0.017775856 -0.034043763
00000000: 4381 85bd 4be3 333d 1eb8 0ebd 596d 3a3d
00000010: fc24 823d 0e6a 48bd 2031 0dbd 642a a13b
00000020: 9fb4 6c3d b0d8 df3c 251b 06bd 0417 82bc
00000030: 51c4 abbd 97b2 f0bb fd12 41bd ab85 91bd
00000040: d754 68bd a24f b83c 2688 9cbd 0ff6 43bd
00000050: 8a51 05bc 02d4 af3d a974 98bc 5b7d 33bd
00000060: 6f7d a33d 230e 613d 252b 6cbd 187d c33c
00000070: 3eb5 9bbe 3b92 3fbc 341d 483c 4d3c 65bd
00000080: 6f17 30bc 022c b5bd ce5a a13d 1d48 74bd
00000090: 084a dd3f 7f09 da3f 1064 5cbc 171e 5a3c
000000a0: aa08 1fbd 138a 153f aa30 99bd df06 043d
000000b0: 29f6 8fbd ba0d 4abd 9457 4dbc 57af 483d
000000c0: 9579 dc3f 55c8 9fbd fe3e 69bd 3cf5 983d
000000d0: 993a d9bc 67b0 4ebc de65 68bd eef9 11bd
000000e0: 13a3 1c3c 5f92 843d a6be 3fbd e95d 3b3c
000000f0: b9ee ed3e a096 683d 9b3a 783d 0345 8bbd
00000100: 7c2c df3f 4f82 023d 10d6 cabb cabf 7a3d
00000110: 568f 9bbd dd97 4c3c c12b 4d3b 8bff 1ebc
00000120: 8d35 17bd fd1e 89bd 5f03 41bd 1b1a 51bc
00000130: 46b6 083d 99f2 9dbd f86a 82bb 2103 2ebd
00000140: cde7 71bd 84d9 d2bc 4b90 0c3f 62fa 813b
00000150: 790d 68ba 0022 8f3d 73dd 9bbd 23a1 9c3c
00000160: ce05 c03c af7a f7bc 5e3a 1d3d 3eee 02bc
00000170: 48da 2bbe 9c13 d4bc 9d88 97bc eb23 1dbd
00000180: bfa0 983d 1520 d3bb 1004 e9bb 1372 9bbd
00000190: 12ca 4f3d 15fe 2f3b 1ef7 bf3c 4779 3ebc
000001a0: 596e e13e 1b6f 15bd c655 8ebc 045e 963c
000001b0: ebdc 943d f000 03bd c283 3e3d abb1 243d
000001c0: 1156 4cbd ebdf 4f3d c181 853c 2754 dc3f
000001d0: 522a 93bd af6a e13f 72de 8b3f 2e65 9bbc
000001e0: 706a c2bd 57c4 6bbc 7765 16bd 54b2 cfbc
000001f0: 3772 87bb 7f27 08bf a539 64bc abd9 80bd
00000200: da8a 8cbc a0d8 003d a471 9cbc f583 a4bd
00000210: b0f7 83bc fa46 ffbc aaf6 853d 463c 003d
00000220: 0690 d5bd c0b3 933d 791c df3f 774b 88bb
00000230: 788b 88bc 3851 393d d7fb 563a 73a5 c13d
00000240: 9a24 35bd fac7 9c3d a31e 343c 05be f33c
00000250: b0c1 42bd 759f bf39 6a8a be3c 4427 eebc
00000260: 247c 81bd 3ece b8bd 0b17 f8bc e977 ebbc
00000270: 993c 15bd ab63 72bd 9e13 133f 8231 74bd
00000280: 099f 84bd 4294 debd 1a02 963c f97d c5bb
00000290: 7e3b bcbd c21a 3e3c 81e2 033f f314 b9bc
000002a0: 5e15 623d dfdb c7bd 7f92 b83e f9cb 59bd
000002b0: 065d 56bc 364a 09bc 804e 31bd 23b5 ffbc
000002c0: 3820 833c 64a0 8cbd 70ae 5cbf a3ed a53d
000002d0: f406 f93e f2e7 913d ec59 e4bc 676b c1bd
000002e0: f31e 24bd 2b14 693c 4d28 7cbd 3b63 3ebd
000002f0: 1a9b d13c c736 76bd 0b2b acbc 2de9 1d3c
00000300: be0a b0bc 1a25 293f 0b5e 0d3d dde7 30bd
00000310: 2e42 ebbc 1a85 6dbd 4821 b3bd eaa1 9cbc
00000320: a1e0 e8bc 0c8e 01bb e998 52bd d918 0e3d
00000330: 609f dc3c 86ef 10bd 079f 103f 6332 92bd
00000340: af04 9abc 54fc 963c bed7 7c3c abf4 6abd
00000350: a084 fabc 8c8b 34bc d115 d7bd 7431 293d
00000360: a723 d93f 89dd 9cbc d5fc 3c3c 14ec d4bc
00000370: cdec 57bd 225b 23bc 770c 26bd 02d7 603f
00000380: 0c4c 763d d207 92bc 0e37 473c f873 32be
00000390: a6b3 2c3f ed0c 793d 36e9 cebc 519e d1bc
000003a0: 971d 94bc 960a 7ebd 8a09 90bd cd40 1fbd
000003b0: 0443 8c3c 0271 933d e293 ea3a a44a c23e
000003c0: b78a d63f cfcb 93bd 96d8 1e3c 2d2d a8bc
000003d0: 5bed 44bd e536 a7bd 84d1 22bd afab 3abd
000003e0: cece 93bd 400f 1d3c 51ee 5abd c380 d4bc
000003f0: 1b9e ecbc 0c74 ecbc ac9e 91bc 7971 0bbd

l3.weight f4 [1, 256]
-0.0055954964 -0.25798622 -0.012857427 -0.00047972106 -0.005832657 0.0037223897 -0.023832422 0.008924625
0.005206919 0.0038526873 0.013493586 0.0031134891 0.016864028 -0.012745452 0.017890861 0.01864919
0.011359113 0.055070933 0.006610041 -0.010925104 -0.026966859 -0.049012247 -0.018713187 -0.010811562
-0.045498163 -0.041010946 -0.007752989 -0.010995368 -2.3141968 0.002496364 -0.003970428 0.005268145
0.0034122262 -0.011443256 -0.00017731669 0.0008762712 -0.5353953 -0.53936553 -0.0018225922 -0.063224815
0.008354456 -7.165821 0.0041452753 -0.12825914 -0.008221733 -0.0023848382 -0.0073904023 -0.008883201
-0.5201197 0.0017362253 0.017992506 -0.020154823 0.0022520046 -0.014924733 0.0068261167 0.026048023
0.005687758 0.0056475205 -0.05000629 -0.53934246 -2.2591178 -0.0020816922 -0.015891336 0.012897037
-0.5243364 0.006044004 -0.0035121788 -0.011964083 0.02353822 -0.0019054055 0.021383284 -0.013758394
0.013830315 0.03043787 0.009982417 0.023765065 -0.03380946 -0.012206103 -0.13617079 0.037328858
-0.0031524738 -0.0052630263 -4.9545236 -0.019475814 -0.0021787656 -0.0018223472 -0.008264668 -0.010239645
-0.0005807136 -0.024975603 -0.0941007 0.026428282 -0.29862672 0.008679564 -0.032664485 0.023238488
-0.030809578 -0.036919177 -0.2225967 0.020885248 -0.018746888 -0.31055406 0.047719043 -0.019963946
-5.494375 -0.02968763 -0.034155134 -0.004285536 -0.018457042 -0.0011325971 -0.13824582 -0.2602998
-0.006380113 -0.0046170084 -0.16384709 -0.5457869 -0.02694164 -0.53977376 -3.2694402 0.0001673885
0.034557927 0.004467378 -0.02723096 0.03479133 7.2182935e-05 0.8857655 0.031164255 -0.023867534
-0.02509035 -0.03874842 -0.090398215 -4.7167778e-05 0.009009905 -0.023643443 -0.0006178843 -0.0069478163
-0.13468595 0.0029241792 -0.5296304 -0.0009833662 0.029044801 -0.040463224 -0.20479134 0.0022383907
0.021962555 -0.00013604038 -0.039670628 -0.027533187 -0.00089127367 -0.012811441 -0.002342762 -0.017040005
-0.0043558213 0.025798516 -0.016291946 -0.016182823 0.024045805 0.023456806 -4.6346173 0.008651248
-0.01984082 -4.014105 -0.042869426 -0.023561334 0.0053070057 -0.022478364 -4.727722 -0.012963473
-0.0037875513 0.03103955 -4.2743745 -0.028452592 0.039788377 0.026273241 0.0035714696 -0.039473575
-0.030826187 0.014722886 1.5313876 -0.025485702 -4.5132675 0.0047119916 0.0165702 -0.018948939
0.029265964 -4.223434 -0.001306935 -0.013164533 0.0066000735 0.014871814 0.017304195 -0.023595039
-0.016065892 -7.6529994 -4.101994 -0.00033955812 -0.033886414 0.034114946 -2.1168234 0.027067175
-0.01774965 -0.016650273 0.007288305 -0.0013324986 -0.40761042 -0.017793458 -1.7197037 -0.0052263318
-0.0072243414 -0.009738199 0.028821988 -0.28909713 0.0063214106 0.036145553 -0.028925864 0.029249571
-0.48732436 -0.024409106 0.0041696364 -0.0043406445 0.02399895 0.006729239 0.026142284 -4.810949
0.007970397 -0.006191215 -0.0036962375 -4.438958 -5.317762 -0.007599802 -0.02027767 -0.04912193
-0.10765258 -0.014410506 -0.117967285 0.011824179 -0.005370313 -0.0068821297 0.021385774 -5.8448563
-0.52581185 0.022071894 -0.43163565 0.0015029726 -0.029175317 0.019890457 -0.0121075455 0.016889552
-0.0087745655 0.021075645 0.033226624 0.05011214 0.005209021 0.031459194 0.008078067 -0.013342934
00000000: 6d5a b7bb c516 84be f5a7 52bc 1283 fbb9
00000010: e01f bfbb 56f3 733b 363c c3bc 9738 123c
00000020: cd9e aa3b 5e7d 7c3b 3414 5d3c ae0b 4c3b
00000030: 6e26 8a3c 4dd2 50bc db8f 923c 30c6 983c
00000040: 931b 3a3c 0f92 613d 0b99 d83b 35ff 32bc
00000050: 9ae9 dcbc 11c1 48bd 664c 99bc fa22 31bc
00000060: 485c 3abd 18fb 27bd c90c febb ea25 34bc
00000070: cd1b 14c0 0a9a 233b 5d1a 82bb 67a0 ac3b
00000080: a89f 5f3b 7f7c 3bbc 16ee 39b9 91b5 653a
00000090: ab0f 09bf dc13 0abf 0ce4 eeba 037c 81bd
000000a0: 21e1 083c 684e e5c0 17d5 873b 5d56 03be
000000b0: 73b4 06bc f24a 1cbb 302b f2bb d88a 11bc
000000c0: 9126 05bf 0e92 e33a 0565 933c ba1b a5bc
000000d0: 5e96 133b de86 74bc 9ead df3b aa62 d53c
000000e0: 5f60 ba3b d60e b93b 65d3 4cbd 5912 0abf
000000f0: 6395 10c0 006d 08bb 8c2e 82bc 184e 533c
00000100: e93a 06bf c80c c63b 952c 66bb 0005 44bc
00000110: 3ad3 c03c cdbe f9ba ff2b af3c e36a 61bc
00000120: 8c98 623c d758 f93c 4b8d 233c f4ae c23c
00000130: ca7b 0abd 1bfc 47bc 5b70 0bbe 25e6 183d
00000140: bc99 4ebb 7775 acbb 758b 9ec0 be8b 9fbc
00000150: 9fc9 0ebb d3db eeba 8868 07bc 2fc4 27bc
00000160: 083b 18ba a399 ccbc deb7 c0bd 2080 d83c
00000170: 9ae5 98be bb34 0e3c 32cb 05bd a45e be3c
00000180: 5e64 fcbc 9038 17bd 64f0 63be 8a17 ab3c
00000190: 1393 99bc f100 9fbe 0b75 433d 6e8b a3bc
000001a0: ecd1 afc0 7933 f3bc 41e6 0bbd ae6d 8cbb
000001b0: 3933 97bc a773 94ba 5090 0dbe 0446 85be
000001c0: 4410 d1bb 464a 97bb 88c7 27be b1b8 0bbf
000001d0: b7b4 dcbc 9d2e 0abf 823e 51c0 0285 2f39
000001e0: 9d8c 0d3d 1563 923b 7613 dfbc 5b81 0e3d
000001f0: eb60 9738 87c1 623f 2e4c ff3c d985 c3bc
00000200: 478a cdbc aab6 1ebd b322 b9bd 04d6 45b8
00000210: 489e 133c e5af c1bc 83f9 21ba 82aa e3bb
00000220: 1deb 09be 96a3 3f3b dc95 07bf 4be4 80ba
00000230: 5def ed3c c4bc 25bd d2b4 51be f7b1 123b
00000240: d1ea b33c 10a6 0eb9 ab7d 22bd 478d e1bc
00000250: 5da4 69ba 14e7 51bc 0689 19bb 7b97 8bbc
00000260: 47bb 8ebb 6957 d33c b076 85bc d791 84bc
00000270: b5fb c43c 7d28 c03c c94e 94c0 f7bd 0d3c
00000280: 3789 a2bc 8c73 80c0 da97 2fbd b303 c1bc
00000290: 64e6 ad3b 8c24 b8bc 8049 97c0 bf64 54bc
000002a0: 9138 78bb a846 fe3c adc7 88c0 6915 e9bc
000002b0: 23f9 223d fb3a d73c 510f 6a3b 0baf 21bd
000002c0: 3387 fcbc 4238 713c 8204 c43f 64c7 d0bc
000002d0: b06c 90c0 0d67 9a3b 3abe 873c ce3a 9bbc
000002e0: 2dbf ef3c 5f26 87c0 764d abba 0eb0 57bc
000002f0: 6e45 d83b e9a8 733c 87c1 8d3c 624a c1bc
00000300: 9e9c 83bc 5fe5 f4c0 8943 83c0 b806 b2b9
00000310: 7bcc 0abd 1dbc 0b3d 097a 07c0 fbbb dd3c
00000320: b767 91bc 2766 88bc bcd2 ee3b 3ca7 aeba
00000330: 50b2 d0be 96c3 91bc 401f dcbf a641 abbb
00000340: 2bba ecbb f88c 1fbc 171c ec3c 8a04 94be
00000350: d623 cf3b 5c0d 143d eff5 ecbc cc9c ef3c
00000360: 9482 f9be 9bf5 c7bc 72a1 883b f73b 8ebb
00000370: 7299 c43c f380 dc3b 5828 d63c 4bf3 99c0
00000380: 4596 023c addf cabb 933c 72bb f20b 8ec0
00000390: 1b2b aac0 c307 f9bb 5b1d a6bc 1434 49bd
000003a0: f578 dcbd 0b1a 6cbc d598 f1bd 34ba 413c
000003b0: 73f9 afbb 7d83 e1bb 3831 af3c 1009 bbc0
000003c0: 9b9b 06bf 1ed0 b43c 59ff dcbe 64ff c43a
000003d0: 1301 efbc 50f1 a23c ba5e 46bc f55b 8a3c
000003e0: 32c3 0fbc d5a6 ac3c a418 083d 6342 4d3d
000003f0: 6fb0 aa3b 5bdb 003d de59 043c 529c 5abc
