saves/Dobot-v3/mfrs/seed_0/model/actor.pth (torch, 606039 bytes, 6 tensors)

l1.weight f4 [512, 36]
0	0x3dd7a481	0.105294235
1	0x3c2c0906	0.010500198
2	0xbda56129	-0.080751725
3	0xbf43c9a0	-0.7647953
4	0xbda8de70	-0.082455516
5	0xbf5c476a	-0.8604647
6	0xbe93153b	-0.28727135
7	0xbef7e990	-0.48420382
8	0xbe3eeab1	-0.18644215
9	0xbef99a6e	-0.48750633
10	0xbebbbf48	-0.36669374
11	0x3ea68539	0.32523516
12	0xbe99e67c	-0.30058658
13	0x3e54c2c9	0.2077743
14	0x3d979c5b	0.07402869
15	0x3e6c6b46	0.23087797
16	0x3f2722b8	0.6528735
17	0x3d08e24d	0.033418942
18	0xbf982673	-1.1886734
19	0x3f38b706	0.7215427
20	0x3eadcaae	0.33943695
21	0x3ec70806	0.3887331
22	0xbe8c7e66	-0.27440184
23	0x3f02714a	0.50954115
24	0x3e173110	0.1476481
25	0x3f447370	0.76738644
26	0xbf4c7f49	-0.7988172
27	0x3ecf7db7	0.405256
28	0x3f6024d1	0.8755618
29	0xbf998628	-1.1994066
30	0xbf42ae11	-0.76046854
31	0x3fb22394	1.3917108
32	0xbe811583	-0.25211725
33	0x3ea9509b	0.3306931
34	0xbee851ad	-0.45374814
35	0xbdc483bf	-0.09595441
36	0x3e2cc229	0.16870941
37	0x3ea8dfec	0.3298334
38	0x3e2fac2c	0.17155522
39	0x3ea8077d	0.32818213
40	0xbee54c61	-0.44784835
41	0xbdffdf3f	-0.12493753
42	0x3e239e31	0.15978314
43	0xbe8ab69f	-0.27092454
44	0xbdc3cdba	-0.095607236
45	0x3e3d8507	0.18507777
46	0xbe95a832	-0.29229885
47	0x3e8be1df	0.27320763
48	0xbe50c9a2	-0.20389417
49	0x3e48d30a	0.19611755
50	0x3cb98182	0.022644762
51	0xbe3bad47	-0.18327819
52	0xba4ec419	-0.0007887497
53	0x3e70ad26	0.23503551
54	0x3f58d193	0.84694785
55	0xbdfc7f0e	-0.12328921
56	0x3c93bd61	0.018034639
57	0x3f130eff	0.5744476
58	0x3ef90a32	0.4864059
59	0x3e7e3cb6	0.24827847
60	0xbdf64051	-0.12023986
61	0x3fd5b0d3	1.6694587
62	0xbf0bd762	-0.54625523
63	0xbeacb7ea	-0.33734065
64	0x3f4822b5	0.7817796
65	0x3f271d04	0.6527865
66	0x3eecb5d7	0.46232483
67	0x3f55fae5	0.8358596
68	0xbaa60613	-0.0012666605
69	0x3f05cae5	0.5226272
70	0x4004bd16	2.074041
71	0x3f6503d6	0.8945898
72	0x3c6a5de7	0.014304615
73	0x3e819061	0.25305465
74	0x3dc7ed44	0.09762052
75	0x3e8e03b0	0.27737188
76	0x3b9cb648	0.004782472
77	0x3e1d69e3	0.15372424
78	0x3e9f3f63	0.31103048
79	0xbed1e36a	-0.40993816
80	0xbe5244c3	-0.20534043
81	0x3e7206f0	0.23635459
82	0x3d45798c	0.04821162
83	0xbeec8a74	-0.4619938
84	0xbe206014	-0.15661651
85	0x3e67a051	0.2261975
86	0xbcf76560	-0.030199707
87	0xbea52f49	-0.32262638
88	0x3f831b20	1.0242653
89	0xbe9da8e6	-0.30792922
90	0x3e5ca83c	0.21548551
91	0xbd88a76f	-0.066725604
92	0x3ec86de6	0.39146346
93	0x3f947301	1.1597596
94	0xbf3d19b6	-0.73867357
95	0x3e0abd45	0.13548763
96	0xbd6f328e	-0.058397822
97	0x3f5b69eb	0.85708493
98	0x3e8a5e88	0.27025247
99	0xbebec01d	-0.37255946
100	0x3fe9b365	1.8257872
101	0xbe8f29e4	-0.27961648
102	0x3cab0772	0.020877574
103	0xbdb5b318	-0.0887205
104	0x3fb4c270	1.4121838
105	0x3f7a5827	0.9779076
106	0xbf8c394d	-1.0954987
107	0x3f7e6c78	0.9938426
108	0xbcb9421c	-0.022614531
109	0xbc4fa740	-0.012674153
110	0xbdc91faa	-0.098204926
111	0x3d94b910	0.0726186
112	0xbdd66524	-0.1046851
113	0x3de9787d	0.113999344
114	0x3dd7dee6	0.105405614
115	0xbe0c9e56	-0.13732275
116	0xbd9dd29b	-0.077061854
117	0xbcc19aa5	-0.02363331
118	0x3d1812a0	0.037127137
119	0x3c6c9d98	0.01444187
120	0x3cfc33bd	0.03078639
121	0x3d417ca2	0.047238
122	0xbd3bd063	-0.04585303
123	0x3dad3da8	0.084590256
124	0xbdfadc3a	-0.12249036
125	0xbd848606	-0.064708754
126	0xbd816616	-0.063182995
127	0xbd3df493	-0.046375822
128	0xbcbd1b5e	-0.023084339
129	0xbdccd450	-0.10001433
130	0x3b38afe8	0.002818102
131	0x3d90e8a6	0.07075624
132	0xbe12e2de	-0.14344355
133	0x3d217dc7	0.03942659
134	0x3dbb7a21	0.091541536
135	0xbc3f05cc	-0.011659097
136	0x3d4ed87f	0.050499436
137	0xbcdb4447	-0.026765956
138	0x3c36f40a	0.011166582
139	0x3e0b25ee	0.13588688
140	0x3e32528d	0.17414303
141	0x3e133b92	0.14378193
142	0x3e540746	0.207059
143	0xbc1fb7ac	-0.009748381
144	0xbe7f21fc	-0.24915308
145	0xbf111502	-0.5667268
146	0x3e176943	0.14786248
147	0x3ebd50fa	0.36975843
148	0xbe1ed6c2	-0.15511611
149	0xbfb37ab2	-1.4021819
150	0x3e886c04	0.2664491
151	0xbb8ec53c	-0.0043570083
152	0xbe6b1c4a	-0.2296001
153	0x3ef0f5f2	0.4706264
154	0x3e30798d	0.17233868
155	0x3d3d538c	0.046222255
156	0xbe4c954c	-0.19978827
157	0xbdac3b24	-0.08409718
158	0x3e626527	0.22108899
159	0xbebfa563	-0.37430868
160	0x3f25324b	0.64529866
161	0xbd9ca061	-0.07647777
162	0x3e957c43	0.29196367
163	0x3f234439	0.63775975
164	0x3e5bdd8a	0.21471229
165	0xbe80de12	-0.25169426
166	0x3f27dd7c	0.65572333
167	0x3e63c5f6	0.22243485
168	0xbfc2a47c	-1.5206447
169	0xbea09f34	-0.31371462
170	0xbf31509a	-0.69263613
171	0xbf474ccf	-0.77851576
172	0x3f964f18	1.1742887
173	0xbf627810	-0.8846445
174	0x3dd64e43	0.10464146
175	0x3f9e188b	1.235124
176	0xbe851617	-0.25993416
177	0xbedea931	-0.43488458
178	0x3f7cc2cb	0.9873473
179	0xbf070297	-0.52738327
180	0xbf865d94	-1.0497308
181	0xbed1691d	-0.40900508
182	0x3d2b427a	0.041811444
183	0x3e93babf	0.28853413
184	0x3c9d8b5e	0.019231495
185	0x3ec67545	0.38761345
186	0x3d883e9f	0.06652569
187	0x3f10cd3d	0.5656317
188	0xbda95105	-0.082674064
189	0x3ef105e0	0.47074795
190	0x3f8f9489	1.1217204
191	0xbe731443	-0.23738198
192	0x3dc94b73	0.09828844
193	0xbead949e	-0.33902448
194	0xbdbb9b14	-0.09160438
195	0x3efc9241	0.49330333
196	0xbf1799ea	-0.5921923
197	0x3ec3674b	0.38164744
198	0x3e9f3206	0.31092852
199	0xbf34ce92	-0.706277
200	0x3dc337e7	0.09532147
201	0x3ef95785	0.48699585
202	0xbf0a09e6	-0.53921354
203	0xbec611fa	-0.3868559
204	0xbde1a42d	-0.11017642
205	0xbf60e491	-0.87848765
206	0x3f63fc58	0.8905692
207	0x3e593d15	0.21214707
208	0xbf92b70c	-1.1462111
209	0x3fa37839	1.2771064
210	0xbdcbf04c	-0.09957942
211	0xbfb07d2b	-1.3788198
212	0x3f997e6c	1.1991706
213	0xbe0a7810	-0.13522363
214	0xbf84b2aa	-1.0367024
215	0x3c24e4c3	0.010064307
216	0xbe9b2237	-0.3029954
217	0xbf7d3c65	-0.9892028
218	0xbc0c410d	-0.008560431
219	0x3dde941b	0.108680926
220	0x3e83b359	0.2572277
221	0xbc37688d	-0.01119436
222	0x3ee73893	0.4516035
223	0xbcbbe82d	-0.022937858
224	0xbedf2784	-0.43584836
225	0x3ed6e915	0.41974702
226	0x3e2c11ae	0.1680362
227	0xbf24e7ec	-0.64416385
228	0xbeb2a98f	-0.34894988
229	0x3e365350	0.17805219
230	0x3ee2bccf	0.44284675
231	0x3ef16712	0.4714895
232	0x3f36ef88	0.71459246
233	0x3e8d1a08	0.27558923
234	0xbe1a6fec	-0.15081757
235	0x3f60dead	0.87839776
236	0x3e7b033a	0.2451295
237	0xbf627427	-0.88458484
238	0xbf76713c	-0.9626653
239	0x3ec1887e	0.37799448
240	0xbf8bbaaa	-1.091634
241	0x3f1b8e18	0.6076369
242	0x3fa975fd	1.3239132
243	0x3ce625f5	0.028094271
244	0x3f5321ae	0.82473266
245	0xbe4742a8	-0.19459021
246	0xbe6de1d3	-0.23230676
247	0x3f93790a	1.1521313
248	0x3eb4d7c6	0.35320872
249	0xbf2ad577	-0.6673197
250	0xbfb9b683	-1.4508823
251	0x3f35eac1	0.7106133
252	0x3ef4c1ed	0.47804204
253	0xbd287be4	-0.041133776
254	0xbe761d4d	-0.24034615
255	0x3d0f02d7	0.034914818

l1.bias f4 [512]
0	0xbe2007d3	-0.15627985
1	0xbe5d1b8e	-0.21592543
2	0xbe5ab7de	-0.21359202
3	0xbe1ca838	-0.15298545
4	0xbde5d68c	-0.11222562
5	0x3e96c265	0.29445186
6	0x3c09c6c4	0.008409206
7	0x3e0afa59	0.13572063
8	0xbe66a554	-0.22524005
9	0xbe0d854e	-0.13820383
10	0x3dc2e66e	0.09516607
11	0xbe9fdd85	-0.31223693
12	0x3dc7ac7b	0.09749695
13	0xbe4573cd	-0.19282456
14	0xbe34ac00	-0.17643738
15	0xbe392e51	-0.18084075
16	0xbdcb4ed0	-0.09927142
17	0xbe04c7f7	-0.12966906
18	0xbdcab7c8	-0.09898335
19	0xbe232db7	-0.15935408
20	0xbd66851f	-0.056279298
21	0xbcadb110	-0.021202594
22	0xbe29ac6a	-0.16569677
23	0xbeac11c1	-0.33607295
24	0xbe86e62d	-0.26347485
25	0xbdee6d6a	-0.11641963
26	0x3c7f62f5	0.015587558
27	0x3d0e1219	0.034685228
28	0xbd7ce73d	-0.061743964
29	0x3ca58493	0.020204818
30	0xbd82e746	-0.06391768
31	0xbe9bc76f	-0.30425593
32	0xbe1decb0	-0.1542232
33	0xbd0a5068	-0.033768088
34	0x3e5c690b	0.21524446
35	0xbc28acdb	-0.010295118
36	0xbd0ef5cd	-0.034902383
37	0xbd959faf	-0.07305848
38	0xbe6faeeb	-0.2340657
39	0xbeae2cb7	-0.3401849
40	0xbd6dffd2	-0.058105297
41	0xbe827d06	-0.2548601
42	0x3b95f34a	0.0045761215
43	0xbe49624b	-0.19666402
44	0xbdd959f3	-0.106128596
45	0xbdf3035f	-0.11865877
46	0xbe2b1393	-0.16706686
47	0x3d602777	0.054725137
48	0xbe63f41b	-0.22261088
49	0xbe39921a	-0.1812214
50	0xbdb185e6	-0.08668117
51	0xbe49ede0	-0.19719648
52	0x3d0d97c9	0.03456858
53	0xbd954767	-0.072890095
54	0xbe943474	-0.2894627
55	0xbe6c555a	-0.23079434
56	0xbe061c7d	-0.13096805
57	0xbd335873	-0.043785524
58	0xbe57792d	-0.21042319
59	0x3e028cff	0.12749098
60	0xbe098748	-0.13430512
61	0xbd713324	-0.058886662
62	0x3d902e14	0.07040039
63	0x3e446c0c	0.19181842
64	0x3dc78072	0.09741296
65	0xbe991fbc	-0.29907024
66	0xbe450fd3	-0.19244318
67	0xbe1a66a3	-0.15078215
68	0x3e0dc987	0.13846408
69	0xbe9ee0d5	-0.31030908
70	0xbe11e036	-0.14245686
71	0x3cf6fa52	0.030148659
72	0xbd156a75	-0.03647848
73	0x3baf57bd	0.0053510354
74	0xbe4f4eb7	-0.20244871
75	0xbe56e4aa	-0.20985666
76	0xbeb8e268	-0.36110234
77	0x3bfffdb1	0.007812225
78	0xbe3145c5	-0.17311771
79	0xbe46cb59	-0.19413508
80	0xbc39961d	-0.011327294
81	0xbda5067b	-0.08057877
82	0xbe4565bd	-0.19277091
83	0xbd9ebee4	-0.07751253
84	0xbe7f7eb2	-0.24950674
85	0xbecb852a	-0.39750034
86	0x3d2897d5	0.041160423
87	0xbed0dc58	-0.4079311
88	0xbe0e9a4f	-0.13926052
89	0xbdfe5e1f	-0.12420296
90	0xbe70d36e	-0.23518154
91	0x3d246e12	0.040144034
92	0xbe715537	-0.23567663
93	0x3d9b5cc0	0.0758605
94	0xbe5123c8	-0.20423806
95	0xbca74357	-0.020417852
96	0xbd4da89e	-0.050209634
97	0xbe1bca99	-0.15214004
98	0x3ccc4090	0.02493313
99	0xbdd74699	-0.10511512
100	0x3cadba42	0.021206979
101	0xbe13300c	-0.14373797
102	0xbe2b95ac	-0.16756314
103	0xbd86d0db	-0.06582805
104	0x3d96d42b	0.073646866
105	0x3e07c0c7	0.13257132
106	0xbe2712fc	-0.16315836
107	0xbe0fe7f0	-0.14053321
108	0xbe3b9ffd	-0.1832275
109	0xbdafa66c	-0.08576664
110	0x3de50302	0.11182214
111	0xbdfd9049	-0.12381036
112	0x3bf87098	0.0075817816
113	0x3df3f081	0.11911107
114	0xbd95529c	-0.07291147
115	0xbe86c0df	-0.26319024
116	0xbe841e62	-0.2580443
117	0xbd76205b	-0.06008945
118	0xbd351a32	-0.044214435
119	0xbe2d040b	-0.16896074
120	0xbddb34f7	-0.107034616
121	0xbe4488ff	-0.19192885
122	0xbe6ffd83	-0.23436551
123	0xbdcb71a6	-0.09933786
124	0xbe76d0f4	-0.24103147
125	0xbeb018f3	-0.34394035
126	0x3ddc3068	0.1075142
127	0xbe2382b0	-0.15967822
128	0xbee7e47d	-0.4529151
129	0xbe18db60	-0.14927435
130	0x3bd55f57	0.0065116095
131	0xbe6cd7fe	-0.2312927
132	0xbc6fb3e8	-0.014630295
133	0x3cff31c1	0.031151654
134	0xbe118809	-0.1421205
135	0x3e1e588c	0.15463465
136	0xbbf88f85	-0.0075854682
137	0x3d05318e	0.032517962
138	0xbe4a7013	-0.19769315
139	0xbda91c4f	-0.082573526
140	0xbdec9b66	-0.115530774
141	0xbe02689e	-0.12735221
142	0xbe469644	-0.1939326
143	0xbea14bb7	-0.31503078
144	0xbe49d8d0	-0.19711614
145	0xbc9e0e95	-0.019294063
146	0xbe157e82	-0.1459904
147	0xbe35350c	-0.17696017
148	0x3d132a3f	0.03592896
149	0x3d42e260	0.04757917
150	0xbc4b8b50	-0.012423351
151	0xbbb175fe	-0.005415677
152	0xbd756182	-0.059907444
153	0x3cbf1af0	0.023328274
154	0x3c679916	0.01413562
155	0xbdb15f55	-0.08660761
156	0x3d83b696	0.0643131
157	0xbdb2d97f	-0.0873289
158	0xbd8da4dc	-0.0691621
159	0xbdb86687	-0.090039305
160	0xbdfe2680	-0.12409687
161	0xbe392f36	-0.18084416
162	0x3d943e26	0.072384164
163	0xbd9260e5	-0.071473874
164	0xbdb488a3	-0.08815124
165	0xbe0152d1	-0.12629248
166	0x3d4129b5	0.047158916
167	0xbd4ba972	-0.049722143
168	0xbde3bc5e	-0.111199126
169	0x3e3df039	0.18548669
170	0xbd55a64c	-0.052160546
171	0xbde0f3cb	-0.10984
172	0xbe81a804	-0.25323498
173	0xbd9c99cc	-0.07646522
174	0xbe97ae0c	-0.29624975
175	0xbd1c429f	-0.038149472
176	0xbdab7312	-0.08371557
177	0xbe257e0b	-0.16161363
178	0x3e3633fd	0.1779327
179	0xbe1b429a	-0.15162125
180	0xbcddb0cf	-0.027061848
181	0xbe50cc41	-0.20390417
182	0xbe42b1fe	-0.19013211
183	0xbe8a8e2e	-0.270616
184	0xbe9acf6a	-0.3023637
185	0xbdf0b1a0	-0.11752629
186	0xbd3b219a	-0.04568634
187	0xbdd31835	-0.103073515
188	0xbd0b20a1	-0.033966664
189	0xbe5ccf6f	-0.21563505
190	0x3d32082b	0.04346482
191	0xbe609a07	-0.21933757
192	0xbcd77525	-0.026300976
193	0xbba4e0aa	-0.005031665
194	0xbdc93100	-0.09823799
195	0xbcd69aad	-0.026196802
196	0xbd474563	-0.048650157
197	0xbe2901da	-0.16504613
198	0xbe080c96	-0.13286051
199	0xbe10091e	-0.14065978
200	0xbdbc8b8e	-0.092063054
201	0xbe001ad6	-0.12510237
202	0xbdbcc59b	-0.09217378
203	0x3dbdac76	0.0926141
204	0xbe1aeac7	-0.15128623
205	0xbe07c005	-0.13256843
206	0xbdf53be5	-0.119743146
207	0xbebacaa4	-0.36482728
208	0xbe6f5cbe	-0.23375222
209	0xbd08caf7	-0.033396687
210	0xbee0309b	-0.43787083
211	0xbeabf986	-0.3358881
212	0xbc6a9ea2	-0.014320048
213	0xbe4fbd10	-0.20286965
214	0xbe0cb880	-0.13742256
215	0xbe798731	-0.24367978
216	0xbee7678d	-0.4519619
217	0x3d357325	0.044299264
218	0xbde6b8bc	-0.11265704
219	0xbe304cd1	-0.17216803
220	0xbe5caeed	-0.21551104
221	0xbd83bb58	-0.06432217
222	0x3c62adf2	0.013835417
223	0x3d1b34a0	0.037891984
224	0x3ce80574	0.028322913
225	0x3dbe912f	0.09305035
226	0xbdc2e55a	-0.095164016
227	0xbe338465	-0.17530973
228	0xbdcbb537	-0.09946673
229	0xbe3eeef4	-0.18645841
230	0xbdb4d051	-0.08828796
231	0xbe312d2c	-0.17302388
232	0xbe85d05d	-0.2613553
233	0xbeb781ce	-0.3584122
234	0xbd646757	-0.055762615
235	0xbef76de0	-0.48326015
236	0xbdcf3790	-0.101180196
237	0xbe126e85	-0.14299972
238	0xbe23be3a	-0.15990534
239	0x3dd1a2c4	0.10236123
240	0xb97a8001	-0.00023889543
241	0x3c01f22f	0.007931276
242	0xbe98921a	-0.29798967
243	0x3d86a293	0.06573977
244	0xbdf5161e	-0.11967109
245	0xbea91039	-0.3302019
246	0x3e2f7893	0.17135839
247	0x3d0aa9eb	0.033853453
248	0x3dce60d9	0.10077066
249	0xbdb7a973	-0.08967867
250	0xbe8a7875	-0.27045026
251	0xbe1a9fa4	-0.1509996
252	0x3d608d1a	0.054822065
253	0xbe96338d	-0.29336205
254	0xbe2aa449	-0.16664232
255	0xbdcace8b	-0.09902676

l2.weight f4 [256, 512]
0	0xbea03e9a	-0.3129776
1	0xbdaf72ea	-0.0856684
2	0x3e9f4729	0.31108978
3	0xbb298e5e	-0.002587221
4	0xbe8add0a	-0.27121764
5	0x3e45414d	0.19263192
6	0x3d7b6c5f	0.061382648
7	0xbe90a0ab	-0.2824758
8	0xbe07df03	-0.13268666
9	0x3e7978d6	0.24362502
10	0x3da37f25	0.07983235
11	0x3f5c6fda	0.8610817
12	0x3e904589	0.2817805
13	0xbdf84b2d	-0.12123714
14	0xbcf28bda	-0.029607702
15	0x3e0748de	0.1321139
16	0x3cde1ee0	0.027114332
17	0xbf3c952f	-0.73665136
18	0xbbd2c1cb	-0.0064317933
19	0xbcfb1927	-0.030651642
20	0xbc59f138	-0.01330214
21	0xbec690ab	-0.38782248
22	0x3c01996d	0.007910115
23	0xbe1285f3	-0.1430891
24	0x3e9c80ef	0.3056712
25	0xbf53a7b2	-0.8267776
26	0xbe88047a	-0.26565915
27	0xbeb293c7	-0.3487837
28	0x3dd436ae	0.10361992
29	0xbc09df95	-0.0084151225
30	0x3adf46c7	0.0017034643
31	0xbefbd04c	-0.49182355
32	0xbf0b2156	-0.5434774
33	0x3e9579ab	0.29194388
34	0xbec141c6	-0.37745494
35	0xbf030697	-0.5118193
36	0xbc865f26	-0.016402792
37	0xbebf6483	-0.37381372
38	0xbe2cbf2f	-0.16869806
39	0xbf630959	-0.8868614
40	0xbe469c1e	-0.19395491
41	0xbbe44513	-0.006966242
42	0xbd074ce2	-0.033032306
43	0xbf4c2740	-0.7974739
44	0x3f39e5dc	0.7261636
45	0x3e8dbcb8	0.27683043
46	0x3e869209	0.2628329
47	0x3f4e1b1d	0.8051012
48	0xbc30a284	-0.010780934
49	0xbf98e7c7	-1.1945733
50	0xbf15370a	-0.5828711
51	0xbe302ef5	-0.17205413
52	0x3d0a35f3	0.033742856
53	0x3ec6e056	0.3884303
54	0xbd310297	-0.04321536
55	0xbde5b708	-0.11216551
56	0xbe4fdc45	-0.2029887
57	0xbd5e3340	-0.054248095
58	0xbf63ae9e	-0.8893832
59	0xbeac47b1	-0.33648446
60	0xbcb14907	-0.021641267
61	0xbe942cb1	-0.28940347
62	0x3e7757e4	0.24154621
63	0x3e93a60f	0.2883763
64	0x3f0084d8	0.50202703
65	0xbeb1807d	-0.3466834
66	0xbeae03ce	-0.33987278
67	0xbe84c31b	-0.25930104
68	0xbf73265a	-0.94980395
69	0xbe2b2a6d	-0.16715403
70	0x3d2f5f82	0.042815693
71	0xbcf00f0c	-0.02930405
72	0x3eb98da1	0.36240867
73	0x3d04c597	0.032415
74	0xbec0e800	-0.37677002
75	0xbf84add3	-1.0365547
76	0xbda0c006	-0.078491256
77	0x3e8aa19e	0.2707643
78	0x3e955e73	0.29173622
79	0xbea5ed09	-0.32407406
80	0xbf03a598	-0.5142455
81	0x3e1853f7	0.1487578
82	0xbdc9ddec	-0.09856781
83	0xbede3502	-0.43399817
84	0xbea800ac	-0.32813013
85	0xbf6e2db3	-0.9303848
86	0xbce69a90	-0.028149873
87	0xbd3a9bf6	-0.045558892
88	0xbf3a2fee	-0.72729385
89	0xbca311f7	-0.019906027
90	0xbcce921d	-0.025216157
91	0xbd06d3b7	-0.03291675
92	0xbf20d6dc	-0.6282785
93	0x3ceecc69	0.029150205
94	0xbe8c27d5	-0.2737414
95	0xbc71e633	-0.014764356
96	0xbebcbc2d	-0.36862317
97	0xbf0e5896	-0.5560392
98	0xbb5c4ac5	-0.0033613902
99	0xbf16940c	-0.5881965
100	0x3f4f6feb	0.8103015
101	0x3befbbeb	0.0073161027
102	0xbf28d101	-0.65943915
103	0xbeb28d4f	-0.34873435
104	0xbf5b4ce3	-0.85664195
105	0x3e757e5a	0.2397398
106	0xbc766902	-0.015039684
107	0xbf7e453c	-0.99324393
108	0x3cf1fa06	0.029538166
109	0x3f3eb47b	0.7449414
110	0xbf11fcec	-0.57026553
111	0xbd0287e6	-0.031867884
112	0xbd0e6154	-0.034760788
113	0xbee2bf3e	-0.4428653
114	0x3eed0d2b	0.4629911
115	0xbeb0db3b	-0.3454226
116	0xbf7e9670	-0.994483
117	0x3d19f6e6	0.037588976
118	0x3dc5be47	0.09655433
119	0xbb491e20	-0.0030688122
120	0x3f43dfd5	0.76513416
121	0xbf4a82cf	-0.7910585
122	0x3e012ca1	0.12614681
123	0xbea9e5b5	-0.33183065
124	0xbeb0c519	-0.34525374
125	0xbe130b62	-0.14359811
126	0xbcfa6444	-0.030565389
127	0x3e89bc07	0.26901266
128	0xbfa20b15	-1.2659632
129	0x3c93956f	0.018015591
130	0xbff1d190	-1.8892078
131	0xbec3948b	-0.38199267
132	0xbe0dceed	-0.13848467
133	0x3c005de5	0.007834886
134	0xbeb2e4c2	-0.34940153
135	0xbeb92cdc	-0.36167037
136	0xbd2316b8	-0.03981659
137	0x3caedd66	0.021345805
138	0x3e2db118	0.16962087
139	0xbfb46b0c	-1.4095168
140	0x3ed5d354	0.41762793
141	0xbebc300b	-0.36755404
142	0xbf2ace76	-0.66721284
143	0xbef2d98e	-0.47431606
144	0xbd69f5f0	-0.05711931
145	0xbddb8c66	-0.10720138
146	0x3a4920b0	0.00076724123
147	0xbf189467	-0.59601444
148	0x3b060e74	0.0020455392
149	0x3e933f83	0.28759393
150	0xbe1fcf66	-0.1560646
151	0x3f8ee879	1.1164695
152	0xbed7662d	-0.4207014
153	0xbf256906	-0.6461338
154	0x3f547f44	0.8300669
155	0x3e31aabd	0.17350288
156	0xbf0dce58	-0.5539298
157	0x3b1b82d1	0.0023729096
158	0x3ee76ddf	0.45201012
159	0xbf1006a5	-0.5626014
160	0x3c3f0e82	0.011661174
161	0xbebcf38e	-0.36904567
162	0xbe98c377	-0.29836628
163	0xbf760f88	-0.9611745
164	0xbb07c1f2	-0.0020714966
165	0xbf01aff8	-0.5065913
166	0x3d31cd28	0.043408543
167	0xbdbb49fa	-0.09144969
168	0x3e8862cd	0.2663788
169	0x3e1f2ae8	0.15543711
170	0x3d905069	0.07046587
171	0xbebe736b	-0.37197432
172	0xbfa07bbf	-1.2537764
173	0xbc87447d	-0.01651215
174	0x3d4e70ae	0.05040043
175	0xbf375ea6	-0.716288
176	0xbd100044	-0.035156503
177	0x3cec9e2e	0.02888402
178	0x3f272183	0.6528551
179	0xbe6cab07	-0.23112117
180	0x3eaa22eb	0.33229765
181	0xbf843827	-1.0329636
182	0xbde764e1	-0.11298538
183	0x3f4b3d2e	0.7939023
184	0xbf717d6e	-0.94332016
185	0xbbfa8016	-0.0076446636
186	0x3f1918c8	0.5980344
187	0xbacacb9a	-0.0015472055
188	0xbdd224b3	-0.10260906
189	0x3d915bac	0.07097563
190	0x3d255b95	0.040370543
191	0xbf841327	-1.0318345
192	0xbc0a960b	-0.008458625
193	0xbc8fb662	-0.017543022
194	0xbe5bfdaa	-0.21483484
195	0x3e9af61f	0.302659
196	0xbba967f8	-0.0051698647
197	0xbd2501d7	-0.040284958
198	0x3d25a1dd	0.040437568
199	0x3eb49935	0.35273138
200	0x3f03e342	0.5151864
201	0x3e87825c	0.26466644
202	0xbb29b038	-0.0025892388
203	0x3c8006cc	0.015628241
204	0xbea69991	-0.32539037
205	0xbed6264c	-0.41826093
206	0x3e2da060	0.1695571
207	0xbeef1366	-0.46694487
208	0x3e87d7d9	0.26531866
209	0x3cae270a	0.02125885
210	0xbf90fdae	-1.1327417
211	0x3f7984d2	0.9746829
212	0xbc0927c0	-0.008371294
213	0x3ee28538	0.44242263
214	0xbf32406b	-0.69629544
215	0x3e8cf153	0.27527866
216	0xbe713e8b	-0.23559014
217	0x3f3340c7	0.7002072
218	0xbbdaf547	-0.0066820714
219	0xbf76d58f	-0.96419615
220	0xbe53efa5	-0.20696886
221	0xbe4ebf8f	-0.20190261
222	0xbe76b56f	-0.24092649
223	0xbec1eb6b	-0.37874922
224	0xbdb6a14f	-0.08917486
225	0xbf3af7b6	-0.73034227
226	0xbe61958b	-0.22029702
227	0xbc8eae4f	-0.017417101
228	0xbeb126db	-0.34599957
229	0xbf3cb701	-0.7371674
230	0xbed0964a	-0.4073966
231	0x3e933ab0	0.28755713
232	0xbfa8ba5f	-1.3181876
233	0xbf26a32d	-0.65092736
234	0xc004971b	-2.0717227
235	0x3d29485d	0.041328777
236	0x3be56d21	0.0070015346
237	0xbf8def99	-1.1088744
238	0xbf51ba15	-0.81924564
239	0xbcb94023	-0.02261359
240	0x3e3f68e3	0.18692355
241	0xbe7831ee	-0.24237797
242	0x3eeebe0c	0.4662937
243	0xbe9594b1	-0.29215005
244	0x3e852aaa	0.26009113
245	0xbd3df4b9	-0.046375964
246	0x3e1617b4	0.1465748
247	0x3f2d5d43	0.6772043
248	0x3cfacc76	0.030615073
249	0x3f1670d8	0.58765936
250	0x3ec5eff3	0.3865963
251	0x3c205acc	0.009787273
252	0xbef2b935	-0.47406927
253	0x3d882619	0.066478916
254	0x3e895782	0.26824576
255	0xbd0845ed	-0.03326981

l2.bias f4 [256]
0	0xbc81b6f2	-0.015834305
1	0xbd451635	-0.04811688
2	0xbe1f7cd6	-0.15574965
3	0xbd568889	-0.052376304
4	0xbeadc0b6	-0.3393609
5	0xbbd1b71e	-0.006400003
6	0xbd4ede7f	-0.050505158
7	0xbe15add2	-0.14617088
8	0x3db74754	0.08949152
9	0x3bffcfed	0.007806769
10	0xbd20de92	-0.03927476
11	0x3d510260	0.051027656
12	0xbd813886	-0.06309609
13	0x3c2f1370	0.010685787
14	0xbcd76d2d	-0.026297176
15	0xbc53a226	-0.012917077
16	0xbd2b0ea7	-0.04176202
17	0xbed0094b	-0.4063209
18	0xbcc6ea9d	-0.024281794
19	0xbe614a74	-0.22001058
20	0xbd0f98f9	-0.035057995
21	0xbd35a588	-0.044347316
22	0xbebcf536	-0.3690583
23	0xbc82f328	-0.015985087
24	0x3ced21eb	0.028946837
25	0xba148c34	-0.0005666644
26	0xbe023a50	-0.12717557
27	0xbd70dfb3	-0.058807086
28	0x3db141bd	0.08655117
29	0xbe3f0885	-0.18655594
30	0xba919f55	-0.0011110107
31	0x3d8d828b	0.06909665
32	0xbc9c5355	-0.019082705
33	0xbd163760	-0.036673903
34	0xbd01f4d5	-0.03172763
35	0x3e83354d	0.25626603
36	0xbd35aaa6	-0.044352196
37	0xbcee17f4	-0.029064156
38	0xbd55d95c	-0.052209243
39	0xbe955f66	-0.29174346
40	0xbd85b7b7	-0.065291815
41	0x3d83f1fe	0.06442641
42	0xbc7c3bd0	-0.01539512
43	0xbe5df76a	-0.21676412
44	0xbe86cfba	-0.26330358
45	0x3ba423a0	0.0050091296
46	0xbe932f13	-0.28746852
47	0xbdbe1aad	-0.09282432
48	0xbe5fc601	-0.21852876
49	0x3eab663c	0.33476436
50	0x3edfb08e	0.43689388
51	0xbd80acbd	-0.06282947
52	0xbd57b9b3	-0.05266733
53	0x3d2aa08e	0.041657023
54	0xbcce8358	-0.025209114
55	0xbe164a90	-0.14676881
56	0x3e0c63f1	0.1371
57	0xbda09330	-0.07840574
58	0xbc705cc9	-0.014670559
59	0xbca65d32	-0.02030811
60	0xbf05c736	-0.52257097
61	0x3e041019	0.12896766
62	0x3e3ae264	0.18250424
63	0xbd2002ac	-0.039065048
64	0x3e5d782b	0.21627872
65	0xbb17d8a6	-0.0023169904
66	0xbd6048a5	-0.05475678
67	0xbd32ce82	-0.043653972
68	0xbd21af27	-0.03947368
69	0x3c635ad9	0.01387664
70	0xbd8424d6	-0.064523384
71	0x3c4dbd4d	0.01255734
72	0xbe532c2a	-0.20622316
73	0x3e90e494	0.2829939
74	0x3e3dc3c3	0.18531708
75	0xbcc21195	-0.023690024
76	0x3e3efb3c	0.18650526
77	0x3e05cd12	0.1306651
78	0x3d5c17f1	0.05373377
79	0x3e3fc33b	0.18726818
80	0xbe0345cc	-0.12819594
81	0xbc4f23c5	-0.012642805
82	0xbf096884	-0.53675103
83	0xbc5402a3	-0.012940082
84	0xbcb6eb38	-0.022328958
85	0xbc97ef6e	-0.018546786
86	0xbd216360	-0.039401412
87	0x3c371479	0.011174315
88	0xbd278742	-0.040900476
89	0xbb9ec0b8	-0.004844751
90	0xbd85cb20	-0.06532884
91	0xbd99ca88	-0.07509333
92	0xbd8a49b8	-0.06752342
93	0xbd5ef708	-0.054434806
94	0x3f0460ea	0.5171038
95	0xbd4b08ef	-0.049569067
96	0xbd884f8a	-0.06655796
97	0xbd513df8	-0.05108449
98	0x3b281409	0.0025646708
99	0x3e487ce0	0.19578886
100	0xbb56e635	-0.0032791023
101	0x3c5ba239	0.013405376
102	0xbd873d3d	-0.06603477
103	0xbcf934c1	-0.030420663
104	0x3d51eb79	0.051249955
105	0xbce561c5	-0.028000722
106	0xbd4cb8cf	-0.049980935
107	0xbd2bf3ba	-0.041980483
108	0xbe9eeb77	-0.3103902
109	0xbd412aff	-0.047160145
110	0xbd727b58	-0.05919966
111	0xbcccadbf	-0.024985192
112	0x3e8aafae	0.27087158
113	0xbd2b72ae	-0.041857414
114	0xbd79aac6	-0.060953878
115	0x3d3ef44d	0.046619702
116	0xbc9efa67	-0.01940651
117	0x3d9d3eb4	0.07677975
118	0xbe8b9d58	-0.2726848
119	0x3af56919	0.0018723338
120	0xbe9c953e	-0.30582613
121	0xbc08caac	-0.008349102
122	0xbd8ba47a	-0.06818481
123	0xbdef93ad	-0.11698089
124	0xbe496b21	-0.19669773
125	0xbc1c1e0a	-0.009528646
126	0xbc32b5fc	-0.010907646
127	0xbd5a5767	-0.05330601
128	0xbe7ad0e4	-0.24493748
129	0xbcd8d2b2	-0.026467655
130	0x3da5911f	0.0808432
131	0xbd2f7487	-0.04283574
132	0xbe7c3fe3	-0.24633746
133	0xbe8b7a29	-0.27241638
134	0xbd77458d	-0.060369063
135	0xbea3e1dd	-0.32008258
136	0xbe2b928a	-0.16755119
137	0xbde850a2	-0.113435045
138	0xbbcaaaa8	-0.0061848946
139	0x3b7a9b2e	0.0038239467
140	0x3d12bdf5	0.03582569
141	0x39a55ba4	0.0003153953
142	0xbe682f21	-0.22674228
143	0x3e20c02c	0.15698308
144	0xbd238268	-0.039919287
145	0x3bb5470f	0.0055321525
146	0xbeee75e2	-0.46574312
147	0x3e64c3d3	0.22340326
148	0xbd2822f6	-0.041048966
149	0xbdbc83f4	-0.092048556
150	0xbe0fcb9c	-0.14042515
151	0xbe0a26c5	-0.13491352
152	0xbd7e9c4e	-0.062160783
153	0xbd9d6fb5	-0.07687322
154	0x3cb0c8cd	0.021580124
155	0x3b88acc6	0.004170987
156	0xbe6e03f3	-0.23243694
157	0x3c16306c	0.009166818
158	0xbdafd1d0	-0.085849404
159	0x3dcb802f	0.099365585
160	0xbdf664b9	-0.1203093
161	0x3e4f156e	0.20223019
162	0xbd100fbb	-0.03517125
163	0xbd5cb854	-0.053886726
164	0xbd0becc1	-0.034161333
165	0xbd8b8615	-0.068126835
166	0xbee87d86	-0.45408267
167	0xbd465e93	-0.048430037
168	0xbd37445d	-0.04474293
169	0xbd3f5a17	-0.046716776
170	0x3e53bc11	0.2067721
171	0x3c229d9c	0.009925272
172	0xbe593215	-0.21210511
173	0x3ce08b9e	0.027410325
174	0x3e558099	0.20849837
175	0xbd29a04e	-0.041412644
176	0xbcdfb777	-0.027309163
177	0xbc000bfb	-0.007815356
178	0x3b9f6bbf	0.0048651393
179	0xbe0808ac	-0.13284558
180	0xbe29fc48	-0.16600144
181	0xbd80ad27	-0.06283026
182	0xbdcc75bb	-0.09983393
183	0xbddf2487	-0.10895639
184	0xbdb2bd9d	-0.08727572
185	0x3d41ab6a	0.047282614
186	0x3cb1e045	0.021713385
187	0xbe23edf1	-0.16008736
188	0xbdddc206	-0.10828023
189	0xbd30febf	-0.043211695
190	0xbcdc3b78	-0.026883826
191	0xbc81fff5	-0.01586912
192	0xbbd36113	-0.006450781
193	0xbd65f509	-0.056141887
194	0x3dd40777	0.10352986
195	0xbc9745b4	-0.018465854
196	0xbc7673f1	-0.015042291
197	0xbd1c94d8	-0.038227886
198	0xbd167845	-0.03673579
199	0x3d4be3e5	0.049777884
200	0xbc009991	-0.007849113
201	0x3db9de10	0.09075558
202	0x3d167123	0.03672899
203	0xbc5b3428	-0.013379134
204	0xbd545574	-0.051839307
205	0x3cbd0b3d	0.023076648
206	0xbc3fc2e3	-0.011704179
207	0xbcd7cf8e	-0.026344087
208	0x3c0b3ce0	0.0084984
209	0xbd6067ae	-0.054786377
210	0xbea7e216	-0.32789677
211	0xbed56ce1	-0.4168463
212	0xbd45cbc4	-0.04829003
213	0xbe98615d	-0.29761782
214	0xbdba16ad	-0.09086356
215	0xbdebffd2	-0.11523403
216	0xbd72f613	-0.059316706
217	0xbe093bbf	-0.13401698
218	0xbd9255aa	-0.071452454
219	0x3ddcdeb3	0.10784664
220	0xbdeec31f	-0.1165831
221	0xbcd12183	-0.025528675
222	0xbb8038dc	-0.003913028
223	0xbd5641fe	-0.05230903
224	0x3e44349a	0.19160691
225	0xbc86a9c9	-0.016438382
226	0xbe9d0784	-0.30669796
227	0xbc996b6c	-0.01872798
228	0xbb9a0618	-0.0047004335
229	0xbce70a0e	-0.028203037
230	0xbc8fc884	-0.017551668
231	0xbd5d3831	-0.054008666
232	0xbd2789e2	-0.04090298
233	0xbd307f65	-0.043090243
234	0x3ba14ba1	0.0049223457
235	0x3c25fc0e	0.010130895
236	0xbdfdf06e	-0.12399374
237	0x3d95cd73	0.07314577
238	0xbd4e5871	-0.050377313
239	0xbd7f7809	-0.062370334
240	0xbe0494ff	-0.12947462
241	0xbd025365	-0.031817812
242	0xbe59ffcd	-0.21288987
243	0xbe69d044	-0.22833353
244	0xbe82182f	-0.25409076
245	0x3d9b2976	0.075762674
246	0xbb6e8793	-0.0036396727
247	0x3e84bf4c	0.25927198
248	0xbe61fa8d	-0.22068234
249	0xbea3c7bf	-0.31988332
250	0xbe1ea3c1	-0.15492155
251	0xbed2874f	-0.41118857
252	0xbe748adc	-0.23881096
253	0xbd4e25e5	-0.050329108
254	0xbd1bc59b	-0.038030248
255	0x3d5ae5d0	0.053441823

l3.weight f4 [3, 256]
0	0x3d21a274	0.039461568
1	0xbd2d14d9	-0.04225621
2	0x3f7c896f	0.9864721
3	0x3d62ce9b	0.055372816
4	0xc075c145	-3.8399212
5	0x3d1535d0	0.036428273
6	0x3d4e4a70	0.050363958
7	0x402e8fa9	2.7275183
8	0xbf532114	-0.8247235
9	0xbcbb4e29	-0.022864418
10	0x3d19ab3e	0.037516825
11	0xbef2ac32	-0.47397
12	0x3bc5f4b4	0.006041134
13	0xbcb81229	-0.022469597
14	0x3c254224	0.01008657
15	0xbff952fb	-1.9478449
16	0x3f94948a	1.160783
17	0xbfa79f8c	-1.3095565
18	0x3cc9dde2	0.024641935
19	0xc00d2ceb	-2.2058666
20	0xbedce0c0	-0.4314022
21	0xbab10e8b	-0.0013508362
22	0x3e34bcb8	0.17650115
23	0x3c92f75e	0.01794022
24	0x3f7d5abc	0.98966575
25	0xbd84b4ca	-0.06479795
26	0x3ea964aa	0.33084613
27	0x3ca3743f	0.019952891
28	0xbf442631	-0.76620775
29	0x3f682c33	0.9069244
30	0x3d121d19	0.03567228
31	0x3fa9e1d0	1.3272038
32	0x3bb40651	0.005493917
33	0x3c3ddc78	0.011588208
34	0xbca4660e	-0.020068195
35	0x3ed50785	0.416073
36	0xbd4478b5	-0.047966678
37	0x3da3870e	0.07984744
38	0x3d493106	0.049119018
39	0xbc51d03d	-0.0128059955
40	0x3d181777	0.037131753
41	0xbe4194d5	-0.18904431
42	0xba856f50	-0.0010180268
43	0x3e9e6051	0.3093286
44	0x3f1858a9	0.59510285
45	0xbcee347b	-0.029077759
46	0xbfeb812a	-1.8398793
47	0xbfb0db32	-1.3816893
48	0xbea1e3f7	-0.31619236
49	0x3f04411d	0.51661855
50	0x3eda8e60	0.42686749
51	0xbf636592	-0.8882686
52	0x3d1c8a9f	0.038218137
53	0xbf312a70	-0.6920538
54	0xbc3b62c1	-0.011437119
55	0x406543eb	3.5822704
56	0x3f246b65	0.6422637
57	0xbe7bb884	-0.24582106
58	0xbc00b2f8	-0.0078551695
59	0x3c3e21a2	0.011604698
60	0x3e5036bb	0.20333378
61	0x3fc5cff3	1.5454086
62	0x3f37f228	0.71853876
63	0x3d74ac60	0.059734702
64	0x3f4967a9	0.786738
65	0xbf70d52d	-0.9407528
66	0x3c8a434b	0.01687779
67	0x3ce99e27	0.028517796
68	0xbb7bf558	-0.0038445797
69	0x3c0ec1c8	0.008713193
70	0x3d8cf6bc	0.06882998
71	0xbb9f90fd	-0.004869579
72	0x40106a2a	2.2564797
73	0xbf213a6e	-0.6297978
74	0x3f2510bf	0.6447868
75	0x3c48b1eb	0.01224945
76	0xbd0e4997	-0.03473815
77	0xbfc408c5	-1.5315176
78	0xbec51b78	-0.3849752
79	0x3e516520	0.20448732
80	0xbf43ff1f	-0.7656116
81	0xbcf028b0	-0.029316276
82	0x3fc71041	1.5551835
83	0xbe999102	-0.29993445
84	0xbca1f6b5	-0.01977096
85	0x3b09ab6f	0.0021006723
86	0x3d77b7ce	0.060478024
87	0xbfbbcc7c	-1.4671779
88	0xbd827b90	-0.06371224
89	0x3c94af52	0.018150005
90	0x3d46180d	0.04836278
91	0x3cf107ba	0.02942263
92	0xbea1b368	-0.3158219
93	0x3d7776fd	0.06041621
94	0x3fc5828d	1.5430466
95	0x3c8297ea	0.015941579
96	0x3d2f2f46	0.042769693
97	0xc01e5366	-2.4738402
98	0xbc034249	-0.008011409
99	0xbfe06a75	-1.7532488
100	0x3d0e7393	0.03477819
101	0xbcf6cc20	-0.030126631
102	0x402e3a40	2.7223053
103	0xbd395566	-0.045247458
104	0x3f2335c5	0.6375392
105	0x3ca1ba95	0.01974229
106	0x3d11dd2c	0.035611317
107	0xbaa25724	-0.0012385589
108	0xc044087a	-3.0630174
109	0xbbaf99fe	-0.0053589335
110	0x3d74ef29	0.059798393
111	0x39dd3778	0.00042193732
112	0xbfdb8dce	-1.715265
113	0xbd823106	-0.06357007
114	0xbce98516	-0.028505843
115	0xc051cf71	-3.2782862
116	0xbc19446f	-0.009354695
117	0xbecc63db	-0.39919934
118	0xbd113553	-0.035451245
119	0xbcecd9c3	-0.02891243
120	0xbf9cf7b6	-1.2263095
121	0xbf6da2e0	-0.9282665
122	0xbcc4e59f	-0.024035273
123	0xc039a334	-2.9005861
124	0xbdf78f4a	-0.12087877
125	0x3c4cc9ca	0.012499282
126	0xbca77551	-0.020441683
127	0xbd3dbd84	-0.046323314
128	0xbefab8ff	-0.48969266
129	0xbcf70c72	-0.030157302
130	0xbeff6e84	-0.49889004
131	0x3bb60bed	0.005555621
132	0xbff8638b	-1.9405378
133	0x3f16cbe6	0.58904874
134	0xbea32d0b	-0.31870303
135	0xbe721dac	-0.23644131
136	0x3f8a3587	1.0797585
137	0xbf86403b	-1.0488352
138	0x3c176627	0.009240664
139	0xbd94cfd4	-0.072662026
140	0xbebb9f70	-0.3664508
141	0x3c49f851	0.01232727
142	0x3fb9128d	1.4458786
143	0x3f939353	1.1529335
144	0x3d2552c5	0.04036214
145	0x3cccc8d3	0.024998104
146	0x3ff36bae	1.9017236
147	0xc00e796d	-2.2261612
148	0xbf007d2e	-0.5019101
149	0xbfb4d60c	-1.4127822
150	0x3f09f8bb	0.5389516
151	0x3f049a18	0.5179763
152	0xbcbe47c3	-0.023227578
153	0x4010c8d4	2.2622576
154	0xbfeea7a8	-1.8644915
155	0x3c9ea283	0.019364601
156	0x3f728715	0.9473737
157	0xbc9d8029	-0.01922615
158	0xbfd41796	-1.6569698
159	0xbf27108d	-0.6525963
160	0x3f06803f	0.5253944
161	0xbda23733	-0.07920685
162	0x3d2316e8	0.039816767
163	0x3ccb4766	0.024814319
164	0x3c576fb9	0.013149195
165	0xbc84fdff	-0.016234396
166	0x3f5a6f1f	0.8532581
167	0x3a518884	0.00079930597
168	0xbd220700	-0.039557457
169	0xbcea8455	-0.028627554
170	0x3fbb52b4	1.4634614
171	0xbf44024e	-0.76566017
172	0x3dea54de	0.114419684
173	0xbe7040ac	-0.2346217
174	0x3f99a210	1.2002583
175	0x3c7fe491	0.015618459
176	0xbfa0cdc0	-1.256279
177	0x3cdcec77	0.026968224
178	0xba9d336c	-0.0011993474
179	0x3fa2933b	1.2701181
180	0xbf0a3043	-0.5397989
181	0xbc381a21	-0.011236698
182	0x3ec9bf67	0.3940384
183	0x3f02e7cc	0.51134944
184	0x3fdb8181	1.7148896
185	0x401236e6	2.2846007
186	0x401416ae	2.3138843
187	0x3e5dc173	0.21655826
188	0xbf9c533c	-1.2212901
189	0x3bdf6d3e	0.0068184426
190	0xbc88ef3b	-0.016715636
191	0x3cc1b780	0.02364707
192	0x3d1c4aea	0.03815738
193	0xbc477c81	-0.01217568
194	0x3f83b678	1.029006
195	0xbca4aeec	-0.02010294
196	0xbc84b172	-0.016197894
197	0x3d0e23dd	0.03470217
198	0x3ec9db02	0.39424902
199	0xbfa056ef	-1.252653
200	0xbf3d5a88	-0.73966265
201	0x3fd3eab2	1.6555998
202	0xbf830085	-1.0234534
203	0x3d380eb3	0.044935893
204	0xbc08f4dd	-0.008359161
205	0xc005b722	-2.0893025
206	0xbd326d48	-0.04356125
207	0xbd3132b9	-0.043261264
208	0x3f8502bd	1.0391461
209	0x4025eb00	2.5924683
210	0x3f943fc8	1.1581964
211	0xc069de5d	-3.654197
212	0x3dcf18ee	0.10112177
213	0xbf9c51a0	-1.221241
214	0xbecd44b3	-0.40091476
215	0xbec51958	-0.38495898
216	0x3c802615	0.015643159
217	0x3f30e9c0	0.69106674
218	0xbc63c80d	-0.013902676
219	0x3e66ff51	0.22558333
220	0xbe10d70b	-0.14144532
221	0xbd2a71a3	-0.04161228
222	0xbc2bfe76	-0.01049768
223	0xb9be7826	-0.00036329142
224	0x3fe8077a	1.8127282
225	0x3d095ad3	0.033533882
226	0xbf8c34b3	-1.0953583
227	0xbc2adf8e	-0.010429276
228	0xbd0cdfe6	-0.034393214
229	0x3f9e0247	1.2344445
230	0xbbef548a	-0.007303779
231	0x3c8bbd2d	0.01705798
232	0x3bb91ada	0.005648953
233	0xbc8ac516	-0.016939681
234	0x3d76f1a4	0.06028904
235	0xbcdb3f84	-0.026763685
236	0x3f83fa35	1.0310732
237	0xbe4e3c23	-0.20140128
238	0xbc3ad8bd	-0.0114042135
239	0xbd6de67c	-0.058081135
240	0x3da22c8c	0.07918653
241	0x3d5f89f3	0.054574918
242	0xc0487fed	-3.132808
243	0x3f507e05	0.8144229
244	0x3f41da6f	0.7572393
245	0xbf7aeaaa	-0.9801432
246	0xbcd8c8d0	-0.026462942
247	0x3f834228	1.0254564
248	0xbf19ab62	-0.60027134
249	0x4010525e	2.2550273
250	0x3e8dc734	0.27691042
251	0xbfb01db0	-1.375906
252	0xc0362e9d	-2.846595
253	0xbb1d71ab	-0.002402405
254	0xbcc562ac	-0.024094902
255	0x3f2d3bbb	0.67669266

l3.bias f4 [3]
0	0x3d8b47a2	0.06800772
1	0x3d56c662	0.052435286
2	0xbc6a1aa9	-0.014288583
